Results_dir/2022-03-16-20-29-27/actor.pth (torch, 274391 bytes, 6 tensors)

layers.0.weight f4 [256, 6]
00000000: b7f0 cc3d 32e6 d4bd 3ed0 dc3e d60f 0c39
00000010: 89c9 e53c cf06 c63c 90d7 04be 38c0 6ebd
00000020: 316e f73c 4340 bdbd 5027 9d3b d41d cbbd
00000030: 2dee c6bd 9cb1 07be 1c37 d3bb b74a bcbd
00000040: 1deb e53d 287a 0fbe dde6 2cbd 1899 62bd
00000050: 3cce 683e 84d2 e1bc 4197 e03d b363 133d
00000060: 8601 b0bc 02fb f8bd 7200 9abc c4a7 55bd
00000070: a143 243e 9003 14be 4295 abbd e099 0d3e
00000080: f64d 10be 3c49 89bd 6f15 853d 5e92 2cbd
00000090: 7573 a9bb 2f02 15bd 70b8 ab3d ec71 49bd
000000a0: bc3f 17bc 72a2 353d bfb6 723e 2d30 42be
000000b0: 25f9 e03e a78c 7abd 7762 b53d 249e 843b
000000c0: d63d 2d3e d2ee 3bbe adf7 b73e 52d1 6ebb
000000d0: 8513 32bb f865 593d 5800 7dbe abbe bb3c
000000e0: a6f7 08be b42b fa3d da75 ec3a 55d4 24be
000000f0: abf8 703d 0444 d4bd ad60 cd3e e945 353d
00000100: 399d a03d 8335 b53d 0afe 06be f219 103e
00000110: 1dc9 e73d 4138 e73d 444a 023e 5a7c d6bd
00000120: f44e 073e 714c e5bd 492e 033e 155a b63d
00000130: bf81 d7bd fed2 003e 2929 803d 1828 aebe
00000140: fd7f 803e bc69 d8bc 7c7f 11bd aa3a d73c
00000150: aa17 523d e03b 043e 3d10 57bd d37a 9f3c
00000160: 761a e4bd bc5f 043e 1458 8dbd 5b63 d73d
00000170: 3254 3a3d e597 e3bd 5223 b73d ddba 71bd
00000180: e42f 65bd b1d7 03be d9ed 2a3e 55c8 983d
00000190: bed1 053d 4d38 54bd 182d 963d e0e4 eabd
000001a0: 3a07 65bd 2085 f7bd 52d7 093d d6d6 e33d
000001b0: becd 26be 51ea ba3c bcb3 d4bd cd3e 0abe
000001c0: 65b3 4abc e9b0 6cbd 87c0 debc 0807 63be
000001d0: f0d3 df3d 5bb0 c03c 3b4d 113e cb93 443d
000001e0: b85f 7a3d b2e5 493e 3556 7dbc 5d9a 99bc
000001f0: e640 02be 003f f33d d21e 523e 2fac e33d
00000200: 5e7a 85bc eb89 58bd e040 a63d a96c 113d
00000210: ea14 a13d 8671 1d3e d889 debe 973d 13bb
00000220: 9175 5aba 6b91 55bd d971 73bc 4ea9 ccbd
00000230: 8811 11bc e61a 00be df40 08bd 8704 2dbe
00000240: 8eb3 9abd 6578 203e 69ff b0be f8e2 f73d
00000250: b30d 28bd b881 4fbe 47f7 55bd 8bdb 56bd
00000260: d8a4 983d 4f70 973c 6681 ecbd c8db 16bc
00000270: 8dfe 253e 1840 723e d20d f4be 9f6a c23c
00000280: f5c2 043e 126e 17be c909 01be a375 413e
00000290: bb98 b5bd ef97 bb3d 94c2 1abd 8c4a 143e
000002a0: e4c4 90bd 96c9 073e 85f9 27bd 4810 afbd
000002b0: 9c6a 753d cc91 afbc 52d0 93bc 58e9 edbd
000002c0: 718e 453e 0842 c13d 231e c1bc 6f71 a43d
000002d0: 7553 04be 60ca 1c3d b465 6cbe 7efd 933d
000002e0: 624a 7c3d 7e48 37bd fa09 4fbe 0880 4bbe
000002f0: 741f 71bd c215 363d 1e82 e03d 96e4 b93c
00000300: 7eb2 d3bd 4643 2dbe e712 053c 4817 0c3e
00000310: b019 9d3d 2781 07bc fe12 e3bd c5c9 dc3c
00000320: 868e 8dbd b6e7 d53c 0e0d 07be 205a 063e
00000330: 3900 c3bd 710a 913e 13ca 07bc 4e22 5a3b
00000340: baa3 7b3d e647 b0bd 614e f53d cc73 003e
00000350: 4700 91bd fee4 823d c89d 543d 8281 163e
00000360: ab17 3e3e 5e5d 0e3d b684 083d dc89 c5bd
00000370: 3531 adbd 24a9 c93d 1619 e33c 1863 4c3e
00000380: 2429 dcbe 8a24 4d3c 9e1f ea3b b389 f2bd
00000390: c76f 28be 59cb 82bd 3ec0 903e 45d6 653d
000003a0: 1ef8 a53d bbc3 a93b 28f5 25bd f366 2b3d
000003b0: ce9b 14be 64c7 c43d d929 95bd c9b4 153e
000003c0: 2f3c bc3d 4014 8a3c 48a4 77be bb9a 233d
000003d0: 995d 71bc 2ad3 af3d 60d0 c73c 3def 553e
000003e0: d28f 31bd 41bf 53bd 342b 17bd 2c08 20be
000003f0: 2ef9 1b3e 278a c2bd f232 a9bd c416 82bc
0.1000685 -0.10395469 0.43127626 0.0001335734 0.028050201 0.024173168 -0.12972856 -0.058288783
0.03020391 -0.092407726 0.004795946 -0.09917799 -0.09713397 -0.13251346 -0.0064457785 -0.09193938
0.11226485 -0.14011443 -0.042212356 -0.055321783 0.22734922 -0.027566202 0.109663494 0.035983752
-0.021485101 -0.12157251 -0.01879904 -0.052161947 0.16041423 -0.14454484 -0.08378078 0.1382823
-0.1409224 -0.067034215 0.06498229 -0.042131774 -0.0051712343 -0.036379036 0.08384788 -0.04918091
-0.009231504 0.044344373 0.23702525 -0.1896369 0.43940082 -0.061169293 0.08856671 0.004047172
0.1691812 -0.18352821 0.3593115 -0.0036440683 -0.002717228 0.05307576 -0.24707162 0.022918066
-0.1337572 0.12215367 0.0018040494 -0.16096623 0.0588309 -0.103645355 0.4011282 0.044256125
0.07842488 0.08848097 -0.13182846 0.14072397 0.11317656 0.112900265 0.12723643 -0.10472937
0.13213712 -0.11196221 0.12810625 0.089039005 -0.10522794 0.12580487 0.06257851 -0.34014964
0.25097647 -0.026417606 -0.03552197 0.02627309 0.0512921 0.12913465 -0.05250572 0.019467747
-0.111378595 0.12927145 -0.06901565 0.105169974 0.04549045 -0.11112956 0.08942284 -0.059016097
-0.055953875 -0.12875248 0.16692294 0.07460085 0.03267073 -0.051811505 0.0733282 -0.11469436
-0.055915095 -0.120859385 0.03365261 0.11124961 -0.16289422 0.022816809 -0.10385844 -0.13500519
-0.012371873 -0.057785902 -0.027191414 -0.22170651 0.10929096 0.023521593 0.14189617 0.04799251
0.06112644 0.19716528 -0.015462448 -0.018750364 -0.1272007 0.11877251 0.2051957 0.11116826
-0.0162937 -0.052865904 0.08117843 0.035504017 0.07865317 0.15375337 -0.4346454 -0.002246713
-0.0008333559 -0.052140635 -0.014858686 -0.0999323 -0.008854277 -0.12510261 -0.03326499 -0.16896258
-0.075537786 0.15670927 -0.34569862 0.12103838 -0.04102869 -0.20264328 -0.052237775 -0.052455466
0.074533165 0.01848617 -0.11548118 -0.009207673 0.16210385 0.23657262 -0.47666794 0.023732482
0.12964995 -0.14788082 -0.12601389 0.18892531 -0.08867022 0.091598384 -0.03778322 0.14481562
-0.07068804 0.13260493 -0.041009445 -0.08548027 0.059916124 -0.021431826 -0.01804367 -0.116167724
0.19292618 0.094364226 -0.02357394 0.08029448 -0.12922461 0.038278937 -0.23085672 0.07226084
0.061594374 -0.04474687 -0.2021865 -0.19873059 -0.058867887 0.044454344 0.10962318 0.022692006
-0.10336779 -0.16920194 0.008122182 0.13680756 0.07670915 -0.008270538 -0.11087607 0.02695168
-0.0691195 0.026111465 -0.13188574 0.13120317 -0.09521527 0.2832828 -0.008287924 0.0033284607
0.06143544 -0.086074635 0.1197784 0.12544173 -0.07080131 0.06391333 0.051908284 0.14697841
0.18563716 0.03475701 0.033329688 -0.09645435 -0.08456651 0.09846714 0.027721923 0.19959676
-0.43000138 0.012520919 0.0071448823 -0.1184267 -0.1644889 -0.06386442 0.2827167 0.056112546
0.08103965 0.0051808036 -0.040517002 0.041846227 -0.1451256 0.09608343 -0.072833724 0.14619745
0.091911666 0.01685536 -0.24183762 0.039942484 -0.014731788 0.08585198 0.024391353 0.20892043
-0.04335005 -0.051696066 -0.036906436 -0.15628117 0.15231773 -0.09499007 -0.0826167 -0.015879996

layers.0.bias f4 [256]
00000000: 90a7 debc b9ce bebc dca0 7d3d 8165 2b3c
00000010: 39fd 82bc 8a21 f9bc 3f5d 803d 8129 a0bc
00000020: 627a 3bbd d4d8 883c 8b8d 3dbb 560b 42bd
00000030: 0093 c3bc a93d f43c 4395 45bd a778 8c3c
00000040: 5bfb 033a b5e0 883d 473d 04bd 0581 d3bb
00000050: 2eea bdbc ef33 00bc eddb 763b fc29 773d
00000060: dfba 48bd 2242 b13d 2a5c 6dbd 74c5 46bd
00000070: 9c68 4e3d 4edb ffbc 7b2a dabc b234 bc3d
00000080: aeb0 0b3d 8e12 0a3c 15e3 ae3d a6fb 49bb
00000090: 061c 333d 4922 e4bc 73fb 713d b806 07bd
000000a0: ad0d a9bc c0ff 9f3c 0ff8 b0bd 8691 ecb9
000000b0: c98b 2abd af11 d8bc 66b4 3ebd 21a9 033c
000000c0: af63 a5bd cefd 22bd a9bc 1c3d 3946 3fbc
000000d0: d067 20bc 6288 9fbb 94e4 6d3d 33d2 d5bc
000000e0: 21e4 6e3b 4aa1 c2bd e28f 033d ec51 85bc
000000f0: ab58 8fbd 2f38 cd3c 4437 853c c40c dabc
00000100: fbed a93d a3b8 b93c d810 033d 45f3 883d
00000110: 1d63 21bd 67f5 acbd a687 4cbd 4cda 0abd
00000120: 6d64 203c 20c2 933d 2239 82bd 377f 2abc
00000130: 9812 3ebd a328 79bd 04e8 293d a175 85bd
00000140: 6f8e 5c3c 8f43 423d b6de 393d bef7 08bd
00000150: 6272 1ebd 8490 143d 7623 243d 6c9f 57bd
00000160: 3fdc 10bd 5551 45bd a0c0 4bbc 9363 66bc
00000170: cce9 e53c e50f be3b e727 1bbd 6c9a 99bc
00000180: 0d73 60bd e4c6 0abc 1ed7 973d 8b29 463c
00000190: 416d 49bd df15 673d 5e91 23bb 421b 1abd
000001a0: 5c4c 3bbd 2479 503d 8b76 4e3d 7192 7b3d
000001b0: 054e d03b 0670 a13d 558e ca3c f296 b03c
000001c0: 3c14 d9bb be3d 873c 0480 773c f4f2 253c
000001d0: d21b 123c 48cf 85bd fabe 983b fca6 f3bc
000001e0: 5e1c 4a3c 8d2c 283d ce0a 4e3c 84bd 5c3b
000001f0: 4921 c8bd 0b10 a83b 339a 283d 02a9 ee3c
00000200: 7995 43bd e754 87bc d3dc 033c a0a2 c1bb
00000210: ed1a 49bd 5c53 583b b5e1 81bd 55b8 ad3d
00000220: 57b0 d83d 3ee5 9a3d db01 e9bb 8811 b8bc
00000230: 3cf2 b43c a798 e13c c05a d23d b5cc 8bbc
00000240: adf2 06bc d8ee 9cbc dcc7 a93c 0a93 ac3b
00000250: 8205 293d 0fa0 73bd 3b64 24bb 54a7 903d
00000260: 1a1b fabc eec2 933d e327 303d a037 8c3d
00000270: 0de8 47bd e7c0 8cbc 728d 24bd 205d 073e
00000280: 31ee 823b f89b 86bd fd85 c43d 03dd 1d3d
00000290: aa13 44bc f0aa 86bc 539b 3ebc ddfd 393d
000002a0: fb65 f73b 7c42 34bc d548 353c d178 423c
000002b0: f421 32bd 8441 823c 0037 f8bc ff72 fb3c
000002c0: 14ba 93bd 496f 7cbc 7364 bc3c 24ab 2ebd
000002d0: 35fd 683c 2aaa 843d 9293 543d 9290 463d
000002e0: 7826 1cbc 815b 543d 2ced 173d 2abc 2f3c
000002f0: be7f c33c 24bd 683d 6f34 153c 0126 0ebd
00000300: c8b8 ac3d 6a35 e93c c6c9 37bd f95e a03c
00000310: d8b5 20bd e7a1 16bd 125f 413d 5a29 6f3c
00000320: 7428 133d 8686 a43d 57bc 0dbc 96e9 233d
00000330: 9bb4 ddbc 0699 263d ea48 c73c 0eaf bfbc
00000340: da84 9dbc 488a 603c 3b6e 5a3d a292 e73c
00000350: 75e1 603b 2a83 2bbd badc 6d3d 4685 ef3c
00000360: 3759 523d a85e 413d dad2 083d 01fd ed3c
00000370: 3948 193d 53cc 0cbd dac4 a6bc b8b2 ed3d
00000380: 850b 55bb 2c89 e83c dcb0 dd3c 069b 9b39
00000390: 1f03 dabb 6264 813c 8b52 b53c 50a5 9e3c
000003a0: f0f8 6d3d 4bc2 0b3d 2b66 f6bc 0304 fb3c
000003b0: ad3e a4bd 4c1e 8abd 0b61 4cbd 772a 863c
000003c0: e1bb 7fbc 79a7 3fbc c4eb a5bb 4acd 2b3d
000003d0: 2d49 7f3d 2a1e 953d 181e 34bb bbbd 453d
000003e0: 94c9 d13d bcae 843c 2d09 32bd b81e 85ba
000003f0: 1c2b 46bb 0ffe a43c dad1 adbb 161d b53c
-0.02717951 -0.023291932 0.061920986 0.010461212 -0.015989887 -0.0304115 0.06267785 -0.01955104
-0.04577101 0.016704954 -0.0028923478 -0.047374092 -0.023873806 0.029814558 -0.04823805 0.017147375
0.00050347083 0.066834845 -0.032285 -0.0064545893 -0.023182955 -0.007824882 0.0037667707 0.060342774
-0.04900634 0.08655192 -0.057949223 -0.04852815 0.050392732 -0.031232502 -0.026631584 0.09189738
0.03410404 0.008427275 0.08539406 -0.003082016 0.043727897 -0.02784838 0.05907769 -0.032965392
-0.020636404 0.01953113 -0.086410634 -0.0004512185 -0.041637216 -0.02637562 -0.04655876 0.008035929
-0.08075654 -0.03979283 0.038265858 -0.011674457 -0.009790376 -0.004868553 0.058079317 -0.026101207
0.0036451893 -0.0950342 0.03211964 -0.016274415 -0.06999334 0.025051204 0.016261704 -0.026617415
0.08297344 0.02267105 0.031998485 0.06687025 -0.039401162 -0.08445244 -0.049934052 -0.03389959
0.009789568 0.07214761 -0.063585535 -0.010406307 -0.04640445 -0.06082977 0.041481033 -0.065165766
0.013461693 0.04742771 0.04537841 -0.03343939 -0.038683303 0.036270633 0.04007288 -0.05264227
-0.035366293 -0.048173267 -0.012436062 -0.014061826 0.028065585 0.0058002346 -0.03787985 -0.018750392
-0.05479722 -0.008470271 0.07414077 0.012094866 -0.04917646 0.056417342 -0.0024958472 -0.03762365
-0.04572712 0.05089678 0.05040602 0.061418954 0.006356957 0.07882695 0.024726072 0.021556351
-0.0066247266 0.016508933 0.015106205 0.010128725 0.008917766 -0.065336764 0.004661438 -0.02974271
0.012335865 0.041058112 0.012575818 0.0033682296 -0.09771974 0.0051288656 0.04116268 0.029133324
-0.04774997 -0.016519977 0.008048254 -0.005909279 -0.049097944 0.003300867 -0.06341878 0.08482424
0.10580509 0.07563256 -0.007110817 -0.022469297 0.022088163 0.02753861 0.102712154 -0.017065385
-0.008236569 -0.019156858 0.020725183 0.005266552 0.04126502 -0.059478816 -0.0025084156 0.07063165
-0.030530501 0.07214914 0.04300679 0.06846547 -0.048805285 -0.017181827 -0.040173955 0.13219118
0.00399568 -0.065727174 0.09595869 0.03854085 -0.011967579 -0.016438931 -0.011633712 0.04540812
0.007549999 -0.011002179 0.011064728 0.011869625 -0.04348941 0.01590038 -0.030299664 0.030694483
-0.07213226 -0.015407392 0.022997117 -0.04264368 0.0142205255 0.06477769 0.051898547 0.048477717
-0.009530656 0.051845077 0.03709142 0.010726014 0.023864623 0.056821004 0.009106739 -0.034704212
0.08433682 0.028467853 -0.04487016 0.019576536 -0.03923592 -0.036775496 0.047209807 0.014597261
0.03592725 0.08033471 -0.008650861 0.040017687 -0.027063658 0.04067328 0.02432676 -0.023398902
-0.019228388 0.013704844 0.05332778 0.028268162 0.003431407 -0.041873135 0.05807183 0.029238354
0.051354613 0.04720941 0.03340421 0.029051306 0.037422393 -0.034374546 -0.020357538 0.116063535
-0.0032508087 0.028385721 0.027061872 0.00029679405 -0.006653204 0.015794937 0.022134086 0.019365937
0.058098733 0.03412084 -0.030078014 0.030641561 -0.08019767 -0.0674406 -0.049897235 0.01637767
-0.015608759 -0.011697643 -0.005063506 0.041943826 0.062325645 0.07281144 -0.0027483758 0.048276644
0.10243526 0.016196601 -0.043465782 -0.001015625 -0.0030238098 0.020140676 -0.0053045573 0.022108596

layers.2.weight f4 [256, 256]
00000000: 16e1 1c3d 7389 d93b 1c2d 27bd cdc5 e53c
00000010: 6c11 073e b469 90bd 5c2f f53d 0abf 2e3d
00000020: 52d4 c53b ba47 d9bd 3de7 803d b9b6 07be
00000030: 4c0f 413d e021 2f3d 4941 28be e98d a6bd
00000040: 7b42 bc3c 1ae4 2e3d 7773 793c e4b4 ec3c
00000050: db8a 24bd 31eb d73c 2939 30be b560 ca3d
00000060: 664b 52bd d5a4 a8bc 40f4 a7bd ec21 d5bd
00000070: b354 063d e2b6 c8bd 6a6a a2bd c3ad 263d
00000080: c692 743d 433e b6bd bf15 1dbd a02c cbbd
00000090: 9d48 ea3b 441b 77ba 43c8 aeba 504f 9abd
000000a0: 8bb3 e8bc efde 963b aad8 6b3d c2c5 3b3d
000000b0: 4ca1 02be 1914 9cbd 48bd 56bd 9766 3b3e
000000c0: 4f10 1d3d a058 833d cc93 9a3d 9997 b13d
000000d0: e8e9 1e3d acb6 95bd b15e 853d 48dc 923d
000000e0: 53c1 783d 1373 48bd a868 6c3d 99a2 67bd
000000f0: d4b8 9ebb dac4 263e de07 16be 52d5 02be
00000100: 92db 7a3d 4e81 e8bd 54fb 713d 10e5 b63d
00000110: 871e 26bd 85c1 32bd f421 87bb 8303 7f3d
00000120: b847 113d 1417 f8bd 6ecb 3f3e 7f9f b2bc
00000130: e195 15bd d505 ffbc 9eea e63d 21ec 043d
00000140: cdde 273c 101b cc3c b0ae e73a 4371 52bd
00000150: 9bd5 df3d 450b 9f3d c9b7 a43d 67da f3bd
00000160: 5b8e 273d 3f37 92bb d3e0 25be e66d debd
00000170: 9631 67ba 873d 073e 8869 563d 21b4 14be
00000180: 0770 97bd 932c debd 83c4 a7bc 0e14 773d
00000190: dec5 813c 91c7 0e3e 31ac dcbd 451c 96bd
000001a0: fdeb a4bd a29d a63d 6786 cebc 91e5 863d
000001b0: 104c 00be 623a 903d 2417 b53d 536d 543d
000001c0: 6668 82bc 6f7d 63bd 7a71 083d fc86 1dbd
000001d0: 92f7 a9bd 1acf fd3c 80e1 d73c 43cf edbd
000001e0: 2b3c 7d3d 10c7 543d f70c f03d 755f 8fbc
000001f0: 69af 2c3d 2c08 503d b4c5 0e3e 7083 553d
00000200: bdc5 b73d f73a e8bd 97fe 31bc 97b1 b6bd
00000210: 1029 613d 6ee4 0fbe 4fa2 c7bd bae7 62bd
00000220: 1a39 f8bd 8d64 8bbd 9d0b e23d b557 8dbd
00000230: 1da7 a1bd b511 9ebd 7cb1 f73b 4475 ef3a
00000240: ad03 2bbd 8ee7 a9bd 8804 533d 28b8 15bd
00000250: 0f5f c43d 4e6d 083e 8dbe 903d 4554 b73d
00000260: 3439 aabd d4ce 063e 99f4 8b3c 7e22 28bb
00000270: 5147 513c d123 dabd 4d89 25be 7f3f 053e
00000280: f616 663d cb4f 2fbd 2af5 983d 1e1a 1a3d
00000290: 1bdb 46bd ed40 ae3c 830e d5bc 74fa fcbd
000002a0: a544 c43d c25f acbc 7637 ca3d 82e2 45be
000002b0: eb56 a2bd 8767 533d b095 cf3d c87f b1bd
000002c0: 91f9 1a3c 1ffb 20be aeb5 16be 9aa5 d4bc
000002d0: 9cfa b1bd bab7 fb3c a77f 4d3c bad9 2bbd
000002e0: f0e5 15bd 1a51 b83d a01b c33d 44c0 48bd
000002f0: ae72 4b3c ae33 143e 224c 1bbe d385 013e
00000300: 8769 fd3c 7c25 ad3d 5ca3 ff3d 6569 0bbe
00000310: be35 61bb e819 02be 48c5 e83d 1f98 333e
00000320: e373 ac3c b6bc 71bc e931 acbd 1a57 d7bd
00000330: d8cd 0dbe 233c d2bc 93ac d9bd 6063 1b3d
00000340: 599d 9abd d241 f3bc 38de 0bbd b313 523d
00000350: a3ac 38be 753d 2bbd d9c3 88bd ccdd d83d
00000360: 3da0 39bd c907 153e ffb3 f3bd 9867 90bc
00000370: 49ae d53d 0e3e 443d 47f5 9dbd aefe d3bd
00000380: 7891 283d c0de 84bd 6ec1 31be 5dd5 a93d
00000390: 61f5 c6bb 90bd 183e 99e1 ddbc bfb6 85bd
000003a0: 6e7c 6f3d d326 ad3c ef90 adbd c8ca 32be
000003b0: 935d 9c3d d045 5d3c 62a7 b0bc 1685 2d3d
000003c0: 8696 27bd 6ed1 5fbd d825 8f3d 5b50 423b
000003d0: bec5 dbbb 414c 9e3d 2c02 8dbd 6c52 8fbd
000003e0: 3ae4 e43d a5d9 72bc 45a9 8b3d cc42 13bc
000003f0: d317 1e3d 347a c43d 656b ce3d 0efc e73c
0.038300596 0.0066386997 -0.040814504 0.02804842 0.1319024 -0.07051411 0.11971924 0.042662658
0.0060372734 -0.10609384 0.06294105 -0.13253297 0.04713373 0.042756915 -0.16431154 -0.08132536
0.02298092 0.042698003 0.015225283 0.02889485 -0.040171485 0.026357265 -0.17209305 0.09881727
-0.051341437 -0.02058641 -0.08200884 -0.10406861 0.03279562 -0.09800507 -0.07930453 0.040693056
0.059710287 -0.08898594 -0.038350817 -0.09920621 0.0071497695 -0.0009426365 -0.0013334829 -0.07534659
-0.028405925 0.0046042125 0.057579674 0.045842893 -0.12756842 -0.07621021 -0.052426606 0.18300854
0.03834563 0.06413388 0.07547721 0.08671493 0.03879729 -0.073102325 0.065122016 0.071709216
0.060731243 -0.04893787 0.057716995 -0.05655155 -0.0048438106 0.1628603 -0.14651439 -0.12776688
0.061244555 -0.11352788 0.059077576 0.08930409 -0.040556457 -0.043641586 -0.0041239206 0.06225921
0.035468787 -0.12113777 0.18729946 -0.02180457 -0.03651989 -0.03113071 0.112752184 0.032451753
0.010245991 0.024915248 0.0017675962 -0.051377546 0.10929414 0.07765821 0.08042867 -0.11906891
0.040907245 -0.0044621523 -0.16199045 -0.10860805 -0.00088193396 0.13207065 0.052346736 -0.14521839
-0.073944144 -0.108483456 -0.020479446 0.06032186 0.01584142 0.13943316 -0.107750304 -0.07329611
-0.08052824 0.08135535 -0.025210572 0.06586755 -0.12529016 0.07042386 0.08842304 0.051862072
-0.015918922 -0.055539545 0.033311345 -0.03845881 -0.082991734 0.030982543 0.026352644 -0.11611798
0.06182496 0.051947653 0.11721223 -0.017501572 0.04215947 0.050789043 0.13942605 0.0521273
0.089732625 -0.11339372 -0.010863922 -0.08920591 0.0549708 -0.14051983 -0.09747755 -0.055396773
-0.12120266 -0.06806288 0.11037371 -0.069014944 -0.078932025 -0.07718221 0.0075589996 0.0018269201
-0.041751552 -0.08296119 0.051517993 -0.03655258 0.095884435 0.13322946 0.07067595 0.0895162
-0.08311692 0.13164836 0.017084407 -0.0025655325 0.012773351 -0.10651363 -0.16165657 0.13012503
0.05617424 -0.042800706 0.07468636 0.037622564 -0.0485488 0.021271193 -0.026007896 -0.12352458
0.095834054 -0.021041755 0.098738596 -0.19324687 -0.079267345 0.051612403 0.101359725 -0.086669505
0.009458915 -0.15720795 -0.14717743 -0.025957871 -0.08690378 0.030727256 0.012542642 -0.041955687
-0.03659624 0.08999844 0.095267534 -0.049011484 0.0124174785 0.14472839 -0.15165761 0.12648706
0.030934108 0.08454415 0.1248233 -0.13614424 -0.0034364308 -0.12705195 0.113657534 0.17538498
0.021051353 -0.014754465 -0.08407957 -0.1051466 -0.13848054 -0.025663441 -0.10628619 0.03793657
-0.07549543 -0.029694472 -0.03414747 0.051288318 -0.18034606 -0.041806657 -0.0667798 0.105891794
-0.04531883 0.14553751 -0.11899566 -0.017627522 0.10433633 0.047910742 -0.077127986 -0.10351311
0.041154355 -0.06487799 -0.17358944 0.08292649 -0.006071732 0.14916062 -0.027085112 -0.06528997
0.058468275 0.021136677 -0.084749095 -0.17460167 0.07635035 0.013505414 -0.02156419 0.04236325
-0.040915035 -0.054643087 0.0698964 0.0029649946 -0.0067069223 0.07729388 -0.0688518 -0.069981426
0.11176343 -0.014822398 0.06819395 -0.008988094 0.03859694 0.09593621 0.10079078 0.028318431

layers.2.bias f4 [256]
00000000: dd77 383b 73e4 42bd 2632 08bd 967d a2bc
00000010: a5ed 45bd 23e1 c6bc 708b 573c f4ac 7bbc
00000020: edcf 0e3c 1bd8 c8bc 9f4f f23c 6bc6 28bd
00000030: 9ac9 bd3c 23a5 4dbd 11a8 0bbb 571a 303c
00000040: 0635 a23c d684 993c fff3 e6bc d4f7 b7bc
00000050: afe9 68bb ea6b af3c 39e4 9dbc 4c32 2fbd
00000060: 18fa e5bc de13 543d 070a 9dbc 7bf4 c6bc
00000070: 6820 893c c799 4abd f001 3ebd c9c2 e23c
00000080: 523d 53bd 9add 7c3c 654a 4abb 4455 31bd
00000090: e398 1dbc d450 3fbd bf5b 3dbd d099 35bd
000000a0: ff4b 41bd bb74 cbbc 9c72 b8bc af1b 5ebd
000000b0: 304f 6fbc 885b 27bd b183 033d c644 2a3a
000000c0: 9d80 c8bc 6b3d 993c 6b25 93bc 2df8 4dbd
000000d0: 6521 72bc d712 d3bb 2e0f 4a39 fe5f 233c
000000e0: 8d5e 35bd 04be 35bd f11f 373c 10a3 36bd
000000f0: 3bdb a3bc a7f2 5ebb 5d96 8c3c 5c75 09bd
00000100: 8b31 2fbc f90e 5e3b 6b39 e3bc a1dc 053d
00000110: 6522 bcbb 0d7f 04bd 6168 853c b6b4 c1bc
00000120: 6ca5 0bbb 78d9 b1bb c074 45bc 74e3 963c
00000130: c07c 8e3c 8409 b63c 84b7 043d c27a 03bd
00000140: 090b 17bd afb2 02bd 3871 eabb 092c fbbc
00000150: 90a0 b13c 96b3 0a3d 811c 62bd ab15 803b
00000160: 39f6 cc3c 5de6 693c 2b81 d8bc 24b6 c6bc
00000170: c858 5a3c 8ca7 e13b 3431 b9bc 999e 34bd
00000180: 33ed 2dbd a657 2fbd b417 ac3c 4220 c93a
00000190: db0f a3bc d0fc 4fbd 8f8b b7bc ea25 1f3d
000001a0: 5045 3fbd 8ea3 07bd 81ce b9bc 43dd 743c
000001b0: 9757 09bb aeb1 cb3c ea52 d93c 2bca 07bd
000001c0: 387b 43bd 2299 b7bb cb33 03bd 39ab debc
000001d0: 3ac9 413d 96ea 13bd 6c65 eabc b175 7d3c
000001e0: 31a7 3d3c d116 3bbd fd22 b4bc 04d3 6c3c
000001f0: e6a6 963c 04c2 a33c 00d3 b13c 927d 18bd
00000200: 7e62 153d 6058 703b abe2 b93b af41 bdbc
00000210: b40e 933b 8748 9c3b 5823 1abd 3744 f63c
00000220: 41fc 59bd f90a be3c 645f 2c3c 012d 4d3c
00000230: 24cb 913c 979b 113d 4665 8f3c 8b89 0bbd
00000240: 9bfe 023d 3e81 1fbd 922e 12bc 1e6a 96bc
00000250: 0fa9 483b fa68 9dbc a9c1 353c 5c02 49bb
00000260: b1eb de3c bd8b 59bc b707 4cbc c2a2 cf3c
00000270: 2862 dcbc 0498 c73b 3c54 1fbd c207 403c
00000280: 9a1b 683c 3bd7 39bd 2668 45bd 6858 7339
00000290: 4725 77bc 70cc 84bc ced1 f4bc 0328 f0bc
000002a0: 50d2 b93c 24b4 30bd 19ce cabc 282a dc3b
000002b0: 31bb fdbc c77a 0fbc 4e3b c13b ae74 5a3c
000002c0: 1a43 b5bc 4020 00bd 26b7 c5bc 34fa 28bd
000002d0: eec4 5dbc e11b 9dbc ce73 1e3c de32 d13c
000002e0: 5b49 48bd 4225 563a b640 a53c 766c 89bc
000002f0: a170 993b cbf3 a43c e868 da3c 6597 83bc
00000300: f291 fcbc f38c 26bd ff36 853c b32f aabb
00000310: e49f a03c 8755 bc3c 1cf2 1bbd 28ff 41bd
00000320: 1228 4fbd cd06 8cbc b2d5 1bbd b9c6 24bc
00000330: 5541 ab3c 7fc2 06bc d43a 14bd 8484 163c
00000340: fd1a 1cbd 75e9 acbc 3d54 c33c 6766 a63c
00000350: bf20 0c3c de38 21bd cc4b 093c 6f47 09bd
00000360: bc41 e0bb d763 ceba 4eff 863c 8c74 863b
00000370: 3b1d b63b 873f 343c 0911 33bd 01fc 613c
00000380: 1b51 2dbd 41c4 c4bc 2b47 5b3c b0f0 debc
00000390: 7cb2 8a3c 7b71 b1bc cdb4 713c 679c 2cbd
000003a0: 1340 0dbb d10a f53c fbd7 a8bc 1342 72bb
000003b0: 5c7d 05bd d047 cc3c 5884 3cbc f0e5 43bd
000003c0: 5eec ba3b ab44 423c d862 32bd 82f5 293b
000003d0: a5b8 8e3c 031d a03c 9054 6f3a 2bd4 2fbd
000003e0: 5105 243c 6c60 f63c 132a a8b9 77bf 27bd
000003f0: b6e9 03bc dc71 5f3c 3446 1b3c 72c6 25bd
0.0028147616 -0.047581147 -0.03325095 -0.019835275 -0.04832234 -0.024277275 0.013155803 -0.015361059
0.008716566 -0.02451711 0.029578982 -0.04120485 0.02316742 -0.050206315 -0.0021309892 0.010748467
0.019800674 0.018740099 -0.028192518 -0.02245704 -0.0035539677 0.021413762 -0.019273864 -0.042772576
-0.028073356 0.05177676 -0.01916982 -0.0242865 0.016739085 -0.04946306 -0.046388566 0.027680771
-0.05157215 0.015433693 -0.0030867097 -0.043294206 -0.009618971 -0.046707943 -0.046230074 -0.04433614
-0.047191616 -0.024835935 -0.022515588 -0.05422562 -0.014606282 -0.040858775 0.032108013 0.00064952334
-0.02447539 0.018706044 -0.017962178 -0.050285507 -0.01477847 -0.006441455 0.00019269876 0.009971617
-0.044279624 -0.044370666 0.011177049 -0.044589102 -0.020001998 -0.0034019144 0.017161543 -0.03355919
-0.010692964 0.0033883436 -0.02773734 0.03268111 -0.005741405 -0.032347728 0.016285123 -0.02364574
-0.0021308316 -0.0054275356 -0.012051761 0.018419005 0.01739347 0.022221334 0.032401577 -0.032099493
-0.03687576 -0.031908687 -0.00715461 -0.030660646 0.021683007 0.033862673 -0.055202965 0.003908833
0.025019752 0.014276114 -0.02642878 -0.024256773 0.013326831 0.006886428 -0.02260647 -0.044096563
-0.04246254 -0.042808197 0.021007396 0.0015344697 -0.019905021 -0.05077821 -0.022405414 0.038854517
-0.04669696 -0.033114962 -0.022681477 0.014945331 -0.0020956749 0.024864998 0.026528794 -0.033151787
-0.047724932 -0.0056029717 -0.032031815 -0.027181255 0.047311045 -0.03611239 -0.028612815 0.015469954
0.011575506 -0.045676056 -0.02198934 0.014454607 0.01839013 0.019989975 0.021707058 -0.03722913
0.036470883 0.003667377 0.005672773 -0.02310261 0.0044878367 0.004769388 -0.037631363 0.030061824
-0.053219084 0.023198592 0.01052079 0.012522937 0.01779706 0.035548773 0.017504346 -0.034066718
0.031981092 -0.038941614 -0.008922236 -0.018361147 0.0030618345 -0.019215096 0.011093535 -0.0030671572
0.027211996 -0.013277945 -0.012453011 0.025346164 -0.026902273 0.0060911197 -0.03889869 0.0117206
0.014166737 -0.045371275 -0.048195027 0.0002320722 -0.015084571 -0.016210765 -0.029885199 -0.029315954
0.022683293 -0.043140545 -0.024756478 0.0067188926 -0.030973049 -0.0087573 0.0058969622 0.013333483
-0.022126723 -0.031280756 -0.024135184 -0.041254237 -0.013535721 -0.019178333 0.009671165 0.02553695
-0.048898082 0.0008169004 0.020172458 -0.016775351 0.004682616 0.02013578 0.026661351 -0.016063401
-0.03083131 -0.040661763 0.016261576 -0.0051936745 0.019607492 0.022990001 -0.03807269 -0.047362477
-0.050575323 -0.017093087 -0.038045593 -0.010057145 0.020905176 -0.008225082 -0.036188915 0.009186868
-0.038111676 -0.021107415 0.023843879 0.020312501 0.008552729 -0.039360873 0.008379888 -0.03351539
-0.0068437736 -0.0015746307 0.01647916 0.004103249 0.0055576838 0.011001474 -0.043717418 0.013792993
-0.042313676 -0.024019362 0.013383667 -0.027214378 0.016930811 -0.021660557 0.014752579 -0.042141344
-0.0021553084 0.029912384 -0.0206108 -0.0036965653 -0.032590255 0.024936587 -0.011506163 -0.047826707
0.0057044467 0.011857192 -0.043551296 0.0025933688 0.01742203 0.019545084 0.0009129727 -0.04292695
0.010011033 0.030075274 -0.00032074805 -0.04095408 -0.0080513265 0.013637986 0.009477187 -0.040472455

layers.4.weight f4 [2, 256]
00000000: e61f 2a3d d02a b1bd 8371 00bd 6459 eeba
00000010: 270d e1bd 9eba eebc 3d46 1c3e 9111 8a3a
00000020: dba7 753c 5635 dfbd 2c7f 4f3d af77 f7bc
00000030: c2a6 a639 3fc9 04be 1e33 fb3d bf49 003e
00000040: 5619 e93c 06f8 6c3e 9f7c 76bd 1bad e1bd
00000050: 1c70 0d3c 1171 da3d 837c 94bc 981c abbd
00000060: d48e b3bc a5f4 ae3d 9dc1 e2bc 871b 9bbd
00000070: 7196 983a 9814 96bd 228b debd 97c0 233e
00000080: 780f 8dbd 53ad f53d 855e b13c 34b0 4fbd
00000090: 5f7e 9ebc 623a bfbd 986b bfbd d9e9 97bd
000000a0: 7b5f 98bd d649 cabc efff 08be 828b 04be
000000b0: a836 4ebd c9aa d3bd cb1f 0c3c cb6c be3d
000000c0: 2402 34bd bb5b 963c 3b85 81bd 7d3d e8bd
000000d0: 1278 99b9 c7e7 d7bc 2b8a 4e3c dd50 21bc
000000e0: f0a7 47bd 6614 e0bd b46b cb3d c377 b6bd
000000f0: 0df7 cdbc 775b 353c 00cd 06bc 5537 38bd
00000100: 443c 95ba 901a 113e 2634 09bd fe97 1d3e
00000110: 11f7 45bc 60d5 96bd 0e46 953c ed67 c83d
00000120: ad35 5ebd b67d d93d 1e14 bcbb 9263 f43c
00000130: efbd 6d3d c67e a83c 95e0 843d 0db3 b6bb
00000140: e251 7abd cbe6 e5bc 5256 de3d 7f80 2abd
00000150: 530d fc3d 159c 903d b602 dabd a123 973a
00000160: d4b3 023d 27a6 163d 13ce 20bc e186 03bd
00000170: 0ea9 5b3c c03a 883c 0acd 02be 2a53 dbbd
00000180: 516a 94bd 5870 36bd 02c7 1a3d 2bc2 0bbc
00000190: 115e 86bd ebb8 afbd ce08 eabd 9dc3 aa3d
000001a0: 54dc aebc 127e f3bb a889 a7bd 03df 303d
000001b0: 08a2 153e 717d 2c3c 045a 5a3b d8d5 52bd
000001c0: 0127 aebd 4b56 823d 9a7e 9fbc 9074 75bc
000001d0: 177f 0d3e 19ed 3cbc 0a08 a3bd b013 593d
000001e0: 389e 4d3c feb7 cbbd 57ac 19bd b88b aa3d
000001f0: e5b7 883d 3dc8 8b3d 9ffd 203d f53d cabc
00000200: 71d9 1c3e e435 a93c f62c a9bc 5418 dbbd
00000210: 49f7 42bb 9cda f23a 17c5 35bd 29cf 143d
00000220: 67ab edbd 4cf3 1a3c c695 4a3d 9a04 4c3c
00000230: 84b3 903c e459 c13d 6aaf 333b 5f47 6abd
00000240: 12ac f13d ee06 99bd ddfd 053b a28e 0ebd
00000250: ccda 923a 0e03 eebb 4582 313e 0950 ca3d
00000260: bc50 4a3d 89c7 713a 757e e7bd 9b63 243e
00000270: 5052 b6bd c262 0b3e 9f64 dcbd a329 2e3d
00000280: 14ed e73d f053 c2bd f0b5 01be 68e0 fcbc
00000290: 1adb 8fbd eae0 a5bd c136 86bd 6bec 7cbc
000002a0: c059 6d3d 4c49 ffbd a32f b7bd 5d66 693c
000002b0: 5d77 08bd 6088 50bc c0c3 f63b 55d7 243d
000002c0: 1ed5 88bd 388f babd c894 42bd 36bf 1bbe
000002d0: 2815 0a3e 7cf6 91bc 0ec6 4b3d 31f3 003e
000002e0: 6921 e7bd 0113 6c3d e24d 3d3e dd66 40bc
000002f0: 561a fc3d 889a f83d 4891 ca3d 66c4 14bc
00000300: 4601 e3b9 7543 7bbd 6df8 c53c 46e9 e23b
00000310: c508 e93b 1d81 943c 2f6e 73bd 5c66 ecbd
00000320: 2222 93bd b47e b9bc 74c7 05be 2629 42bc
00000330: 9594 e23c 6ae7 08bd ffdf 6dbd 33d2 e73c
00000340: e6fb 4dbd 57fe babd 35b7 3a3c 704e 763b
00000350: 8820 233e 8fb1 06be 4fc1 f03c a57f aebc
00000360: 7197 013e d286 4bbe 16d1 153d c615 a43c
00000370: ce36 903c 7a7d 8dbc 2a6c b9bd 539a d83c
00000380: ed68 dcbd 8f3d 76bd aedf 813d 1930 f2bc
00000390: 1e84 663a b338 bbbd 62fb 593d af05 15be
000003a0: d480 d03d b6b4 c03c 4e7e 19bd 6416 adbb
000003b0: 34bb 34bc 2697 b53c eba5 73bc 3f04 adbd
000003c0: 991d 873a 567a a63d 879d 9ebd 1098 343c
000003d0: 1884 a53d 36e9 333d 78a5 473b c266 d3bd
000003e0: b690 3f3d 9a40 913d 2605 3aba 32ee 73bd
000003f0: c381 363a 8b00 d53c 9b21 523a 0240 84bd
0.041534327 -0.08650744 -0.031358253 -0.00181846 -0.10988837 -0.02914172 0.15261169 0.00105338
0.014993633 -0.10898845 0.05065839 -0.030208437 0.00031786232 -0.12967394 0.12265609 0.12528132
0.028454464 0.23141488 -0.06017744 -0.110193454 0.008632686 0.10666097 -0.018125778 -0.08355063
-0.021918692 0.08542756 -0.027680213 -0.0757361 0.0011641515 -0.07328147 -0.10866381 0.15991436
-0.06887716 0.119959496 0.021651516 -0.05070515 -0.019347368 -0.093373075 -0.09346694 -0.0741765
-0.074400865 -0.02469341 -0.13378881 -0.12943843 -0.050345093 -0.10335309 0.008552502 0.09298094
-0.043947354 0.018354287 -0.0632424 -0.11339853 -0.00029271893 -0.026355637 0.012606184 -0.009845939
-0.048744142 -0.10941391 0.09932652 -0.089095615 -0.025142217 0.01106917 -0.008227587 -0.044974644
-0.0011385758 0.14170289 -0.033497 0.15390012 -0.012082831 -0.07364917 0.018221881 0.09785447
-0.054250408 0.106196806 -0.005739703 0.029832635 0.058042463 0.020568263 0.06488148 -0.0055755437
-0.061113246 -0.028064152 0.10856308 -0.04162645 0.12307229 0.0706102 -0.10645048 0.0011531004
0.03190978 0.03677955 -0.009814757 -0.032111052 0.013407005 0.016629577 -0.12773529 -0.10709222
-0.07246841 -0.044540733 0.037787445 -0.00853018 -0.065609105 -0.08580192 -0.114274606 0.083380915
-0.021345295 -0.0074308002 -0.08180553 0.04318143 0.14612591 0.010527954 0.0033317814 -0.05147347
-0.08503533 0.06364115 -0.019469548 -0.014981404 0.13818012 -0.011531138 -0.07960518 0.05299729
0.012549929 -0.09947203 -0.03751787 0.083274305 0.066757 0.06825302 0.039304372 -0.024687747
0.15317322 0.02065558 -0.020651322 -0.106979996 -0.0029749444 0.0018528285 -0.044377413 0.036330376
-0.11604958 0.009457421 0.04945924 0.012452269 0.017663725 0.094409734 0.0027417787 -0.05719697
0.11800398 -0.07472025 0.0020445504 -0.034803994 0.0011204123 -0.0072635477 0.1733485 0.09878547
0.0493934 0.00092231535 -0.11303417 0.16053621 -0.089024186 0.13611892 -0.107613795 0.042520177
0.11324516 -0.09488666 -0.1266706 -0.030868724 -0.07024212 -0.080995396 -0.06553412 -0.015437226
0.05794692 -0.12465152 -0.08944633 0.014245597 -0.03331696 -0.012727827 0.0075306594 0.04024442
-0.06681274 -0.09109348 -0.04750517 -0.1520966 0.13484633 -0.017817728 0.049749427 0.1259277
-0.11285669 0.05763531 0.18486741 -0.0117432745 0.12309711 0.121388495 0.098909914 -0.009080028
-0.00043297763 -0.06134363 0.02416631 0.006924781 0.007111641 0.018127972 -0.05943125 -0.11542961
-0.07184245 -0.022643425 -0.13064367 -0.011850631 0.02765874 -0.03342382 -0.058074947 0.028298473
-0.050289057 -0.09130543 0.011396219 0.0037583373 0.15930378 -0.1315367 0.029389052 -0.0213011
0.12655427 -0.19875649 0.036576353 0.020029914 0.017604258 -0.017271746 -0.09053834 0.026440775
-0.107622005 -0.0601173 0.06341492 -0.02956395 0.00087934907 -0.09141674 0.053218253 -0.1455295
0.10180822 0.02352367 -0.03747397 -0.00528221 -0.011030961 0.0221668 -0.014871101 -0.084480755
0.0010308503 0.081288025 -0.0774489 0.011022583 0.080818355 0.04392358 0.0030463617 -0.10322334
0.046768866 0.070924 -0.0007096104 -0.059553333 0.0006962085 0.026001235 0.0008015872 -0.06457521

layers.4.bias f4 [2]
00000000: 8519 c13c 0f13 b1ba
0.023571739 -0.0013509708
