Results_dir/2022-03-16-20-29-27/critic.pth (torch, 536911 bytes, 7 tensors)

layers.0.weight f4 [256, 6]
-0.014715205 0.3479811 0.24838719 -0.011384211 -0.05516138 -0.2938129 -0.03483619 -0.699657
-0.84703 0.025973968 0.106793106 -0.1744901 -0.7090749 0.18484376 0.12204438 0.23005341
-0.05099474 -0.031209992 0.36575443 -0.2623085 1.157412 0.004729538 0.10783374 -0.04640476
0.13260804 0.7053178 1.1578763 -0.09470918 0.110646784 0.2855351 0.05775756 0.027382284
0.21645245 -0.032782726 0.15251759 0.057009075 0.1298413 0.50372994 0.96914625 -0.14601949
0.059496865 0.3201461 -0.627333 0.0777139 -0.1393566 0.2252495 -0.10895515 -0.26011747
0.053603597 -0.48365605 -0.6239244 -0.076555006 0.025552694 -0.0066475645 0.007272613 0.05137919
-0.01728971 -0.0055899117 0.010172087 -0.14769726 0.21907595 -0.47979257 1.1696031 0.07671999
0.12984116 -0.029901972 -0.5488987 -0.40143585 -0.19457714 0.17653237 -0.015761297 0.07399537
0.14607091 -0.3241668 0.85780317 0.046721295 0.018547889 0.026719335 -0.43969288 0.43393028
-0.403927 0.27994174 -0.13850231 -0.27463907 0.53512704 -0.22485277 -0.6641825 -0.18875839
-0.12531333 -0.12292532 -0.13962428 -0.10878835 -0.2142731 0.01647018 0.07070646 -0.20864642
0.08370963 -0.48940396 0.9614316 0.12420259 0.051901545 -0.03537606 0.14994122 -0.42392704
1.0882151 0.12509024 0.113218345 0.13409089 0.4503216 -0.2547466 -0.53155154 -0.18052983
-0.0069265664 -0.11789158 0.61677414 0.04518732 -0.013961237 -0.17664154 0.009243466 -0.10223945
-1.2905598 0.077270575 0.008296906 -1.0279832 0.086340934 0.1392989 0.48668358 -0.0806856
-0.5105841 -0.1923314 -0.09382539 -0.27118316 -1.5212033 -0.038905025 0.10416526 -1.1407216
0.17215003 0.18117751 -0.01644545 -0.05683131 0.13546397 0.019724121 -0.1434199 0.48914433
-0.047597878 0.053142704 -0.363274 0.050201014 -0.0462116 -0.18517607 -0.2765008 -0.24782778
0.15300788 0.103505716 -0.0564758 0.2581395 0.32508838 -0.1435508 0.71922135 -0.053196922
0.036575217 0.2610406 0.12915452 0.1683968 0.4930443 0.019981889 -0.020151459 0.14648408
-0.7345491 -0.16325942 -0.020732317 0.1746933 -0.21046627 -0.25045022 -0.035181046 -0.01589562
0.1041195 0.008992842 -0.0518731 0.27992675 0.5146781 -0.2986276 -0.7581932 -0.17210065
-0.18151546 -0.080598146 -0.047801536 0.34339058 0.4559637 0.04532829 -0.15507777 0.18154815
-0.58409137 0.27660984 0.13501823 0.21200001 -0.015717752 -0.13750269 0.36405447 0.42030075
-1.0634464 0.03159246 -0.025214856 -0.21627294 0.058732543 -0.37844694 -0.51759243 -0.08462497
0.053572487 -0.045856394 0.030791914 -0.2607165 -0.25769144 -0.011913822 0.07216343 0.046026256
-1.4563552 0.018332299 0.14387392 -1.1147757 0.1464811 0.18506557 0.013918763 0.032695998
0.010347801 0.013342102 0.0008550632 -0.06323456 -0.79169554 -0.10101519 -0.20796292 0.28177473
0.027256332 -0.17551805 -1.231602 0.05712837 -0.1563315 -0.9941864 -0.005458116 0.11636924
0.009109179 -0.071225666 0.02797501 0.0062673055 -0.027688935 0.21703722 0.037133798 0.5911135
0.6331088 -0.08138412 -0.19574563 -0.047869697 0.26812023 -0.1972606 0.85686296 -0.023425685
00000000: 0b18 71bc 942a b23e 3659 7e3e d784 3abc
00000010: e6f0 61bd a56e 96be 65b0 0ebd b91c 33bf
00000020: f5d6 58bf 5cc7 d43c 58b6 da3d 88ad 32be
00000030: ef85 35bf af47 3d3e 67f2 f93d 1f93 6b3e
00000040: dcdf 50bd 19ac ffbc 2a44 bb3e 4d4d 86be
00000050: 1426 943f 3efa 9a3b f0d7 dc3d eb12 3ebd
00000060: 67ca 073e b58f 343f 4a35 943f e3f6 c1bd
00000070: c89a e23d a831 923e 3193 6c3d d050 e03c
00000080: b6a5 5d3e 2e47 06bd 922d 1c3e 5982 693d
00000090: 1ef5 043e 72f4 003f f819 783f 2286 15be
000000a0: fcb2 733d 31ea a33e e598 20bf 7728 9f3d
000000b0: 7fb3 0ebe cea7 663e e123 dfbd 1e2e 85be
000000c0: 728f 5b3d c4a1 f7be 82b9 1fbf dfc8 9cbd
000000d0: e253 d13c d0d3 d9bb 194f ee3b fc72 523d
000000e0: 26a3 8dbc 942b b7bb d3a8 263c f33d 17be
000000f0: 7255 603e 5fa7 f5be 8eb5 953f 5f1f 9d3d
00000100: 15f5 043e fbf4 f4bc a084 0cbf 0089 cdbe
00000110: 3b3f 47be e7c4 343e d61d 81bc e28a 973d
00000120: 9d93 153e 31f9 a5be fd98 5b3f d45e 3f3d
00000130: bef1 973c 82e2 da3c 6d1f e1be 1c2c de3e
00000140: 85cf cebe 8654 8f3e 8dd3 0dbe 7e9d 8cbe
00000150: 16fe 083f ce3f 66be dd07 2abf e149 41be
00000160: 2352 00be 45c0 fbbd abf9 0ebe 6dcc debd
00000170: 686a 5bbe 79ec 863c 8cce 903d 68a7 55be
00000180: f46f ab3d 2893 fabe 6220 763f ed5d fe3d
00000190: b796 543d 7de6 10bd 318a 193e f70c d9be
000001a0: a24a 8b3f a817 003e 05df e73d 1f4f 093e
000001b0: 8e90 e63e 256e 82be c313 08bf d0dc 38be
000001c0: 40f8 e2bb 2471 f1bd e9e4 1d3f 5716 393d
000001d0: acbd 64bc 85e1 34be e871 173c eb62 d1bd
000001e0: 1031 a5bf 0940 9e3d bfef 073c f494 83bf
000001f0: 84d3 b03d 5fa4 0e3e 972e f93e 7e3e a5bd
00000200: a4b5 02bf 86f2 44be 8727 c0bd 85d8 8abe
00000210: cab6 c2bf e05a 1fbd 9954 d53d 2a03 92bf
00000220: 1948 303e 9986 393e 9cb8 86bc f3c7 68bd
00000230: 11b7 0a3e 7b94 a13c abdc 12be 2071 fa3e
00000240: fef5 42bd 2aac 593d 0dff b9be 949f 4d3d
00000250: 6048 3dbd cc9e 3dbe 8391 8dbe 91c6 7dbe
00000260: 19ae 1c3e cefa d33d 2b53 67bd dc2a 843e
00000270: fc71 a63e fbfe 12be e41e 383f 04e5 59bd
00000280: e5cf 153d 1da7 853e 1541 043e 3670 2c3e
00000290: 4d70 fc3e 0fb1 a33c ac14 a5bc ecff 153e
000002a0: 690b 3cbf 7a2d 27be d2d6 a9bc cde2 323e
000002b0: 7884 57be 033b 80be 001a 10bd 8837 82bc
000002c0: 9b3c d53d b756 133c e378 54bd 8f52 8f3e
000002d0: f2c1 033f b7e5 98be f318 42bf 273b 30be
000002e0: 30df 39be a410 a5bd 8bcb 43bd e4d0 af3e
000002f0: 1374 e93e 28aa 393d b5cc 1ebe c2e7 393e
00000300: 0387 15bf ce9f 8d3e 3842 0a3e 8816 593e
00000310: 84c2 80bc 81cd 0cbe 5965 ba3e a931 d73e
00000320: 031f 88bf 1867 013d 638f cebc a776 5dbe
00000330: 8991 703d ccc3 c1be f080 04bf db4f adbd
00000340: d36e 5b3d ead3 3bbd 533f fc3c a27c 85be
00000350: 22f0 83be 3132 43bc 6cca 933d 0786 3c3d
00000360: d969 babf 9e2d 963c af53 133e f8b0 8ebf
00000370: 24ff 153e d481 3d3e 860b 643c 3dec 053d
00000380: d389 293c d598 5a3c 5226 603a 1f81 81bd
00000390: 8fac 4abf 0de1 cebd 3bf4 54be c744 903e
000003a0: ac48 df3c 01bb 33be 22a5 9dbf 70ff 693d
000003b0: 5d15 20be 0083 7ebf ffd9 b2bb ff52 ee3d
000003c0: aa3e 153c c3de 91bd d92b e53c f85d cd3b
000003d0: e8d3 e2bc 013f 5e3e 9c19 183d 3753 173f
000003e0: 6b13 223f b8ac a6bd 8b71 48be 0413 44bd
000003f0: 0e47 893e affe 49be 5f5b 5b3f 39e7 bfbc

layers.0.bias f4 [256]
-0.0057095597 0.021509051 0.17425473 -0.08923707 -0.23679687 0.02546046 0.059052687 0.08663361
0.14695099 -0.026687779 -0.060952153 0.03236411 -0.031112712 -0.052827235 -0.19662608 0.1655783
-0.07174953 -0.123763196 -0.07446801 -0.1818217 -0.21289591 -0.08472228 -0.052376248 -0.07080946
-0.066795304 -0.107411414 -0.11769326 -0.22436427 0.10010295 0.03976657 -0.16929196 -0.1653504
0.038362045 -0.15579364 0.22520241 0.004557952 -0.065336294 -0.073969975 0.13789105 -0.22091593
-0.042350303 0.04823818 -0.123780414 -0.17219722 -0.06007333 -0.1620501 0.13992876 -0.11169547
-0.163539 -0.104956985 -0.13651574 -0.10463168 0.012329302 -0.10128996 -0.07048954 -0.039625566
-0.12313636 -0.31808674 -0.12809926 -0.058831498 -0.073678695 0.12577717 -0.095272034 -0.09365428
-0.21456233 -0.042957142 -0.193735 -0.1979197 0.0267692 0.13442181 -0.0640211 -0.1334831
-0.078141265 -0.009471904 0.11579063 -0.14361653 -0.18787295 -0.21477614 0.041351385 -0.056742102
-0.09807052 -0.050282877 -0.031764966 0.040466215 0.071499646 -0.11287729 -0.04294601 -0.13340832
-0.08086406 -0.14937842 -0.18020365 -0.08992262 -0.11343542 0.027369466 -0.12940957 -0.08677171
-0.110789195 -0.12049514 -0.08132709 0.001790975 0.15326132 -0.006524646 0.04253439 0.03168729
-0.14559601 0.06924574 -0.18550636 -0.06035116 0.04271452 -0.03278985 -0.040296152 -0.083315544
-0.055976603 -0.17584643 0.021285148 -0.043416396 -0.124936685 -0.2695267 -0.1661874 -0.09352698
0.019934706 0.024058053 0.097533666 -0.16193482 -0.18234466 -0.105679914 -0.10320656 -0.10764843
-0.17064917 -0.11474886 -0.13605762 -0.07875771 -0.06173713 -0.014013917 -0.022501132 0.008124479
0.022495294 -0.01704463 -0.07073786 -0.03809554 -0.1303001 -0.06913982 0.15934211 -0.069227874
-0.15171301 -0.43479997 -0.23268223 0.09174266 -0.025287908 -0.0011547074 -0.15315293 0.10199297
-0.032566708 -0.0011587758 -0.12040887 -0.03641417 0.0074975938 -0.20995604 0.07334259 0.04902291
-0.09568829 -0.15593117 0.019021133 -0.08888467 -0.06851643 -0.19161169 0.01540034 -0.055374574
-0.114103444 -0.01510901 0.028890653 -0.15507038 -0.05003448 0.02245664 -0.12214166 0.067430526
0.021993631 -0.001659415 0.059358574 0.030509511 -0.089489095 0.058180384 -0.07658596 -0.04555275
0.06458581 -0.0047066617 0.06776439 -0.033374332 -0.56421876 -0.12110908 -0.11896512 -0.111661024
-0.07481409 0.04012915 0.053797986 0.02157369 0.04047628 0.016790578 -0.08848599 -0.119676515
0.019337442 -0.04849327 -0.092542686 -0.14628044 -0.07858285 -0.13082169 -0.106467016 -0.028184002
0.0931378 0.056878716 -0.073377386 -0.113787934 -0.088059396 -0.23711954 -0.05182611 -0.42669585
0.008161521 -0.054949358 -0.15608938 -0.13590795 0.08080523 -0.027640728 0.09668061 -0.16240256
-0.015425396 0.010908223 -0.14991303 -0.24427873 -0.022045279 -0.15725252 0.0957559 -0.08362007
-0.015628379 -0.25924292 0.06661208 -0.24949837 -0.3518537 0.044609904 -0.080707096 -0.080517344
-0.021597054 -0.011640695 0.0156028755 -0.11392513 0.04736939 -0.0018622142 0.07253718 -0.023085397
-0.08748806 0.03127203 -0.1324713 -0.1769339 -0.16885638 -0.08479038 -0.058440037 -0.043120675
00000000: 4217 bbbb c033 b03c d56f 323e edc1 b6bd
00000010: e17a 72be 7492 d03c 3be1 713d f66c b13d
00000020: 527a 163e 54a0 dabc f7a8 79bd 3b90 043d
00000030: 16e0 febc 5f61 58bd 5958 49be 5c8d 293e
00000040: 6bf1 92bd 8f77 fdbd af82 98bd 782f 3abe
00000050: 6301 5abe e082 adbd 7a88 56bd 8d04 91bd
00000060: facb 88bd 84fa dbbd 2a09 f1bd bfbf 65be
00000070: c702 cd3d 45e2 223d df5a 2dbe 9e51 29be
00000080: 8521 1d3d 5e88 1fbe 769b 663e df5a 953b
00000090: 09cf 85bd 927d 97bd 5033 0d3e c937 62be
000000a0: 8377 2dbd 6695 453d 9680 fdbd 7854 30be
000000b0: 740f 76bd 76f0 25be 7c49 0f3e 98c0 e4bd
000000c0: c576 27be b0f3 d6bd c8ca 0bbe 2249 d6bd
000000d0: d700 4a3c 1c71 cfbd d25c 90bd 6b4e 22bd
000000e0: ea2e fcbd 44dc a2be 742c 03be 4cf9 70bd
000000f0: dbe4 96bd bbcb 003e fc1d c3bd d1cd bfbd
00000100: 3ab6 5bbe d4f3 2fbd 7862 46be 76ab 4abe
00000110: 154b db3c dfa5 093e 7f1d 83bd cbaf 08be
00000120: 8708 a0bd 0b30 1bbc a323 ed3d 3610 13be
00000130: c461 40be 47ee 5bbe 1260 293d 686a 68bd
00000140: 32d9 c8bd 6bf5 4dbd fb1b 02bd e7bf 253d
00000150: 686e 923d 352c e7bd 28e8 2fbd 319c 08be
00000160: 0e9c a5bd a8f6 18be 4e87 38be 5a29 b8bd
00000170: d450 e8bd ee35 e03c f183 04be 5eb5 b1bd
00000180: 72e5 e2bd 28c6 f6bd d18e a6bd 26bf ea3a
00000190: 89f0 1c3e b3cc d5bb 8a38 2e3d 88ca 013d
000001a0: 1f17 15be b6d0 8d3d 61f5 3dbe c732 77bd
000001b0: 6cf5 2e3d a64e 06bd 940d 25bd 57a1 aabd
000001c0: b947 65bd 1611 34be 315e ae3c 64d5 31bd
000001d0: cede ffbd 67ff 89be 082d 2abe 138b bfbd
000001e0: 1c4e a33c 6515 c53c bbbf c73d 3ed2 25be
000001f0: 8fb8 3abe b66e d8bd f65d d3bd c876 dcbd
00000200: a8be 2ebe 7301 ebbd b052 0bbe b94b a1bd
00000210: 13e0 7cbd a19a 65bc 4b54 b8bc 891c 053c
00000220: 0d48 b83c 2ea1 8bbc 03df 90bd 120a 1cbd
00000230: 646d 05be 2e99 8dbd 942a 233e 58c7 8dbd
00000240: a85a 1bbe 1a9e debe 4044 6ebe 93e3 bb3d
00000250: 9628 cfbc 8d59 97ba 1fd4 1cbe b1e1 d03d
00000260: ab64 05bd 10e2 97ba ed98 f6bd 0627 15bd
00000270: 60ae f53b b7fe 56be a434 963d 3fcc 483d
00000280: 39f8 c3bd 6cac 1fbe 35d2 9b3c 2a09 b6bd
00000290: 5852 8cbd db35 44be b551 7c3c 73d0 62bd
000002a0: 11af e9bd c88b 77bc 17ac ec3c c5ca 1ebe
000002b0: f4f0 4cbd fdf6 b73c 6825 fabd 0419 8a3d
000002c0: fd2b b43c ba80 d9ba fa21 733d 15ef f93c
000002d0: 0f46 b7bd 8e4e 6e3d 1ad9 9cbd 8595 3abd
000002e0: 9145 843d 573a 9abb 0ec8 8a3d 86b3 08bd
000002f0: a470 10bf 0a08 f8bd fca3 f3bd 89ae e4bd
00000300: 2138 99bd 775e 243d 475b 5c3d 4fbb b03c
00000310: 75ca 253d 658c 893c 2538 b5bd f618 f5bd
00000320: 8e69 9e3c e1a0 46bd 0587 bdbd 8aca 15be
00000330: 0cf0 a0bd 1ff6 05be 610b dabd 23e2 e6bc
00000340: 08bf be3d a8f9 683d e246 96bd a609 e9bd
00000350: 7c58 b4bd 77cf 72be 9d47 54bd e177 dabe
00000360: e6b7 053c 9412 61bd e5d5 1fbe 742b 0bbe
00000370: 367d a53d cf6e e2bc 7c00 c63d db4c 26be
00000380: cdba 7cbc 67b8 323c cd82 19be 3424 7abe
00000390: 4d98 b4bc ce06 21be ab1b c43d 0041 abbd
000003a0: 1607 80bc 7dbb 84be ea6b 883d 807c 7fbe
000003b0: 2b26 b4be e0b8 363d c349 a5bd 47e6 a4bd
000003c0: 4eec b0bc 9db8 3ebc 34a3 7f3c 9451 e9bd
000003d0: 6806 423d 8a15 f4ba 5f8e 943d 961d bdbc
000003e0: f12c b3bd 1a17 003d 8ea6 07be 292e 35be
000003f0: b0e8 2cbe 94a6 adbd d25e 6fbd 4e9f 30bd

layers.2.weight f4 [256, 256]
-0.005607688 0.13964157 -0.14298005 0.015991284 -0.010901132 -0.01427112 -0.09800604 0.009866015
0.07486862 0.14429678 -0.09462136 -0.03358328 -0.017763466 0.06767484 -0.02000907 0.17431085
0.03828947 -0.03932613 0.0169798 0.12685937 0.42278317 0.0066069383 0.5200079 -0.2343255
0.045254435 -0.038000584 -0.031562336 0.040526617 0.057004016 -0.20097826 -0.045822028 -0.15301426
0.013836435 0.25150526 -0.10366456 0.01799032 0.5175535 0.039036177 0.10777655 0.31823006
-0.115281254 -0.12420597 0.11936316 0.40042728 0.04575572 0.110302106 -0.14836739 0.058257557
0.22490035 0.012724457 0.21877202 -0.12748589 -0.07913274 0.17365351 -0.10825394 -0.04738219
-0.000140944 0.34513372 0.15376888 0.19470222 0.00084236485 0.068679675 0.105827875 -0.036316354
-0.018474981 -0.11035456 0.118215725 0.1172692 -0.14816467 -0.088641815 0.2168922 -0.13418128
0.15474622 0.14583373 0.060112216 0.20376337 -0.09847404 0.46362224 0.01774561 -0.043011058
0.1176721 0.022639675 0.19091748 0.009225939 -0.05531038 0.4384971 0.10070814 0.014514898
-0.0028444033 0.2081407 -0.017827105 -0.058579028 0.5321654 0.08806996 0.15392983 0.0988683
0.18844995 0.06527987 -0.2446821 0.06169749 -0.10769291 0.0013467923 -0.00018854684 0.07007971
0.08301363 -0.11459832 0.26524314 0.26680335 0.10471686 -0.010744843 0.19359134 0.2357523
0.031843558 -0.015684398 0.15678917 -0.0787524 -0.014316443 0.1676234 0.06652885 0.21886982
-0.119168825 -0.06430603 -0.051906496 0.093433626 0.24269682 -0.19111066 0.20042732 0.20297469
0.43497896 -0.014992532 -0.06606069 0.13448586 -0.09540675 0.01252554 0.1715485 -0.022283787
-0.07512791 -0.048789613 0.07999377 0.11534266 -0.0878867 0.038440615 0.050719514 -0.1356921
-0.12993976 0.07244181 0.04556278 -0.27215979 -0.011878841 0.15490563 0.040043827 0.03975008
-0.11760509 0.0323797 0.53925157 -0.08500367 0.17239322 0.093277395 0.09286798 0.0007172691
0.001514138 0.27576584 0.144054 0.2944377 -0.018122839 0.33887577 0.11042035 -0.03009301
0.09945786 -0.1419944 -0.14140028 0.55568695 -0.08041686 0.03392228 0.4427734 -0.05893078
0.012550306 0.049027506 0.033971477 -0.029886555 -0.12622535 -0.018379234 0.052094687 0.1284648
0.011533766 0.05247687 0.070653 -0.12495325 0.318845 0.033826772 -0.03960802 -0.019540075
0.042167626 -0.16140614 -0.18176532 0.026709294 -0.0025374878 -0.024693023 0.5595409 0.07461177
0.12866364 -0.08494437 -0.021325849 0.08053549 0.19654201 0.10658607 0.006159769 -0.13962442
-0.18013793 -0.061139457 0.16809614 0.19384265 0.028876022 0.0971624 0.01358836 0.3032447
-0.3218096 -0.15745775 0.085406944 0.0026642268 0.028260725 0.065580346 -0.08068958 0.1473664
0.093233936 0.11370119 -0.10057158 0.06819075 -0.08349231 0.10422751 -0.11851817 0.22203304
-0.07525684 0.15814838 0.0040220674 0.21628402 0.09422574 0.09299143 0.40524992 0.13209493
-0.10766281 0.02326213 0.104158916 0.035771664 -0.06629815 0.21290253 -0.031558402 0.1659847
-0.15546653 0.035637915 0.22680302 -0.14866553 -0.014093446 0.100594364 0.15032151 0.51376003
00000000: b2c0 b7bb 33fe 0e3e 5d69 12be 2700 833c
00000010: a99a 32bc 6ad1 69bc 64b7 c8bd 11a5 213c
00000020: b854 993d 89c2 133e d8c8 c1bd 9f8e 09bd
00000030: b084 91bc 1b99 8a3d 10ea a3bc 8b7e 323e
00000040: 6bd5 1c3d 7014 21bd 3919 8b3c 6ce7 013e
00000050: 0977 d83e 047f d83b 3d1f 053f 06f3 6fbe
00000060: b75c 393d 80a6 1bbd 8247 01bd 3dff 253d
00000070: 0b7d 693d 3fcd 4dbe e1af 3bbd c5af 1cbe
00000080: 37b2 623c 4cc5 803e 164e d4bd 7060 933c
00000090: 637e 043f 66e4 1f3d f4b9 dc3d 0def a23e
000000a0: 9418 ecbd b35f febd ac74 f43d ce04 cd3e
000000b0: 5a6a 3b3d 12e6 e13d 9fed 17be 7a9f 6e3d
000000c0: 474c 663e 3e7a 503c c605 603e a98b 02be
000000d0: 5910 a2bd 3ad2 313e 3eb4 ddbd d413 42bd
000000e0: 5eca 13b9 5eb5 b03e 9775 1d3e 0560 473e
000000f0: 26d2 5c3a eea7 8c3d 49bc d83d 75c0 14bd
00000100: d858 97bc 9201 e2bd 161b f23d d62a f03d
00000110: 7bb8 17be d789 b5bd fd18 5e3e d166 09be
00000120: cb75 1e3e 7055 153e 3a38 763d 58a7 503e
00000130: c2ac c9bd e55f ed3e 3e5f 913c 5d2c 30bd
00000140: 12fe f03d d776 b93c df7f 433e 6528 173c
00000150: 238d 62bd b182 e03e 1240 ce3d e5cf 6d3c
00000160: 2b69 3abb d622 553e 260a 92bc 90f0 6fbd
00000170: fe3b 083f 065e b43d c89f 1d3e 777b ca3d
00000180: 06f9 403e 74b1 853d f28d 7abe 82b6 7c3d
00000190: 1a8e dcbd da86 b03a a8b4 45b9 f385 8f3d
000001a0: 0d03 aa3d 86b2 eabd f3cd 873e 739a 883e
000001b0: cb75 d63d 230b 30bc cf3c 463e 0d69 713e
000001c0: 646e 023d 917c 80bc 578d 203e f048 a1bd
000001d0: 848f 6abc 78a5 2b3e 4740 883d 691f 603e
000001e0: c90e f4bd e1b2 83bd e89b 54bd 215a bf3d
000001f0: 8485 783e 83b2 43be d23c 4d3e 99d8 4f3e
00000200: 90b5 de3e 3da3 75bc d44a 87bd a9b6 093e
00000210: 9d64 c3bd ec37 4d3c 69aa 2f3e 7d8c b6bc
00000220: a9dc 99bd 9ed7 47bd c6d3 a33d c638 ec3d
00000230: f1fd b3bd e873 1d3d 44bf 4f3d dff2 0abe
00000240: ee0e 05be 5f5c 943d 0aa0 3a3d 8758 8bbe
00000250: 789f 42bc 959f 1e3e ff04 243d fbd0 223d
00000260: f0da f0bd 94a0 043d 640c 0a3f 6716 aebd
00000270: d987 303e 3808 bf3d 9131 be3d 1d07 3c3a
00000280: 0a76 c63a 2e31 8d3e e482 133e 8ac0 963e
00000290: 5976 94bc 2081 ad3e 1124 e23d 9e85 f6bc
000002a0: 90b0 cb3d fb66 11be 3ccb 10be 8041 0e3f
000002b0: 98b1 a4bd 17f2 0a3d 32b3 e23e 6761 71bd
000002c0: cc9f 4d3c 11d1 483d ad25 0b3d a6d4 f4bc
000002d0: 3841 01be 0c90 96bc 3d61 553d 478c 033e
000002e0: 1ff8 3c3c fdf1 563d 85b2 903d 7de7 ffbd
000002f0: a73f a33e f18d 0a3d 053c 22bd 8212 a0bc
00000300: f6b7 2c3d a747 25be b020 3abe 73cd da3c
00000310: fb4b 26bb 0649 cabc 133e 0f3f 0ece 983d
00000320: 67c0 033e 50f7 adbd 8cb3 aebc caef a43d
00000330: 4f42 493e cc49 da3d e3d7 c93b b4f9 0ebe
00000340: 1476 38be 5e6d 7abd 6521 2c3e b07e 463e
00000350: 688d ec3c 15fd c63d b6a1 5e3c e442 9b3e
00000360: 3ac4 a4be 9b3c 21be d6e9 ae3d 4f9a 2e3b
00000370: 0983 e73c fd4e 863d 9440 a5bd 38e7 163e
00000380: 6ff1 be3d 2bdc e83d 79f8 cdbd 98a7 8b3d
00000390: 04fe aabd 3c75 d53d a8b9 f2bd a15c 633e
000003a0: 4220 9abd a6f1 213e 8ccb 833b 8f79 5d3e
000003b0: 6df9 c03d 4a72 be3d eb7c cf3e e543 073e
000003c0: 527e dcbd 3990 be3c 4551 d53d 4f85 123d
000003d0: 53c7 87bd 1f03 5a3e 6243 01bd e5f7 293e
000003e0: 9e32 1fbe 10f9 113d 0d3f 683e c73b 18be
000003f0: 32e8 66bc 6b04 ce3d e2ed 193e c785 033f

layers.2.bias f4 [256]
-0.28915802 -0.055124104 -0.14067677 -0.28791043 -0.06959077 -0.0153084835 0.0013708893 -0.186936
-0.4786571 -0.3992635 0.068548344 -0.22184965 -0.071032956 0.08218747 0.08773511 -0.030209087
-0.19401921 -0.08837746 -0.030728776 -0.02132582 -0.015570069 -0.4192978 0.08186514 -0.4690473
-0.018847708 -0.11035923 -0.014862965 -0.03348427 0.028926576 0.04779857 -0.03373297 0.032595422
-0.25963423 -0.12535216 -0.023201367 -0.2056538 -0.027833026 -0.02040193 -0.08825303 0.063053355
-0.37300658 0.047354694 -0.009940209 0.029299455 -0.1553525 -0.022858152 0.03891553 -0.5299262
-0.060757663 -0.15706527 -0.023250557 -0.019205188 -0.47744253 0.13422766 -0.024856227 0.0019547904
-0.011769916 -0.4105916 0.021485882 -0.26628974 -0.009198097 0.043361653 -0.30091786 0.015902277
-0.05937234 0.07839924 0.029736105 0.09874703 0.018112274 -0.02949376 0.053444907 -0.024782004
-0.0024129965 -0.018354516 0.08332946 -0.14733787 -0.017539987 -0.08536108 0.047723304 0.0659168
-0.08141851 0.0900525 0.06391651 -0.157844 -0.13593502 -0.12686498 -0.081821464 -0.023404552
-0.067982525 -0.0010996513 0.058444228 -0.4618379 -0.42411986 -0.016410071 -0.23074384 -0.35312918
0.07174264 -0.013152375 0.09091804 -0.20672987 0.02522678 -0.19482902 -0.061084308 -0.18402818
0.08545908 -0.033355333 -0.4881514 -0.24740456 -0.012499851 -0.1406879 0.077769674 -0.18448652
0.024804596 -0.13944846 -0.013004273 0.0600058 -0.14565387 -0.21745192 -0.34568352 -0.33857134
-0.020286722 -0.02322137 -0.08675059 -0.024889903 -0.05401886 -0.018288719 0.0077848807 0.0694363
-0.06768803 -0.30967522 0.020929214 -0.31599367 -0.26745856 0.018226584 0.06926298 -0.012577454
-0.2017812 -0.0049043666 -0.4661707 -0.028433636 -0.067807935 0.03722004 -0.15055944 -0.20718826
-0.02387865 -0.016259303 -0.15775771 0.039553717 0.06358205 -0.37126768 0.0007419398 -0.32509744
-0.22449079 0.0876961 0.079680204 -0.039856814 -0.04189961 -0.29142496 -0.018639587 0.008413336
-0.17714682 -0.02485492 0.074012384 -0.023317669 0.09341112 -0.018007206 0.043348886 -0.0165116
-0.025454117 -0.4449231 0.10271289 0.07879761 0.069685146 0.062249176 -0.03964207 -0.074035965
0.07104093 -0.26531127 0.075165115 -0.42487407 -0.044145953 -0.19329551 -0.17982732 -0.02967381
-0.030011678 -0.0129421335 -0.4386654 0.08176275 -0.017989997 -0.018805334 -0.0029480678 -0.011399836
-0.034804925 0.05330405 0.08988398 -0.030244093 -0.06435923 -0.40208519 -0.054939464 -0.13760799
-0.5008621 -0.029679425 -0.39729342 -0.03867982 -0.017156677 -0.3690488 0.015382949 -0.5230281
-0.22283356 -0.12508795 -0.037796326 -0.13637692 -0.1349741 -0.16716672 -0.37749934 -0.46828526
-0.5227636 -0.55470306 -0.022425272 -0.20575458 -0.3256208 -0.028797347 -0.49885592 -0.36066547
-0.008530127 -0.024559256 -0.3420549 -0.012449743 -0.3509079 0.0116929915 -0.0975298 -0.4611999
-0.037977472 -0.28771138 -0.038150486 0.06940862 -0.14086972 -0.26261824 -0.05660314 -0.016725319
-0.1727807 -0.007831585 -0.010371868 0.052162927 -0.35559785 -0.1403579 -0.2656758 -0.27182236
0.007802131 -0.29493377 -0.42175677 -0.33385164 -0.62160957 -0.009889931 -0.008761047 -0.17254771
00000000: 850c 94be d0c9 61bd 920d 10be ff68 93be
00000010: 9b85 8ebd 6fd0 7abc 69af b33a 276c 3fbe
00000020: 8b12 f5be 446c ccbe 1363 8c3d 8e2c 63be
00000030: ba79 91bd e751 a83d 77ae b33d 0c79 f7bc
00000040: f9ac 46be 3eff b4bd eaba fbbc 7cb3 aebc
00000050: 9a19 7fbc 34ae d6be e9a8 a73d f826 f0be
00000060: 8266 9abc 0504 e2bd cb83 73bc cd26 09bd
00000070: 6df7 ec3c 6fc8 433d 952b 0abd c782 053d
00000080: c7ee 84be 515c 00be cb10 bebc e996 52be
00000090: 1602 e4bc f321 a7bc 01be b4bd 1e22 813d
000000a0: b8fa bebe fff6 413d 42dc 22bc 6905 f03c
000000b0: ba14 1fbe 0541 bbbc e465 1f3d 3ea9 07bf
000000c0: 07dd 78bd b8d5 20be f477 bebc 3354 9dbc
000000d0: 5973 f4be fa72 093e 499f cbbc f11b 003b
000000e0: 9bd6 40bc 1039 d2be 2903 b03c 2157 88be
000000f0: 9db3 16bc fd9b 313d e811 9abe 7e45 823c
00000100: 6930 73bd c88f a03d 2299 f33c e23b ca3d
00000110: 3160 943c e69c f1bc 0ce9 5a3d a103 cbbc
00000120: 5d23 1ebb 365c 96bc a3a8 aa3d bddf 16be
00000130: 05b0 8fbc cad1 aebd 8379 433d 63ff 863d
00000140: bfbe a6bd 726d b83d a9e6 823d dca1 21be
00000150: 8d32 0bbe e5e8 01be 0392 a7bd e7ba bfbc
00000160: 6c3a 8bbd 2d22 90ba 3763 6f3d 0476 ecbe
00000170: 3d26 d9be 6a6e 86bc 1d48 6cbe 59cd b4be
00000180: ceed 923d 0f7d 57bc 3d33 ba3d ffb0 53be
00000190: 64a8 ce3c 4281 47be 8a33 7abd e271 3cbe
000001a0: 2c05 af3d 9a9f 08bd fbee f9be 9f57 7dbe
000001b0: 2dcc 4cbc 7d10 10be b545 9f3d 09ea 3cbe
000001c0: 0233 cb3c 94cb 0ebe e00f 55bc a4c8 753d
000001d0: 4a26 15be b7ab 5ebe 6efd b0be 3959 adbe
000001e0: 5730 a6bc be3a bebc 4baa b1bd e9e5 cbbc
000001f0: e142 5dbd 39d2 95bc 5018 ff3b 9e34 8e3d
00000200: 06a0 8abd c08d 9ebe be73 ab3c ecc9 a1be
00000210: 54f0 88be eb4f 953c c0d9 8d3d aa11 4ebc
00000220: bb9f 4ebe cfb4 a0bb edad eebe a8ed e8bc
00000230: e3de 8abd 0a74 183d 412c 1abe 2929 54be
00000240: 299d c3bc 3b32 85bc 3d8b 21be 1403 223d
00000250: 4e37 823d cc16 bebe bd7e 423a 2c73 a6be
00000260: eae0 65be 039a b33d 602f a33d e640 23bd
00000270: ed9e 2bbd a735 95be 0cb2 98bc 17d8 093c
00000280: fa65 35be 8c9c cbbc ce93 973d b204 bfbc
00000290: 544e bf3d d983 93bc 9a8e 313d 5643 87bc
000002a0: 2785 d0bc f6cc e3be 235b d23d a460 a13d
000002b0: 16b7 8e3d fef8 7e3d b95f 22bd 2ba0 97bd
000002c0: e87d 913d e1d6 87be 2bf0 993d 1889 d9be
000002d0: 63d2 34bd 42ef 45be a724 38be 7d16 f3bc
000002e0: 0ddb f5bc 3e0b 54bc c098 e0be 3b73 a73d
000002f0: c25f 93bc a50d 9abc 5f34 41bb 61c6 3abc
00000300: 9c8f 0ebd 5955 5a3d 1815 b83d 76c2 f7bc
00000310: c6ce 83bd 1cde cdbe 3408 61bd 1ce9 0cbe
00000320: 8038 00bf 4422 f3bc 0b6a cbbe bb6e 1ebd
00000330: 298c 8cbc f7f3 bcbe c408 7c3c 2be5 05bf
00000340: 7b2e 64be 0e17 00be 52d0 1abd 64a6 0bbe
00000350: a736 0abe c12d 2bbe 9847 c1be 16c3 efbe
00000360: d6d3 05bf 0501 0ebf 34b5 b7bc 54b1 52be
00000370: c5b7 a6be 6ae8 ebbc 0b6a ffbe 25a9 b8be
00000380: f2c1 0bbc 7e30 c9bc d221 afbe 02fa 4bbc
00000390: 33aa b3be f693 3f3c b4bd c7bd 6522 ecbe
000003a0: 448e 1bbd e84e 93be af43 1cbd 1b26 8e3d
000003b0: 2740 10be e675 86be b2d8 67bd 8903 89bc
000003c0: 6ced 30be 0c50 00bc c4ee 29bc cba8 553d
000003d0: ec10 b6be fbb9 0fbe a906 88be 4d2c 8bbe
000003e0: 05a9 ff3b 8f01 97be 81f0 d7be 9aee aabe
000003f0: ce21 1fbf 6109 22bc 7f8a 0fbc 59b0 30be

layers.4.weight f4 [256, 256]
0.06821255 -0.103348084 -0.0172247 -0.07078289 0.1963802 -0.04887032 -0.07291184 -0.0884392
0.05907581 0.02694802 0.026278086 0.067314714 0.09340732 -0.06499695 -0.18304217 0.017073631
0.03287288 0.050961364 -0.2483186 0.07183983 0.07010788 -0.0013390428 -0.11311139 -0.03716955
0.024425928 -0.060544584 0.075274184 -0.014520625 -0.12809211 -0.21878713 -0.028912181 -0.12575354
-0.015027255 -0.070948645 0.10250561 0.03767788 0.0663217 0.04004601 -0.06685416 -0.16619553
-0.09308788 -0.19330622 0.014431501 -0.040366694 -0.015722936 0.030251458 0.03698261 -0.034247912
0.05010458 0.10483457 0.10257638 -0.08875677 -0.023584642 -0.21509887 0.10681107 0.14389952
0.07607837 -0.038615376 -0.0214182 0.047064293 0.02586784 0.03021192 0.038216416 -0.054964915
-0.052226864 -0.13741314 -0.1736668 -0.2261164 -0.016552744 0.07538451 -0.09356133 -0.04698039
0.06976365 -0.011202241 -0.06408289 0.008843933 -0.12835573 -0.04220652 -0.19212186 -0.21630779
-0.13156307 -0.22501497 -0.0012322217 0.030817945 0.09099634 0.13314575 0.056250267 -0.024148574
-0.040777918 0.11988981 -0.038751688 -0.0057082935 0.008494831 0.01609535 0.037446927 -0.020648602
-0.09131599 -0.06283451 0.0013913129 0.0030016606 -0.12300645 0.06772456 0.055160183 0.07356195
-0.16993995 -0.17693676 -0.08863352 0.16059099 -0.057937123 0.10111714 -0.2133618 0.17634945
-0.017347328 0.07912045 0.03584277 -0.046208568 0.012819713 -0.02002182 -0.079253756 -0.021213477
0.11371415 -0.040919274 -0.008934096 -0.05969266 0.031508166 -0.0113895945 -0.11868534 -0.08232822
-0.11439425 0.09480861 -0.19423091 0.02739775 0.0044099437 0.07084214 -0.22498344 0.048388798
-0.059737295 -0.12160146 -0.015612063 -0.11941419 0.0020893898 -0.06526148 -0.045004874 0.031471897
-0.07387898 -0.118350625 -0.07199296 -0.18218659 -0.032229755 0.11056114 0.039915707 0.03699585
-0.033117186 -0.103889644 -0.12537691 0.05943229 -0.0312558 -0.12584026 0.009989511 0.02098775
0.18512845 0.023273991 -0.13339114 0.07351195 -0.19286536 0.00976952 -0.19382338 -0.07050556
0.09001447 -0.002918927 -0.23029342 -0.22610345 -0.079540074 -0.10718527 0.05750506 0.08387101
-0.058105163 0.028023288 -0.089755654 -0.083004676 0.045847848 0.12006586 0.09732064 -0.04734449
0.010213545 -0.0076129534 0.043412525 -0.022504577 -0.030485362 -0.07767667 0.053998772 -0.10092885
0.03537695 0.091221936 -0.05763697 -0.057388164 -0.07129872 0.0823803 -0.003987131 0.013315528
0.1137115 -0.10731786 0.08662461 -1.9531515e-05 0.07691648 -0.006256424 -0.18417518 0.09822945
-0.08063736 -0.15785645 0.044825647 0.12844048 0.06053855 0.06422931 -0.029320534 0.0060642273
-0.033719182 -0.058130696 -0.063723 -0.04310825 -0.09841699 -0.012281425 0.01857391 -0.017374558
-0.21830603 0.119291805 -0.010106707 0.10366824 -0.07060873 -0.16835757 0.08988896 0.12931408
0.10273849 0.019320577 -0.01805179 -0.21478537 -0.054575622 0.052910607 0.048048 -0.05407129
-0.09197662 -0.057284888 0.012740403 -0.049617343 -0.09158181 0.08754331 -0.05239133 0.0791802
0.08620445 -0.12874724 0.089549206 0.11843503 0.12335122 0.010550736 -0.008169683 -0.05313818
00000000: 05b3 8b3d 29a8 d3bd d01a 8dbc 9ff6 90bd
00000010: e417 493e 3f2c 48bd ce52 95bd 9c1f b5bd
00000020: 7af9 713d 18c2 dc3c 2445 d73c 4cdc 893d
00000030: 564c bf3d 1f1d 85bd 686f 3bbe 00de 8b3c
00000040: b7a5 063d ddbc 503d 3b47 7ebe c320 933d
00000050: b894 8f3d d282 afba f2a6 e7bd 193f 18bd
00000060: e218 c83c 99fd 77bd 5a29 9a3d eae7 6dbc
00000070: 942a 03be bc09 60be 3dd9 ecbc 89c5 00be
00000080: e034 76bc 864d 91bd 76ee d13d 1f54 1a3d
00000090: acd3 873d 4907 243d d5ea 88bd 292f 2abe
000000a0: dca4 bebd 11f2 45be 1a72 6c3c 8c57 25bd
000000b0: 63cd 80bc e8d1 f73c 147b 173d 8a47 0cbd
000000c0: 763a 4d3d 82b3 d63d 9113 d23d 1cc6 b5bd
000000d0: 9434 c1bc e142 5cbe c3bf da3d 655a 133e
000000e0: face 9b3d 282b 1ebd 3975 afbc 7dc6 403d
000000f0: cbe8 d33c fd7e f73c d188 1c3d e422 61bd
00000100: d6eb 55bd 08b6 0cbe b6d5 31be 0f8b 67be
00000110: 9f99 87bc 3263 9a3d 159d bfbd 826e 40bd
00000120: 3fe0 8e3d 9b89 37bc e43d 83bd 25e6 103c
00000130: af6f 03be bee0 2cbd 98bb 44be ca7f 5dbe
00000140: 78b8 06be 536a 66be 8082 a1ba ea75 fc3c
00000150: 4a5c ba3d 5c57 083e ae66 663d 3bd3 c5bc
00000160: bf06 27bd ca88 f53d 17ba 1ebd a30c bbbb
00000170: e72d 0b3c 65da 833c f361 193d 4227 a9bc
00000180: e103 bbbd 61af 80bd b75c b63a 82b7 443b
00000190: ceea fbbd 2db3 8a3d a5ef 613d a6a7 963d
000001a0: bd04 2ebe e92e 35be 7e85 b5bd f771 243e
000001b0: 7a4f 6dbd 8116 cf3d 847b 5abe f394 343e
000001c0: fc1b 8ebc e709 a23d decf 123d 3245 3dbd
000001d0: c609 523c cd04 a4bc cb4f a2bd e3c7 adbc
000001e0: f7e2 e83d f89a 27bd 5160 12bc 4a80 74bd
000001f0: b50e 013d 6c9b 3abc 4d11 f3bd b39b a8bd
00000200: 8847 eabd 042b c23d 78e4 46be 3f71 e03c
00000210: 4a81 903b af15 913d 0f62 66be 5533 463d
00000220: 18af 74bd 300a f9bd bdc9 7fbc 6d8f f4bd
00000230: 25ee 083b d0a7 85bd 0857 38bd ade8 003d
00000240: dd4d 97bd d061 f2bd 0c71 93bd 1f8f 3abe
00000250: 5903 04bd e16d e23d a77e 233d f688 173d
00000260: e3a5 07bd 18c4 d4bd ce62 00be 466f 733d
00000270: 1506 00bd 45dc 00be 0cab 233c 80ee ab3c
00000280: 5092 3d3e 19a9 be3c b097 08be 6f8d 963d
00000290: 7f7e 45be 5610 203c a379 46be 3865 90bd
000002a0: 8259 b83d 784b 3fbb 0ad2 6bbe aa87 67be
000002b0: e8e5 a2bd f383 dbbd 6d8a 6b3d 90c4 ab3d
000002c0: aeff 6dbd 1891 e53c d0d1 b7bd 5bfe a9bd
000002d0: f4ca 3b3d 17e5 f53d 0b50 c73d 4cec 41bd
000002e0: b656 273c 1576 f9bb 55d1 313d 855b b8bc
000002f0: 70bc f9bc f214 9fbd d12d 5d3d c9b3 cebd
00000300: 6ce7 103d 91d2 ba3d be14 6cbd da0f 6bbd
00000310: 1005 92bd 01b7 a83d 7ba6 82bb 5f29 5a3c
00000320: 93e1 e83d 77c9 dbbd 3e68 b13d 9cd7 a3b7
00000330: 6386 9d3d b002 cdbb 6b98 3cbe 862c c93d
00000340: 3325 a5bd 1fa5 21be 199b 373d e785 033e
00000350: 45f7 773d a88a 833d 9e31 f0bc 6db6 c63b
00000360: 201d 0abd 741a 6ebd 3481 82bd 4792 30bd
00000370: d98e c9bd 0838 49bc 5028 983c 1755 8ebc
00000380: 9e8b 5fbe 434f f43d 9a96 25bc 0450 d43d
00000390: 4f9b 90bd ed65 2cbe b417 b83d e96a 043e
000003a0: 8f68 d23d 3046 9e3c 59e1 93bc b2f0 5bbe
000003b0: b08a 5fbd cbb8 583d fbcd 443d db79 5dbd
000003c0: 3d5e bcbd 8fa3 6abd 20bd 503c 8e3b 4bbd
000003d0: 3e8f bbbd e849 b33d 4b98 56bd 3b29 a23d
000003e0: f58b b03d 51d6 03be 9365 b73d 118e f23d
000003f0: 909f fc3d ffdc 2c3c 22da 05bc 6ca7 59bd

layers.4.bias f4 [256]
-0.08932377 -0.046145514 -0.14863344 0.0030454749 -0.073314905 -0.023010056 -0.23916 -0.16106963
-0.018107178 -0.07380528 -0.04332357 -0.06292136 -0.12742381 -0.099857 0.010426295 -0.0801037
-0.12231498 -0.07259713 -0.057023507 -0.16488321 -0.11618186 -0.03886313 -0.07538887 -0.17298089
-0.1951371 -0.7010061 -0.022190524 -0.22028908 -0.031184727 -0.3576014 -0.14792588 -0.14701276
-0.25250307 0.019598708 -0.0912205 -0.10025287 -0.1060168 -0.046318237 -0.15333594 -0.034917086
-0.09104567 -0.12166338 -0.12333452 -0.05529802 -0.19827062 0.045667816 -0.022961855 -0.1440274
-0.17684957 -0.1972371 -0.078569956 -0.14113179 -0.09824387 -0.011372787 -0.082798444 -0.26995766
-0.16642752 -0.10201793 -0.12675479 -0.117426515 -0.06365701 -0.044862527 -0.07062637 -0.073722735
-0.16515724 -0.07246293 0.033937056 -0.088094816 -0.04872112 -0.022103371 -0.028025044 -0.19088988
-0.2092502 -0.05981943 -0.06938119 0.028126493 -0.07846259 -0.036453187 -0.041470144 0.0068386765
-0.06273372 -0.23488216 0.04227749 -0.07880121 -0.11747841 -0.039057028 -0.19285178 -0.073797576
-0.11743427 -0.10424372 -0.29195702 -0.06266899 -0.048418395 -0.1451296 -0.061184768 -0.07965218
-0.039021704 -0.055218942 -0.08099459 -0.060245115 0.13384628 -0.16556323 -0.23308808 -0.06582881
-0.05822168 0.004132278 -0.058985036 -0.09964581 -0.15805028 -0.08197117 -0.043946363 -0.16117685
-0.23700581 0.009101316 -0.1353045 -0.06665294 -0.092705384 -0.17787124 -0.088769294 -0.038569707
-0.118885 -0.06194421 -0.07992256 -0.054396078 -0.18180232 -0.10132193 0.07263125 -0.079459384
-0.04024818 -0.25290146 -0.051398106 -0.05955209 -0.13263866 -0.060481917 -0.0714834 -0.043186065
-0.20089577 -0.29799587 -0.06595224 -0.079004936 -0.012323471 -0.30248258 -0.089186475 -0.067624144
-0.053616207 -0.12911159 -0.06692394 -0.06491283 0.040377486 -0.04281639 -0.08449783 -0.038442183
-0.7326737 -0.075903706 -0.060865667 -0.18537672 -0.12913144 -0.33218572 -0.07253146 -0.1170122
-0.057157043 -0.07532957 -0.21465595 -0.112506144 -0.15036795 -0.09247865 -0.033939924 -0.11506061
-0.086908154 -0.028817642 -0.07708236 -0.04753166 -0.38289902 -0.029462492 -0.08648229 -0.31255105
-0.012513672 -0.5201344 -0.13129708 -0.026555765 -0.057074986 -0.050635654 -0.035319492 -0.08098828
-0.013983634 -0.058554124 -0.065918446 -0.25553286 -0.111697 -0.099611774 -0.21843722 0.0071313786
-0.06285234 -0.26336542 -0.06141206 -0.09172431 -0.4722212 -0.022737283 -0.72797465 -0.11789637
-0.20994732 0.019913487 -0.13430157 0.005001962 -0.3211737 -0.034175266 -0.36090586 -0.067772016
-0.012356743 -0.051917743 -0.491265 -0.1097457 -0.16183776 -0.2428329 -0.06393672 0.011236952
-0.026599485 -0.16347867 -0.07009061 -0.047003508 0.0041105994 -0.18229651 -0.113516055 0.011021124
0.042144775 -0.23101793 0.0061783143 -0.10248347 -0.21218002 -0.05809414 -0.20954697 -0.037453473
-0.031976063 -0.07479039 -0.4905104 -0.14103825 -0.189688 0.0020737983 -0.19348773 0.06612691
-0.08435518 -0.081724524 -0.060266487 -0.06864915 -0.09361714 -0.010799461 -0.057322577 -0.05736576
-0.039316464 0.10900293 -0.0639037 -0.18452215 -0.2135385 -0.09816677 -0.16016719 -0.09016094
00000000: 61ef b6bd 1403 3dbd 5d33 18be 9796 473b
00000010: 2026 96bd 967f bcbc 5ce6 74be 70ef 24be
00000020: 8155 94bc 3927 97bd 0e74 31bd eadc 80bd
00000030: 637b 02be d481 ccbd 0dd3 2a3c 690d a4bd
00000040: 4780 fabd cead 94bd 7b91 69bd 25d7 28be
00000050: c1f0 edbd f22e 1fbd 7b65 9abd e721 31be
00000060: 05d2 47be 2375 33bf e7c8 b5bc 7693 61be
00000070: 1d77 ffbc 8817 b7be e279 17be 838a 16be
00000080: 1548 81be 788d a03c d0d1 babd 6051 cdbd
00000090: 561f d9bd 31b8 3dbd 1904 1dbe 3805 0fbd
000000a0: 2776 babd a62a f9bd cf96 fcbd 2d80 62bd
000000b0: 7407 4bbe 2d0e 3b3d 801a bcbc eb7b 13be
000000c0: 0e18 35be 86f8 49be 49e9 a0bd da84 10be
000000d0: 1534 c9bd ed54 3abc 3b92 a9bd e437 8abe
000000e0: fa6b 2abe c7ee d0bd 02cc 01be 507d f0bd
000000f0: 9b5e 82bd c5c1 37bd 8fa4 90bd f2fb 96bd
00000100: fb1e 29be 7267 94bd 9501 0b3d 0e6b b4bd
00000110: cc8f 47bd 2112 b5bc c794 e5bc a378 43be
00000120: af45 56be 3805 75bd ba17 8ebd 8869 e63c
00000130: ffb0 a0bd f04f 15bd 99dc 29bd fa16 e03b
00000140: 897a 80bd f384 70be 292b 2d3d 8762 a1bd
00000150: 8598 f0bd 43fa 1fbd f07a 45be 2f23 97bd
00000160: 6181 f0bd bb7d d5bd 647b 95be 9958 80bd
00000170: 5e52 46bd db9c 14be e19c 7abd af20 a3bd
00000180: 39d5 1fbd 422d 62bd 7ee0 a5bd 95c3 76bd
00000190: 000f 093e 6889 29be a4ae 6ebe 41d1 86bd
000001a0: db79 6ebd 0f68 873b 4b9a 71bd 1a13 ccbd
000001b0: efd7 21be 80e0 a7bd 1a01 34bd 8b0b 25be
000001c0: a7b1 72be b01d 153c 438d 0abe 5681 88bd
000001d0: 52dc bdbd e123 36be adcc b5bd 45fb 1dbd
000001e0: fb79 f3bd 36b9 7dbd 70ae a3bd 6cce 5ebd
000001f0: 632a 3abe df81 cfbd b1bf 943d 9abb a2bd
00000200: 47db 24bd 4d7c 81be d286 52bd e4ec 73bd
00000210: 6ed2 07be e3bb 77bd e465 92bd dfe3 30bd
00000220: 9fb7 4dbe ea92 98be f811 87bd 57cd a1bd
00000230: 62e8 49bc ffde 9abe 66a7 b6bd 877e 8abd
00000240: ab9c 5bbd d435 04be 6b0f 89bd 05f1 84bd
00000250: dd62 253d 3d60 2fbd 330d adbd 8d75 1dbd
00000260: 8190 3bbf 6773 9bbd 474e 79bd 65d3 3dbe
00000270: 083b 04be 3f14 aabe 608b 94bd 18a4 efbd
00000280: 811d 6abd 6446 9abd c5ce 5bbe 9f69 e6bd
00000290: 0efa 19be 7265 bdbd 9704 0bbd e6a4 ebbd
000002a0: e7fc b1bd fa12 ecbc 5bdd 9dbd 8fb0 42bd
000002b0: 570b c4be 535b f1bc a01d b1bd b106 a0be
000002c0: 2506 4dbc 8727 05bf be72 06be 7a8b d9bc
000002d0: 76c7 69bd 5567 4fbd 2cab 10bd 2fdd a5bd
000002e0: 9d1b 65bc 73d6 6fbd 4000 87bd 34d5 82be
000002f0: 66c1 e4bd 4201 ccbd 02ae 5fbe 57ae e93b
00000300: bab8 80bd d5d7 86be 368b 7bbd f4d9 bbbd
00000310: fac6 f1be 8a43 babc 8c5c 3abf a773 f1bd
00000320: 6efc 56be 9c21 a33c 5a86 09be 80e7 a33b
00000330: e170 a4be 5dfb 0bbd a7c8 b8be 0ecc 8abd
00000340: f073 4abc b3a7 54bd 1687 fbbe 5bc2 e0bd
00000350: ccb8 25be 30a9 78be 41f1 82bd 311b 383c
00000360: 2ae7 d9bc f466 27be aa8b 8fbd c086 40bd
00000370: 35b2 863b f0ab 3abe 1b7b e8bd f291 343c
00000380: 00a0 2c3d f78f 6cbe 7573 ca3b dbe2 d1bd
00000390: b845 59be 1ff4 6dbd 7b93 56be d068 19bd
000003a0: 55f9 02bd b42b 99bd 2e24 fbbe 556c 10be
000003b0: 923d 42be 90e8 073b a621 46be 8c6d 873d
000003c0: 69c2 acbd 305f a7bd fed9 76bd ed97 8cbd
000003d0: 58ba bfbd 39f0 30bc 14cb 6abd 5cf8 6abd
000003e0: 4d0a 21bd ee3c df3d f1df 82bd 60f3 3cbe
000003f0: d6a9 5abe a90b c9bd de02 24be 4da6 b8bd

layers.6.weight f4 [1, 256]
-0.00086149975 0.06480632 0.00407068 0.16663606 -0.0008820869 -0.002688116 0.060468983 0.07738982
-0.0005995454 -0.00051306497 -5.831805e-05 -0.03136513 -0.018337775 -0.00015589029 -0.000749207 -0.011379399
-0.0064801057 -0.0008392568 -0.00077325443 -0.08966546 -0.065514214 -0.00011951217 0.000843855 0.04364758
0.087616906 0.22434577 0.000511997 0.07469972 -0.00016129654 0.0848795 -0.10610836 0.0070791068
-0.0025993024 0.00022141653 -0.00014685624 0.026220823 -0.074836634 0.0001214092 -0.1049849 0.0017245052
0.0004767505 0.04183721 0.01044703 -0.000364306 -0.114772715 -0.001934893 -0.00015419263 -0.20016254
0.11855864 0.071109354 0.013972554 -0.00018014648 -0.00081007805 -0.0009377825 0.0010812901 0.06459481
-0.06313526 -0.0006039786 -0.0022049402 0.118737586 -0.00064058206 -0.00037262475 0.023921637 -0.00027606406
-0.14892668 -0.0005295964 0.3129462 -0.00059760356 -6.57021e-05 -0.00017410125 0.4545934 -0.10616094
0.22891544 -0.00026590124 0.009943933 -0.00062430627 -0.00020818246 -0.015438215 0.00953744 0.0013421542
0.007028945 -0.07068928 0.00012647417 -0.0017673351 -0.03783531 -0.00014278258 -0.049631875 -0.011672271
-0.0005951298 -0.000478096 0.059656676 -0.00057396526 0.0012515273 -0.022500431 -0.0003708543 8.979977e-05
-0.00015419158 -0.0011956848 -9.174948e-05 0.00046034143 0.18366493 -0.05934152 -0.045740195 -0.042992175
0.0005979077 0.089598574 -0.0015380274 -0.017771535 -0.06664768 -0.0008260928 -0.00019640081 -0.040547356
-0.15077731 -0.0019031614 -0.040325884 0.024563866 -0.0011940344 -0.11741594 -0.0020733713 -0.00012005857
-0.03677308 -0.00071729574 -0.00040914776 0.0024327035 -0.104133345 -0.00045656247 -8.771568e-05 -0.00022018886
-0.0002738888 -0.034049578 -0.0008617624 -0.0007993949 -0.15251358 0.0011278578 -0.00064716407 0.003001349
-0.12830584 -0.083715476 -0.00030625402 0.010116831 0.0011939858 -0.35905966 -0.011471563 0.00020085332
-0.00042814715 -0.00015791526 0.02831034 -0.0006411256 -0.00064642227 -0.0006193932 0.00059302 -1.9896346e-05
0.31143418 0.013971034 -0.0012591288 -0.035152562 0.02269662 -0.16819195 0.0006262252 0.05171842
-2.8712173e-05 -0.12420734 0.20844898 0.13281861 -0.11092388 -0.00021531082 0.00022716951 -0.0002473627
-0.0012061533 0.0007926016 0.007660979 -0.0007956211 -0.3093247 0.0010017203 1.2100923e-05 0.09270759
7.109682e-05 0.22822438 0.0022096368 -0.0022527378 2.1655871e-05 0.013821097 -0.00025101058 -0.0005363963
-0.00023818784 -0.0010801158 0.0001814968 0.09546566 -0.017173776 0.00041782437 -0.20403671 -0.00069173315
-0.00060564664 -0.04869485 0.0013403716 0.045115337 0.20084251 0.0010205223 0.31311494 -0.00051449897
-0.095514245 0.015745832 -0.04504219 -0.0017624099 0.10203472 -0.00047549963 0.1239572 -0.03592516
-0.00028223984 0.0005846422 0.053565767 0.00036120726 -0.0655815 -0.07741532 -0.00060176826 -0.0025099276
0.25715154 0.0209793 -0.0001956654 -0.00704203 -0.0019891865 -0.0673076 -0.042166453 -0.0011360297
-0.00017958792 -0.0022945637 -0.00041255847 -0.00023276078 -0.702553 0.00060456566 -0.055519152 -5.783557e-05
-0.00037168447 -0.031577934 0.13348584 -0.010758283 -0.1172901 -0.00213398 -0.055371024 -0.00040111964
-0.025063792 -0.00062665384 0.0004907294 -0.0007181816 -0.00026106535 -0.0028083373 -0.00044406633 6.632792e-06
7.528818e-05 0.15187317 -0.0005505172 0.028193494 0.15463053 -0.000485581 0.0025818453 -0.13215879
00000000: 45d6 61ba 2db9 843d 5763 853b a5a2 2a3e
00000010: da3b 67ba 1a2b 30bb 53ae 773d 8e7e 9e3d
00000020: d02a 1dba 357f 06ba 889a 74b8 b978 00bd
00000030: 1a39 96bc 7b76 23b9 6e66 44ba a970 3abc
00000040: 1157 d4bb 9201 5cba 3ab4 4aba 86a2 b7bd
00000050: 512c 86bd 9ca2 fab8 2736 5d3a cec7 323d
00000060: 7e70 b33d e6ba 653e 8937 063a 2bfc 983d
00000070: b621 29b9 4ed5 ad3d 574f d9bd daf7 e73b
00000080: 0f59 2abb 0c2c 6839 6cfd 19b9 0dcd d63c
00000090: f343 99bd 119d fe38 5302 d7bd cb08 e23a
000000a0: 5ef4 f939 7f5d 2b3d 052a 2b3c 5300 bfb9
000000b0: f50d ebbd 3c9c fdba c5ae 21b9 69f7 4cbe
000000c0: dfce f23d c8a1 913d 24ed 643c b4e5 3cb9
000000d0: 6b5b 54ba 85d5 75ba 13ba 8d3a 494a 843d
000000e0: 0f4d 81bd 5154 1eba c280 10bb b12c f33d
000000f0: bcec 27ba d95c c3b9 4ff7 c33c b1bc 90b9
00000100: 3c80 18be 9dd4 0aba 7c3a a03e 7fa8 1cba
00000110: 8cc9 89b8 f38e 36b9 77c0 e83e e86a d9bd
00000120: cf68 6a3e a968 8bb9 e1eb 223c 7ca8 23ba
00000130: 8e4b 5ab9 91f0 7cbc ec42 1c3c 39eb af3a
00000140: 1053 e63b 8bc5 90bd 279e 0439 eda5 e7ba
00000150: 33f9 1abd e8b7 15b9 cb4a 4bbd 0e3d 3fbc
00000160: 7c02 1cba f5a8 fab9 8f5a 743d 2876 16ba
00000170: 4a0a a43a d352 b8bc 396f c2b9 e252 bc38
00000180: 7dae 21b9 86b8 9cba a169 c0b8 fb59 f139
00000190: a912 3c3e 1810 73bd 125a 3bbd 9018 30bd
000001a0: e8bc 1c3a 757f b73d a397 c9ba 9c95 91bc
000001b0: 947e 88bd 268e 58ba f1f0 4db9 fc14 26bd
000001c0: 5e65 1abe 8073 f9ba c12c 25bd 293a c93c
000001d0: 2581 9cba c577 f0bd 66e1 07bb f4c7 fbb8
000001e0: 5e9f 16bd e708 3cba e282 d6b9 fe6d 1f3b
000001f0: dd43 d5bd c75e efb9 fff3 b7b8 7fe2 66b9
00000200: bc98 8fb9 9277 0bbd e5e7 61ba 7c8e 51ba
00000210: 852c 1cbe a1d4 933a 72a6 29ba 48b2 443b
00000220: 9b62 03be 0573 abbd b890 a0b9 11c1 253c
00000230: 847f 9c3a abd6 b7be 39f3 3bbc 279c 5239
00000240: f078 e0b9 0e96 25b9 16eb e73c 3611 28ba
00000250: aa74 29ba c65e 22ba e674 1b3a 14e7 a6b7
00000260: 4d74 9f3e c4e6 643c 5a09 a5ba 22fc 0fbd
00000270: 43ee b93c 833a 2cbe 4329 243a b2d6 533d
00000280: ecda f0b7 6b60 febd a673 553e 9a01 083e
00000290: 0f2c e3bd 0fc5 61b9 5a34 6e39 76b0 81b9
000002a0: ca17 9eba 98c6 4f3a f308 fb3b 3a91 50ba
000002b0: cf5f 9ebe 284c 833a 1205 4b37 7add bd3d
000002c0: d119 9538 a7b3 693e 8ecf 103b aba2 13bb
000002d0: a1a9 b537 e271 623c 129a 83b9 f29c 0cba
000002e0: 10c2 79b9 ac92 8dba 2d50 3e39 8083 c33d
000002f0: 05b0 8cbc 700f db39 00ef 50be 6d55 35ba
00000300: 42c4 1eba 4074 47bd 68af af3a dcca 383d
00000310: a9a9 4d3e 0cc3 853a 9a50 a03e 71df 06ba
00000320: f99c c3bd 67fd 803c 297e 38bd aa00 e7ba
00000330: 94f7 d03d 7b4c f9b9 46dd fd3d 4326 13bd
00000340: 97f9 93b9 ad42 193a c767 5b3d 6b60 bd39
00000350: 984f 86bd ec8b 9ebd fcbf 1dba 997d 24bb
00000360: 5ea9 833e c8dc ab3c 882b 4db9 d4c0 e6bb
00000370: 035d 02bb 91d8 89bd bbb6 2cbd d5e6 94ba
00000380: c44f 3cb9 6460 16bb a94c d8b9 3f11 74b9
00000390: 83da 33bf b77b 1e3a 0d68 63bd 7894 72b8
000003a0: a5de c2b9 dd57 01bd 83b0 083e 8243 30bc
000003b0: cb35 f0bd 3eda 0bbb bacc 62bd 5e4d d2b9
000003c0: 9552 cdbc 0746 24ba 4ba4 003a 5a44 3cba
000003d0: 99df 88b9 150c 38bb 93d1 e8b9 408f de36
000003e0: 09e4 9d38 a484 1b3e 9550 10ba 0bf6 e63c
000003f0: 7757 1e3e 9495 feb9 2d34 293b a254 07be
