Results_dir/2022-03-20-22-38-23/actor.pth (torch, 274391 bytes, 6 tensors)

layers.0.weight f4 [256, 6]
0	0x3d8b18c6	0.067918345
1	0xbdebf253	-0.11520829
2	0x3e9673cc	0.2938522
3	0x3bc559cb	0.006022667
4	0x3d101f65	0.03518619
5	0x3cf9efeb	0.03050991
6	0xbdd4ee2b	-0.103969894
7	0x3ce65b3a	0.028119672
8	0x3d4e82fe	0.050417893
9	0xbd03b93d	-0.03215908
10	0x3c9212e3	0.017831272
11	0xbd7e6b85	-0.062114257
12	0xbe152c88	-0.14567769
13	0xbe3ddf1d	-0.18542142
14	0x3d77e8b5	0.06052466
15	0xbdda5893	-0.106614254
16	0x3e12d706	0.14339837
17	0xbe09f136	-0.13470921
18	0xbd7a91b0	-0.061174095
19	0xbc54908d	-0.012973917
20	0x3e1c0e67	0.15239869
21	0xbd695010	-0.05696112
22	0x3e20a560	0.15688086
23	0x3d330e30	0.043714702
24	0xbd879dc9	-0.06621892
25	0xbdeaa74f	-0.11457693
26	0x3e3084c6	0.17238149
27	0xbd569834	-0.052391246
28	0x3e2f77f8	0.17135608
29	0xbdc5b8fc	-0.096544236
30	0xbd47d850	-0.048790276
31	0x3e5ac334	0.21363527
32	0xbe5e9a79	-0.21738614
33	0xbd59411b	-0.053040605
34	0x3c787163	0.015163752
35	0xbd3a0e4b	-0.045423787
36	0xbd33a434	-0.04385777
37	0x3db66ca1	0.08907438
38	0x3cbbd33e	0.022927877
39	0xbdea78b9	-0.11448807
40	0x3ca7b3ea	0.020471532
41	0x3ce9e20c	0.02855017
42	0x3e3da5d2	0.18520287
43	0xbe4897ab	-0.19589107
44	0x3e21832a	0.15772691
45	0xbcc253d9	-0.023721622
46	0x3de0865b	0.10963126
47	0xbc235b58	-0.0099705085
48	0x3df433ae	0.119239196
49	0xbe61403e	-0.21997163
50	0x3e9f7461	0.31143478
51	0xb99f15c5	-0.00030343063
52	0x3d2f8f0e	0.042861037
53	0x3dffa641	0.12482882
54	0xbd9af47f	-0.07566165
55	0x3d64473f	0.055732008
56	0xbea277cc	-0.31732023
57	0x3ded786c	0.11595234
58	0xbde297b3	-0.110640906
59	0xbe588641	-0.21144964
60	0x3d199ec0	0.03750491
61	0xbe13717a	-0.14398757
62	0x3e819530	0.25309134
63	0x3d058f0e	0.03260713
64	0x3dad3579	0.08457465
65	0x3d929583	0.07157423
66	0xbdd02b64	-0.10164526
67	0x3e48f693	0.1962531
68	0x3d53139e	0.05153238
69	0x3e076280	0.13221169
70	0x3df6c603	0.120494865
71	0xbdfe6593	-0.124217175
72	0x3e1581bd	0.14600272
73	0xbd76459f	-0.06012499
74	0x3d7e7b53	0.06212933
75	0x3db2328c	0.08701047
76	0xbe1b477c	-0.15163988
77	0x3e056848	0.13028061
78	0x3a99eea7	0.0011744098
79	0xbea817ed	-0.32830754
80	0x3dfe8c63	0.124291204
81	0xbba93068	-0.005163241
82	0xbd4cf0c6	-0.050034307
83	0x3d2f7831	0.042839233
84	0x3c9e3c5e	0.019315895
85	0x3e4f148f	0.20222686
86	0xbdd0144b	-0.101601206
87	0x3cc49694	0.023997582
88	0xbdca0d47	-0.09865814
89	0x3dc43210	0.09579861
90	0xbe0e48f6	-0.1389502
91	0x3de688f3	0.1125659
92	0x3ce97281	0.028496983
93	0xbde33c8b	-0.11095532
94	0x3dfc9c14	0.12334457
95	0xbd1c0d9b	-0.038098913
96	0x3cab3bd5	0.020902554
97	0xbe6aaff3	-0.22918682
98	0x3dc108dc	0.09425518
99	0x3d8d2f9a	0.06893845
100	0x3b786549	0.0037902168
101	0xbdcb0149	-0.099123545
102	0x3c9a50cc	0.018837355
103	0xbde74edb	-0.11294337
104	0xbe4ddaea	-0.2010304
105	0xbe06ea05	-0.13175209
106	0x3d8cb498	0.06870383
107	0x3e205852	0.15658692
108	0xbe126dbd	-0.14299674
109	0x3d54df01	0.051970486
110	0xbe1d10d2	-0.15338448
111	0xbe09407f	-0.1340351
112	0xbcc52b43	-0.02406848
113	0xbda01904	-0.07817271
114	0x39a94f64	0.00032293343
115	0xbe4993e4	-0.19685322
116	0x3c0d590a	0.008627186
117	0x3cdff684	0.027339227
118	0x3e15aae9	0.14615978
119	0x3d377592	0.04478986
120	0xbcea2e8f	-0.028586654
121	0x3e43d800	0.19125366
122	0xbc0287d6	-0.007966956
123	0xbd16293f	-0.03666043
124	0xbd885bc9	-0.06658132
125	0x3df5edf6	0.12008278
126	0x3d85e4e0	0.06537795
127	0x3e4851a5	0.19562395
128	0x3cc30df4	0.023810364
129	0xbc6965d8	-0.014245473
130	0x3dfa8bb7	0.1223368
131	0x3db9e987	0.09077745
132	0x3d971d59	0.073786445
133	0x3e2f80dc	0.17139
134	0xbe78e80e	-0.24307272
135	0xbb3b3f7c	-0.0028571775
136	0xbca8af11	-0.02059129
137	0xbd7fa7e9	-0.06241599
138	0xbcd28cda	-0.025701929
139	0xbde4dcea	-0.111749485
140	0x3d9205c8	0.07130009
141	0xbe11e417	-0.14247166
142	0xbccf2fbd	-0.025291318
143	0xbe291ad0	-0.16514134
144	0x3d0e4a2d	0.03473871
145	0x3e0ba7a1	0.13638164
146	0xbe7aa650	-0.24477506
147	0x3e0b27be	0.13589379
148	0xbdf17cc7	-0.117913775
149	0xbe360cd2	-0.17778328
150	0xbdc3d2e2	-0.09561707
151	0xbe124770	-0.14285064
152	0x3d381481	0.04494143
153	0xbd4bbbfc	-0.049739823
154	0xbe1873e6	-0.14887962
155	0xbd0eaf9d	-0.034835447
156	0x3dc4acc9	0.09603269
157	0x3e66a30b	0.22523133
158	0xbe4c12de	-0.19929072
159	0x3d81fd33	0.06347122
160	0x3d9259e2	0.0714605
161	0xbe027d8c	-0.12743205
162	0xbe2171b8	-0.15766037
163	0x3e49e1b0	0.19714999
164	0xbdb5577d	-0.08854578
165	0x3dc8580f	0.09782421
166	0xbd805517	-0.062662296
167	0x3e0c3dcb	0.13695447
168	0xbdd6f312	-0.10495581
169	0x3e01eac7	0.12687217
170	0xbd16e2cb	-0.03683738
171	0xbdc8d9f1	-0.09807194
172	0x3d85f707	0.06541257
173	0xbb940bf2	-0.0045180256
174	0x3d48b330	0.04899901
175	0xbe133981	-0.14377405
176	0x3e4010b8	0.18756378
177	0x3db4973d	0.08817909
178	0xbc9ed25b	-0.019387415
179	0x3d9a7d33	0.07543411
180	0x3d721181	0.059098724
181	0x3e1a09bb	0.15042774
182	0xbe8e1cda	-0.27756387
183	0x3dd5f513	0.10447135
184	0xbd5b6b9e	-0.05356943
185	0xbdc17c14	-0.09447494
186	0xbd9cf576	-0.076640055
187	0xbe5c777e	-0.21529958
188	0xbdad00cc	-0.084474176
189	0x3c68bd5e	0.014205305
190	0x3e13e6a7	0.14443456
191	0x3ce6048b	0.028078338
192	0xbcf2f9a7	-0.02966006
193	0xbe263533	-0.16231231
194	0xbd0f6cc3	-0.035015833
195	0x3e108c0e	0.14115927
196	0x3d3c64e7	0.045994665
197	0xbd1054af	-0.03523701
198	0xbd5df167	-0.054185297
199	0x3e165220	0.14679766
200	0xbe1be924	-0.15225655
201	0xbbf07180	-0.007337749
202	0xbd8a1e0d	-0.06744013
203	0x3dd00daf	0.1015886
204	0xbd500732	-0.050788112
205	0x3dea3857	0.11436527
206	0x3c32803a	0.010894829
207	0xbd70a2bd	-0.05874895
208	0x3dacc025	0.08435086
209	0xbd135fb5	-0.035979945
210	0x3df1171a	0.117719844
211	0x3e201222	0.15631917
212	0xbdab537f	-0.08365535
213	0x3db2479d	0.087050654
214	0x3d0e902e	0.03480547
215	0x3e1374e4	0.14400059
216	0x3dd458d5	0.10368506
217	0xbcf0d886	-0.029400121
218	0x3dc677dd	0.09690831
219	0xbdcb47d1	-0.09925807
220	0xbe00c736	-0.12575993
221	0x3da659ac	0.08122572
222	0x3d28e399	0.04123268
223	0x3e701623	0.23445944
224	0xbe895fe1	-0.26830962
225	0x3c67ca38	0.014147334
226	0xbcdef81d	-0.027217919
227	0xbdbf80d6	-0.093507454
228	0xbe08653c	-0.13319868
229	0xbd4483e3	-0.04797734
230	0x3e67c5f3	0.22634105
231	0x3d179580	0.03700781
232	0x3ddb3a70	0.107045054
233	0xbd0421c0	-0.03225875
234	0xbc071c62	-0.008246513
235	0x3dc6e92e	0.09712444
236	0xbe6e27f0	-0.23257422
237	0x3dc29eb5	0.09502927
238	0xbdaf99fb	-0.08574291
239	0x3dfbf6dd	0.12302945
240	0x3dce67ac	0.100783676
241	0x3c84f801	0.016231539
242	0xbde1a87c	-0.11018464
243	0x3d94f0ea	0.07272513
244	0xbd14a25a	-0.036287643
245	0x3dcc6fe5	0.0998228
246	0x3d419f84	0.047271267
247	0x3e243882	0.16037181
248	0x3db84187	0.08996873
249	0xbd869951	-0.065722115
250	0xbd62715d	-0.055283893
251	0xbe06c1b8	-0.13159835
252	0xbdebc392	-0.115119115
253	0x3e7fb063	0.2496963
254	0xbecfcc96	-0.40585774
255	0x3c446542	0.011987032

layers.0.bias f4 [256]
0	0x3925fd70	0.00015830039
1	0x3db38a39	0.08766598
2	0x3c91de59	0.017806219
3	0x3b9709cc	0.004609322
4	0xba81f751	-0.0009915625
5	0x3a3e3cac	0.00072569656
6	0x3cb9dfa5	0.02268965
7	0x3c8f6d2e	0.017508116
8	0xbc6d7a2d	-0.014494461
9	0xb96d6134	-0.00022638292
10	0xbc0a51cc	-0.008442353
11	0xbc1420d3	-0.009041029
12	0x3af24a31	0.0018485246
13	0x3cb8112c	0.022469126
14	0xbb999f6a	-0.004688193
15	0x3c9b4509	0.018953817
16	0xbcb8a56b	-0.022539815
17	0x3c8f3fea	0.017486531
18	0xbc114001	-0.008865357
19	0xbc0a0b7a	-0.008425588
20	0x3ce4212b	0.027847847
21	0x3cace00a	0.021102924
22	0x3b794f0f	0.0038041507
23	0x3cafb4c8	0.021448508
24	0xbc82c1e4	-0.015961595
25	0x3b92e2c4	0.004482599
26	0xbc2e4067	-0.010635472
27	0xbc9666db	-0.018359592
28	0x3c62f186	0.013851529
29	0xbc34dd94	-0.0110391565
30	0xbcab2a14	-0.020894088
31	0x3c513554	0.012769062
32	0x3b884253	0.004158297
33	0x3b497895	0.0030742039
34	0x3c3bf5ad	0.011472148
35	0x3b995f06	0.004680517
36	0x3c3bc29b	0.011459972
37	0xbc086871	-0.008325682
38	0x3b0c6f27	0.0021428557
39	0xbc29e5f2	-0.010369765
40	0x3b129104	0.0022364268
41	0x3cc96739	0.024585353
42	0xbc8acd85	-0.016943702
43	0x3c789f34	0.015174676
44	0x3c502530	0.012704179
45	0xbc614fe0	-0.013751954
46	0xbd05a22c	-0.032625362
47	0x3c99b587	0.018763317
48	0xbcb8dfd6	-0.02256767
49	0xbc23f31b	-0.010006691
50	0xbc5e103e	-0.013553677
51	0x3ca3e936	0.020008665
52	0x3b83ca78	0.004021939
53	0x3d161a34	0.036646083
54	0x3d1ae9a2	0.037820466
55	0x3b553157	0.003253063
56	0x3c170c59	0.0092192525
57	0xbcf1b59e	-0.029505547
58	0x3c4ca00a	0.012489328
59	0xbc89ecad	-0.016836489
60	0xbc393ab6	-0.011305502
61	0xbb03f04f	-0.0020132249
62	0xbab0c9ca	-0.0013487872
63	0xbb654d09	-0.0034988543
64	0x3b9506ad	0.004547915
65	0xb9940a4c	-0.00028236432
66	0xbcd63870	-0.026149958
67	0xbb8a85e8	-0.0042273887
68	0x3b990498	0.004669737
69	0xbcaf2727	-0.021380974
70	0xbb54aea5	-0.003245273
71	0xbbf072cd	-0.007337904
72	0xbcb76ebf	-0.022391675
73	0x3a4844fd	0.00076396746
74	0xba8898dc	-0.0010421532
75	0x397a6196	0.00023878212
76	0xbc189c34	-0.0093145855
77	0xbc505985	-0.012716656
78	0x3ca99274	0.020699717
79	0xbc2ecbff	-0.010668754
80	0x3b5a8383	0.0033342547
81	0xbc1eafe1	-0.0096854875
82	0x3d5030b2	0.05082769
83	0xbc17f89a	-0.00927558
84	0xbc002e17	-0.007823489
85	0x3d306449	0.04306439
86	0x3cc4b0e3	0.024010127
87	0xbc17768b	-0.009244571
88	0xb86fa665	-5.7137007e-05
89	0xbc694465	-0.014237498
90	0x3be5b65e	0.0070102653
91	0x3be2f4a5	0.0069261366
92	0x3c0ad42e	0.008473439
93	0x3be8a91d	0.007100238
94	0xbc1a0523	-0.009400639
95	0xbc3670d7	-0.011135302
96	0x3bfcb1a5	0.0077116066
97	0x3ce1be83	0.027556663
98	0x3c88fed4	0.016723074
99	0xbb477fea	-0.0030441233
100	0xbc5d7528	-0.013516702
101	0x3b36e82f	0.0027909388
102	0x3a5cbd45	0.00084205373
103	0xbc1ee20b	-0.0096974475
104	0x3a1bf3f2	0.00059491314
105	0xbc210349	-0.009827443
106	0x3d04ce52	0.032423325
107	0xbc570401	-0.013123513
108	0xbbc8ae9e	-0.0061243316
109	0x3d2b4519	0.041813944
110	0xbc03d2c3	-0.008045855
111	0xbb3acb93	-0.0028502687
112	0x3caa0703	0.020755297
113	0x3c7095bf	0.01468414
114	0x3b9b6b2f	0.004743002
115	0x3cab9df5	0.020949343
116	0xbcad993d	-0.021191234
117	0xbc9bdda1	-0.01902658
118	0xba861451	-0.0010229443
119	0x3c156f79	0.009120815
120	0x3b451284	0.003007085
121	0x3cc2c046	0.023773324
122	0x3cb4ad77	0.02205537
123	0xbbc0e41e	-0.0058865687
124	0xbd267380	-0.040637493
125	0x3d8c79e8	0.06859189
126	0x3cd6736c	0.026178084
127	0xbbcdb1c2	-0.006277294
128	0x3c788934	0.0151694305
129	0xbc27c383	-0.010239485
130	0x3d24af0d	0.040206004
131	0xbbf44512	-0.007454523
132	0x3c07ae9a	0.008281374
133	0x3d01f297	0.031725492
134	0xbc2077e6	-0.009794211
135	0xbc67bb72	-0.014143812
136	0x3cec5e58	0.02885358
137	0xbc9012bc	-0.017587058
138	0x3b24ff97	0.0025176757
139	0xbbaf9569	-0.0053583873
140	0xbc523ad8	-0.012831412
141	0xbbe7a631	-0.007069372
142	0x3c80396e	0.015652385
143	0x3b295522	0.0025838097
144	0xbd036657	-0.03208002
145	0xbc739940	-0.014868081
146	0x3c83199a	0.016003419
147	0x3bde157c	0.0067774635
148	0x3cb67e06	0.02227689
149	0x3a743ab3	0.0009316608
150	0x3c1de59f	0.0096372655
151	0x3c0f7c07	0.008757598
152	0xbbcc95e0	-0.0062434524
153	0xbc400b8b	-0.011721502
154	0x3bfa62fb	0.007641194
155	0x3ca72655	0.02040402
156	0xbbda952e	-0.0066706156
157	0x3afa5d49	0.0019101287
158	0xbcae54dc	-0.021280698
159	0x3d48889e	0.048958413
160	0xbc190863	-0.009340378
161	0xbbc87b25	-0.0061181956
162	0xbcd8b303	-0.026452547
163	0x3c839fa3	0.016067332
164	0xbcaba9c5	-0.020954976
165	0xbd22f8ef	-0.039788183
166	0xbc8117d1	-0.015758427
167	0x3a1169e2	0.0005547089
168	0xbc65c119	-0.014023089
169	0x3c836315	0.016038457
170	0x3b326a33	0.0027223944
171	0x3985bcff	0.0002550855
172	0xbc8fabb1	-0.017537924
173	0x3cc41a0a	0.023938198
174	0xbc199752	-0.0093744565
175	0xbaf1864f	-0.0018426868
176	0xbcfb438d	-0.03067186
177	0x3c77fea5	0.015136396
178	0x3a02aaf6	0.00049845816
179	0xbc321ab0	-0.010870621
180	0xbc7ade62	-0.015311809
181	0xbc3b2eda	-0.0114247445
182	0x3c99212f	0.018692581
183	0x3c954ca6	0.018225025
184	0x3b830be2	0.0039992193
185	0x3c81030c	0.015748523
186	0x3b8168ab	0.003949245
187	0xbc3c8561	-0.011506409
188	0x3d2171fc	0.039415345
189	0x3d0fa975	0.035073716
190	0xbc4f9238	-0.012669139
191	0xbbeb7359	-0.0071853814
192	0x3c749a14	0.014929313
193	0x3c86a7c6	0.016437422
194	0x3c36cb5a	0.011156881
195	0xbbca80fb	-0.0061799265
196	0xb9ac195c	-0.0003282529
197	0xbc94b206	-0.018151294
198	0x3d62f8c3	0.05541302
199	0x3ca04d39	0.019568073
200	0xbbc0a1be	-0.005878656
201	0xbaa062a1	-0.0012236425
202	0x3b86502f	0.004098914
203	0x3cd49102	0.025948051
204	0xbc7f5c6f	-0.015586003
205	0x3d018cdc	0.031628475
206	0x3ba10623	0.0049140616
207	0x3af41017	0.0018620518
208	0xbaf90e18	-0.0019001393
209	0x3c281f8e	0.0102614295
210	0x3c990acd	0.018681908
211	0x3c9f7a1e	0.01946741
212	0x3b93f263	0.0045149787
213	0xbc204e42	-0.009784283
214	0x3d85e187	0.065371566
215	0x3cb70099	0.022339152
216	0x3c608736	0.013704112
217	0x3d532aeb	0.0515546
218	0x3d1609d8	0.03663048
219	0x3b638209	0.0034714958
220	0x3c9224b9	0.017839776
221	0x3ad7a24e	0.0016451569
222	0x3bded76a	0.0068005817
223	0xbd89b8c9	-0.06724698
224	0x3c666e98	0.014064454
225	0xbbd409ea	-0.0064709084
226	0x3cbba22c	0.022904478
227	0x3cbc17be	0.02296054
228	0x3cbc787a	0.023006666
229	0x3cd291e4	0.025704332
230	0x3cf6ccef	0.030127017
231	0x3c98957b	0.018625965
232	0xb9d7acba	-0.00041136687
233	0x3b407b74	0.0029370459
234	0xbc04de6d	-0.008109671
235	0x3d45101c	0.048111066
236	0xbb4d379c	-0.0031313663
237	0x3b6b63a8	0.0035917554
238	0xbca0c80a	-0.019626636
239	0x3c90c880	0.01767373
240	0x3b4d2c6c	0.0031306995
241	0x3cb0035f	0.021485982
242	0xbc809f89	-0.015701072
243	0x3c6dea1a	0.014521146
244	0x3ca1ec71	0.019766064
245	0x3c3b6751	0.011438207
246	0xbcc40e82	-0.0239327
247	0xba96c549	-0.0011502887
248	0x3b8db97b	0.0043250895
249	0x3c27f071	0.010250197
250	0x3d2ec780	0.042670727
251	0x3b1edfce	0.0024242285
252	0x39db49f0	0.00041826023
253	0x3c803b91	0.015653403
254	0xbbeba4f2	-0.007191294
255	0x3c2a9327	0.01041106

layers.2.weight f4 [256, 256]
0	0x3d16754e	0.036732964
1	0xbd1aa831	-0.037758056
2	0xbd8f1ad2	-0.069875374
3	0xbd534f99	-0.051589582
4	0x3da4d5fa	0.08048625
5	0xbdd94782	-0.10609342
6	0x3d960f82	0.07327177
7	0x3d22762c	0.03966348
8	0x3c85f8ba	0.016353954
9	0xbd3d42ea	-0.046206392
10	0x3d65967b	0.056051712
11	0xbdca8f81	-0.098906524
12	0x3d9d49e9	0.07680113
13	0xbb5babb1	-0.0033519084
14	0xbddc6ade	-0.10762571
15	0xbdde4e78	-0.108548105
16	0x3d4f3a93	0.05059297
17	0x3c07f63a	0.008298451
18	0xbc4eba85	-0.012617712
19	0x3c5ba981	0.013407112
20	0xbb52d5fe	-0.0032171006
21	0x3c131519	0.008977198
22	0xbddc302c	-0.107513756
23	0x3d7f8cda	0.062390186
24	0x3d1c21e7	0.03811827
25	0xbce5d407	-0.028055204
26	0xbc5e44f0	-0.013566241
27	0xbd631ad6	-0.055445515
28	0x3c248e0d	0.010043633
29	0xbd9e6030	-0.0773319
30	0xbd57d62f	-0.052694496
31	0x3d2bed38	0.041974276
32	0x3dc64ed7	0.09683006
33	0xbe25e3bf	-0.1620016
34	0xbc89fb0f	-0.016843347
35	0xbd60c417	-0.054874506
36	0xbd0ebb56	-0.034846626
37	0x3d3c6452	0.04599411
38	0xbd3ad2ff	-0.045611378
39	0xbbd993b3	-0.0066399216
40	0x3d0f3574	0.034963086
41	0x3c04ae92	0.008098261
42	0x3c1d5e86	0.009605056
43	0x3d290d1e	0.041272275
44	0xbe02ceef	-0.12774251
45	0xbd9686db	-0.073499404
46	0xbcc0bc00	-0.023527145
47	0x3e23c99f	0.15994881
48	0x3d82efd2	0.06393398
49	0x3dc3b8dd	0.09556744
50	0x3d4e9ce5	0.050442595
51	0x3dcc7bae	0.099845275
52	0x3da0804c	0.07836971
53	0xbdcb5128	-0.09927589
54	0x3d550286	0.05200436
55	0x3cd5ebfb	0.0261135
56	0xbc295603	-0.010335448
57	0xbd3b2e47	-0.04569843
58	0x3d0aa104	0.033844963
59	0xbd174e7a	-0.036940075
60	0x3c1f32dc	0.009716716
61	0x3e060f26	0.13091716
62	0xbd406998	-0.046975702
63	0xbda6042d	-0.08106265
64	0x3cc795a6	0.02436335
65	0xbdad2e74	-0.08456126
66	0x3d9de26a	0.07709201
67	0x3dc50683	0.09620383
68	0x3cdd94ab	0.02704843
69	0xbbeb7704	-0.0071858186
70	0x3cf3f4c4	0.0297798
71	0x3d1c7e31	0.038206283
72	0x3d99b5d9	0.07505388
73	0xbdb3cfaa	-0.08779843
74	0x3df46922	0.11934115
75	0xbc7962e1	-0.0152213285
76	0xbc216bd2	-0.0098523665
77	0xbc86f15b	-0.01647251
78	0x3d5ddbc0	0.054164648
79	0x3d6efd4b	0.058347028
80	0x3d824d67	0.063624196
81	0x3d1904b8	0.037358016
82	0x3b3a611c	0.002843923
83	0x39c46dde	0.0003746589
84	0x3d89df5c	0.067320555
85	0x3da5fe25	0.08105115
86	0x3d998967	0.074969105
87	0xbd56779a	-0.052360155
88	0xbc251326	-0.010075366
89	0x3d026bcd	0.031841088
90	0xbe05db23	-0.13071875
91	0xbd7946bf	-0.060858484
92	0xbd272383	-0.04080535
93	0x3dd3dd33	0.10344925
94	0x3db4f5f6	0.08835976
95	0xbd8b9a87	-0.06816583
96	0x3c9f7880	0.019466639
97	0xbe03e97c	-0.12882036
98	0xbd02a4ab	-0.03189532
99	0x3d02bbe8	0.031917483
100	0x3db68613	0.089122914
101	0x3e0878d1	0.13327338
102	0xbda7bcfd	-0.081903435
103	0xbd3f13aa	-0.046649612
104	0xbd302a2b	-0.043008965
105	0x3daa28dc	0.083085746
106	0xbd0f57cb	-0.034995835
107	0x3d0f6280	0.035006046
108	0xbd6b9cde	-0.057522647
109	0x3d032440	0.032016993
110	0x3d9fffee	0.078124866
111	0x3d9ec416	0.07752244
112	0xbc17c245	-0.009262626
113	0xbd806bef	-0.06270587
114	0x3d64f9e8	0.05590239
115	0x3ab31dd8	0.001366551
116	0xbd61203d	-0.054962385
117	0x3da25451	0.07926238
118	0x3dad3dbf	0.08459043
119	0xbde5a797	-0.11213606
120	0x3d7b4a24	0.061350003
121	0x3c69c409	0.01426793
122	0x3dac1b3c	0.08403632
123	0x3b8ddfc3	0.004329653
124	0x3d9164bc	0.07099292
125	0x3d5b77e2	0.053581126
126	0x3d8bd30d	0.06827364
127	0x3d72e38a	0.05929903
128	0x3d7fcf36	0.06245347
129	0xbdb51e31	-0.08843649
130	0xbc45db97	-0.01207628
131	0xbb9fb31c	-0.0048736464
132	0x3d3e1861	0.04640997
133	0xbdbf48b2	-0.093400374
134	0xbd518538	-0.051152438
135	0xbe027974	-0.12741643
136	0xbd99cecb	-0.07510146
137	0xbde5ed86	-0.112269446
138	0x3dba2f51	0.09091056
139	0xbd0c125c	-0.034197196
140	0xbd73b972	-0.059503026
141	0xbde4c08c	-0.11169538
142	0xbc42dfab	-0.011894147
143	0xbc21a645	-0.009866302
144	0x38ca7279	9.653433e-05
145	0xbd406301	-0.046969417
146	0x3d823252	0.06357254
147	0xbc9cba26	-0.019131731
148	0x3d8c7b02	0.068593994
149	0x3dd0b3a2	0.10190512
150	0x3cdc142d	0.02686509
151	0x3d3c037a	0.045901753
152	0xbda1acdd	-0.07894299
153	0x3dfd5c9a	0.12371178
154	0xbcd75044	-0.02628339
155	0xbd274ff1	-0.040847722
156	0x3ce93ea2	0.028472248
157	0xbddd6cda	-0.108117774
158	0xbdd0c213	-0.10193267
159	0x3da294a7	0.079385094
160	0x3d88678c	0.06660375
161	0xbd35889e	-0.04431974
162	0x3d765e7c	0.0601487
163	0x3cab9247	0.020943774
164	0xbc22176b	-0.009893279
165	0x3cb49131	0.022041889
166	0xbb6fed04	-0.0036609778
167	0xbdda9fbc	-0.10674998
168	0x3db2a849	0.08723504
169	0xbc133b75	-0.008986344
170	0x3d5e6026	0.054290913
171	0xbdfe8e99	-0.12429542
172	0xbd0f9073	-0.035049867
173	0x3d837e48	0.064205706
174	0x3d6bf02b	0.05760209
175	0xbd465005	-0.048416156
176	0xbbc98387	-0.0061497125
177	0xbdde747f	-0.108620636
178	0xbda939f3	-0.08263006
179	0x3c80cfa6	0.015724014
180	0xbd8bb24b	-0.06821116
181	0x3d01e4ba	0.03171227
182	0xbd83b4d2	-0.06430973
183	0xbd68e4ac	-0.056858703
184	0xbda63f3d	-0.081175305
185	0x3da88954	0.08229318
186	0x3d88f1f8	0.06686777
187	0xbd1ebefd	-0.03875636
188	0xbbbac369	-0.0056995642
189	0x3d699673	0.057028245
190	0xbdc7871c	-0.09742567
191	0x3dc8c547	0.09803253
192	0x38bb4023	8.928801e-05
193	0x3d907802	0.0705414
194	0x3e14677c	0.14492601
195	0xbdfbc5ab	-0.122935615
196	0xbccc4cd8	-0.024938986
197	0xbd91122c	-0.07083544
198	0x3dd29f8b	0.10284337
199	0x3e36cbed	0.17851229
200	0xbce01681	-0.02735448
201	0xbc90e350	-0.017686516
202	0xbd6d3bbd	-0.0579183
203	0xbe02be4b	-0.12767904
204	0xbd97dd34	-0.07415238
205	0xbc9969c1	-0.018727185
206	0xbd7edfeb	-0.062225264
207	0x3cc55924	0.024090357
208	0xbd02444f	-0.031803425
209	0x3b480c89	0.003052505
210	0xbd772058	-0.06033358
211	0x3d0976ab	0.033560436
212	0xbde7c234	-0.11316338
213	0x3d3a45e8	0.045476824
214	0xbd8c3137	-0.068453245
215	0x3dd1479b	0.10218736
216	0x3d1da91f	0.038491365
217	0x3da53b89	0.08067996
218	0xbe00b6f0	-0.12569785
219	0xbd13b590	-0.036061823
220	0x3dacb5fb	0.084331475
221	0x3cead700	0.028666973
222	0xbdfafdc1	-0.12255431
223	0xbde95c96	-0.113946125
224	0xbd864466	-0.06556015
225	0xbcca1d05	-0.02467204
226	0xbe2c21aa	-0.16809717
227	0x3cd6e564	0.026232429
228	0xbd7eba82	-0.062189586
229	0x3dddf05c	0.108368605
230	0xbbe5bb53	-0.007010856
231	0xbdbc2d73	-0.09188356
232	0x3d2212f3	0.039568853
233	0x3d21d683	0.039511215
234	0xbd3314b1	-0.043720905
235	0xbdf54264	-0.11975554
236	0x3d949557	0.07255047
237	0x3c4df948	0.01257164
238	0x3c95d4b6	0.018289905
239	0xbc44de12	-0.012015836
240	0xbdc2bc46	-0.095085666
241	0xbd48de3d	-0.049040068
242	0x3cb5fc3e	0.022215005
243	0xbcdce7af	-0.026965944
244	0xbd871e4b	-0.06597575
245	0x3d558c78	0.052135915
246	0xbd643c4f	-0.055721577
247	0xbd725a4f	-0.059168156
248	0x3ca6de14	0.020369567
249	0xbd8aedb6	-0.06783621
250	0x3d488324	0.04895319
251	0xbd5a3318	-0.053271383
252	0x3dc4a991	0.09602655
253	0x3d816405	0.06317905
254	0x3d52e7f2	0.05149073
255	0x3ac8f00a	0.0015330326

layers.2.bias f4 [256]
0	0x3c532200	0.012886524
1	0xbb8d3a51	-0.0043099304
2	0x3b639b1d	0.0034729906
3	0xbc114885	-0.008867388
4	0xbc2ca572	-0.010537492
5	0xbb996122	-0.0046807686
6	0x3c02eb15	0.007990618
7	0xbba7711d	-0.0051099197
8	0x3bc983e7	0.006149757
9	0xbbb69489	-0.005571906
10	0x3bf30a9f	0.0074170376
11	0xbbbd6449	-0.005779777
12	0x3bb8162a	0.0056178765
13	0x3aef77b7	0.0018269931
14	0x3b6313a5	0.003464916
15	0x3b8514de	0.0040613255
16	0x3bdacfb8	0.006677594
17	0x3c1ea51c	0.00968292
18	0xbb99fccf	-0.0046993266
19	0xbba0941d	-0.004900469
20	0x3ae0c4f1	0.0017148537
21	0x3c286f2c	0.010280412
22	0xbbe4c781	-0.0069817905
23	0xbb25ad46	-0.002528028
24	0xbaad9aed	-0.0013245024
25	0x3c07d80a	0.008291254
26	0xbb56bfec	-0.0032768203
27	0xbbd95f9c	-0.006633712
28	0x3bad1d39	0.0052830246
29	0xbc095e78	-0.0083843395
30	0x3ac047bf	0.001466982
31	0x3be77b58	0.0070642643
32	0x3b6945a5	0.003559449
33	0x3c507dd9	0.012725317
34	0x3c1424c7	0.0090419715
35	0xbc27fb11	-0.01025273
36	0x3b4a6717	0.00308842
37	0x3a9d8992	0.0012019149
38	0xbc2ae8b5	-0.010431458
39	0x39ebd9fe	0.0004498511
40	0xbb9445da	-0.0045249285
41	0xbbbec999	-0.005822372
42	0xbba92030	-0.0051613078
43	0x3aa0d73a	0.0012271174
44	0x3c6f6d0a	0.014613399
45	0xbc206875	-0.0097905295
46	0x3bbc8de0	0.0057542175
47	0x3be989b5	0.0071270117
48	0xbbc768f8	-0.0060855113
49	0x3c2f8817	0.010713599
50	0x3c16940c	0.009190571
51	0xbc07fd70	-0.00830017
52	0xbb4adaca	-0.0030953162
53	0x3af54a54	0.0018714168
54	0x3c032afb	0.008005853
55	0x3bb00d79	0.0053727
56	0xbc829cee	-0.01594397
57	0xbbf30a0f	-0.0074169706
58	0x3ba4bd03	0.0050274148
59	0xbbcee410	-0.0063138083
60	0xbbe56c30	-0.0070014223
61	0x3b242fc4	0.0025052885
62	0x3beba7e1	0.0071916436
63	0xbb1f7fef	-0.002433773
64	0xbab8d50f	-0.0014101582
65	0x3ba41b61	0.0050081466
66	0xbc0795f7	-0.0082755005
67	0x3c1a76f5	0.009427776
68	0x38541cd3	5.0571583e-05
69	0x3ad81f99	0.0016488909
70	0x3babf857	0.0052481103
71	0x3beb1d5a	0.00717513
72	0x3ccc365f	0.02492827
73	0x3ba3f5b4	0.0050036553
74	0xbb47f884	-0.0030513117
75	0x3be1c93f	0.0068904455
76	0x3c18167e	0.009282706
77	0x3ba32901	0.0049792533
78	0x3bcb03e9	0.0061955345
79	0x3b6500c2	0.0034943079
80	0xbbf79731	-0.007555865
81	0x3bea222f	0.0071451883
82	0x3bfaf366	0.00765841
83	0xbb12d7ac	-0.0022406382
84	0x3b91cf29	0.0044497442
85	0x3cba2db8	0.022726879
86	0xbac6f99d	-0.0015180592
87	0xbb985d83	-0.0046498193
88	0x3bf4532b	0.0074562035
89	0x3bba1927	0.005679268
90	0xbb97a218	-0.0046274774
91	0xbadeaabc	-0.0016988139
92	0x3c11e40c	0.008904468
93	0x3b829778	0.0039853416
94	0xbbcacfb9	-0.0061893133
95	0xbc43fdf7	-0.011962405
96	0xbc073fed	-0.008254987
97	0x39e3a225	0.0004341762
98	0x3ba0a881	0.0049028997
99	0x3c541813	0.012945193
100	0xbbcf6980	-0.0063297153
101	0xbc43dab7	-0.011954001
102	0xbbb41f2b	-0.0054968796
103	0x3c1ab830	0.009443328
104	0xba281468	-0.0006411732
105	0xbc26460d	-0.010148537
106	0xbbce6726	-0.0062989173
107	0x3b1e5a0f	0.0024162566
108	0x3c2519cc	0.010076951
109	0x3c023646	0.00794751
110	0x3c432a01	0.01191187
111	0x3b16d1cf	0.002301324
112	0xbc04c256	-0.008102974
113	0x3bab80f5	0.0052338787
114	0xbbc6326e	-0.006048492
115	0xbb914e4a	-0.0044343816
116	0x3ba01643	0.0048854663
117	0xbbeb738f	-0.0071854065
118	0xbbc615bd	-0.006045072
119	0x3bbc3ddb	0.0057446784
120	0x3c588d1d	0.013217238
121	0xbc4add48	-0.012381859
122	0x3adca653	0.0016834236
123	0x3bb004f1	0.005371683
124	0x3bdd5323	0.0067542954
125	0x3b701a70	0.0036636852
126	0x3b86a9b1	0.0041095843
127	0xba10c4dc	-0.00055224984
128	0x3be095ed	0.00685381
129	0x3beedc46	0.0072894422
130	0x3c6e86f4	0.0145585425
131	0xbba232d9	-0.004949909
132	0x3bfd6179	0.007732567
133	0x3c2a911e	0.010410575
134	0x3c15a98a	0.00913466
135	0x3c3bf069	0.0114708925
136	0xbbd4e401	-0.0064969067
137	0x3beaf159	0.007169884
138	0x3c7181b5	0.014740397
139	0x3cda48c8	0.026646033
140	0x3c19d9b4	0.009390283
141	0x3c2e4a9d	0.010637906
142	0x3b9fba01	0.0048744683
143	0xbbe4244a	-0.006962334
144	0x3bc0ac7a	0.005879936
145	0xbbbb2100	-0.005710721
146	0xbb04c9de	-0.0020261924
147	0xbbc29ecf	-0.0059393416
148	0x3b985369	0.004648615
149	0xbb6710da	-0.0035257847
150	0x3c236d72	0.009974824
151	0x3bf73fe8	0.00754546
152	0x3c198916	0.009371063
153	0xbb3379e9	-0.0027385897
154	0xbb69f14a	-0.0035696798
155	0x3bf9b3fc	0.0076203328
156	0xbbc89640	-0.006121427
157	0x3ba7b722	0.0051182667
158	0xba8d4a89	-0.001077966
159	0x3bd5358b	0.006506627
160	0x3c12053b	0.00891238
161	0xbc3ea8da	-0.011636937
162	0xbc28b9ce	-0.010298206
163	0x3c395ecd	0.011314106
164	0xbb130c1c	-0.0022437638
165	0xbbe9c3a7	-0.0071339193
166	0xbb58850b	-0.0033038284
167	0x3b1a641c	0.0023558205
168	0x3c45b6c3	0.0120675
169	0x3b7ef7e1	0.0038905072
170	0xbbbddc11	-0.005794056
171	0x3bfeaad4	0.007771829
172	0xbc00622b	-0.007835905
173	0x3adcd36d	0.0016847678
174	0x3bfecf19	0.007776153
175	0x3b864fc4	0.0040988643
176	0xbbca5a82	-0.00617534
177	0x3bf54971	0.0074855615
178	0xbbb72943	-0.0055896356
179	0xbb3f7d9e	-0.002921916
180	0x3c202136	0.009773543
181	0x3b33bd94	0.002742623
182	0x3c0d6408	0.008629806
183	0x3be39b48	0.006946001
184	0xbc471eea	-0.012153367
185	0x3c3c2ab3	0.01148479
186	0x3bf287db	0.007401449
187	0x39b905d9	0.00035290307
188	0x3c33604e	0.010948254
189	0x3b9945d0	0.0046775118
190	0x3bc5218e	0.006015963
191	0xbbcf211d	-0.006321086
192	0xbb94aff7	-0.004537578
193	0xb9df9b40	-0.00042649545
194	0x3ba08b23	0.004899399
195	0x3c8f7a68	0.017514423
196	0x3b31c597	0.002712583
197	0x3bb42ff4	0.0054988805
198	0x3b7b8e27	0.003838429
199	0xbc17007e	-0.009216426
200	0xbbc1851d	-0.005905761
201	0x3a8ac3fb	0.0010586971
202	0xba3f3f78	-0.00072955294
203	0x3ba5e191	0.00506229
204	0x3c12a803	0.00895119
205	0xbb48e6e0	-0.003065519
206	0xba9ee3cd	-0.0012122333
207	0x3bae1c8a	0.0053134607
208	0xbb94f35d	-0.0045456127
209	0xbc238084	-0.009979371
210	0x3c0d5f26	0.008628642
211	0x3bdf576a	0.0068158405
212	0x3c210b4c	0.009829354
213	0xbc03e013	-0.008049029
214	0x3bc07430	0.0058732256
215	0xbbc41a04	-0.0059845466
216	0x3c2fb542	0.010724368
217	0xbbddb352	-0.0067657614
218	0x3c13a310	0.009011045
219	0x3cb15dcd	0.021651173
220	0x3965db67	0.00021920876
221	0x3bf07e9e	0.0073393127
222	0xbbd58111	-0.00651563
223	0x3b8ab78b	0.004233306
224	0xbbf8fcee	-0.007598511
225	0xbbfd0905	-0.0077220225
226	0x3bb1a936	0.005421783
227	0xbbecd5dd	-0.007227643
228	0x3cb73175	0.02236245
229	0xbbbaa95e	-0.0056964597
230	0x3b9fbddd	0.0048749284
231	0x3a9c7d35	0.001193917
232	0x3b813298	0.003942799
233	0x3c11982a	0.008886376
234	0x3be9ea52	0.007138529
235	0x3b34c676	0.0027584112
236	0xbbea4bbc	-0.0071501415
237	0x3bea8111	0.007156499
238	0x3b9057a1	0.0044049774
239	0xbc4394f9	-0.011937373
240	0x3b63dff6	0.0034770942
241	0x3b84a462	0.0040479163
242	0xbb43fc6a	-0.002990509
243	0x3c896a67	0.01677437
244	0x3bc46215	0.0059931376
245	0x3c1e618b	0.009666811
246	0x3c279552	0.010228472
247	0x3a390f93	0.00070595107
248	0x3ba5e8c1	0.005063147
249	0x3b8d2cbe	0.004308312
250	0x3b5cc617	0.0033687407
251	0xbc011013	-0.007877368
252	0xbbc99731	-0.0061520566
253	0x3bedd10f	0.0072575877
254	0x3bb4171f	0.0054959203
255	0xbbc7586f	-0.00608354

layers.4.weight f4 [2, 256]
0	0x3c3ef020	0.01165393
1	0xbc8e6fc1	-0.017387273
2	0xbc82b24b	-0.015954157
3	0xbca824bc	-0.020525329
4	0xbe0c3fc3	-0.13696198
5	0xbd69c0e1	-0.05706871
6	0x3d48e1ce	0.04904347
7	0xbce35c1b	-0.02775388
8	0x3d0aba62	0.033869155
9	0xbe033a9d	-0.12815328
10	0x3daeb881	0.08531285
11	0xbd28d2ff	-0.041216847
12	0x3d372e93	0.04472215
13	0xbdfb414e	-0.12268315
14	0x3dfc41cd	0.12317238
15	0x3df9341f	0.121681444
16	0x3db078d9	0.086168
17	0x3e141c3f	0.144639
18	0xbdf0932a	-0.11746819
19	0xbe0bae9c	-0.13640827
20	0x3c911def	0.017714469
21	0x3d5bf476	0.053699933
22	0xbd23190e	-0.039818816
23	0xbd943d80	-0.07238293
24	0xbcee2e3a	-0.029074777
25	0x3d9ccb96	0.076560184
26	0xbd7e7e0f	-0.062131938
27	0xbdccaba4	-0.09993675
28	0x3d4e921f	0.05043232
29	0xbdb8faad	-0.090321876
30	0xbd95559c	-0.07291719
31	0x3dfe2432	0.124092475
32	0xbdb53b6c	-0.088492244
33	0x3dce1a11	0.100635655
34	0x3d174098	0.036926836
35	0xbda60186	-0.08105759
36	0xbbb24ef2	-0.00544154
37	0xbd825487	-0.063637786
38	0xbdf954f5	-0.121744074
39	0xbd04a6c4	-0.032385603
40	0xbdb2d66d	-0.08732305
41	0xbd4816d7	-0.048849907
42	0xbe14cfac	-0.14532346
43	0xbe0337f7	-0.12814318
44	0x3b97fb3a	0.004638103
45	0xbe0aca0d	-0.13553639
46	0x3d57b9ad	0.05266731
47	0x3d900a88	0.07033259
48	0xbdbd471b	-0.09242078
49	0x3d0ee4ac	0.034886047
50	0x3b9ccf45	0.0047854506
51	0xbe0536a9	-0.13009132
52	0xbdcfe0de	-0.10150312
53	0xbd1ede1e	-0.038786046
54	0x3c1debf5	0.009638776
55	0xbbfefba6	-0.0077814637
56	0xbd711dc1	-0.058866266
57	0xbd736db2	-0.059430785
58	0x3dcdbad6	0.10045402
59	0xbd64b8d5	-0.055840332
60	0xbd8d78b5	-0.06907789
61	0x3d1c740c	0.03819661
62	0x3ae65355	0.0017572442
63	0xbd2b95d1	-0.041890923
64	0xbb076f3d	-0.0020665668
65	0x3e06cf5b	0.13165037
66	0xbd9d68e6	-0.076860234
67	0x3e0487f1	0.12942483
68	0x3bee50a9	0.007272799
69	0xbdc5ff53	-0.0966784
70	0x3dd47d24	0.10375431
71	0x3d8c23e0	0.0684278
72	0x3ba7317b	0.005102334
73	0x3da2c518	0.07947749
74	0xbc40cd5e	-0.011767713
75	0x3dcd717f	0.10031413
76	0x3dabf568	0.08396417
77	0x3d8f8643	0.0700803
78	0x3d9c9131	0.076448806
79	0xbd04c60e	-0.032415442
80	0xbdec195f	-0.11528277
81	0xbc94579e	-0.018108185
82	0x3dc8b7a0	0.09800649
83	0xbd617e8d	-0.05505233
84	0x3e07d1f6	0.13263687
85	0x3d6994f9	0.057026837
86	0xbdd48390	-0.10376656
87	0xbc9821a1	-0.018570723
88	0x3d8243da	0.06360598
89	0x3d878b63	0.06618383
90	0xbd8b6ac9	-0.06807477
91	0xbdac23ea	-0.084052876
92	0x3d0bbbe9	0.034114752
93	0x3d0b2426	0.03397002
94	0xbe16fdef	-0.14745305
95	0xbdea224b	-0.11432322
96	0xbde1fdfb	-0.11034771
97	0xbcde1cef	-0.027113406
98	0x3d71aade	0.059000842
99	0x3b1a83e7	0.0023577155
100	0xbdcc40df	-0.09973311
101	0xbdd37542	-0.103250995
102	0xbe0e6e6f	-0.13909315
103	0x3df1c3ec	0.11804947
104	0xbd0cae51	-0.03434593
105	0xbd526566	-0.051366232
106	0xbdf28f47	-0.11843734
107	0x3d39466e	0.045233183
108	0x3df72880	0.12068272
109	0x3d1350c8	0.03596571
110	0x3cd801fd	0.026368136
111	0xbd748901	-0.05970097
112	0xbdeaa88c	-0.11457929
113	0x3d8b2889	0.06794841
114	0xbcef5b5d	-0.02921837
115	0xbd3a0931	-0.04541892
116	0x3e0dccbc	0.13847631
117	0xbd03ae87	-0.032148864
118	0xbe0e4734	-0.1389435
119	0x3ddaac4f	0.106773965
120	0x3c8922b6	0.016740184
121	0xbdcf3ae3	-0.101186536
122	0x3b8386bd	0.004013865
123	0x3e05ece4	0.13078648
124	0x3dc8449d	0.09778712
125	0x3d3f4082	0.04669238
126	0x3d506075	0.05087324
127	0xbd37d65c	-0.044882163
128	0x3e0c9e56	0.13732275
129	0x3d8c7526	0.06858282
130	0xbaf6ff19	-0.0018844336
131	0xbe073d06	-0.13206872
132	0xbccf6e01	-0.025321009
133	0x3ba65faf	0.0050773243
134	0xbd21504f	-0.03938323
135	0x3d6e4e36	0.058180057
136	0xbe04926e	-0.12946483
137	0x3d81ee74	0.063443094
138	0x3d207e56	0.039182983
139	0x3a0f76b3	0.00054727047
140	0x3d0a1be9	0.033718023
141	0x3d9cd863	0.0765846
142	0x3d5ee35f	0.054416057
143	0xbddf6f0c	-0.109098524
144	0x3e169a14	0.14707214
145	0xbd91c3e5	-0.07117442
146	0xbcdaa34f	-0.0266892
147	0xbd4bfba1	-0.04980052
148	0x3c8b5ac1	0.017011048
149	0xbc93d589	-0.018046157
150	0x3db21c04	0.0869675
151	0x3db5fc57	0.08886021
152	0x3d9066ba	0.070508435
153	0xbcb554b9	-0.022135125
154	0xbe01b7de	-0.12667796
155	0x3e031649	0.1280147
156	0xbdfb07c2	-0.12257339
157	0x3de68fce	0.11257897
158	0xbe0547d6	-0.13015684
159	0x3d2a4c0b	0.041576426
160	0x3d1ec055	0.03875764
161	0xbe01d8d7	-0.12680374
162	0xbe0971d0	-0.13422322
163	0x3ca948b4	0.02066455
164	0xbddc207b	-0.10748383
165	0xbdd64fcf	-0.10464441
166	0xbda5ca7c	-0.080952615
167	0xbcbf8790	-0.02338007
168	0x3d75ee80	0.060041904
169	0xbdfb7d37	-0.12279742
170	0xbdf102fb	-0.117681466
171	0x3c306fcf	0.010768845
172	0xbd5ac3a0	-0.05340922
173	0xbc605b36	-0.013693621
174	0x3a8f6801	0.001094103
175	0x3d8895a6	0.06669168
176	0xbdcff1eb	-0.10153564
177	0xbc027f9c	-0.007964995
178	0xbdabe18b	-0.08392628
179	0xbdd33f42	-0.103148
180	0x3e007f4d	0.12548561
181	0xbca83c8b	-0.020536682
182	0x3d9cbab1	0.07652796
183	0x3db10ffc	0.08645627
184	0xbe0cc5a5	-0.1374727
185	0x3d247673	0.040152024
186	0x3e0a22ac	0.13489789
187	0xbc23a91f	-0.009989052
188	0x3dd2bb1d	0.10289595
189	0x3e07ef30	0.13274837
190	0x3e0bf3ff	0.13667296
191	0xbda9cd89	-0.08291156
192	0xbcdc044a	-0.026857514
193	0xbd80df85	-0.06292633
194	0x3cdb6f2c	0.02678641
195	0xbaaad53b	-0.0013033518
196	0x3c106f0e	0.00881554
197	0x3d7d42b8	0.061831206
198	0xbc92c7dc	-0.017917566
199	0xbe0d52f1	-0.13801171
200	0xbd412920	-0.04715836
201	0xbcea20dc	-0.028580122
202	0xbdb83785	-0.089949645
203	0xbb1f7ffc	-0.002433776
204	0x3d5e9d80	0.054349422
205	0xbd4e92bf	-0.050432917
206	0xbd09e947	-0.033669736
207	0x3d53c900	0.05170536
208	0xbd47cd52	-0.048779793
209	0xbdf6e05e	-0.120545134
210	0x3d9ae03b	0.075623
211	0x3c60337f	0.013684153
212	0x3e159004	0.14605719
213	0xbe097ff8	-0.13427722
214	0x3da7a4cc	0.081857294
215	0xbd8947a2	-0.06703116
216	0x3df4f12f	0.119600646
217	0xbdc90c7b	-0.098168336
218	0x3d341080	0.043961048
219	0x3bb23e18	0.005439531
220	0x3c555e67	0.013022996
221	0xba74f681	-0.0009344593
222	0xbddde946	-0.10835509
223	0x3d7bcde3	0.061475646
224	0xbde35998	-0.11101073
225	0xbdd47656	-0.10374133
226	0x3d886b9a	0.06661148
227	0xbd948c89	-0.072533675
228	0x3b555daa	0.0032557049
229	0xbde6f527	-0.11277228
230	0x3da0bd40	0.078485966
231	0xbdd68415	-0.104744114
232	0x3deaf22f	0.11471974
233	0x3d0fa255	0.03506692
234	0xbca530af	-0.020164816
235	0xbbbdaed8	-0.0057886653
236	0xbd6219c2	-0.055200346
237	0x3d10427e	0.035219662
238	0xbc81a1fd	-0.015824312
239	0xbddc31d7	-0.10751694
240	0x3d1595cc	0.03651981
241	0x3d9a26a9	0.07526905
242	0xbdcf8e88	-0.101346076
243	0xba96be0f	-0.0011500734
244	0x3e09611c	0.1341595
245	0x3d88aba4	0.06673363
246	0x3b701e56	0.0036639175
247	0xbd3e4467	-0.046451952
248	0x3d9140bf	0.070924275
249	0x3d9f3b89	0.07775027
250	0x3ab47f62	0.0013770873
251	0xbdca3014	-0.098724514
252	0xbceeb139	-0.02913724
253	0x3d822f04	0.06356624
254	0x3cd6a1d5	0.026200214
255	0xbda828e5	-0.08210925

layers.4.bias f4 [2]
0	0x3bc6c086	0.006065431
1	0xbb006bb2	-0.0019595441
