Results_dir/2022-03-20-22-38-23/critic.pth (torch, 536911 bytes, 7 tensors)

layers.0.weight f4 [256, 6]
000000 c8 81 82 41 e1 99 e6 3d da 7d 95 be 28 a5 c1 40
       16.31337 0.11259819 -0.2919758 6.0514107
000010 39 96 c8 bd b5 cb 0e bd 93 00 fb 40 28 85 d5 bd
       -0.09794278 -0.03486224 7.84382 -0.10425788
000020 b0 64 36 3e fe 71 ca c0 a2 35 fa 3c 3f 32 53 be
       0.17811847 -6.326415 0.030543152 -0.20624636
000030 13 32 8f 40 81 2c 1e 3e a1 c7 05 be 8a 3a 11 41
       4.4748626 0.15446664 -0.13064434 9.076792
000040 b8 36 e2 bd d8 5d 2d 3d 82 3b 42 41 bb 3b 40 be
       -0.11045593 0.042325824 12.139528 -0.18772785
000050 5d 8e 9b be 9d fd cc 40 d2 f3 a3 bc 37 db cd 3d
       -0.30382052 6.4059587 -0.020013724 0.100515775
000060 a2 37 f4 40 cf b5 83 bd fa a6 61 3e 33 cb c9 c0
       7.631791 -0.064311616 0.22036353 -6.3060546
000070 15 ca 03 3d e2 16 59 be 6b 04 7c 41 46 1b e6 3c
       0.032175142 -0.21200135 15.751079 0.028089177
000080 57 0d c8 be f3 80 f2 40 b1 0b 01 3e 9f 0b 37 be
       -0.39072677 7.578241 0.12602116 -0.17875527
000090 52 ce 64 41 e2 33 96 3d 30 c9 8b be 7c 2f 0d 41
       14.300371 0.073341146 -0.2730193 8.824093
0000a0 d0 12 b4 ba 03 3e 04 3e 95 45 d6 40 42 82 26 3e
       -0.0013738517 0.1291428 6.695994 0.16260627
0000b0 7f 90 43 be d5 55 16 41 eb 47 04 be 88 55 a9 bd
       -0.1909809 9.395955 -0.1291806 -0.08268267
0000c0 c2 05 e3 40 8f 93 10 3d 80 5f 26 3e 95 29 c0 c0
       7.094453 0.035296973 0.16247368 -6.005076
0000d0 aa ce d2 3c 4b 80 7a be 61 32 47 41 da 48 08 3e
       0.02573331 -0.24463002 12.4498 0.1330904
0000e0 33 90 cf be 11 ee 16 41 b5 50 e1 bc 4b 33 8c bd
       -0.40539703 9.433122 -0.027504304 -0.06845721
0000f0 69 0d 00 41 a0 07 28 bf a3 31 10 3f 0d c8 bb c0
       8.003274 -0.65636635 0.5632574 -5.8681703
000100 3d 04 9c 3c d7 49 c3 3e c7 ac 70 c1 e2 4e 47 bd
       0.01904499 0.38142273 -15.042182 -0.048659213
000110 ba 1c 92 bb 80 06 eb 40 3e ae e5 bc e2 40 d2 bb
       -0.004458991 7.3445435 -0.028037187 -0.006416426
000120 14 c9 70 c1 8a 16 7b bd dc fe 7e 3c 35 df eb 40
       -15.049091 -0.06130079 0.015563693 7.370997
000130 6c 7c d6 bc 71 bc 3a 3c f9 ae 78 c1 ed d1 f3 3d
       -0.026182376 0.011397467 -15.542718 0.119052745
000140 07 13 f8 3c c9 f4 fa 40 6a a9 57 bd 89 41 9a bd
       0.03028251 7.842381 -0.0526518 -0.07532031
000150 f7 7c 70 41 bf bf 91 bd 0e 48 08 be 40 59 06 bf
       15.030509 -0.07116651 -0.13308737 -0.52479935
000160 03 0d 21 3d d0 91 31 3d 25 c1 53 41 ad c1 6c 3d
       0.03931905 0.04335195 13.234654 0.05780189
000170 7d a8 05 bf b1 42 15 41 61 6d 99 3d 61 16 7f bd
       -0.5221022 9.328782 0.074915655 -0.0622772
000180 0a d4 81 41 d9 e1 49 bd c0 3b a2 3d 4a 8c 49 bf
       16.228535 -0.04928765 0.07921553 -0.7872969
000190 6b ee b2 3d 8b 56 a2 ba 63 5d e1 40 55 02 e9 bd
       0.08736881 -0.0012385411 7.0426497 -0.11377398
0001a0 99 86 84 3e aa ff c3 c0 30 b7 95 3c d3 0f c7 bd
       0.2588394 -6.124959 0.018275827 -0.09719815
0001b0 a2 ad 38 41 15 18 df 3e 80 a2 e4 be 21 88 e0 40
       11.542391 0.4357306 -0.44655228 7.0166173
0001c0 2c 5a 0d bc ea 1e 50 be 81 12 3d 41 68 9a f2 3e
       -0.008627456 -0.20324293 11.817018 0.47383428
0001d0 82 95 e1 be 08 a0 d8 40 b2 e1 f9 ba 2e 3c 5f be
       -0.44059378 6.769535 -0.0019064455 -0.218003
0001e0 34 17 fb 40 0f dc a6 3c 0a 67 31 3e d2 13 c9 c0
       7.8465824 0.020368604 0.17324463 -6.2836695
0001f0 ff a2 01 3d f1 b7 8e be c6 da 72 41 e9 7b 0f 3d
       0.031649586 -0.2787471 15.1784115 0.03503028
000200 fa a0 80 be e3 42 a2 be a2 c6 4c 3a d4 d2 67 3c
       -0.25122815 -0.31691656 0.0007811581 0.014149386
000210 9f 76 f7 40 a2 c5 f6 bd 1d e0 63 3e 4c 2d c8 c0
       7.73323 -0.12049414 0.22253461 -6.2555294
000220 4e f6 eb 3c 86 55 29 be 21 a6 ee 40 0f a0 d3 bd
       0.02880397 -0.16536531 7.4577794 -0.10333263
000230 d6 40 97 3e 62 74 c3 c0 3c c1 77 3c 9f f5 93 bd
       0.29541653 -6.107957 0.015121754 -0.07224583
000240 b8 a5 14 41 03 1e 14 3e 16 2b ba be ce 20 18 41
       9.290459 0.14464574 -0.36360997 9.508009
000250 6f 2a 2f bd 57 a3 23 3e a1 6f 6f c1 25 ff 48 bd
       -0.042765077 0.15980278 -14.964753 -0.04907145
000260 06 e3 21 3d 6b 4c f5 40 95 20 b6 bc 82 1e ce 3c
       0.039523147 7.6655784 -0.022232333 0.025161032
000270 f6 ae 34 41 fc 34 8a 3e 6b 45 ca be 35 16 e0 40
       11.292715 0.2699355 -0.39506087 7.002711
000280 6d 47 ba bb 1d 3a 4f be 77 60 79 c1 b7 b8 fc bc
       -0.005684784 -0.20237012 -15.586051 -0.030849798
000290 d4 ba d2 bc ac f1 f3 40 e5 fd b4 bc 8a 1b 27 bd
       -0.025723852 7.623251 -0.022093723 -0.040797748
0002a0 10 56 73 c1 ac dc 21 bc f6 40 a3 bb d9 9c f6 40
       -15.208511 -0.009879272 -0.004982109 7.7066464
0002b0 37 8a 9b bc 39 b6 30 bd e9 91 3d 41 70 db 08 3e
       -0.018986804 -0.04314253 11.848123 0.13364959
0002c0 3b 2a 9a be 89 c9 18 41 bd 6e 13 be 45 8a 32 3d
       -0.30110344 9.549203 -0.14397712 0.043588895
0002d0 ae bb 43 41 ce 3e f1 3c ca bb c8 be 63 a2 c3 40
       12.23332 0.029448893 -0.39205772 6.1135726
0002e0 e5 83 05 bd 1f 68 72 bd ba be 7d 41 43 03 04 3d
       -0.032596488 -0.05918133 15.859064 0.032229673
0002f0 82 6c 8c bc 78 8a 84 bf 06 75 3d 3c a1 bc 6b 3d
       -0.017141584 -1.0354757 0.011563545 0.057552937
000300 9d 2b 19 41 c2 2f 8d 3e 82 66 7a be 9f b2 16 41
       9.573148 0.275755 -0.24453166 9.418609
000310 42 13 27 3c a3 b2 15 3d e2 bd b4 40 22 45 97 3c
       0.0101974625 0.036547314 5.648179 0.018465582
000320 c8 dc d3 3d 26 aa 8e c0 b0 f9 f4 bb dd fa 7a bd
       0.10344845 -4.45827 -0.007476054 -0.061274398
000330 49 7f 77 c1 c7 e0 63 bd 75 23 92 bc 09 c7 ef 40
       -15.4685755 -0.055634286 -0.017839173 7.4930463
000340 40 12 c8 bc e2 36 91 bc f9 95 70 c1 28 b9 12 bc
       -0.024422765 -0.017726365 -15.036614 -0.0089552775
000350 cd 54 f8 bb c5 a8 ef 40 64 21 b6 bc 60 46 37 bd
       -0.0075784684 7.4893517 -0.022232719 -0.04474485
000360 a8 ae f7 40 aa 96 18 bd a8 8d 72 3e 18 90 c7 c0
       7.7400703 -0.03725306 0.2368685 -6.2363396
000370 77 d7 e6 3c 8d 73 4c be f8 70 82 41 20 4d af 3c
       0.028178914 -0.19965954 16.30516 0.02139908
000380 96 d8 aa bd 14 ab 5a bf 4b 01 93 3c 07 b0 f3 3c
       -0.08342092 -0.85417295 0.017944952 0.029747022
000390 a3 4c f0 40 99 43 1c 3c b0 72 b4 be e5 05 16 41
       7.509355 0.009537601 -0.3524375 9.376439
0003a0 c9 c4 79 bb 3a 36 7d bd bb e7 e4 40 f9 b6 99 3c
       -0.0038111678 -0.061819293 7.1532874 0.018764006
0003b0 7c 81 53 3e ba e1 c2 c0 4d b1 b8 3c 45 03 56 be
       0.20654863 -6.0900545 0.022545481 -0.20899685
0003c0 c5 29 2d 41 36 1a 3c 3f 10 0d 04 bf a9 2b 03 41
       10.822698 0.73477495 -0.5158243 8.198159
0003d0 f4 44 07 3e 90 e5 24 3d aa c8 7a 41 76 6e c0 3c
       0.13209897 0.04025799 15.67399 0.023490172
0003e0 24 b1 4a bd 96 a7 3f bf e8 0f 98 bb c2 29 9d 3d
       -0.04948534 -0.7486509 -0.004640568 0.0767398
0003f0 bd 31 42 41 be b4 38 bf 45 c7 d9 bd 03 7a e2 40
       12.137143 -0.7215079 -0.10633711 7.077394

layers.0.bias f4 [256]
000000 2d 7c 00 41 e3 bb 30 41 44 97 73 3f c8 49 d5 3f
       8.030316 11.045871 0.9515269 1.6663141
000010 08 d6 32 41 bb c7 c8 40 86 d8 b3 40 56 64 c5 3f
       11.177254 6.274381 5.620181 1.5421245
000020 8c 23 2d 41 bc cb 94 40 bd 5e 1a 41 9c 77 55 c1
       10.821178 4.64987 9.648129 -13.3417015
000030 b2 7f 57 c1 a6 84 67 c1 38 38 3a 41 34 35 a8 40
       -13.468676 -14.469885 11.638725 5.2564945
000040 cd e9 4e 41 3d fb 32 41 3a 4f ec 3f 5a d7 e8 3f
       12.93208 11.186337 1.8461678 1.819072
000050 06 07 2f 41 42 dd 37 41 df 41 2f 41 b9 cb 2c 41
       10.939215 11.491518 10.953582 10.799737
000060 a4 70 67 40 3b ff 67 c1 88 84 f2 3f ee 05 5f c1
       3.61625 -14.499812 1.8946695 -13.938948
000070 a9 49 68 c1 7a 1f 90 40 25 b6 e0 3f 99 97 54 41
       -14.517983 4.5038424 1.7555586 13.287011
000080 32 74 39 40 dd 7f f3 40 a3 a8 59 c1 1f 0b 5e c1
       2.897717 7.6093583 -13.603671 -13.877715
000090 ac 6a 2e 41 86 23 51 41 b5 5d f2 3f 66 06 30 41
       10.901043 13.071173 1.8934847 11.001562
0000a0 4f da df 3f af 3d 46 41 6c 0d dd 3f 64 9b 56 c1
       1.7488497 12.390059 1.7269721 -13.412937
0000b0 fd 70 65 40 53 97 58 c1 16 55 dc 3f dd 9f 10 3f
       3.5850213 -13.536944 1.7213466 0.5649393
0000c0 2a 78 42 41 7b 8a 56 41 b3 be 2e 41 b5 a0 db 3f
       12.154337 13.408809 10.921557 1.7158419
0000d0 7d 77 30 41 57 88 93 3f 48 02 5a c1 06 65 4e 40
       11.029172 1.1525983 -13.625557 3.224916
0000e0 f1 82 51 41 7f d3 4f 41 ba 1b 6b c1 82 d2 1f 40
       13.094468 12.989135 -14.694269 2.4972234
0000f0 b9 8c e6 3f 42 aa 65 c1 96 c3 3d 41 b7 c7 46 41
       1.8011695 -14.354067 11.86025 12.4237585
000100 8d a8 6c c1 c2 8d 07 41 a6 30 ec 3f a6 5c f0 3f
       -14.79115 8.472109 1.8452346 1.8778274
000110 d1 09 05 c1 71 13 ea 3f a9 90 e7 3f e5 df eb 3f
       -8.314897 1.8287183 1.8091022 1.8427702
000120 6d 70 8f 40 67 81 ea 3f 31 59 71 c1 c4 12 58 41
       4.482474 1.832074 -15.084275 13.504581
000130 a3 53 50 41 49 72 59 c1 dd 25 28 41 66 13 c2 3e
       13.020419 -13.590402 10.509244 0.37905425
000140 31 1a 94 40 d0 7d 29 3f 58 e5 e4 3f 38 7f 69 c1
       4.628197 0.662076 1.788249 -14.593559
000150 87 ae 70 c1 ce 60 30 41 77 a1 6f c1 45 ea 3b 41
       -15.042609 11.023634 -14.97692 11.744695
000160 00 7b 59 c1 eb e6 67 c1 03 18 fb 3f 8c 6a 32 41
       -13.592529 -14.493876 1.9616703 11.151012
000170 35 8b 2f 41 66 14 2b 41 18 7c 54 41 3a 2c 6a c1
       10.971486 10.69248 13.280296 -14.6357975
000180 2d 91 5b c1 8e 90 e6 3f e7 fc ea 3f ca 01 2f 41
       -13.722943 1.8012865 1.835843 10.937937
000190 45 4b 08 3f 33 ff f0 3f df a5 30 41 0b f8 2d 41
       0.5323985 1.8827881 11.040496 10.873057
0001a0 14 59 58 41 c9 1c 42 41 d0 c3 48 41 bb fb 3c 41
       13.521748 12.132028 12.547806 11.811458
0001b0 6f 04 2d 41 cb 12 20 41 ed e6 70 c1 dc aa 5f 3f
       10.813582 10.004588 -15.056378 0.87370086
0001c0 fb 70 38 41 c8 83 1a 40 78 99 2e 41 30 98 4f 41
       11.527583 2.4142933 10.912468 12.974655
0001d0 ad 15 4b 41 26 65 54 41 05 74 68 c1 58 88 4e 41
       12.692792 13.274694 -14.528325 12.908287
0001e0 23 e1 2b 41 ad 21 ed 3f 36 27 e6 3f d2 88 3b 41
       10.742465 1.8525902 1.7980716 11.720903
0001f0 2f a6 51 41 74 99 5b c1 f6 96 68 c1 0d e1 5a 41
       13.103072 -13.724964 -14.536856 13.679944
000200 f0 78 2e 41 bf 93 2f 41 a1 09 29 41 47 6d 32 41
       10.904526 10.973571 10.564851 11.151679
000210 53 d0 5b c1 e4 a1 c6 40 6a 6a 62 40 71 70 e8 3f
       -13.73836 6.207262 3.537745 1.8159314
000220 75 ac e8 3f 9b 9c 46 41 91 d7 46 41 e7 6c 3f 41
       1.817763 12.413234 12.4276285 11.9640875
000230 e4 db ec 3f 2e 33 31 41 a6 fe 85 40 c1 ee 5f 40
       1.8504605 11.074995 4.187335 3.4989474
000240 d5 b7 6a c1 d5 bb 2e 41 ac 02 f3 3f 57 7e 4d 41
       -14.669881 10.920857 1.898519 12.843345
000250 4d 0c 67 c1 6d 2e af 3f 0c 2d de 3f 77 40 2b 41
       -14.440503 1.3686043 1.7357497 10.7032385
000260 50 7c 32 41 2e 1e e1 3f d9 42 2a 41 44 4e 68 c1
       11.15535 1.7587335 10.64132 -14.519108
000270 0c 8e 31 41 b6 3f 52 41 9e 7c 6a c1 81 23 58 c1
       11.097179 13.140554 -14.655424 -13.508668
000280 fe a0 5c c1 3c 6d 14 41 bc 7e 42 41 fa 6a 53 c1
       -13.789305 9.276669 12.155941 -13.213617
000290 af e5 44 41 c2 c7 55 c1 e1 e0 2d 41 03 f2 e8 3f
       12.306075 -13.361269 10.867402 1.8198856
0002a0 ae 8b 4e 41 0c 11 a9 40 1b 2d 0e 3f e4 76 2c 41
       12.9091015 5.283331 0.55537575 10.779026
0002b0 78 40 5f c1 91 0f 59 c1 f4 eb 2b 41 d4 3d 1a 40
       -13.953239 -13.5663 10.745106 2.4100237
0002c0 5e 09 2f 41 84 ea ed 3f 07 58 56 c1 83 54 56 c1
       10.939787 1.8587193 -13.396491 -13.395633
0002d0 0d b2 6a c1 de 14 d4 40 f1 6a 10 40 7b af 2e 41
       -14.668469 6.6275473 2.2565272 10.917842
0002e0 69 2e 3e 41 cb fd 47 41 85 12 2f 41 2a 9e 59 c1
       11.886331 12.499461 10.942021 -13.601114
0002f0 25 c0 2e 41 92 2b e9 3f 89 77 f0 3f fe 88 c4 3f
       10.92191 1.8216422 1.8786479 1.5354307
000300 12 13 81 3f ab bf 04 40 b3 0b 6e c1 ca 0b f1 40
       1.0083945 2.0741985 -14.877856 7.532689
000310 2f 04 4e 41 37 82 2c 41 70 cc 2e 41 1f c4 db 3f
       12.876021 10.781791 10.9249115 1.7169226
000320 a7 f7 c3 3f f4 e8 2f 41 f3 e2 58 c1 08 5d 2f 40
       1.5309952 10.994373 -13.555408 2.7400532
000330 a0 fb 4c 41 c3 70 42 41 38 e9 68 c1 9c 90 5d 40
       12.811432 12.15253 -14.556938 3.4619513
000340 41 ae 31 41 23 22 31 41 38 a4 30 40 dc fb 4c 41
       11.105042 11.070834 2.760023 12.811489
000350 1a 74 24 41 ce 41 57 41 01 5a 4b 41 14 82 c4 3f
       10.278345 13.453566 12.709474 1.5352197
000360 74 30 e3 3f 2b 3b 56 c1 69 8f 57 c1 7c 5f 3a 41
       1.7749162 -13.389445 -13.472512 11.648312
000370 9a 34 49 41 24 1a 5e c1 1e bd 65 c1 b8 90 5d c1
       12.575342 -13.881382 -14.358671 -13.847832
000380 ae 5c 58 41 6d 14 d6 3f 50 92 3e 41 e8 d7 31 41
       13.522627 1.6724983 11.910721 11.1152115
000390 04 0e 69 c1 9d 4f e9 3f fc 85 25 40 7a 9d 59 c1
       -14.565922 1.8227421 2.5863028 -13.600946
0003a0 c5 29 32 41 0a 8e 5b c1 c2 2f 57 c1 17 dd 94 40
       11.135198 -13.7221775 -13.44916 4.6519885
0003b0 ab 3a 31 41 25 38 e3 40 aa f2 2c 41 46 58 58 41
       11.076823 7.1006036 10.809244 13.521551
0003c0 c7 b7 c5 3f 3d 9a 5a c1 c8 3a 32 41 63 92 4d 41
       1.5446709 -13.662656 11.139351 12.848239
0003d0 6c f5 4a 41 b3 47 4c 41 7e b3 67 c1 d3 f2 5a c1
       12.684917 12.767505 -14.481321 -13.684283
0003e0 0f 81 5b 41 51 40 46 41 9c 0f ad 40 b7 99 32 41
       13.719008 12.390702 5.4081554 11.162528
0003f0 0e 60 49 41 ac dd 2d 41 a6 7a 50 41 71 94 30 41
       12.585951 10.866619 13.029943 11.036241

layers.2.weight f4 [256, 256]
000000 7e 74 1d 41 83 3b 34 c1 ef 17 9d 40 c4 cc 58 40
       9.84094 -11.264529 4.9091716 3.387498
000010 71 af 35 c1 91 28 0c 41 a0 63 02 41 06 1d b5 40
       -11.355332 8.759904 8.1493225 5.659793
000020 f2 e0 2e c1 d4 76 f5 40 5a 07 28 c1 fb 10 1e c1
       -10.929918 7.6707554 -10.501795 -9.879146
000030 95 93 1a c1 24 33 0b c0 8e 96 e2 40 0f a2 fa 40
       -9.661031 -2.1749964 7.0808783 7.8322825
000040 21 d5 cf 40 e8 31 37 c1 02 46 52 40 1f e9 60 40
       6.4947667 -11.449684 3.285523 3.5142286
000050 d9 1b 27 c1 17 57 ea 40 30 fb 26 c1 f4 4c 27 c1
       -10.444299 7.323131 -10.436325 -10.456287
000060 50 f4 d6 40 06 3a 16 c1 af 54 51 40 2e 73 15 c1
       6.7173233 -9.389166 3.2707937 -9.34062
000070 9d 4b 16 c1 4e 9f e7 40 c0 80 5d 40 e6 e2 d0 40
       -9.39346 7.2381964 3.4609833 6.5276976
000080 0e 30 d8 40 52 7d 0c c1 53 cf 1a c1 e1 61 1c c1
       6.755866 -8.780596 -9.675616 -9.773896
000090 77 39 27 c1 8f b9 d5 40 8e 2f c0 40 8c f3 29 c1
       -10.4515295 6.678901 6.005805 -10.62196
0000a0 e1 6d 43 40 cd 95 de 40 f7 26 6c 40 f1 68 1b c1
       3.0535815 6.955786 3.6898782 -9.71312
0000b0 ce 44 e1 40 c2 57 1c c1 83 84 b7 40 5e c8 91 40
       7.039649 -9.771425 5.7349257 4.555709
0000c0 51 6b e5 40 69 bc d6 40 68 f9 27 c1 df 1b 55 40
       7.16935 6.7104993 -10.49839 3.329826
0000d0 bd 80 2e c1 d1 08 aa 40 04 f8 18 c1 e0 66 db 40
       -10.90643 5.313576 -9.560551 6.856308
0000e0 85 a2 d1 40 84 51 d2 40 e8 ae 0d c1 2c 66 d0 40
       6.551089 6.5724506 -8.855202 6.512472
0000f0 06 21 5f 40 68 81 7d bf 91 96 e5 40 77 6f e2 40
       3.4863906 -0.99025583 7.1746297 7.0761065
000100 7f 7d 0d c1 bb 71 20 41 f9 0b 4b 40 14 02 53 40
       -8.843139 10.027766 3.1726058 3.2970018
000110 bf 0f ea 3f eb 6d bc 40 66 10 4d 40 a5 9e 54 40
       1.8286055 5.8884177 3.204126 3.322183
000120 d6 8d f7 40 45 81 54 40 f3 a6 eb bf c7 c5 ba 40
       7.736064 3.32039 -1.8410324 5.8366427
000130 9c 46 cb 40 c2 ed 13 c1 8c 5a 24 c1 e7 f6 8d 40
       6.3523693 -9.245546 -10.272106 4.4363894
000140 63 e0 f9 40 c9 36 9b 40 bb 81 51 40 f5 3c 9c bf
       7.808641 4.8504376 3.2735431 -1.2206103
000150 a4 ba 8f c0 a0 45 2a c1 9b 95 26 c0 fd ed e4 40
       -4.4915333 -10.641998 -2.6028812 7.1540513
000160 c7 8f 1a c1 06 d0 07 c1 16 40 be 40 34 0d 3b c1
       -9.660102 -8.488287 5.945323 -11.690723
000170 05 99 2a c1 c6 2e 3a c1 1b ca c1 40 53 d0 04 c1
       -10.662358 -11.636419 6.055921 -8.30086
000180 eb 3a 1d 3d 32 29 52 40 0b 74 46 40 60 c3 2f c1
       0.038386267 3.2837644 3.1008327 -10.985199
000190 87 bf 93 40 f9 15 4e 40 6f 19 30 c1 28 3c 28 c1
       4.61713 3.220091 -11.006209 -10.514687
0001a0 c6 dc d6 40 b3 90 df 40 fb fd db 40 c7 82 e8 40
       6.71445 6.9864135 6.8747535 7.265964
0001b0 3b ed 2c c1 98 2b 2b c1 d6 63 1a c0 f0 fd a3 40
       -10.807918 -10.698143 -2.4123435 5.124748
0001c0 c2 16 e9 40 06 f8 c4 40 12 61 2a c1 05 cf d8 40
       7.284028 6.1552763 -10.648699 6.775271
0001d0 85 0e dd 40 9a 59 c6 40 fe 10 12 c1 cb 4f d4 40
       6.9080224 6.1984377 -9.1291485 6.6347404
0001e0 b5 06 28 c1 95 cb 51 40 a1 96 bb 40 25 2e e5 40
       -10.501637 3.2780507 5.8621373 7.161883
0001f0 a9 f2 d3 40 fe 9a 16 c1 a4 e6 10 c1 ff 93 d0 40
       6.6233716 -9.41284 -9.056309 6.518066
000200 a0 6c 2a c1 82 b8 2b c1 ee 66 2c c1 09 bf 2b c1
       -10.65152 -10.732546 -10.775129 -10.734139
000210 cd 57 1e c1 19 30 0d 41 3c b1 e4 40 57 b1 71 40
       -9.896436 8.824243 7.146635 3.776449
000220 86 be 50 40 49 37 d9 40 57 db d9 40 fc 58 e4 40
       3.2616286 6.7879987 6.808025 7.1358624
000230 62 8f 4b 40 b3 1c 3d c1 07 4c ec 40 09 c1 db 40
       3.1806264 -11.819507 7.3842807 6.867314
000240 a7 10 15 c1 5a 3d 2a c1 3b 4b 5a 40 4f c5 04 41
       -9.3165655 -10.639978 3.4108417 8.298171
000250 98 bd 17 c1 fd ab af 40 49 66 5d 40 3d d0 28 c1
       -9.483788 5.4897447 3.459368 -10.550839
000260 03 90 3c 41 0c b3 be 40 27 02 26 c1 89 67 0c c1
       11.785159 5.9593563 -10.375525 -8.775277
000270 b4 43 2e c1 be 18 c4 40 c1 27 10 c1 33 6a 19 c1
       -10.891529 6.1280203 -9.009706 -9.588428
000280 50 51 19 c1 c0 14 2b 41 3f 83 dd 40 eb 54 b0 bd
       -9.582352 10.692566 6.9222713 -0.08609947
000290 e6 20 df 40 8f fd 19 c1 c9 cf 29 c1 f1 95 51 40
       6.972766 -9.624404 -10.613229 3.2747767
0002a0 d7 93 d3 40 87 d4 03 41 fb 41 96 40 b2 d0 26 c1
       6.611797 8.239387 4.6955543 -10.425951
0002b0 5f e7 19 c1 c2 5d 1a c1 70 90 27 c1 56 44 cc 40
       -9.618987 -9.64789 -10.472763 6.383342
0002c0 66 4e 29 c1 79 a1 53 40 f4 be 1a c1 0a 6f 1c c1
       -10.58164 3.3067305 -9.671619 -9.777109
0002d0 c1 c2 13 c1 f2 43 0b 41 ee e1 cd 40 c4 31 2f c1
       -9.235047 8.704088 6.4338293 -10.94965
0002e0 3e 63 e3 40 14 ec d9 40 ef b2 2e c1 6d e9 1b c1
       7.1058645 6.810068 -10.918685 -9.744489
0002f0 03 ec 27 c1 16 9e 56 40 19 f8 51 40 94 7f b8 40
       -10.49512 3.3533988 3.2807677 5.7655735
000300 a9 f3 a0 40 60 04 c5 40 40 92 ad bf c9 1c 12 41
       5.0297437 6.156784 -1.3560257 9.132028
000310 85 36 d2 40 ff f2 29 c1 6b f8 27 c1 a5 c7 69 40
       6.569155 -10.621825 -10.498149 3.6528103
000320 57 38 5d 40 41 f2 34 c1 77 fc 1c c1 f7 ee c2 40
       3.4565637 -11.309144 -9.811637 6.0916705
000330 df ac d9 40 fb 52 de 40 15 5c 08 c1 ed 5a da 40
       6.8023524 6.9476295 -8.522481 6.8235993
000340 6c 5e 2f c1 2e 22 2d c1 6c 87 d0 40 cf 8c d8 40
       -10.960552 -10.820845 6.516531 6.7671885
000350 ce 74 2c c1 05 7b d5 40 b6 58 dc 40 1d 62 4f 40
       -10.778517 6.671267 6.885829 3.2403634
000360 26 3c 51 40 9a 09 1c c1 3f 64 1a c1 87 b0 e4 40
       3.2692962 -9.752344 -9.649474 7.1465487
000370 32 c3 f8 40 e4 c3 2f bf 00 f9 14 c1 56 aa 14 c1
       7.7738276 -0.6865828 -9.310791 -9.291586
000380 1e 89 c2 40 ca b0 51 40 96 4a e0 40 97 01 35 c1
       6.079238 3.2764153 7.0091047 -11.312888
000390 6c cb 13 c1 e0 c0 52 40 fd db cc 40 e7 d2 17 c1
       -9.237164 3.2930222 6.401854 -9.48899
0003a0 6b 18 35 c1 1a 67 19 c1 70 37 1a c1 44 24 00 41
       -11.318461 -9.587671 -9.638535 8.008854
0003b0 71 72 30 c1 9f 97 12 41 66 97 29 c1 00 5e c1 40
       -11.02794 9.162017 -10.5994625 6.0427246
0003c0 c5 7c b4 40 8c fe 1b c1 35 82 35 c1 09 35 da 40
       5.6402307 -9.749645 -11.344289 6.818974
0003d0 40 2c db 40 df 11 d9 40 07 04 0d c1 df 36 1a c1
       6.8491516 6.7834315 -8.813483 -9.638396
0003e0 7d a5 ce 40 a5 ec df 40 50 85 05 41 c9 ec 36 c1
       6.457701 6.9976373 8.345047 -11.432809
0003f0 e3 bf da 40 ac 33 2e c1 1b cb d2 40 1e 3e 28 c1
       6.8359237 -10.887615 6.587293 -10.515165

layers.2.bias f4 [256]
000000 6f ca cb 3f ce 88 ef bf c7 b9 83 3f 40 3c 28 3e
       1.5921153 -1.8713624 1.029107 0.16429234
000010 e2 73 86 3f e3 e4 bf 3d 52 60 39 3f 68 0e a8 bd
       1.0504115 0.093698286 0.724126 -0.08205873
000020 af 37 83 3c f1 0d a1 bf 7f 5b 54 3e fc 22 c1 3f
       0.016017763 -1.258238 0.20738028 1.5088801
000030 55 ba c5 3d f8 ab 7d 3f 85 6c 4e 3f 65 c1 5e bd
       0.09654681 0.9909053 0.8063434 -0.054383654
000040 ca 33 e0 3f 47 55 5f 3f 9e 5f d4 3f b9 bb 1a 3e
       1.7515805 0.872395 1.659168 0.15110673
000050 18 7d 97 3f b2 4b 73 3f 5f 3d 8a 3f 97 bc cc 3f
       1.183505 0.95037377 1.0799979 1.5995053
000060 d8 18 a3 3d 6f 58 20 40 2d 67 65 3d 1c 5b 28 bd
       0.07963723 2.5053976 0.0560066 -0.041102514
000070 c6 9c da bd 31 94 46 3f ab c2 f5 bb 01 55 4f 3f
       -0.106744334 0.7756987 -0.007500013 0.8098908
000080 1a 2a 6a 3f ca 5d 3c 3f 10 f4 f7 3d 59 1e f8 3d
       0.9147049 0.7358061 0.12107098 0.12115163
000090 e0 7e bc bf a1 3d e3 bc 07 fe 48 3f 18 ba e8 bd
       -1.4726219 -0.027739348 0.78512615 -0.113636196
0000a0 3b e5 27 3e 9e 5e 7d 3f bb bf 0c 3e e5 2a c5 3f
       0.16396038 0.989725 0.13745014 1.5403715
0000b0 e5 35 85 3f 30 69 ee 3d 2d 70 db 3f 3b 32 70 bc
       1.0407072 0.11641157 1.7143608 -0.014660413
0000c0 d5 35 6d 3d e5 bf 1a 3e 4e 56 e1 3f ac c4 ad bf
       0.057912666 0.15112264 1.7604463 -1.3575644
0000d0 1e dd c8 3d fe 47 66 3f 56 5f 28 3e 80 41 c5 3f
       0.098078 0.899536 0.16442618 1.5410614
0000e0 c4 84 ea 3d 82 44 2a c0 95 c6 88 3f 50 9e fa bc
       0.11451104 -2.6604314 1.0685602 -0.030593067
0000f0 e6 c7 02 3e 8f 13 7a 3f 5c 47 d2 3b 28 c9 a1 3f
       0.12771568 0.97686094 0.006417198 1.2639513
000100 ca 4c 96 bc 95 a3 54 3f b0 f0 71 3f 89 6f 05 40
       -0.018347163 0.83062106 0.94507885 2.0849326
000110 c2 2c 11 be bb 3d 01 3c a4 3c 7b 3f 39 1c f8 3c
       -0.1417723 0.007888253 0.98139405 0.030286895
000120 9e 76 f5 3d bc e7 2d be ed 4b 5d 3f 8d a8 29 3c
       0.11985515 -0.16982931 0.8644398 0.010355127
000130 05 80 45 3f 1a f5 11 c0 34 76 6a 3f 74 cf f0 3f
       0.7714847 -2.2805848 0.91586614 1.881331
000140 65 84 97 bc 66 bc 55 3f b6 65 55 3f 60 db 12 c0
       -0.018495748 0.834906 0.83358324 -2.2946396
000150 2f 51 8e 3d 47 ee 28 3f b1 71 de bd f2 7b 3e 3d
       0.06949078 0.6598858 -0.10861529 0.046504922
000160 5c 79 8d 3d 07 40 b2 3f 0a 28 c5 3f 75 10 89 3d
       0.06907913 1.392579 1.5402844 0.06692592
000170 64 26 45 bd e3 3b 11 3e cf f4 c1 3d d5 49 08 c0
       -0.048132315 0.14183001 0.09470522 -2.1295063
000180 82 38 47 3f 54 59 95 3d 11 b7 7d 3f 1f 53 90 3f
       0.778206 0.072924286 0.9910746 1.1275367
000190 1e 9a 71 3f 79 45 ec 3d 94 cb aa 3f a3 35 c7 3d
       0.9437579 0.11536688 1.3343377 0.09727027
0001a0 70 86 80 3f 83 d5 3f 3f 5d 06 17 3e c0 96 0f be
       1.0041027 0.7493517 0.14748521 -0.1402235
0001b0 32 24 91 3f cc 3a aa bd ed c0 78 3f c0 89 f2 bf
       1.1339171 -0.08311996 0.9716938 -1.8948288
0001c0 d4 90 2b be 1d c2 83 3f 2a fa f5 3d 88 0e fa bc
       -0.16754466 1.0293614 0.12010606 -0.030524507
0001d0 8b 65 ee bf 2c 83 3e be 4e ba 05 3d b1 26 f4 3f
       -1.8624738 -0.18604726 0.032648377 1.9074308
0001e0 8b b9 a7 3d 6f 74 96 3d 95 4c 70 3f 62 83 f5 bb
       0.081896864 0.07346427 0.93866855 -0.0074924687
0001f0 c9 dd 23 be 2d d1 97 3d b9 71 4d 3f b8 94 89 3f
       -0.16002573 0.07412944 0.8025165 1.074851
000200 0f 30 cd 3d 56 47 3d 3e e8 fe 2d 3f 9c 2f 05 40
       0.10018932 0.18484244 0.6796708 2.0810308
000210 b0 06 fe 3d 9d f6 4f 3f b8 53 6d 3f f9 a4 ce bf
       0.12403619 0.81235677 0.9270587 -1.6144096
000220 42 1d d5 3f 8c 37 b8 3d 77 ee 1e 40 cc ac 4c 3f
       1.6649554 0.0899497 2.4833047 0.7995117
000230 88 5e 8b bc 33 de 87 bc cc 35 af 3f f5 9a f4 3f
       -0.01701285 -0.016585445 1.3688293 1.9109789
000240 c1 97 7f 3f 59 70 13 3e 33 e6 2c 3e c0 ae 46 3f
       0.99840933 0.14398326 0.16884689 0.776104
000250 77 23 7d bf 24 34 91 3f e5 63 70 3f 9f 67 64 3f
       -0.9888224 1.1344037 0.93902427 0.89220613
000260 15 4f ab 3f 12 2e 60 3f 17 76 57 3f 64 a0 e9 3c
       1.3383509 0.875703 0.84164566 0.028518863
000270 1a 56 ad bd 82 27 82 3f ef e0 ea 3d 20 9c af 3f
       -0.08463688 1.0168307 0.11468684 1.371952
000280 57 e8 8e 3f 7e 18 e8 3c d9 cf 84 3f 11 77 c9 3c
       1.1164654 0.028331991 1.037593 0.024592908
000290 ec c6 84 3f 7a 46 5c 3c e0 c2 56 3f 66 02 a9 3d
       1.0373206 0.013444537 0.83891106 0.082524106
0002a0 a0 8a 8c 3c 8c 7d 2d 3e 36 cc 61 3f 6a af 3d 3f
       0.017155945 0.16942424 0.88202226 0.74095786
0002b0 07 0d 97 3f 80 4f 79 3f 0e 7c 5a 3f a2 77 44 be
       1.1800851 0.9738693 0.8534554 -0.19186261
0002c0 06 dc 72 3f bc 18 30 3f f7 a7 4e 3f 3c 8a 19 40
       0.9486698 0.6878774 0.80725044 2.3990622
0002d0 09 07 4f bb 3e 82 2d c0 9a 29 08 40 c8 3a c5 bd
       -0.0031589887 -2.7110744 2.1275392 -0.09630352
0002e0 2f e6 51 3c 4a 75 85 3b b6 f7 ad bd 88 25 89 3f
       0.012811228 0.00407282 -0.08494513 1.0714579
0002f0 9b 79 cd 3d b1 4a 2d c0 65 63 45 3e 32 ee 57 be
       0.1003296 -2.7076838 0.19276197 -0.21086958
000300 38 e0 78 bb c2 17 72 3f 15 24 42 3f 4b f8 5d 3d
       -0.0037975442 0.945675 0.75836307 0.05419187
000310 11 c4 55 be aa bc 89 bd 5e 93 40 3f 44 78 17 c0
       -0.20875575 -0.06725438 0.75224864 -2.3667154
000320 f9 f6 2e 3d d3 f2 bc 3c c5 ac f3 3f 47 5b a4 3f
       0.042716 0.023065006 1.90371 1.2840356
000330 ac ec bd 3d 60 b9 55 3e 3e fe 69 3f 6e 48 46 bd
       0.09273657 0.20871496 0.9140357 -0.048408918
000340 df 61 ac 3f 53 15 2c c0 60 18 3d 3e 9a 3f b6 bf
       1.3467368 -2.6888015 0.1846633 -1.423816
000350 56 b7 26 3c be ad 84 bf 85 ff 35 40 35 af b2 3f
       0.010175547 -1.0365522 2.8437207 1.3959719
000360 ad e9 bf bf f7 cd d0 3f 3d ac 6e be 48 9e b9 3f
       -1.4993187 1.6312855 -0.23307891 1.4501429
000370 4d 3b 21 c0 13 70 4d 3c 9b aa 0a 40 5a aa c7 3f
       -2.5192444 0.012538928 2.166663 1.5598862
000380 05 54 74 3f 34 00 0a bd db 11 4d 40 8b a6 d0 3d
       0.95440704 -0.0336916 3.2042148 0.101880156
000390 a0 30 49 3f 5e b5 25 3f 0e 4f 0a 3e 12 55 5e 3c
       0.7858982 0.6472987 0.1350672 0.013570087
0003a0 eb 12 73 b9 1b ef 0d 40 b7 25 04 bc c5 54 61 3f
       -0.00023181333 2.2177188 -0.008065633 0.88019973
0003b0 c9 12 a8 3f af 25 45 3f 79 94 a0 be f7 6d 05 3e
       1.3130733 0.77010626 -0.31363276 0.1303023
0003c0 9c dc 17 c0 34 90 0b 3e b3 ff 0e 3e 0b a2 fb 3f
       -2.37284 0.13629228 0.13964729 1.9658827
0003d0 c1 93 9f 3f a9 bd 29 c0 d6 43 23 40 49 a0 e6 3f
       1.2466966 -2.652201 2.5510154 1.8017665
0003e0 3f 4d b5 bf e3 65 69 c0 43 fa d0 3f 07 a5 bb bf
       -1.4164199 -3.6468437 1.6326374 -1.4659737
0003f0 6e 37 15 bd a3 67 db 3d 22 c4 ac 3c 53 13 83 3f
       -0.036429815 0.107131265 0.021089617 1.0240272

layers.4.weight f4 [256, 256]
000000 eb 55 9a 40 97 79 bb 40 32 d5 00 c1 6e f9 a8 c0
       4.822988 5.8585925 -8.05205 -5.280448
000010 df 57 ff c0 96 6c df c0 ef 8c 8e 40 ae 03 05 c1
       -7.9794765 -6.982005 4.454704 -8.313398
000020 a4 38 00 c1 73 f4 c2 40 2c 89 b5 c0 c4 71 93 40
       -8.013828 6.09234 -5.6729946 4.6076374
000030 86 ac ac c0 3f b9 fb c0 0d e6 00 c1 23 e1 fd c0
       -5.39606 -7.866363 -8.056165 -7.9337325
000040 65 3e cc c0 44 5c ef c0 de 94 04 c1 75 ec 97 c0
       -6.3826165 -7.480013 -8.286345 -4.7476144
000050 61 f8 74 40 39 b0 a4 40 77 f0 fb c0 eb 33 94 40
       3.8276598 5.1465116 -7.8731036 4.6313376
000060 bc 5b 6d c0 00 00 ed c0 6d 20 d4 c0 ab c7 fe c0
       -3.708724 -7.40625 -6.628958 -7.9618735
000070 4f 72 c2 c0 75 f4 f6 c0 e9 b5 9c c0 20 ee f2 c0
       -6.0764537 -7.717341 -4.897206 -7.591568
000080 0f 4e 89 40 ec f9 9f 40 40 b8 a3 c0 0f 10 63 c0
       4.2907786 4.999258 -5.1162415 -3.5478551
000090 01 17 c2 40 22 12 05 c1 2e 6b 57 40 6d 17 e4 c0
       6.065308 -8.316927 3.3659167 -7.1278596
0000a0 42 64 69 c0 0d 3c 04 c1 71 59 95 c0 26 52 f0 c0
       -3.6467443 -8.264661 -4.667168 -7.510028
0000b0 80 2c fb c0 b5 30 4f c0 8d 6b ec c0 f7 82 f9 c0
       -7.849182 -3.2373478 -7.3881288 -7.797237
0000c0 aa a8 b0 c0 53 33 6b c0 5b ac e7 c0 12 a8 c0 40
       -5.520589 -3.6750076 -7.2397895 6.0205164
0000d0 b2 b3 85 c0 bc 18 03 c1 1a f2 6f c0 25 06 fe c0
       -4.1781855 -8.193539 -3.7491517 -7.93825
0000e0 20 4b c9 c0 04 32 b7 40 b3 44 00 c1 3d 17 60 c0
       -6.2904205 5.7248554 -8.016772 -3.5014184
0000f0 45 19 6b c0 f0 e4 fd c0 c8 61 d4 c0 a7 28 e1 c0
       -3.6734173 -7.9341965 -6.636936 -7.0362124
000100 d8 83 d1 c0 96 ea fe c0 29 92 ff c0 09 9c ea c0
       -6.547344 -7.966136 -7.986592 -7.3315473
000110 93 4a 82 c0 6d 4a c5 c0 35 35 01 c1 4a 27 d0 c0
       -4.0716033 -6.165335 -8.07549 -6.504796
000120 2e 96 85 c0 01 46 54 c0 26 3b fc c0 6d 6c e8 c0
       -4.1745825 -3.3167727 -7.8822203 -7.2632356
000130 a0 6b ec c0 84 d7 bc 40 82 e0 00 c1 82 25 fa c0
       -7.388138 5.901308 -8.0548115 -7.8170786
000140 61 e5 02 c1 77 b7 f8 c0 28 eb e1 c0 15 30 be 40
       -8.181001 -7.7723956 -7.0599556 5.9433694
000150 10 50 95 c0 36 b0 bd 40 00 18 75 c0 a7 b8 b1 c0
       -4.6660233 5.92776 -3.8295898 -5.5537906
000160 51 ca 98 c0 69 dd 98 40 d5 49 f8 c0 ac 68 af c0
       -4.774697 4.7770276 -7.7590127 -5.4815273
000170 f9 40 da c0 e2 3f 7f c0 f5 7e cd c0 78 25 c0 40
       -6.820431 -3.988274 -6.4217477 6.004574
000180 3a 83 fc c0 7e 85 f3 c0 ba 99 f8 c0 52 e3 22 40
       -7.891019 -7.6100454 -7.7687654 2.5451245
000190 d9 f8 93 40 32 91 c0 c0 fd f1 25 40 36 c3 cd c0
       4.624127 -6.017724 2.5928948 -6.4300795
0001a0 06 5a 02 c1 f3 29 e9 c0 76 fb 80 c0 3a 65 cf c0
       -8.146978 -7.2863708 -4.030696 -6.4811068
0001b0 a5 49 d3 c0 9b 14 fe c0 3e 26 03 c1 63 94 c2 40
       -6.60274 -7.9400153 -8.196836 6.0806136
0001c0 ea 9b 86 c0 b9 1a 17 40 46 a6 89 c0 ad b8 e4 c0
       -4.2065325 2.361006 -4.301547 -7.1475434
0001d0 66 36 c3 40 2c 31 88 c0 6a df fd c0 a6 f6 e9 c0
       6.1003904 -4.2560024 -7.933522 -7.3113585
0001e0 d8 84 3d c0 4b af d0 c0 82 f2 81 40 13 bf fe c0
       -2.9612331 -6.521398 4.060853 -7.9608245
0001f0 4b 56 aa c0 e8 ac ef c0 a4 0f f3 c0 68 93 00 c1
       -5.323034 -7.4898567 -7.5956593 -8.035988
000200 68 f4 8c c0 ad b3 5c c0 80 ac e3 c0 da bf f9 c0
       -4.4048347 -3.4484665 -7.114807 -7.8046694
000210 76 48 81 c0 70 8b e7 c0 d3 66 fe c0 db cb c0 40
       -4.0400953 -7.235771 -7.950052 6.0248847
000220 a2 ad 00 c1 c5 74 cc c0 63 e7 f3 c0 4d 94 02 c1
       -8.042391 -6.389254 -7.6219954 -8.161206
000230 03 4b fc c0 36 01 e8 c0 76 29 ee c0 fc 37 d8 c0
       -7.8841567 -7.250148 -7.442561 -6.756834
000240 25 64 ff c0 80 c9 9f c0 6e 90 8d c0 2b 64 fd c0
       -7.9809747 -4.993347 -4.4238806 -7.9184775
000250 9f 3b c9 40 67 29 fe c0 52 ec 00 c1 9c 05 a1 40
       6.288528 -7.942554 -8.057695 5.0319347
000260 4d dd a0 40 e9 74 fc c0 ad 55 f4 c0 0c 33 73 c0
       5.0270143 -7.8892713 -7.6354585 -3.7999907
000270 1d e3 fc c0 8d fb 84 40 ac 9e b8 c0 56 15 fb c0
       -7.902724 4.155707 -5.769369 -7.8463545
000280 38 02 01 c1 f7 95 ab c0 a2 ff 00 c1 25 df 7e c0
       -8.063042 -5.3620563 -8.06241 -3.9823697
000290 24 ec 45 40 81 21 e9 c0 b1 23 02 c1 fd 76 b3 c0
       3.0925379 -7.28534 -8.133714 -5.608275
0002a0 6f 44 9f c0 1f d6 8d c0 4b 15 ee c0 fd fc ea c0
       -4.9771037 -4.432388 -7.4400992 -7.3433824
0002b0 a2 71 9e 40 c4 84 fd c0 76 16 f4 c0 1c a8 97 c0
       4.951371 -7.9224567 -7.627742 -4.739271
0002c0 bf 1c f6 c0 11 a4 72 40 f6 7f fe c0 6b 78 dd c0
       -7.691009 3.7912638 -7.95312 -6.9209495
0002d0 71 97 cf c0 5a 3f c0 40 01 68 e9 c0 c5 3f f0 c0
       -6.4872365 6.0077333 -7.293946 -7.5077844
0002e0 25 09 a4 c0 cc 86 eb c0 33 e3 c4 c0 5f 2b 02 c1
       -5.1261163 -7.3602047 -6.1527343 -8.135589
0002f0 6b c6 a6 c0 87 42 bb 40 c2 09 77 c0 a1 25 95 c0
       -5.211721 5.851871 -3.8599706 -4.6608434
000300 2e 43 ed c0 db fd f9 c0 27 b6 f3 c0 f4 92 0b c1
       -7.4144506 -7.812238 -7.6159854 -8.723377
000310 a4 80 8c c0 96 e6 cf c0 10 f9 96 40 98 1d b9 40
       -4.390703 -6.4968977 4.717903 5.7848625
000320 4e 6e 03 c1 16 9e 84 c0 8b f2 fa c0 f3 4b e7 c0
       -8.21443 -4.1442976 -7.8421073 -7.228021
000330 92 f4 a6 c0 f1 ca 6f c0 13 56 f8 c0 b4 3f f8 c0
       -5.217355 -3.7467616 -7.760507 -7.7577763
000340 22 f0 13 3f d6 c2 be 40 fc de cb c0 14 8f c0 40
       0.5778829 5.9612837 -6.37097 6.0174656
000350 22 4c fe c0 0d 18 c4 40 23 29 ee c0 d4 81 84 40
       -7.9467936 6.127936 -7.4425216 4.140848
000360 b0 ae bf 40 f6 9b 9c 40 f5 94 03 c1 b7 c7 ec c0
       5.990074 4.894038 -8.223866 -7.3993793
000370 3e ee b9 40 ed 82 c4 c0 90 72 e9 c0 08 f4 84 40
       5.8103323 -6.140982 -7.2952347 4.154789
000380 81 16 fb c0 b6 66 f8 c0 c7 6f f3 c0 fd fd 82 c0
       -7.846497 -7.762538 -7.6073947 -4.0935044
000390 84 dc 9c 40 24 37 d9 c0 9a 1b 65 c0 24 f5 eb c0
       4.9019184 -6.787981 -3.5798097 -7.3736744
0003a0 57 ef 55 c0 34 03 4a 40 2f fe ae c0 ab e6 fe c0
       -3.3427331 3.1564455 -5.4685283 -7.9656577
0003b0 48 82 e6 c0 75 e3 8e 40 db 1e f0 c0 6a 1d b2 c0
       -7.2034035 4.4652658 -7.5037665 -5.5660906
0003c0 69 0b bb 40 8b 44 aa c0 fd 8a b0 c0 eb 29 f8 c0
       5.845143 -5.320867 -5.5169663 -7.755117
0003d0 46 66 84 40 c8 27 c1 40 da 04 fa c0 52 b8 ac 40
       4.1374846 6.036106 -7.813092 5.3975
0003e0 f1 79 c1 40 93 29 be 40 08 7d aa 40 05 c9 c2 40
       6.0461354 5.942575 5.3277626 6.0870385
0003f0 ea 9c fb c0 f1 01 a1 c0 4e 11 ba c0 3c b9 02 c1
       -7.8629045 -5.031487 -5.8146124 -8.170223

layers.4.bias f4 [256]
000000 85 f5 3f 3c 22 95 cd 3d 64 3b f3 3d a1 ef d8 3d
       0.011716251 0.100382105 0.11876562 0.105925806
000010 db ae f3 3d ed 41 1e 3e f2 b5 c1 3d b8 a5 c9 3d
       0.118985854 0.15454836 0.094585314 0.098460615
000020 02 8d c6 3d 16 e3 ec 3d 7a 4d 80 3e 69 ef ce bb
       0.09694864 0.11566751 0.2505911 -0.006315161
000030 c9 5f e0 3d 16 d0 b4 bc 06 9f c9 3d 4b 03 df 3d
       0.109557696 -0.02207188 0.098447844 0.108893
000040 a0 b7 f7 3d 99 c5 31 3e d0 2a 8f bc d9 0c 0b 38
       0.120955706 0.17360534 -0.01747647 3.3152148e-05
000050 b0 e6 5a bc f2 85 bf 3d 5e a2 f8 3d cb 06 c4 3d
       -0.013360664 0.0935172 0.12140344 0.09571608
000060 e8 27 bf 3d 79 ac 53 3e 70 33 86 bc 38 a5 19 3b
       0.093337834 0.20671262 -0.01638195 0.0023444425
000070 b5 fe bf 3d 4d 3f ca 3d 47 2b 8c 3c 86 ef f1 3d
       0.093747534 0.09875355 0.01711048 0.118132636
000080 eb 93 9f 3c 68 16 d3 3d 43 cc c3 3d 49 5e c2 3d
       0.019479712 0.10307008 0.09560444 0.0949064
000090 ac 0e 26 bc 01 51 92 bc 48 61 29 bc d1 40 37 bc
       -0.010135334 -0.017860891 -0.010338135 -0.011184887
0000a0 97 a9 87 3c 12 25 9a bc 2f c5 cc 3d 58 2b b8 bc
       0.016560359 -0.018816505 0.09998547 -0.022481605
0000b0 92 92 86 bc 37 82 e8 3d 68 e0 11 3e b1 e5 15 bc
       -0.016427312 0.113529615 0.1424576 -0.009149001
0000c0 a3 6a c0 3d c4 ba dd 3d d8 ea 97 bc 02 ed 06 3e
       0.09395339 0.10826638 -0.0185446 0.13176349
0000d0 98 41 0e 3e 73 a4 1a 3e 6c 02 77 3e 72 a0 bc 3d
       0.1389221 0.15101795 0.24122018 0.0921029
0000e0 3f 78 c1 bc 33 3f 00 bd a4 26 37 bd e6 a8 c7 3d
       -0.023616908 -0.03131027 -0.044714585 0.09749012
0000f0 5f 60 c9 3d c2 f7 c6 3d 36 05 60 3c 7e a3 d6 bc
       0.098328345 0.09715225 0.013673117 -0.026201006
000100 c4 6e c1 3b 7b f7 b9 bb 89 4d d8 3d 9e 84 dd 3d
       0.005903097 -0.005675254 0.10561664 0.1081631
000110 5d da 03 3e 97 95 28 3c 30 f0 d4 3d 17 1b df bc
       0.12876268 0.010289571 0.10397375 -0.027234597
000120 4d 86 c8 3d 2d 62 9b bc ca ed c7 3d b5 36 05 3e
       0.09791241 -0.018967712 0.097621515 0.1300915
000130 eb 35 1c bd 88 8a d6 3d fa ee c3 3d dd db 0e 3e
       -0.038137358 0.104756415 0.095670655 0.13951059
000140 91 00 c4 3d 6b b0 e1 3d bf b3 e3 3d f4 09 99 bc
       0.095704205 0.11019977 0.11118268 -0.018681504
000150 95 01 05 bc 9b f5 df 3d 4a 7e 09 3e be 68 94 3d
       -0.008118053 0.109355174 0.13427082 0.072465405
000160 0b b3 1f bd ec 1e 26 bd d3 f5 d5 3d d9 28 80 bc
       -0.038989108 -0.040556833 0.10447278 -0.015644478
000170 65 29 c7 3d 85 78 16 3b ba 45 c9 b9 26 32 08 3e
       0.09724692 0.0022960019 -0.00038389658 0.1330038
000180 99 0f c7 bc 7b f6 49 bc c1 ea 38 3e b1 47 3f 3c
       -0.02429943 -0.012326832 0.18058302 0.011674807
000190 2e 28 c1 3d 82 b5 c9 bc 14 89 26 bd f2 b6 10 3e
       0.09431492 -0.024622682 -0.04065807 0.14132288
0001a0 62 44 7c bc a3 7e be 3d b6 8c 91 bc 35 14 f5 3d
       -0.015397163 0.09301498 -0.017767292 0.11966745
0001b0 3f 74 53 39 1c 9e 0d bd f7 0c c7 3d 53 14 c3 bc
       0.00020165833 -0.034574613 0.0971927 -0.023813402
0001c0 97 1f c6 3d e1 6f e6 3d 6e 12 81 bc 30 2e e8 3d
       0.09673994 0.11251808 -0.015755858 0.113369346
0001d0 f5 88 2c bc 14 58 12 bc 91 29 fc bc 71 bb f9 3d
       -0.0105307 -0.008932132 -0.03078154 0.12193955
0001e0 eb 46 2a bc 03 99 0c bd 73 7e 0a 3e 70 f6 ce bc
       -0.010392885 -0.03432561 0.13524799 -0.025263995
0001f0 40 bb 8a bc 3e 6f fb 3d a6 20 cb 3d 76 56 9d bc
       -0.01693499 0.12277077 0.099183366 -0.019206267
000200 0d a0 df 3d 56 3b 6c 3e 71 f8 d1 bc ef 6b eb 3d
       0.10919199 0.2306951 -0.025631161 0.11495196
000210 57 db 5f bc 63 b1 8e bc e5 db e5 3d 3a f2 a8 bc
       -0.013663135 -0.017418569 0.11223582 -0.020623315
000220 5d f0 9b bc 8d a7 04 bc dd c2 1c ba a4 66 da 3d
       -0.019035513 -0.008096588 -0.00059799646 0.106641084
000230 cf 77 ee 3d c7 d5 11 3e 07 d2 70 bc 00 1d d4 bc
       0.116439454 0.14241706 -0.014698512 -0.025892735
000240 09 88 f4 3d 84 3e 9f 3c c2 d6 d5 3d 60 b1 63 bc
       0.11940009 0.01943899 0.104413524 -0.01389727
000250 8c fe e5 3d 3a 45 da 3d ed d4 e8 3d 75 21 b9 bc
       0.112301916 0.10657735 0.11368737 -0.022598961
000260 bf 51 f5 3d d5 84 18 bc 95 e1 51 bc 97 3a df 3d
       0.119784825 -0.009309013 -0.012810131 0.10899847
000270 a8 99 20 3e 79 ea 90 3d 21 b5 e9 3d 73 e2 df 3d
       0.15683615 0.07075972 0.11411501 0.10931864
000280 44 dd bd bc e0 3b c8 bc 4a 25 c2 3d eb ce df 3d
       -0.023176797 -0.024442613 0.094797686 0.10928138
000290 34 f8 4e bc d3 2e cf bc 88 22 10 bd a3 9c 3c bd
       -0.012632418 -0.025290882 -0.03518918 -0.046047818
0002a0 70 86 03 bd 65 6f ad bb c6 c7 ed 3d 16 bb ce 3d
       -0.03211063 -0.0052928203 0.116103694 0.100942776
0002b0 95 50 88 bb dd 7f 78 3e a8 7b 3f 3e 28 d2 ac 3e
       -0.0041599968 0.24267526 0.18699515 0.33754086
0002c0 48 c7 cc 3d 27 60 95 bc a0 b3 76 3d 49 72 c8 bb
       0.099989474 -0.018234326 0.060229897 -0.0061171395
0002d0 8e f2 41 3e 9d 9b 2c 3e b7 69 83 bc b6 1c 0d 3e
       0.18940184 0.16856237 -0.01604162 0.13780484
0002e0 dc 8d d3 3d af 81 83 bc 55 97 ce bb 11 03 c3 3d
       0.10329792 -0.016053049 -0.0063046613 0.09522069
0002f0 e4 ff 04 3e df 4b 62 bc 80 22 7d bc c0 ed eb 3d
       0.1298824 -0.013812034 -0.01545012 0.115199566
000300 bd a6 8f bc 57 d9 31 3d 45 31 81 bc 0f 6b d2 3d
       -0.017535562 0.043420162 -0.015770564 0.10274326
000310 d4 3f d2 3d d0 a7 e0 3d 09 83 23 3e 84 82 32 bd
       0.102660805 0.10969508 0.15967955 -0.0435815
000320 4b 8b c3 bb 82 5a 79 3e 7a f6 ea 3c c2 c4 c8 3d
       -0.0059675328 0.24350932 0.028681982 0.098031536
000330 88 66 c9 3d f6 ea 42 ba 57 f6 71 3e 2d dd 27 bc
       0.098340094 -0.00074355246 0.23629127 -0.0102456035
000340 86 28 8e 3b eb a2 08 3e e9 d1 94 3e e3 e8 f7 bc
       0.004338327 0.13343398 0.290664 -0.030262416
000350 29 6d 44 bc 61 a3 7d 3e 12 37 a2 bc 21 64 cd 3d
       -0.011988916 0.24769355 -0.01980165 0.10028864
000360 e7 1b bb 3d a8 35 03 3e 39 94 7e bc e3 d5 2f bc
       0.09136181 0.12813437 -0.015538269 -0.010732147
000370 0b fa cf 3d 6d a3 a4 bb 3a 3e 24 3e 6a f5 cf 3d
       0.10155114 -0.0050243647 0.16039363 0.10154231
000380 18 1a ed 3d 88 0a 76 3e f1 39 cc 3d a9 eb 75 bc
       0.115772426 0.24027455 0.09971989 -0.015009799
000390 9e 8d cf 3d 83 d0 56 3b 87 21 23 3e 11 ae dd 3d
       0.10134433 0.0032778091 0.15930758 0.10824216
0003a0 ff 83 3d 3e 13 59 93 bc be 62 2c 3e 59 66 da 3d
       0.18507384 -0.01798681 0.16834542 0.106640525
0003b0 1c 74 10 bc 33 36 c8 3d 5b 21 28 3d c6 08 e2 3d
       -0.008816745 0.09775963 0.041047435 0.1103683
0003c0 df 19 8f bc 2e a4 4f bc 81 49 85 bc 4f 19 19 bd
       -0.017468391 -0.012673421 -0.016270401 -0.03737765
0003d0 fd ee 16 bd 17 bd d3 3d 73 90 11 3b ff 1d e4 bc
       -0.03684901 0.103388004 0.0022211343 -0.027846335
0003e0 f5 d8 ca 3d bf 54 be 3d bb eb 55 bc 7c e8 c4 3d
       0.099046625 0.09293508 -0.013056691 0.096146554
0003f0 31 22 bd 3d fd 6d 95 bc 23 ce 00 bd 6d 89 df 3d
       0.09235037 -0.018240923 -0.031446587 0.10914884

layers.6.weight f4 [1, 256]
000000 2d 70 01 c1 25 25 06 41 74 6d 0e 41 43 a8 0b 41
       -8.089887 8.3840685 8.901722 8.7285795
000010 04 95 16 41 56 b9 13 41 7f 70 00 41 a7 d8 04 41
       9.411381 9.232748 8.027465 8.302894
000020 8a 64 08 41 28 9c 15 41 5a 0d 15 41 d9 68 00 c1
       8.524546 9.350624 9.31576 -8.025598
000030 bc d7 11 41 a5 7f 9c c1 63 99 09 41 92 58 12 41
       9.11517 -19.562326 8.599948 9.146624
000040 7a 17 14 41 8f ab 16 41 3c f9 9a c1 9e 94 99 c1
       9.255732 9.416884 -19.371696 -19.197567
000050 05 21 9a c1 89 25 07 41 95 e1 15 41 99 35 0a 41
       -19.266123 8.446664 9.367574 8.638085
000060 01 29 fe 40 32 2e 16 41 31 c4 9c c1 0e 6e 01 c1
       7.9425054 9.386278 -19.595797 -8.089369
000070 60 50 08 41 52 49 03 41 85 5a 01 c1 57 3a 16 41
       8.519623 8.2054 -8.0845995 9.389243
000080 c0 19 03 c1 d4 72 07 41 7e 6d 0b 41 00 3a 08 41
       -8.193787 8.465534 8.7142315 8.51416
000090 13 48 9b c1 58 42 99 c1 a9 51 fe c0 38 63 9c c1
       -19.410192 -19.157394 -7.9474683 -19.548447
0000a0 4c 2e 03 c1 a4 19 9c c1 e0 4f 0c 41 3d 80 97 c1
       -8.198803 -19.51252 8.769501 -18.937616
0000b0 e8 dd 99 c1 11 94 13 41 5f d4 16 41 1b 67 9a c1
       -19.233353 9.223649 9.426848 -19.300344
0000c0 76 0d fb 40 df a5 0a 41 eb 1c 99 c1 56 93 11 41
       7.845393 8.665496 -19.13912 9.098471
0000d0 f5 4c 16 41 4a e1 00 c1 1d e2 1e 41 b5 82 fd 40
       9.393788 -8.055002 9.930203 7.9222054
0000e0 84 ba a0 c1 6c cc 7e c1 58 a8 82 c1 16 a0 00 41
       -20.091072 -15.924908 -16.3322 8.0390835
0000f0 83 66 0a 41 38 1d 0e 41 d5 7b 95 c1 9e 6a 9e c1
       8.650027 8.8821335 -18.685465 -19.80206
000100 86 97 97 c1 4c ed 00 c1 5c 21 07 41 8c f5 11 41
       -18.948986 -8.057934 8.445644 9.122448
000110 33 b0 19 41 3e c7 95 c1 00 a5 0f 41 7b 93 97 c1
       9.605517 -18.722286 8.977783 -18.947012
000120 ef 28 05 41 23 8f 9d c1 df df fd 40 34 62 13 41
       8.322494 -19.694891 7.933578 9.211475
000130 01 00 80 c1 72 f0 11 41 01 4c 06 41 f4 8e 15 41
       -16.000002 9.121202 8.393556 9.347401
000140 d3 05 01 41 43 e8 02 c1 1d 9a 0e 41 f2 26 9d c1
       8.063922 -8.1817045 8.912625 -19.644016
000150 87 ef 9a c1 65 4d 16 41 10 fa 15 41 cb da 01 c1
       -19.366957 9.393895 9.37355 -8.115916
000160 24 6b 9e c1 c8 fb 89 c1 82 62 05 41 fd 38 9e c1
       -19.802315 -17.24794 8.33655 -19.777826
000170 f2 19 0e 41 51 f0 96 c1 2a 24 99 c1 ba 1c 1d 41
       8.881334 -18.867342 -19.142658 9.819513
000180 a7 c1 98 c1 5f 75 99 c1 c8 1e 10 41 86 34 95 c1
       -19.094557 -19.18231 9.007515 -18.650646
000190 b9 b3 e9 40 1e 19 9e c1 b2 d9 f7 c0 2a 16 15 41
       7.303189 -19.762264 -7.745324 9.317911
0001a0 19 9d 9b c1 49 30 f7 40 76 34 99 c1 a1 b8 18 41
       -19.451708 7.724644 -19.150616 9.545075
0001b0 da 8c 00 c1 4f 59 9d c1 9f f1 10 41 6c e2 9b c1
       -8.034388 -19.668608 9.05899 -19.485558
0001c0 b1 ed 01 c1 5c ec 0b 41 b7 5a 9c c1 7d 5d 11 41
       -8.12053 8.745205 -19.544294 9.085324
0001d0 61 c4 01 c1 62 53 9b c1 14 e6 9c c1 45 2f 19 41
       -8.110444 -19.415714 -19.612343 9.57404
0001e0 2e 0f 01 c1 0d 05 8b c1 3d fc 11 41 e6 ce 9e c1
       -8.066206 -17.377466 9.124082 -19.851025
0001f0 a0 ca 9c c1 79 25 15 41 aa b4 05 41 61 11 9e c1
       -19.598938 9.321649 8.356607 -19.758486
000200 6b 22 15 41 c7 e0 19 41 cf ef ea c0 80 f6 10 41
       9.320903 9.617377 -7.3417735 9.060181
000210 31 f0 9b c1 38 be 9c c1 a5 cf 0d 41 14 d6 9a c1
       -19.492281 -19.59288 8.863194 -19.35453
000220 c3 bb fe c0 33 a5 55 c1 b4 10 00 c1 bf 44 0d 41
       -7.96042 -13.352832 -8.004078 8.829284
000230 6d 48 0e 41 35 5c 13 41 a7 b0 9a c1 5f 12 9e c1
       8.892682 9.2100115 -19.336256 -19.75897
000240 cb 1c 0f 41 41 a1 02 c1 59 f5 0d 41 30 b0 fc c0
       8.94453 -8.164369 8.872399 -7.8965073
000250 c2 e4 11 41 0e a4 0e 41 42 2e 13 41 16 48 9c c1
       9.118349 8.915052 9.198793 -19.535198
000260 33 fb 16 41 9f c1 98 c1 3d b1 9b c1 7b 02 10 41
       9.436328 -19.094542 -19.461542 9.000606
000270 1c 55 16 41 2b ea 02 c1 a1 e0 0f 41 4a ab 01 c1
       9.395779 -8.18217 8.992341 -8.104319
000280 00 ee 9b c1 64 c8 9a c1 f8 b2 04 41 87 1d 03 41
       -19.49121 -19.347847 8.293694 8.194709
000290 33 b4 9b c1 32 2c a2 c1 91 c6 95 c1 ef c1 79 c1
       -19.462988 -20.27158 -18.721956 -15.609847
0002a0 f3 06 9e c1 55 b8 9a c1 cb 23 0e 41 9c 8e 0e 41
       -19.753393 -19.340006 8.8837385 8.909817
0002b0 fc 4c 98 c1 00 e9 14 41 5b c6 13 41 db 2f 19 41
       -19.03759 9.306885 9.235927 9.574183
0002c0 d0 41 08 41 e7 a4 02 c1 fd 04 03 c1 72 a9 9a c1
       8.5160675 -8.165259 -8.188718 -19.332737
0002d0 87 04 14 41 0f 8d 17 41 07 77 9b c1 98 78 14 41
       9.251105 9.471938 -19.433119 9.279442
0002e0 83 ed 0d 41 3b de 9c c1 b9 72 9a c1 fe 15 05 41
       8.870486 -19.608511 -19.306017 8.317869
0002f0 2d 67 14 41 f2 17 9c c1 44 6a 9d c1 f8 5e 14 41
       9.275189 -19.511692 -19.676888 9.273186
000300 81 45 9b c1 f1 0f 03 c1 60 98 ff c0 a7 0c 11 41
       -19.408937 -8.191392 -7.9873505 9.065589
000310 b0 02 14 41 43 bc 0b 41 6c 2d 1b 41 92 93 9c c1
       9.250656 8.733462 9.698589 -19.572056
000320 dc 39 99 c1 f7 1e 13 41 14 b1 02 c1 4c 2a 09 41
       -19.153252 9.19506 -8.168232 8.572826
000330 37 7c 06 41 7c e9 00 c1 30 7e 14 41 90 59 9b c1
       8.405326 -8.057003 9.2808075 -19.418732
000340 ca 68 94 c1 2d 8a 17 41 8e 1b 14 41 38 c7 98 c1
       -18.551167 9.471234 9.256727 -19.097275
000350 8a 19 00 c1 59 24 18 41 9f db 9b c1 81 76 07 41
       -8.006235 9.508874 -19.482237 8.466432
000360 76 51 fd 40 b5 d1 10 41 39 63 9c c1 19 26 ff c0
       7.916194 9.051198 -19.548449 -7.9734006
000370 e2 3b 0c 41 d6 06 9b c1 74 c6 15 41 50 27 13 41
       8.76462 -19.378338 9.36095 9.197098
000380 89 e5 10 41 f5 7b 16 41 49 2d 0c 41 27 5f 7c c1
       9.056039 9.405263 8.761056 -15.773231
000390 f0 9d 01 c1 70 bc 98 c1 e8 d4 13 41 d8 00 0e 41
       -8.101059 -19.09201 9.239479 8.875206
0003a0 f0 46 13 41 95 b1 9d c1 d0 ba 19 41 76 7e 1b 41
       9.204819 -19.71171 9.6081085 9.718374
0003b0 13 3a 9c c1 45 cb 04 41 bb 5b 01 c1 21 9d 0c 41
       -19.528357 8.299626 -8.084895 8.788362
0003c0 c0 71 99 c1 62 6f 9a c1 67 a3 9b c1 35 47 7d c1
       -19.180542 -19.304386 -19.454786 -15.829885
0003d0 3e 1c 90 c1 0e 0a 0a 41 61 db 01 c1 6e f3 99 c1
       -18.01379 8.627455 -8.116059 -19.243862
0003e0 99 a7 0c 41 dc 0e f3 40 12 a4 7f c1 38 7c 01 41
       8.790917 7.595564 -15.977556 8.092827
0003f0 bb 91 f0 40 f8 8a 00 c1 39 e4 96 c1 37 02 1f 41
       7.5177894 -8.033928 -18.861437 9.938041
