Results_dir/2022-03-16-10-22-06/actor.pth (torch, 274391 bytes, 6 tensors)

layers.0.weight f4 [256, 6]
0	0x3e33a7b4	0.17544442
1	0x3c8727e4	0.016498514
2	0x3e813400	0.25234985
3	0x3bad06b2	0.005280339
4	0x3c2cb07c	0.010540124
5	0xbb4ba3a6	-0.0031072884
6	0xbe0b0a6f	-0.13578199
7	0xbd31a18d	-0.043366957
8	0x3da5f4b0	0.08103311
9	0xbdb4ba6f	-0.08824622
10	0x3dc5bd3e	0.09655236
11	0xbda92062	-0.0825813
12	0xbe0f712b	-0.14008014
13	0xbe0b304d	-0.13592644
14	0xbcaf8320	-0.02142483
15	0xbdd3a9c5	-0.10335115
16	0x3e58c87c	0.21170229
17	0xbdc24919	-0.094865985
18	0xbd579b2d	-0.05263822
19	0xbd184405	-0.037174243
20	0x3e5efa68	0.2177521
21	0xbd0f7226	-0.03502097
22	0x3e12ccdb	0.14335959
23	0x3dbb329d	0.09140513
24	0xbd6006c5	-0.054693956
25	0xbe08ce6d	-0.13359995
26	0xbd1e491e	-0.03864395
27	0xbd88ac89	-0.066735335
28	0x3e6a9be9	0.22911038
29	0xbe2f1dc5	-0.171012
30	0xbe02166e	-0.12703869
31	0x3dbbae88	0.091641486
32	0xbe208f32	-0.15679625
33	0xbd299465	-0.041401286
34	0x3d151f6e	0.036406927
35	0xbd7e2efe	-0.062056534
36	0x3c92295c	0.017841987
37	0xbd3cb559	-0.046071384
38	0x3d42b18c	0.047532603
39	0xbd94df0a	-0.07269104
40	0xbced8040	-0.028991818
41	0x3ba00115	0.0048829415
42	0x3ea435c5	0.32072273
43	0xbe034c88	-0.12822163
44	0x3e972289	0.29518536
45	0xbd78c604	-0.060735717
46	0x3d878df8	0.06618875
47	0x3b9f600a	0.0048637437
48	0x3e800e5e	0.2501096
49	0xbc4289fc	-0.011873718
50	0x3db8364a	0.0899473
51	0x3c93ad87	0.01802708
52	0x3c87c31a	0.016572524
53	0x3d0b1766	0.03395786
54	0xbe9720e7	-0.2951729
55	0x3d54a55a	0.051915504
56	0xbe2a8f94	-0.16656333
57	0x3e100dab	0.14067714
58	0xbc822c14	-0.015890159
59	0xbe3f9366	-0.18708572
60	0x3d91fe05	0.071285285
61	0xbd9b3101	-0.07577706
62	0x3e8bb73d	0.27288237
63	0x3d78f477	0.060780015
64	0x3d76530f	0.060137805
65	0x3d56de96	0.05245837
66	0xbe1fc0f3	-0.15600948
67	0x3e2d672b	0.16933887
68	0x3db965e3	0.090526365
69	0x3de9768e	0.11399566
70	0x3e12e574	0.14345342
71	0xbda8c3a6	-0.08240442
72	0x3e19bf5c	0.15014404
73	0xbdb4990f	-0.08818256
74	0x3e0a73bb	0.1352071
75	0x3dce302f	0.10067784
76	0xbdd0058f	-0.1015731
77	0x3e174cda	0.1477541
78	0x3e09e3a8	0.1346575
79	0xbe899f59	-0.26879385
80	0x3e554c31	0.20829846
81	0xbd2e4838	-0.042549342
82	0xbcac5553	-0.02103678
83	0x3d9970c9	0.07492215
84	0x3d56a020	0.0523988
85	0x3e39c88f	0.18142913
86	0xbdff14c8	-0.124551356
87	0x3c6a8478	0.01431381
88	0xbdc0ef27	-0.09420615
89	0x3e292522	0.16518071
90	0xbda37aed	-0.079824306
91	0x3df3dfcb	0.119079195
92	0x3d36ef14	0.044661596
93	0xbdfed641	-0.124432094
94	0x3e062154	0.13098651
95	0xbc37281f	-0.011178999
96	0xbd995af1	-0.07488049
97	0xbdc9bd00	-0.09850502
98	0x3da574a3	0.08078887
99	0x3db02827	0.086014085
100	0xbc04d6bd	-0.008107838
101	0xbdf389a8	-0.1189149
102	0xbd202805	-0.039100666
103	0xbe30964c	-0.17244834
104	0xbdb6a140	-0.08917475
105	0xbe28e03e	-0.16491792
106	0x3e3442be	0.17603585
107	0x3e23703e	0.15960786
108	0xbe31b7a8	-0.17355216
109	0x3d2f29ea	0.04276458
110	0xbe00c8a8	-0.12576544
111	0xbe13227d	-0.14368625
112	0x3c14c5bb	0.009080346
113	0xbd31a6e0	-0.043372035
114	0xbb8ed03e	-0.0043583205
115	0xbe5bda74	-0.21470052
116	0xbbce50a5	-0.0062962347
117	0x3d1453c5	0.0362127
118	0x3db582a8	0.08862811
119	0x3c5b1936	0.01337271
120	0xbc9c7729	-0.019099789
121	0x3e2e71ff	0.17035674
122	0xbe0e5c9b	-0.13902514
123	0x3c324568	0.010880806
124	0xbe0074ab	-0.12544505
125	0x3d63784d	0.05553465
126	0x3e401352	0.1875737
127	0x3e32f700	0.17477036
128	0xbd220eb5	-0.039564807
129	0xbd80450b	-0.06263169
130	0x3d99b12c	0.07504496
131	0x3d8f7ce9	0.070062466
132	0x3d95c119	0.07312221
133	0x3e254725	0.1614042
134	0xbecd0e5b	-0.40050015
135	0xbbd5a09a	-0.0065193893
136	0x3b871739	0.0041226414
137	0xbd908ba9	-0.07057888
138	0xbc83c19d	-0.016083533
139	0xbe0c1e52	-0.13683441
140	0x3d8edff7	0.06976312
141	0xbe0647fb	-0.13113396
142	0xbc810475	-0.015749196
143	0xbe2eef82	-0.17083552
144	0xbe0cf033	-0.13763504
145	0x3e040af6	0.12894806
146	0xbecdc188	-0.40186715
147	0x3dc0274c	0.09382495
148	0xbd37be52	-0.044859238
149	0xbe4529d9	-0.19254245
150	0xbdf04309	-0.11731536
151	0xbd979fbf	-0.07403516
152	0x3d7a4523	0.06110109
153	0x3d056171	0.03256363
154	0xbe165ee2	-0.14684632
155	0xbd12be66	-0.03582611
156	0x3e0fcbd5	0.140426
157	0x3e96cad1	0.29451612
158	0xbeed1640	-0.46306038
159	0x3cb987bf	0.022647737
160	0x3dbf572f	0.09342801
161	0xbe079014	-0.13238555
162	0xbe56c907	-0.20975123
163	0x3e578cd9	0.21049823
164	0xbe1fd436	-0.15608296
165	0x3dc1a2c3	0.094548725
166	0xbcc46689	-0.023974674
167	0x3e38ffbb	0.18066303
168	0xbdb5ce4e	-0.0887724
169	0x3dbd1884	0.092331916
170	0x3befb2cb	0.007315015
171	0xbdb4fef0	-0.08837688
172	0x3da95e7a	0.08269973
173	0xbbc9567c	-0.006144343
174	0xbb4923a6	-0.0030691414
175	0xbddf51bc	-0.109042615
176	0x3e282793	0.16421346
177	0x3dbcd5b7	0.0922045
178	0xbcca80d4	-0.024719633
179	0x3dac3912	0.08409323
180	0xbe27633f	-0.16346453
181	0xbcd61ef9	-0.026137816
182	0xbe4aaf87	-0.19793521
183	0x3d43f3a4	0.047839776
184	0x3bbb64f6	0.0057188226
185	0xbd6e774c	-0.05821924
186	0xbe3e6344	-0.18592554
187	0xbe45dcfa	-0.19322577
188	0xbdb878b6	-0.09007399
189	0x3d34cfa6	0.04414334
190	0x3e0af514	0.13570052
191	0x3a2dc323	0.0006628504
192	0xbdd2467b	-0.10267349
193	0xbe2822b1	-0.16419484
194	0xbcf6a56e	-0.03010818
195	0x3e19419a	0.14966431
196	0x3d4268af	0.047463115
197	0xbd048e2b	-0.032362144
198	0xbe171f92	-0.14758137
199	0xba00eadb	-0.00049178087
200	0xbd60d48a	-0.054890193
201	0x3d2f7470	0.042835653
202	0xbdb7056c	-0.08936581
203	0x3e1b29cf	0.15152667
204	0xbe0a65a5	-0.13515337
205	0x3e83a76f	0.2571368
206	0x3d7033ba	0.05864308
207	0x3b9e123e	0.004823952
208	0x3cbc7afb	0.02300786
209	0xbe021339	-0.12702645
210	0x3e1bc839	0.15213098
211	0x3dfcb71c	0.12339613
212	0xbd958989	-0.073016234
213	0x3d83492c	0.06410441
214	0x3d67f4ff	0.05663013
215	0x3e1203e0	0.1425929
216	0x3e450a05	0.19242103
217	0x3c840be0	0.016118944
218	0x3d95c400	0.07312775
219	0xbdce60f2	-0.100770846
220	0xbd8ef9cd	-0.069812395
221	0x3dd904c2	0.105966106
222	0x3c769f8e	0.015052689
223	0x3e46ebaf	0.19425844
224	0xbeb00939	-0.34382036
225	0x3c8db8dc	0.017300062
226	0x3c6b4614	0.01435997
227	0xbdcbec5a	-0.0995719
228	0xbe1bcc5e	-0.15214679
229	0xbdbcde70	-0.09222114
230	0x3ebb6241	0.365984
231	0x3d883197	0.066500835
232	0x3dab16dc	0.083539695
233	0x3b4f3f4e	0.0031623426
234	0xbd4e0680	-0.050299168
235	0x3d51506c	0.051102087
236	0xbe40780e	-0.18795797
237	0x3dce3c32	0.10070075
238	0xbd86d4d6	-0.06583564
239	0x3e122e61	0.14275505
240	0x3db917f0	0.09037769
241	0x3cdedcd7	0.027204914
242	0xbe873452	-0.26407105
243	0x3d53930d	0.05165391
244	0x3ab56445	0.0013839087
245	0x3df6ad19	0.120447345
246	0x3c51a06a	0.012794593
247	0x3e40cd7b	0.18828385
248	0xbe0b010f	-0.13574623
249	0xbda4cf9a	-0.08047409
250	0xbd185293	-0.037188124
251	0xbe2aefff	-0.16693114
252	0xbc8db0d8	-0.01729624
253	0x3d71b314	0.059008673
254	0xbec02674	-0.37529337
255	0x3c8949b8	0.016758785

layers.0.bias f4 [256]
0	0xbd2bc0d1	-0.04193193
1	0xbba29132	-0.0049611563
2	0x3d88bbaf	0.06676423
3	0xbc9aba78	-0.018887743
4	0xbc3c1f7d	-0.011482117
5	0xbb9dcc39	-0.004815605
6	0x3d8bc411	0.06824506
7	0xbc3151e1	-0.010822744
8	0xbda25b7f	-0.07927608
9	0x3d7c7731	0.061637107
10	0xbcb4b8f2	-0.022060845
11	0xbd1caeed	-0.03825276
12	0xbcd53b68	-0.026029304
13	0x395cb3ac	0.00021047768
14	0xbd3ba3f5	-0.04581066
15	0x3cd5fb8e	0.026120927
16	0xbb9a862c	-0.0047157016
17	0x3d2e15f1	0.042501394
18	0xbcfc4f9f	-0.030799685
19	0xbd084f63	-0.033278834
20	0xbbab0933	-0.0052196025
21	0x3b9ae52c	0.0047270264
22	0x3c8abc17	0.016935391
23	0x3d8300f5	0.06396667
24	0xbd7e6b2b	-0.062113922
25	0x3db41eb2	0.08794917
26	0xbd5d7dc6	-0.054075025
27	0xbc530c2f	-0.012881323
28	0x3d852fb8	0.06503242
29	0xbd33f960	-0.043938994
30	0x3cc5590e	0.024090316
31	0x3dca9f7f	0.09893703
32	0x3cfa5303	0.030557161
33	0x3cd13778	0.025539145
34	0x3dee1c49	0.11626489
35	0x3c10661a	0.008813405
36	0x3d08c985	0.03339531
37	0xbcb3c82b	-0.021946033
38	0x3d6f4382	0.05841399
39	0xbcce1385	-0.025155792
40	0xbc4cfd52	-0.012511568
41	0x3c458c66	0.012057399
42	0x3bbd8064	0.0057831276
43	0x3c3f7963	0.011686656
44	0xbcc5bc89	-0.024137752
45	0xbd027076	-0.031845532
46	0xbd6b4c82	-0.05744601
47	0x3c3ac3e0	0.011399239
48	0xbd63c9dc	-0.05561243
49	0xbd135b3a	-0.035975672
50	0x3c070dce	0.008243037
51	0xbc2f5f69	-0.0107039
52	0xbc0b9b6f	-0.008520945
53	0x3c73ea57	0.014887414
54	0x3d6162d1	0.05502588
55	0xbd27b349	-0.040942464
56	0x3ce06a83	0.027394539
57	0xbd6b5455	-0.057453472
58	0x3d0be2c8	0.034151822
59	0xbc6354ab	-0.013875167
60	0xbd9a76ef	-0.07542216
61	0x3bd5ca3f	0.0065243538
62	0x3d2cac40	0.042156458
63	0xbd28380d	-0.04106908
64	0x3def2949	0.116777964
65	0x3ccce61b	0.025012067
66	0x3d323b6c	0.0435137
67	0x3d915f67	0.07098275
68	0xbd16627c	-0.036715016
69	0xbd72a4f8	-0.059239358
70	0xbd499405	-0.049213428
71	0xbcf0e1a4	-0.029404469
72	0x3d0a9df5	0.033842046
73	0x3d929af4	0.07158461
74	0x3bae18ba	0.005313006
75	0xbc40f318	-0.011776708
76	0xbd37e04d	-0.044891644
77	0xbda73eb7	-0.08166259
78	0x3d0bc358	0.03412184
79	0xbd86cc9b	-0.06581994
80	0x3cc5b8aa	0.024135906
81	0x3dd07c3b	0.10179945
82	0x3dac3b55	0.08409754
83	0xbd299ca9	-0.04140917
84	0xbd453359	-0.048144672
85	0x3cc0c03d	0.023529166
86	0x3d8ff12e	0.07028423
87	0xbd07baa6	-0.033136986
88	0xbd740077	-0.059570756
89	0xbd47ca78	-0.048777074
90	0xbbf786c1	-0.0075539057
91	0xbc83206b	-0.016006669
92	0xbb2cb46b	-0.0026352655
93	0xbc0a419d	-0.008438495
94	0xbd0bf875	-0.034172494
95	0x3c94d143	0.01816619
96	0xbc7a26cd	-0.01526804
97	0xbc282e5d	-0.01026496
98	0x3db31e8e	0.08746062
99	0xbc8aba28	-0.01693447
100	0xbd38513d	-0.04499935
101	0x3dab56d5	0.08366171
102	0x3c68a400	0.014199257
103	0xbd43d1bb	-0.047807436
104	0xbc6f01c3	-0.014587822
105	0x3d53b37a	0.051684834
106	0x3d5965da	0.05307565
107	0x3d3806bf	0.04492831
108	0x3c73c649	0.014878818
109	0x3d94b633	0.07261314
110	0x3d0d352e	0.034474544
111	0xbb391c6b	-0.0028245698
112	0xba193dcd	-0.0005845696
113	0x3c17c672	0.009263622
114	0x3c9c3889	0.019069927
115	0x3d535370	0.051593244
116	0x3ccd4927	0.025059296
117	0xbd555c78	-0.05209014
118	0x3cc0cfb4	0.02353654
119	0xbcaa14be	-0.020761844
120	0x3bb57d4c	0.005538618
121	0x3cde606c	0.027145587
122	0x3bcd79b3	0.006270611
123	0x3c0abe0a	0.00846816
124	0xbdb6f665	-0.08933715
125	0x3cad76fa	0.021174897
126	0x3d69f38a	0.057117023
127	0x3d8af983	0.06785872
128	0xbd9f510d	-0.07779131
129	0xbc8d862c	-0.017275892
130	0x3cb7cb6a	0.022435863
131	0x3c2b2db6	0.01044791
132	0xbd2ae54d	-0.041722585
133	0x39972925	0.0002883162
134	0xbcc54731	-0.024081798
135	0x3d16e8a4	0.036842957
136	0x3d8ff695	0.07029454
137	0x3dabeeec	0.0839518
138	0x3b80c537	0.00392976
139	0xbd032674	-0.032019094
140	0x3ca9c020	0.020721495
141	0x3d17f135	0.037095267
142	0x3dd1b0cd	0.102388
143	0xbd9995e7	-0.07499295
144	0xbd14639e	-0.036227815
145	0x3d18d843	0.03731562
146	0x3cfeb2f5	0.031091193
147	0x3c2f07ea	0.010683039
148	0x3d24f0f3	0.04026885
149	0xbd82d994	-0.06389156
150	0xbbc948cf	-0.0061427127
151	0x3dd7a211	0.105289586
152	0xbc9d2523	-0.019182747
153	0x3db111b5	0.086459555
154	0x3cbbf57b	0.022944203
155	0x3d96cb84	0.07363036
156	0xbd05d533	-0.032674026
157	0xbc117628	-0.008878268
158	0xbd0b11de	-0.033952586
159	0x3da32724	0.0796645
160	0x3c9f9665	0.019480893
161	0xbdaa970b	-0.083295904
162	0x3dd92d51	0.106043465
163	0x3d518e39	0.051161025
164	0xbbc94b36	-0.006142999
165	0x3bfcd01a	0.0077152373
166	0xbc62a416	-0.013833066
167	0x3d13d457	0.036091175
168	0xba140ad8	-0.0005647368
169	0x3b017166	0.0019751429
170	0xbc4b65f0	-0.0124144405
171	0x3d524006	0.05133059
172	0xbcd93498	-0.026514336
173	0x3d4d9cc7	0.050198343
174	0xbd3acce9	-0.045605574
175	0x3d2691de	0.040666454
176	0xbe0b3823	-0.13595633
177	0xbaaf3853	-0.0013368226
178	0x3d5a4a78	0.053293675
179	0xbd1f362a	-0.038870014
180	0x3c5c0433	0.013428736
181	0x3d8eafc8	0.06967121
182	0x3d5a17d7	0.05324539
183	0x3d4f0478	0.05054137
184	0xbb5a67e5	-0.0033326086
185	0x3d5f6daf	0.05454796
186	0x3d39926f	0.045305666
187	0x3ce901db	0.028443268
188	0x3ce63c31	0.028104873
189	0x3d1acd72	0.037793584
190	0x3d80d8b0	0.0629133
191	0xbd145882	-0.03621722
192	0x3d9b4eab	0.07583364
193	0x3cc4efb6	0.024040084
194	0xbd428b5e	-0.047496192
195	0x3bcf7430	0.0063309893
196	0xbd4e0105	-0.05029394
197	0xbc58e2a2	-0.013237627
198	0x3d3bab0b	0.045817416
199	0xbb725a8c	-0.003698024
200	0x3d7a47db	0.061103683
201	0x3d4bb7db	0.049735885
202	0xbcb2cba9	-0.021825628
203	0x3ded4e12	0.11587156
204	0xbb268efe	-0.002541482
205	0x3d39745d	0.04527699
206	0x3d78a37d	0.06070279
207	0xbd5f7b08	-0.05456069
208	0x3ca1558b	0.01969411
209	0xbc3fc96c	-0.011705738
210	0x3d9c4af3	0.07631483
211	0x3d24c7df	0.040229674
212	0xbcb751ec	-0.02237793
213	0xbc983627	-0.01858051
214	0x3d7c2b2c	0.06156461
215	0x3d26714a	0.040635385
216	0x3d6a2d83	0.05717231
217	0x3d477729	0.048697624
218	0x3da90b01	0.08254052
219	0x3d3364a9	0.04379717
220	0x3d344e1e	0.04401981
221	0xbd27f913	-0.04100902
222	0xbc7ce7f6	-0.015436163
223	0x3de4aef2	0.11166181
224	0xbd061685	-0.03273632
225	0x3d8238e1	0.06358505
226	0x3d76b75d	0.060233463
227	0x3badd098	0.0053044073
228	0xbc9fa2a4	-0.019486733
229	0x3cad46d2	0.021151934
230	0x3d081ad3	0.033228707
231	0xbbb088ed	-0.0053874166
232	0x3da7b18d	0.08188162
233	0x3ca7d887	0.02048899
234	0xbd478464	-0.048710242
235	0xba95cf96	-0.0011429663
236	0xbd9c7bba	-0.076407865
237	0xbd48f9ae	-0.049066238
238	0xbd4dfc9b	-0.05028973
239	0x3c92c401	0.017915728
240	0xbce7c90d	-0.02829411
241	0x3b383b7b	0.0028111625
242	0xbd02b3ea	-0.03190986
243	0x3d103302	0.035204895
244	0x3d527824	0.051384106
245	0x3d6f26a4	0.05838646
246	0x3c4916d2	0.012273507
247	0x3d3ea636	0.04654523
248	0x3d080f1d	0.03321754
249	0xbc462739	-0.012094312
250	0xbb41abee	-0.002955194
251	0xbd2ad7b7	-0.041709628
252	0x3cb49ba8	0.022046879
253	0x3b9ee9c1	0.004849643
254	0xbb0a1dfc	-0.0021075
255	0x3cbdf5b3	0.023188448

layers.2.weight f4 [256, 256]
0	0xbcccab6d	-0.024984086
1	0x3ca541f7	0.020173056
2	0xbd0eb3ac	-0.034839317
3	0x3d2f1db6	0.042752944
4	0x3e04840b	0.12940995
5	0xbd95c03c	-0.073120564
6	0x3e0623b6	0.1309956
7	0x3d7cd7c8	0.061729223
8	0xbd534cb4	-0.05158682
9	0xbdf81bde	-0.1211469
10	0x3d177aac	0.036982223
11	0xbe143546	-0.14473447
12	0x3d3a9cf4	0.04555984
13	0x3d5fed2f	0.054669555
14	0xbe49bd58	-0.19701135
15	0xbda1a618	-0.07893008
16	0x3c43ea05	0.01195765
17	0x3d382d89	0.0449653
18	0x3c8984ae	0.0167869
19	0xbad27737	-0.0016057257
20	0xbd794291	-0.0608545
21	0xbccd2e77	-0.02504657
22	0xbe345b61	-0.17612983
23	0x3e03a7c3	0.12856965
24	0xbc70a2ff	-0.014687299
25	0xbc123296	-0.008923193
26	0xbde19f7c	-0.11016747
27	0xbdf77c61	-0.1208427
28	0x3d27071f	0.040778276
29	0xbdc618e7	-0.096727185
30	0xbd8e00c2	-0.06933738
31	0x3c173e10	0.009231105
32	0x3d645f80	0.05575514
33	0xbdd08211	-0.10181058
34	0xbd5ce4ed	-0.05392926
35	0xbde78b66	-0.11305885
36	0x3cd9a54b	0.026568076
37	0xbcb7640c	-0.022386573
38	0x3c1eedfa	0.009700293
39	0xbe1723f5	-0.1475981
40	0xbd98860e	-0.07447444
41	0x3c7f70d8	0.015590869
42	0xbcf5beae	-0.02999815
43	0x3c335e19	0.010947728
44	0xbe1df8fb	-0.1542701
45	0xbdadb7e3	-0.08482339
46	0xbda4ef20	-0.08053422
47	0x3e4fdbfd	0.20298763
48	0xbd2e0dea	-0.04249374
49	0x3d695797	0.056968298
50	0x3d94fc2e	0.07274662
51	0x3d3c9e6f	0.04604953
52	0x3cbe2c9e	0.023214635
53	0xbd9625e5	-0.073314466
54	0x3d94992c	0.07255778
55	0x3d942ef3	0.07235517
56	0x3d3b1bce	0.045680813
57	0xbe16155a	-0.14656582
58	0x3d6fd5bc	0.058553442
59	0xbd61d37d	-0.05513333
60	0xbb86f480	-0.004118502
61	0x3deb46f3	0.11488142
62	0xbe41867c	-0.18898958
63	0xbe0bf314	-0.13666946
64	0xbbb12add	-0.005406721
65	0xbddf825f	-0.10913538
66	0x3d257b63	0.040400874
67	0x3dcecfa7	0.100982
68	0xbd3e5005	-0.04646303
69	0xbdbe5c75	-0.092949785
70	0xbd323f1c	-0.043517217
71	0x3d880724	0.06641987
72	0x3d4ade78	0.04952857
73	0xbe06ad8c	-0.1315214
74	0x3dad89cf	0.084735505
75	0xbc8b51ee	-0.01700684
76	0xbd11470a	-0.03546814
77	0xbdc591ea	-0.096469715
78	0x3e190b04	0.14945608
79	0x3cd57a1e	0.026059207
80	0x3ad0a6c3	0.001591884
81	0x3d858dcd	0.06521187
82	0x3d0d9c6b	0.034573
83	0xbdde85cf	-0.10865366
84	0x3dedff8e	0.11621009
85	0x3d9c6642	0.07636692
86	0x3da5169d	0.08060954
87	0xbe010d26	-0.12602672
88	0x3d4d0616	0.050054632
89	0xbd4f9560	-0.050679564
90	0xbe409d9b	-0.18810122
91	0xbdd6abf4	-0.10482016
92	0x3b6bb14d	0.0035963834
93	0x3e11fd33	0.14256744
94	0x3d2e1a1e	0.042505376
95	0xbe1592e8	-0.14606822
96	0xbd19facc	-0.037592694
97	0xbde7150c	-0.11283311
98	0xbb3dc7a9	-0.0028958118
99	0x3d89d35b	0.06729766
100	0xb96dcd46	-0.00022678552
101	0x3e1945d0	0.14968038
102	0xbddb53b1	-0.10709322
103	0xbd96c9ee	-0.07362734
104	0xbdc71f1a	-0.09722729
105	0x3db9f3dd	0.09079716
106	0xbcbb8f35	-0.022895435
107	0x3daec572	0.085337535
108	0xbe1e2046	-0.15441999
109	0x3d4fc936	0.050729
110	0x3de51d99	0.11187286
111	0x3d3572e7	0.044299033
112	0x3d5d42e9	0.05401889
113	0xbcce8500	-0.025209904
114	0x3d4bbc19	0.04973993
115	0x3bcfc6b3	0.0063408255
116	0xbdc42ab5	-0.09578458
117	0xbcd82deb	-0.026389083
118	0x3d14b50e	0.03630548
119	0xbe12f443	-0.14350991
120	0x3d60f14b	0.054917615
121	0x3db8ceb4	0.090238005
122	0x3dec7d40	0.11547327
123	0xbc16d5ca	-0.009206245
124	0x3dcf603d	0.10125778
125	0x3d78effb	0.06077574
126	0x3e4a57ee	0.19760105
127	0x3d53bc24	0.051693097
128	0x3db1039d	0.08643267
129	0xbddcb058	-0.107758224
130	0xbc4d5ed8	-0.01253482
131	0xbdaeccf9	-0.08535189
132	0x3dcdc6d9	0.10047693
133	0xbe0fbaa4	-0.14036041
134	0xbe1406b0	-0.14455676
135	0xbce98e04	-0.028510101
136	0xbd09b939	-0.033623908
137	0xbd9611b7	-0.073275976
138	0x3e04158a	0.12898842
139	0xbdc5c74d	-0.09657154
140	0xbd8275c7	-0.063701205
141	0xbd7aaa4b	-0.06119756
142	0x3c611f78	0.013740413
143	0xbcecdf47	-0.02891506
144	0xbd335bd6	-0.043788753
145	0xbd8aa5c4	-0.067698985
146	0x3d1a3131	0.03764457
147	0xbc744bbb	-0.014910634
148	0x3dd639e2	0.10460259
149	0x3e05b080	0.1305561
150	0x3db9c444	0.09070638
151	0x3da89305	0.08231167
152	0xbd872246	-0.06598334
153	0x3e1c49d7	0.15262543
154	0x3b8d95de	0.004320844
155	0x3d7686d6	0.060187183
156	0x3c6e05ee	0.014527781
157	0xbd8257c0	-0.06364393
158	0xbe427b15	-0.18992265
159	0x3e0b1089	0.13580526
160	0x3c882fe2	0.016624395
161	0xbd5479a3	-0.051873814
162	0x3d96daa2	0.0736592
163	0x3d1e77fa	0.038688637
164	0xbd51b20b	-0.051195186
165	0xbc68924a	-0.014195034
166	0xbda4f0fc	-0.080537766
167	0xbdfacd88	-0.12246233
168	0x3d979604	0.0740166
169	0xbd0d089f	-0.03443205
170	0x3ceb85f1	0.028750392
171	0xbe3d69f9	-0.18497457
172	0xbe07f6a8	-0.13277686
173	0x3d8b31cc	0.067966074
174	0x3dcd7311	0.10031713
175	0xbdb27d20	-0.08715272
176	0xbde1d63a	-0.110271886
177	0xbe2954c3	-0.1653624
178	0xbe278190	-0.16358018
179	0xbd0a5bba	-0.033778884
180	0xbda79374	-0.08182421
181	0x3d9ec0e6	0.07751636
182	0x3bb92c5e	0.005651041
183	0xbd1893ee	-0.03725045
184	0xbd1ed565	-0.038777728
185	0x3dbf1966	0.09331016
186	0x3dbecf5f	0.09316897
187	0xbd41e9ae	-0.047341995
188	0x3d3699f7	0.044580426
189	0x3e348f10	0.17632699
190	0xbe086b50	-0.13322186
191	0x3dffdf99	0.1249382
192	0x3d3002a3	0.042971265
193	0x3dc7dbd9	0.097587295
194	0x3ddf5b6b	0.109061085
195	0xbdc8f848	-0.09812981
196	0x3bb1b729	0.0054234457
197	0xbe22e2a9	-0.15906776
198	0x3e05f90d	0.13083287
199	0x3e4cb2c2	0.19990066
200	0xbba8ba42	-0.005149157
201	0xbd49be0c	-0.04925351
202	0xbd5f0a2f	-0.05445307
203	0xbdc6e9d1	-0.09712566
204	0xbe1cddd6	-0.15318999
205	0xbc241b97	-0.010016344
206	0xbdf0843f	-0.11743974
207	0x3d821567	0.063517384
208	0xbdb7bd6d	-0.08971677
209	0x3cf786b1	0.030215593
210	0xbbd7ac9b	-0.0065818555
211	0x3d86cf5b	0.06582519
212	0xbdde6f62	-0.10861088
213	0xbd92895d	-0.07155106
214	0xbd53a214	-0.05166824
215	0x3e28d643	0.16487984
216	0x3d7d059f	0.06177294
217	0x3e4f05bc	0.20217031
218	0xbde7b167	-0.11313134
219	0xbca177a6	-0.019710373
220	0x3df2ae57	0.11849659
221	0x3d71ad87	0.05900338
222	0xbda982ec	-0.082769245
223	0xbdaef318	-0.0854246
224	0x3d7bdec4	0.061491743
225	0xbd9aadf0	-0.07552707
226	0xbe125369	-0.14289631
227	0x3dc7b32b	0.097509705
228	0xbd32deff	-0.043669697
229	0x3e19164b	0.1494991
230	0x3c3d3765	0.011548852
231	0xbd81a535	-0.06330339
232	0x3d1bcefd	0.038039196
233	0x3ba922d0	0.0051616207
234	0xbdac1706	-0.08402829
235	0xbe0bf3b3	-0.13667183
236	0x3b2707db	0.002548686
237	0xbcf5c9fd	-0.030003542
238	0xbd643edf	-0.05572402
239	0x3aaf7557	0.001338641
240	0xbcd2074b	-0.025638243
241	0xbd139dbd	-0.036039103
242	0x3d0f2c7f	0.034954544
243	0x3cd89f6c	0.026443206
244	0x3c847b08	0.016171947
245	0x3dee5e5a	0.1163909
246	0xbd4730f6	-0.048630677
247	0xbd72861a	-0.05920992
248	0xbc5e2c75	-0.013560404
249	0x3b496ea9	0.0030736125
250	0x3d982f67	0.07430916
251	0xbd144b6e	-0.036204748
252	0x3ccbbb67	0.024869634
253	0x3de72d87	0.112879805
254	0x3d99a256	0.07501666
255	0x3d2eb57c	0.042653546

layers.2.bias f4 [256]
0	0x3c263da3	0.010146531
1	0xbc7abc32	-0.015303658
2	0xbd2d348a	-0.042286433
3	0xbd3fa421	-0.046787385
4	0xbd53453c	-0.0515797
5	0xbca82217	-0.020524068
6	0x3c2f45f0	0.010697827
7	0xbcdec724	-0.027194567
8	0x3c5b8f55	0.013400872
9	0xbcfe3168	-0.031029418
10	0x3cdf6b7f	0.027272938
11	0xbcfedc5f	-0.03111094
12	0x3cea9fe4	0.028640695
13	0xbd2d6729	-0.04233471
14	0x3c7c1fc7	0.015388436
15	0x3c68b0f5	0.014202346
16	0x3cdc3bc0	0.02688396
17	0x3c9bc94f	0.01901689
18	0xbcffe450	-0.031236798
19	0xbcf7a95d	-0.030232126
20	0x3c7d5c7a	0.015463943
21	0x3cc62097	0.024185462
22	0xbd05b084	-0.03263904
23	0xbd0077eb	-0.031364363
24	0xbc4b0c49	-0.012393066
25	0x3cb62fbd	0.02223956
26	0xbcc6b233	-0.024254894
27	0xbd1b6fb3	-0.03794832
28	0x3ca1bcf5	0.019743422
29	0xbd5c0f97	-0.053725805
30	0xbd47cb26	-0.04877772
31	0x3cb28d28	0.021795824
32	0xbd50ca5f	-0.050974246
33	0x3c9b6aae	0.018971767
34	0x3c812d30	0.015768617
35	0xbd55e3a2	-0.05221904
36	0xbb04543d	-0.0020191811
37	0xbd75f02c	-0.0600435
38	0xbd496a55	-0.04917367
39	0xbd01c3d9	-0.031680916
40	0xbd644ab4	-0.055735305
41	0xbceb1e82	-0.02870107
42	0xbcf5bcc2	-0.029997233
43	0xbd7fd6f3	-0.06246085
44	0x3cc13c37	0.023588283
45	0xbd6c87ef	-0.057746824
46	0x3d184367	0.037173655
47	0x3bc4cb60	0.0060056895
48	0xbd0ab5ba	-0.033864714
49	0x3caf3492	0.021387372
50	0x3b258576	0.002525655
51	0xbd791b46	-0.060817026
52	0xbd517cb9	-0.051144335
53	0xbcfb94c9	-0.030710595
54	0x3cd40484	0.02588106
55	0x3c16e632	0.009210156
56	0xbd5efd0f	-0.054440554
57	0xbd2a6ea7	-0.041609433
58	0x3d18d212	0.037309714
59	0xbd17a99a	-0.03702698
60	0xbd0fe9fb	-0.03513525
61	0x3c4abda8	0.012374319
62	0x3cbd3539	0.023096668
63	0xbce89798	-0.028392598
64	0x3b625b25	0.003453919
65	0x3d16935b	0.036761623
66	0xbcfe9423	-0.031076496
67	0x3d04d65c	0.03243099
68	0x3bb90036	0.005645777
69	0xbd52aae3	-0.0514325
70	0x3ce6c30c	0.028169177
71	0xbc8764d1	-0.016527565
72	0x3ac7a082	0.001523033
73	0x3b7c27bb	0.003847583
74	0xbd16f8a6	-0.036858223
75	0x3d0c7231	0.03428859
76	0x3cae13c5	0.021249661
77	0x3cec7cba	0.028868068
78	0x3cef4111	0.02920583
79	0xbcf832c5	-0.030297646
80	0xbd05c62b	-0.03265969
81	0xbd057500	-0.032582283
82	0x3b732e01	0.0037106278
83	0xbcf49006	-0.029853832
84	0x3ce9b3cf	0.028528122
85	0x3d182188	0.037141353
86	0xbd7a8d2b	-0.061169785
87	0x3a85c81f	0.0010206735
88	0x3cc8e6c6	0.024524104
89	0x3cdd7ae1	0.027036132
90	0xbcf196cc	-0.02949085
91	0xbd220e36	-0.039564334
92	0x3d95374e	0.07285939
93	0x3d473330	0.0486328
94	0xbcdcf9b9	-0.026974546
95	0xbd6676b8	-0.056265563
96	0xbd2f1d3f	-0.0427525
97	0xbd0a8361	-0.0338167
98	0x3cb3cf4e	0.021949437
99	0xbb4b5d9c	-0.0031031137
100	0xbcd644f1	-0.02615592
101	0xbd6e33d0	-0.05815488
102	0xbcee6d85	-0.029104957
103	0x3d1879a7	0.03722539
104	0xbd25a45e	-0.040439956
105	0xbd3d2ee4	-0.046187297
106	0xbd3456dc	-0.044028148
107	0x3cde32e3	0.027123874
108	0x3ca7e370	0.020494193
109	0x3c92aec5	0.017905602
110	0x3cf68728	0.030093744
111	0xbcccc483	-0.024996048
112	0xbd56e10c	-0.052460715
113	0x3c7556ff	0.014974355
114	0xbcf47e2c	-0.02984532
115	0xbcbe5940	-0.023235917
116	0x3d5821ba	0.05276654
117	0xbd24f7af	-0.040275272
118	0xbcf3623d	-0.02970993
119	0xbac5a413	-0.0015078805
120	0x3d291139	0.04127619
121	0xbd6919d1	-0.056909386
122	0x3cb4e5d4	0.022082247
123	0x3cd0fcc2	0.02551115
124	0x3c1f307d	0.00971615
125	0x3cef411a	0.029205848
126	0x3cef9a2a	0.029248316
127	0xbd304926	-0.04303851
128	0x3d000ec2	0.031264074
129	0xbac501f0	-0.0015030485
130	0xbad89acb	-0.0016525624
131	0xbcf33b28	-0.029691294
132	0xbce5ff0d	-0.02807572
133	0xbc3434ed	-0.010998947
134	0xbd360934	-0.04444237
135	0x3d0378b0	0.03209752
136	0xbd7aac9d	-0.061199773
137	0x3cc21d74	0.023695685
138	0x3cdfa641	0.027300956
139	0x3d345ef5	0.04403587
140	0x3c92f383	0.017938381
141	0x3d1039b0	0.035211265
142	0x3ca42404	0.020036705
143	0xbd2bf8fa	-0.04198549
144	0x3cd09b6b	0.025464734
145	0xbca627c9	-0.020282643
146	0xbca5b2b8	-0.020226821
147	0xbcf0b65f	-0.029383836
148	0x3c7b01b8	0.015320234
149	0xbd377509	-0.044789348
150	0x3c004a30	0.007830188
151	0x3b2eb4dd	0.0026658096
152	0x3cf05b9b	0.029340556
153	0xbcdfd620	-0.027323782
154	0xbcbae1b2	-0.022812698
155	0x3d04660b	0.03232388
156	0xbcffab9c	-0.03120976
157	0x3cf7f1f3	0.030266738
158	0xbd371e6a	-0.04470674
159	0x3cb92d74	0.022604682
160	0x3c3dc729	0.011583128
161	0xbd58b240	-0.052904367
162	0xbd65a694	-0.056067064
163	0xbaf18e3c	-0.001842923
164	0xbd200b57	-0.039073315
165	0xbcd58ed3	-0.02606908
166	0xbd13ee49	-0.03611592
167	0xbd2c0a82	-0.04200221
168	0x3d9d5ad9	0.076833434
169	0xbd63bd24	-0.0556003
170	0xbcf9d5f2	-0.030497525
171	0x3c7449a9	0.01491014
172	0xbd113d75	-0.035459
173	0xbb50bd38	-0.0031851064
174	0x3bb83219	0.0056212065
175	0x3c30ed1c	0.010798719
176	0xbcacb9f0	-0.021084756
177	0xbc329c47	-0.010901517
178	0xbd1f40f4	-0.038880304
179	0xbd203291	-0.039110724
180	0xbc5250f0	-0.01283668
181	0xbd19c4c5	-0.03754117
182	0x3c434a94	0.011919636
183	0x3ce5ea27	0.028065754
184	0xbd54fd92	-0.051999636
185	0xbb12d7cf	-0.0022406464
186	0x3cbf71f1	0.023369761
187	0x3aba6cb0	0.0014223065
188	0x3d23b336	0.03996583
189	0x3ce2f023	0.027702397
190	0x3cf098cf	0.02936974
191	0xbd101c24	-0.035183087
192	0xbc9e18ba	-0.0192989
193	0xbce83843	-0.02834714
194	0x3cc1b67c	0.023646586
195	0xbae990a8	-0.00178196
196	0x3d36f8b1	0.044670764
197	0x3c87784e	0.016536858
198	0xbd6cf689	-0.0578523
199	0xbd620270	-0.055178106
200	0xbd312d3c	-0.04325603
201	0xbadc8136	-0.0016823176
202	0xbd221b25	-0.03957667
203	0x3c1ae1f4	0.0094532855
204	0x3c96463b	0.018344035
205	0xbcbc3084	-0.022972353
206	0xbd3ffec1	-0.04687381
207	0x3d086416	0.033298574
208	0xbd517808	-0.05113986
209	0xbd111ca0	-0.03542769
210	0x3ca669b1	0.02031407
211	0x3cab44c2	0.02090681
212	0x3beaa512	0.007160791
213	0xbd56e9a4	-0.05246891
214	0x3c2a9896	0.010412356
215	0xbd0e2f73	-0.03471322
216	0x3d0244f9	0.03180406
217	0xbcdf5899	-0.027263926
218	0x3c7d1463	0.015446755
219	0x3b4aa6c6	0.0030922159
220	0x3cc4d9e1	0.024029674
221	0x3c81bdbf	0.015837548
222	0xbd587871	-0.052849237
223	0x3caeef7c	0.02135443
224	0xbcecad86	-0.028891336
225	0xbcd91c85	-0.026502857
226	0x3c2074b1	0.009793446
227	0xbd0e2c73	-0.03471036
228	0x3cd5fc82	0.026121382
229	0xbcf30422	-0.029665057
230	0x3cb0a649	0.021563666
231	0xbd30e005	-0.04318239
232	0x3bd04330	0.0063556656
233	0x3ce20f07	0.027595056
234	0xbcf4b4ad	-0.02987131
235	0x3c6944ef	0.014237626
236	0xbd099ac5	-0.033594865
237	0x3ce5fabe	0.028073665
238	0xbca349fc	-0.01993274
239	0xbd6d4f3e	-0.0579369
240	0x3c8ce250	0.017197758
241	0x3c63cb7c	0.013903495
242	0xbd2e863b	-0.04260848
243	0xbcad69cd	-0.021168614
244	0x3cf1df9f	0.029525576
245	0x3c83c78d	0.016086364
246	0x3cc2adba	0.02376448
247	0xbd3d2be9	-0.046184454
248	0x3c9083d0	0.017640978
249	0x3d258f87	0.04042008
250	0x3bfec370	0.007774763
251	0xbd509510	-0.050923407
252	0xbc5e1f1d	-0.013557223
253	0x3cacea51	0.021107825
254	0x3cd7c36c	0.026338302
255	0xbd295d6a	-0.041348852

layers.4.weight f4 [2, 256]
0	0x3d2ea44b	0.04263715
1	0xbbddac08	-0.0067648925
2	0xbce82946	-0.028339993
3	0xbd581be1	-0.052760962
4	0xbdcdd495	-0.100503124
5	0xbca44716	-0.020053428
6	0x3e0af71c	0.13570827
7	0x3b0d321c	0.002154476
8	0x3c8afad4	0.016965307
9	0xbdda77d2	-0.10667385
10	0x3cd0a9fb	0.025471678
11	0xbbf5790e	-0.0074912375
12	0x3c6d911f	0.014499932
13	0xbdd8cf15	-0.10586373
14	0x3deb1c1e	0.11479972
15	0x3e15cb0c	0.14628237
16	0x3d598832	0.0531084
17	0x3e6c7957	0.23093162
18	0xbd1e8533	-0.038701247
19	0xbddb09e4	-0.10695246
20	0x3cb6a375	0.02229474
21	0x3dc5e586	0.09662919
22	0xbc80323d	-0.015648955
23	0xbd806984	-0.062701255
24	0x3b0b8be6	0.0021293103
25	0x3d9c6015	0.07635514
26	0xbce6a06f	-0.028152673
27	0xbe3bc784	-0.18337828
28	0x3b82abe6	0.003987777
29	0xbd90dc8c	-0.07073316
30	0xbdbab98e	-0.09117423
31	0x3e352912	0.17691448
32	0xbd859c43	-0.06523945
33	0x3dfc4124	0.12317112
34	0x3d04e65a	0.032446243
35	0xbd5c348b	-0.053761046
36	0xbc2f0d09	-0.01068426
37	0xbdbbf578	-0.09177679
38	0xbda972ba	-0.082738355
39	0xbd2aef7e	-0.041732304
40	0xbd93e20f	-0.07220852
41	0xbccd7366	-0.02507944
42	0xbe06512f	-0.13116907
43	0xbe02b03d	-0.12762542
44	0x3c4e00ec	0.012573462
45	0xbde4a152	-0.11163582
46	0x3c84b849	0.016201155
47	0x3dccebc3	0.100059055
48	0xbd39443e	-0.045231096
49	0x3c5469b5	0.012964656
50	0xbdd74945	-0.10512022
51	0xbdf6be6e	-0.1204804
52	0xbdb03287	-0.08603387
53	0xbd050362	-0.03247393
54	0x3ce0827c	0.02740597
55	0xbbe316a4	-0.006930189
56	0xbd4c61ba	-0.049897887
57	0xbda2000b	-0.079101644
58	0x3de093c8	0.10965687
59	0xbe08fb17	-0.13377033
60	0xbd03911a	-0.0321208
61	0x3cbafe4f	0.022826342
62	0xbb83c240	-0.004020959
63	0xbc88ee6c	-0.01671525
64	0xbbc6c886	-0.0060663847
65	0x3e1d9945	0.15390499
66	0xbbb88bcc	-0.0056318995
67	0x3e2516cd	0.16121979
68	0xbd1ee9f4	-0.038797334
69	0xbd8e50a3	-0.06948974
70	0x3bb822f7	0.0056194025
71	0x3dab5dc2	0.08367492
72	0xbdc26b8d	-0.0949317
73	0x3dcc73d1	0.09983028
74	0xbccaf5e8	-0.02477546
75	0x3cdb86e1	0.026797714
76	0x3d5ecbd8	0.05439362
77	0x3c02747a	0.0079623405
78	0x3d4cd179	0.050004456
79	0xbb82026e	-0.003967575
80	0xbcdf9353	-0.02729193
81	0xbd0b141a	-0.033954717
82	0x3de088cc	0.10963592
83	0xbd0d5ac8	-0.034510404
84	0x3e01dad7	0.12681137
85	0x3da87ed6	0.08227317
86	0xbdd7123d	-0.105015256
87	0x3bd5501c	0.006509794
88	0x3ce24791	0.027622016
89	0x3d21e1d6	0.039522015
90	0xbc868eaf	-0.016425459
91	0xbd427182	-0.04747153
92	0x3c38837e	0.011261819
93	0x3bdb6858	0.0066957884
94	0xbdfcf7bc	-0.12351939
95	0xbdda50f5	-0.106599726
96	0xbdbed967	-0.0931881
97	0xbcca3d5e	-0.024687465
98	0x3d0b8580	0.034062862
99	0xbd9a00cf	-0.075196855
100	0xbd84dfb0	-0.064879775
101	0xbda89817	-0.08232134
102	0xbddcc806	-0.10780339
103	0x3d7bba0c	0.061456725
104	0xbcd4435e	-0.02591103
105	0xbc4d8b07	-0.012545354
106	0xbe2675a0	-0.16255808
107	0x3cf51658	0.02991788
108	0x3e07548d	0.13215847
109	0x3a8ef370	0.001090629
110	0xbb6a2175	-0.0035725508
111	0xbd3043d0	-0.04303342
112	0xbdaa4d7c	-0.0831556
113	0x3d7dcfab	0.061965626
114	0xbc684701	-0.014177085
115	0xbc0cb8f2	-0.008589016
116	0x3e0210ed	0.12701769
117	0xbbfe5181	-0.007761181
118	0xbd531aa2	-0.05153907
119	0x3dd43cb4	0.10363141
120	0x3d2196e8	0.039450556
121	0xbdcfda46	-0.10149054
122	0x3bac161c	0.005251659
123	0x3db967ab	0.09052976
124	0x3d58fda4	0.052976266
125	0x3d8ca290	0.06866944
126	0x3d353a72	0.04424519
127	0xbce2be08	-0.027678505
128	0x3e2f886e	0.17141888
129	0x3d9c5587	0.076335005
130	0xbd91d072	-0.07119836
131	0xbdd3b543	-0.10337307
132	0xbcea2b34	-0.028585054
133	0x3c383283	0.011242512
134	0xbd6b78a8	-0.057488114
135	0x3cde97b5	0.027171949
136	0xbdfc952c	-0.1233314
137	0x3bb2e192	0.005459019
138	0x3d4c4790	0.049872935
139	0xb9e3b7a7	-0.00043433646
140	0x3c59306b	0.013256173
141	0x3de074e8	0.10959798
142	0x3b964bda	0.004586679
143	0xbdbd1041	-0.09231616
144	0x3dd60726	0.10450582
145	0xbd6a7f3e	-0.057250254
146	0xbbed49b4	-0.007241452
147	0xbd10b2ac	-0.035326645
148	0x3be95729	0.007120986
149	0xbd2cc2e1	-0.04217804
150	0x3e310adb	0.17289297
151	0x3dd68328	0.10474235
152	0x3d2e0e64	0.042494193
153	0x380c125b	3.3395696e-05
154	0xbde8092e	-0.11329876
155	0x3e1b5629	0.15169586
156	0xbda63a4f	-0.0811659
157	0x3df9ab3c	0.121908635
158	0xbe0a6b78	-0.13517559
159	0x3cd533b0	0.026025623
160	0x3df13e54	0.11779466
161	0xbdb4009f	-0.08789181
162	0xbe030c28	-0.12797606
163	0xbdf0e243	-0.11761906
164	0xbde07349	-0.10959489
165	0xbd9f3696	-0.07774083
166	0xbca2a9fb	-0.019856444
167	0xbd166aa1	-0.036722783
168	0x3c552d87	0.013011343
169	0xbdf390c2	-0.11892845
170	0xbdaf32a0	-0.08554578
171	0x3c29cbda	0.010363543
172	0xbcb72b2b	-0.022359451
173	0xbbf60161	-0.0075074886
174	0x3bf5bafe	0.007499098
175	0x3d757dfd	0.059934605
176	0xbdc6e484	-0.09711555
177	0xbd79b622	-0.06096471
178	0xbe1e0d96	-0.1543487
179	0xbe0c2f30	-0.13689876
180	0x3e1f0de8	0.15532649
181	0xbc9c1225	-0.01905162
182	0x3d873c44	0.06603292
183	0x3df87840	0.12132311
184	0xbddb501b	-0.10708638
185	0x3d923587	0.07139116
186	0x3e365d5d	0.17809053
187	0xbca34ed8	-0.019935057
188	0x3e038d69	0.12846912
189	0x3dbade50	0.09124434
190	0x3dddf126	0.10837011
191	0xbce38670	-0.027774066
192	0x3ab3ba11	0.0013712068
193	0xbd075589	-0.033040557
194	0x3cb12ef3	0.021628832
195	0x3cddb792	0.027065072
196	0x3c308665	0.01077423
197	0x3ca41f3d	0.020034427
198	0xbd8ee1e7	-0.06976681
199	0xbdf2db3c	-0.11858222
200	0xbd7996ed	-0.06093495
201	0xbc4f99b6	-0.012670925
202	0xbd9a9003	-0.07546999
203	0x3c60d545	0.013722722
204	0x3cc9e423	0.024644917
205	0xbd26269b	-0.04056416
206	0xbd0de90e	-0.034646086
207	0x3cc9efa9	0.024650412
208	0xbd49147a	-0.049091794
209	0xbd935537	-0.07193988
210	0xbc72ba96	-0.014814993
211	0x3b091357	0.0020916068
212	0x3e40a29e	0.18812034
213	0xbe02d3f3	-0.12776165
214	0x3d8da25c	0.06915733
215	0xbcd855b9	-0.026408063
216	0x3e16aad6	0.14713606
217	0xbe40d610	-0.18831658
218	0x3d301e7c	0.042997822
219	0x3caab1bc	0.020836703
220	0x3cccb33e	0.024987813
221	0xbbfc36c4	-0.0076969583
222	0xbdc38c0f	-0.095481984
223	0x3ca57e52	0.020201836
224	0xbdd61451	-0.10453094
225	0xbd63e52a	-0.05563847
226	0x3d89ba52	0.06724991
227	0xbd371b9d	-0.04470407
228	0xbc4558f9	-0.0120451385
229	0xbdb5c6e3	-0.08875825
230	0x3c04e379	0.008110874
231	0xbddeadd7	-0.10873001
232	0x3de5c55b	0.11219283
233	0x3c997a12	0.018734965
234	0xbd8051dc	-0.062656134
235	0x3c331b90	0.010931864
236	0xbb347ffc	-0.0027542105
237	0x3ca1f56a	0.019770343
238	0xbb197961	-0.0023418295
239	0xbdba3563	-0.09092214
240	0x3c937581	0.018000366
241	0x3dcbcf7c	0.09951684
242	0xbd9da11c	-0.07696745
243	0x3c85b63c	0.016322248
244	0x3d8d310d	0.06894121
245	0x3cec3884	0.028835543
246	0xbc07d06c	-0.008289438
247	0xbdb0903f	-0.08621263
248	0x3d48cf7b	0.049025994
249	0x3d5b910e	0.05360513
250	0x3ca4d539	0.020121204
251	0xbd927b16	-0.07152383
252	0x38151268	3.554151e-05
253	0x3d60c111	0.054871622
254	0x3933a126	0.00017130803
255	0xbd5388b4	-0.051644042

layers.4.bias f4 [2]
0	0x3cf6f0ef	0.030144183
1	0x3afa0295	0.0019074256
