Results_dir/2022-03-16-10-22-06/critic.pth (torch, 536911 bytes, 7 tensors)

layers.0.weight f4 [256, 6]
0.2424748 0.28619698 -0.50852704 -0.025624417 -0.0288325 -0.27126476 -0.050513033 -0.8263364
-0.8795035 0.121204905 0.08866708 -0.36141062 -0.29461205 0.46457115 0.0033471198 0.13608846
-0.010959405 -0.18341756 0.33439308 -0.20320415 0.8715051 0.010798853 0.118378915 0.0030689642
0.2616229 -0.33533043 1.3432996 0.09015396 -0.020070642 0.03267029 0.08597138 -0.013679832
-0.22251275 -0.02590215 0.05065736 -0.39754352 -0.001726985 0.117876835 0.028492544 -0.017320264
0.07622867 -0.2592029 -0.032463316 0.42093357 -0.40044865 0.0997906 -0.08892362 -0.2623033
0.15317883 -0.09407747 0.67830175 0.004341523 0.12648535 0.18568234 0.18540053 0.35651088
-0.86589074 0.053239368 -0.03331622 -0.2434101 0.17563869 -0.54226035 1.2548006 0.17155768
0.1485053 0.06413445 -0.8998685 -0.08986327 -0.22160923 0.31613407 -0.078929715 -0.1387348
0.02125954 -0.55388206 1.1825943 0.14554025 -0.051256318 -0.014114012 -0.12439692 0.5256888
-0.28654182 0.08070825 -0.004094484 -0.24269998 0.50024265 -0.30487895 -0.37489375 -0.151086
0.044931136 -0.061006676 0.03214691 0.15638587 -0.90047383 0.1323653 -0.041503012 -0.18928069
0.012679001 0.23882152 0.035736352 0.05445685 0.022672676 -0.47807062 0.1701949 -0.51684415
1.2270339 0.19013691 0.19619963 0.21436583 0.5213302 -0.06542216 0.08378718 -0.15841039
0.15200253 -0.1696359 0.48569795 0.24575913 0.70675683 -0.22538681 0.21370031 -0.20679112
-0.027328722 0.06955361 -0.02169113 -0.027078876 0.029557215 -0.1743109 0.38768807 -0.29702088
-0.5168943 -0.16395104 0.014286274 -0.18168814 -0.7197813 -0.43337512 -0.37735456 0.0021493922
0.15050964 -0.2122129 -0.03409365 0.028726134 -0.018214965 -0.03103453 -0.0065235347 -0.032795444
-0.04689174 -0.16601054 -0.064297356 -0.03661328 -0.04012967 0.39844745 -0.70645356 0.020512184
-0.02031582 0.22345458 -0.10970253 0.029540325 0.45928693 -0.24151936 -0.5896059 -0.17165254
-0.07276101 -0.13145803 -0.18691745 -0.48427287 -0.65030944 0.07536655 0.13351044 -0.1946546
-0.30002972 0.41391435 -0.3126037 0.12412744 0.077688135 -0.12130446 9.100555e-05 0.2606363
0.090567395 0.0051090806 0.015633037 -0.40772822 0.3494753 -0.014895849 0.048574246 -0.18833475
0.0026410858 0.15651512 0.052881937 -0.025548749 0.008833207 0.059268277 0.034355182 0.017359508
-0.04380783 0.5714181 -0.35165507 0.102945566 -0.011618794 -0.20346577 0.24434164 -0.29276365
0.68138766 0.011353353 0.07231213 -0.04751512 0.08521155 -0.45370016 1.0183632 0.16431437
0.15874732 0.15775101 -0.17340627 0.17344841 0.08878956 0.10660254 -0.011029711 -0.068127744
-0.4355963 -0.14560194 -0.19708306 0.07894788 0.062024295 -0.23357868 -0.534418 -0.13381289
-0.18092279 0.19420792 -0.08012191 -0.18269931 -0.3857162 -0.059795126 -0.43164125 0.18984681
-0.055465717 -0.18413617 -0.038647603 -0.1233292 -0.02758124 -0.03427485 -0.04612504 0.33053666
-0.14969857 -0.67967707 -0.8304017 0.11202905 0.16421984 -0.3603795 -0.0275009 -0.008252772
-0.06871162 -0.0061022877 0.027208965 -0.011033434 0.25928652 -0.11949266 0.6099306 -0.02873014
00000000: 504b 783e 6988 923e d42e 02bf 4cea d1bc
00000010: 2332 ecbc 37e3 8abe c1e6 4ebd c88a 53bf
00000020: 2427 61bf 473a f83d 1697 b53d d00a b9be
00000030: 64d7 96be 45dc ed3e 5a5b 5b3b c65a 0b3e
00000040: 148f 33bc d0d1 3bbe 9235 ab3e c014 50be
00000050: f51a 5f3f aced 303c a570 f23d ad20 493b
00000060: 70f3 853e 6eb0 abbe 3ef1 ab3f a4a2 b83d
00000070: 306b a4bc 48d1 053d c311 b03d 6021 60bc
00000080: 62da 63be bf30 d4bc 187e 4f3d d38a cbbe
00000090: 005c e2ba 6969 f13d 3269 e93c 3ae3 8dbc
000000a0: c71d 9c3d 3eb6 84be 41f8 04bd 9b84 d73e
000000b0: 9b07 cdbe 045f cc3d 961d b6bd 9e4c 86be
000000c0: e9da 1c3e b0ab c0bd 2fa5 2d3f 5643 8e3b
000000d0: 6085 013e 8323 3e3e a3d9 3d3e 9888 b63e
000000e0: 04ab 5dbf 8611 5a3d 9776 08bd 7f40 79be
000000f0: a1da 333e 93d1 0abf 4e9d a03f d1ac 2f3e
00000100: c611 183e ec58 833d c85d 66bf 3c0a b8bd
00000110: 88ed 62be 53dc a13e e7a5 a1bd 7f10 0ebe
00000120: 7d28 ae3c 37cb 0dbf 405f 973f 8108 153e
00000130: 25f2 51bd 753e 67bc d0c3 febd 8b93 063f
00000140: 9cb5 92be 5e4a a53d 052b 86bb 5886 78be
00000150: e70f 003f 1819 9cbe 13f2 bfbe 4ab6 1abe
00000160: b609 383d 23e2 79bd 7aac 033d 9e23 203e
00000170: 7485 66bf c58a 073e 10ff 29bd ccd2 41be
00000180: 96bb 4f3c a18d 743e 4860 123d 250e 5f3d
00000190: 0cbc b93c acc5 f4be 9247 2e3e e64f 04bf
000001a0: 720f 9d3f 40b3 423e 8ee8 483e b782 5b3e
000001b0: e575 053f 0efc 85bd 9d98 ab3d 5536 22be
000001c0: 8da6 1b3e 09b5 2dbe 67ad f83e 48a8 7b3e
000001d0: 04ee 343f cdcb 66be 41d4 5a3e 0dc1 53be
000001e0: 7ce0 dfbc 2072 8e3d 99b1 b1bc 85d4 ddbc
000001f0: f921 f23c 8e7e 32be 0d7f c63e 1f13 98be
00000200: 2f53 04bf c8e2 27be fa10 6a3c 750c 3abe
00000210: 9643 38bf 58e3 ddbe 9e34 c1be d1dc 0c3b
00000220: 331f 1a3e 574e 59be c8a5 0bbd 1253 eb3c
00000230: 8d37 95bc 203c febc 60c3 d5bb 8454 06bd
00000240: 8e11 40bd abfe 29be 55ae 83bd cff7 15bd
00000250: 025f 24bd 4e01 cc3e 24da 34bf 2b09 a83c
00000260: 5d6d a6bc 47d1 643e b8ab e0bd 8dfe f13c
00000270: a827 eb3e da50 77be 6af0 16bf afc5 2fbe
00000280: b903 95bd ef9c 06be 4a67 3fbe 9df2 f7be
00000290: ae7a 26bf c759 9a3d f6b6 083e 8953 47be
000002a0: 7f9d 99be 95ec d33e 980d a0be 8736 fe3d
000002b0: f51a 9f3d 796e f8bd 3cda be38 1f72 853e
000002c0: 667b b93d 136a a73b db10 803c c1c1 d0be
000002d0: 6dee b23e b80d 74bc caf5 463d d3da 40be
000002e0: 1116 2d3b 8045 203e bb9a 583d 9c4b d1bc
000002f0: 28b9 103c 4bc3 723d 05b8 0c3d 8735 8e3c
00000300: d76f 33bd 7548 123f 220c b4be 20d5 d23d
00000310: c15c 3ebc 5559 50be b234 7a3e 1ee5 95be
00000320: 6c6f 2e3f 6a03 3a3c 6218 943d 379f 42bd
00000330: 6583 ae3d 634b e8be ba59 823f 0742 283e
00000340: a88e 223e 7b89 213e 6a91 31be 769c 313e
00000350: 4dd7 b53d 6f52 da3d f6b5 34bc 8f86 8bbd
00000360: 7a06 dfbe ad18 15be 24d0 49be 6daf a13d
00000370: 300d 7e3d 402f 6fbe 9ecf 08bf 3f06 09be
00000380: d343 39be 71de 463e f516 a4bd 8715 3bbe
00000390: 987c c5be bceb 74bd 1500 ddbe 3467 423e
000003a0: 0530 63bd 318e 3cbe f34c 1ebd 0594 fcbd
000003b0: 0df2 e1bc c963 0cbd 9ced 3cbd 1a3c a93e
000003c0: 954a 19be 51ff 2dbf 3595 54bf 7d6f e53d
000003d0: 3f29 283e a983 b8be 9149 e1bc a236 07bc
000003e0: aeb8 8cbd b3f5 c7bb 56e5 de3c 94c5 34bc
000003f0: 34c1 843e 91b8 f4bd 6924 1c3f 785b ebbc

layers.0.bias f4 [256]
-0.010444566 -0.21785043 -0.2019104 -0.033942495 -0.077619255 -0.118533224 0.09471129 -0.04226547
-0.36648408 0.07179927 0.060748346 0.14573625 0.120548755 -0.19946513 -0.23126926 0.023350067
-0.21765095 -0.05310783 -0.22580206 -0.09045697 0.17192088 -0.06041548 -0.14248094 0.19658807
0.22721468 0.15561457 -0.2576273 0.03447956 -0.25835454 0.017591698 0.105591364 -0.28252113
-0.15068023 -0.053094823 -0.06909367 -0.18522212 -0.0564043 -0.015348017 0.016573546 0.24430294
-0.20338462 0.03825989 -0.17596741 -0.007228457 0.0018880358 0.17403427 0.24211313 -0.046893388
-0.2818748 -0.25462905 -0.21276182 -0.02200239 0.03823737 -0.23185356 -0.18017343 -0.21496841
-0.30124986 -0.5866249 0.16020669 -0.06243816 -0.070936374 -0.01843988 -0.1505581 0.03703652
-0.5530402 -0.10410136 -0.25325802 -0.33295318 -0.18332982 0.012116102 -0.071447335 -0.19649225
-0.16441175 -0.25630596 -0.13977976 -0.48812017 -0.6500177 -0.12026622 0.022432268 0.041414607
-0.0016986278 -0.09917102 -0.5116115 -0.2820161 -0.109476596 -0.062561154 -0.24399965 -0.29066548
-0.30105007 0.021787435 -0.08562774 -0.09982056 -0.18489939 -0.08575676 -0.42535698 -0.44079345
-0.32071203 0.13103352 -0.37848482 0.040857974 -0.055374388 -0.4780418 0.022644557 0.0007948768
-0.039606385 -0.09149534 -0.48966047 0.013424193 0.067988634 -0.038674854 -0.28578517 -0.034832176
0.14035669 0.09099993 0.011581516 -0.5163976 0.04319117 -0.460787 0.106990926 0.01582614
-0.18095192 -0.02045731 -0.035133805 -0.45617986 -0.14525424 -0.2926228 -0.35507768 0.022560216
-0.018258605 0.0655171 -0.07493077 -0.07965525 0.055777334 -0.02542304 0.0426366 -0.023591457
-0.25528207 0.14572008 0.09999629 -0.10923412 -0.04620513 -0.20140795 0.26658115 -0.09410886
0.106853686 0.072121285 -0.31180695 -0.1655616 -0.06327249 0.012393465 -0.26510578 0.07484798
0.019173635 0.055822104 -0.095660985 -0.2570237 -0.24418421 -0.32194892 0.20405161 -0.10801387
0.17888074 -0.025145797 -0.10665021 -0.26464736 -0.22396943 0.03259659 0.00025321005 -0.53273433
-0.044838876 -0.2597448 -0.10618167 -0.20078683 0.16830233 0.1466452 -0.39451045 0.1770441
-0.011343252 -0.69925416 -0.06375081 -0.046400618 -0.058774654 -0.11324394 -0.028219054 -0.06538806
0.05368042 0.12236085 -0.2876137 -0.07172138 -0.5244027 -0.18261722 -0.038212657 -0.049473345
6.247859e-05 -0.10246844 -0.13887314 0.064861104 0.15609042 -0.18416476 -0.026666697 -0.06679309
-0.40358788 -0.35110033 0.15059352 -0.18358393 -0.08016641 -0.33727244 0.09758948 0.28206646
0.1956147 -0.024195326 0.09461912 -0.19957863 0.052337617 -0.06645559 0.039055172 -0.3267546
-0.10652081 0.0964651 -0.03458405 -0.22299476 -0.034719583 -0.15511827 -0.3524162 -0.021551196
-0.22351767 -0.10649166 -0.089832604 -0.24142237 -0.12503666 -0.2426463 0.04234086 -0.14357653
0.013871701 -0.38996208 0.062954865 -0.032288186 -0.43753433 0.07465368 -0.122725904 0.15342101
0.07586878 -0.31297544 -0.15868464 -0.29610476 0.10357086 0.07256376 -0.2588552 0.06748696
-0.09101031 0.11070157 -0.03949449 -0.28423578 -0.49076244 -0.015798375 0.2154159 -0.025967523
00000000: af1f 2bbc 2f14 5fbe 9ac1 4ebe 4907 0bbd
00000010: d8f6 9ebd 8cc1 f2bd fef7 c13d 8f1e 2dbd
00000020: cda3 bbbe 7f0b 933d 42d3 783d e23b 153e
00000030: 44e2 f63d 9640 4cbe d9d1 6cbe a448 bf3c
00000040: e4df 5ebe 9987 59bd a838 67be 8141 b9bd
00000050: 070c 303e 3976 77bd 86e6 11be 624e 493e
00000060: f7aa 683e 6d59 1f3e bae7 83be 703a 0d3d
00000070: 0c47 84be 771c 903c 4940 d83d 9ca6 90be
00000080: eb4b 1abe f579 59bd fb80 8dbd deaa 3dbe
00000090: 3208 67bd 4076 7bbc 3fc5 873c 8d2a 7a3e
000000a0: 0f44 50be 67b6 1c3d cd30 34be b1dc ecbb
000000b0: f877 f73a 0a36 323e 81ec 773e 4813 40bd
000000c0: e551 90be bd5e 82be 3cde 59be 5b3e b4bc
000000d0: ca9e 1c3d 056b 6dbe 627f 38be ae20 5cbe
000000e0: 6c3d 9abe 0d2d 16bf 390d 243e 28bf 7fbd
000000f0: 1747 91bd 3b0f 97bc e72b 1abe 9bb3 173d
00000100: 0b94 0dbf 1833 d5bd 09ab 81be d778 aabe
00000110: d0ba 3bbe 9d82 463c fb52 92bd 4435 49be
00000120: 8e5b 28be 893a 83be 6d22 0fbe e3ea f9be
00000130: 8f67 26bf 234e f6bd e0c3 b73c 5da2 293d
00000140: 7ea4 deba 2d1a cbbd f9f8 02bf 6a64 90be
00000150: 4435 e0bd 1020 80bd 0bdb 79be 1bd2 94be
00000160: 3c23 9abe 907b b23c 995d afbd b96e ccbd
00000170: 4456 3dbe 3da1 afbd 64c8 d9be aeaf e1be
00000180: 5e34 a4be a72d 063e c3c8 c1be b15a 273d
00000190: 41d0 62bd e5c1 f4be 1481 b93c 475f 503a
000001a0: 4e3a 22bd e961 bbbd c7b4 fabe 25f1 5b3c
000001b0: a03d 8b3d 8669 1ebd 6f52 92be 2fac 0ebd
000001c0: aab9 0f3e 2c5e ba3d 66c0 3d3c a232 04bf
000001d0: 39e9 303d 46ec ebbe 0f1e db3d d2a5 813c
000001e0: 764b 39be 1796 a7bc 77e8 0fbd 6890 e9be
000001f0: 87bd 14be a8d2 95be becc b5be 34d0 b83c
00000200: 1293 95bc d42d 863d 4e75 99bd 4b22 a3bd
00000210: c676 643d fb43 d0bc b7a3 2e3d df42 c1bc
00000220: 55b4 82be a537 153e dbca cc3d 23b6 dfbd
00000230: 9741 3dbd e33d 4ebe 537d 883e 25bc c0bd
00000240: 1bd6 da3d 53b4 933d 29a5 9fbe fb88 29be
00000250: 0295 81bd f60d 4b3c f2bb 87be e649 993d
00000260: 0712 9d3c b8a5 643d e8e9 c3bd 9c98 83be
00000270: 6d0b 7abe 7dd6 a4be e8f2 503e 6036 ddbd
00000280: 832c 373e 8ffe cdbc 6d6b dabd dc7f 87be
00000290: 3e58 65be 0184 053d 47c1 8439 4761 08bf
000002a0: f8a8 37bd 45fd 84be c775 d9bd 109b 4dbe
000002b0: 7257 2c3e 292a 163e 46fd c9be 0c4b 353e
000002c0: 0cd9 39bc 5202 33bf c98f 82bd 930e 3ebd
000002d0: b1bd 70bd 70ec e7bd a52b e7bc 2dea 85bd
000002e0: 00e0 5b3d 5398 fa3d 1a42 93be a9e2 92bd
000002f0: 413f 06bf 0200 3bbe e084 1cbd 90a4 4abd
00000300: f006 8338 f9da d1bd c334 0ebe e6d5 843d
00000310: 2bd6 1f3e b095 3cbe 1e74 dabc d1ca 88bd
00000320: 12a3 cebe 6cc3 b3be 3035 1a3e 6dfd 3bbe
00000330: 492e a4bd f9ae acbe fedc c73d 046b 903e
00000340: 384f 483e 4735 c6bc abc7 c13d 575e 4cbe
00000350: f85f 563d de19 88bd 51f8 1f3d 614c a7be
00000360: 9527 dabd 7f8f c53d 01a8 0dbd bd58 64be
00000370: 1f36 0ebd 53d7 1ebe e56f b4be 228c b0bc
00000380: d1e1 64be 4d18 dabd 28fa b7bd 6d37 77be
00000390: 9c09 00be 4678 78be 9c6d 2d3d ba05 13be
000003a0: 2246 633c 1ca9 c7be 7bee 803d 9e40 04bd
000003b0: 8004 e0be 07e4 983d b857 fbbd 661a 1d3e
000003c0: 1761 9b3d 513e a0be 3a7e 22be 0b9b 97be
000003d0: f61c d43d 4f9c 943d ab88 84be 9a36 8a3d
000003e0: 9d63 babd 81b7 e23d f9c4 21bd 5a87 91be
000003f0: 3745 fbbe 986b 81bc fc95 5c3e d8b9 d4bc

layers.2.weight f4 [256, 256]
-0.15241972 0.2803535 -0.07943734 -0.58653635 -0.48072666 -0.123837896 -0.004701228 -0.08441298
0.0216521 -0.06549477 -0.7327089 0.05690224 -0.5321921 -0.027760487 0.00725879 0.02394485
0.09255745 -0.5827949 -0.0880611 -0.2213673 -0.053394366 -0.028993225 0.27233666 -0.1162619
-0.08575438 0.0074276356 0.026550775 0.28389385 0.22025268 -0.058422703 -0.51096547 0.29116353
-0.06528894 -0.5065441 -0.53273916 0.082848355 0.275869 0.3248813 0.17389913 -0.11782362
0.31591547 -0.003778809 -0.18205966 0.36201325 -0.100738466 -0.06816583 -0.071688816 -0.15539275
0.23553726 -0.27679008 0.30963784 -0.8397391 0.3344766 0.09450288 0.058127437 -0.12151657
-0.016079096 0.43344793 0.014674549 0.16413394 -0.5543987 -0.030732028 -0.058611114 -0.36266387
0.21864168 -0.14436093 0.06100851 0.088268995 -0.38296717 -0.013049978 0.11570484 -0.41744506
-0.1295622 0.18570147 0.113568746 0.25587603 0.14165355 0.14851995 0.059688114 -0.10510168
-0.12336033 -0.09538899 0.5004228 0.13951 -0.03520986 0.33496088 0.09916376 0.117129244
0.14528273 0.19337392 -0.16913804 0.4719364 0.19838499 -0.5699042 0.23127404 0.29224935
0.18642929 -0.26854604 0.065334015 0.05974258 -0.082215875 0.31021982 0.26431876 0.35071084
-0.605088 -0.41444385 0.17238332 -0.035143398 -0.02269104 -0.049435493 0.19224949 -2.7887512e-05
-0.29085964 0.09985934 0.24406672 0.3508913 -0.17305978 0.10404472 0.05569928 -0.03965117
0.16697034 0.13506962 -0.1656116 0.33193693 0.085081816 -0.19858724 0.20192759 0.02189765
0.33040112 0.31098586 -0.1173526 0.20712999 -0.07751222 -0.15861328 -0.045971405 -0.8190706
0.27663147 0.0006671965 -0.16924466 -0.02474904 -0.082754545 0.09326565 -0.0050560143 -0.15978794
-0.19837257 -0.04706417 -0.06479261 0.047042083 0.05235606 0.039331175 0.14880621 0.42586163
-0.21624085 0.06939615 0.19565532 0.006522288 0.38744417 -0.028237332 0.021133801 0.0010272643
-0.22576414 -0.020713553 0.38695592 0.20971443 -0.27181345 0.41139844 0.07960346 0.4466884
-0.13625279 -0.15708527 -0.16172525 0.55206275 0.071920246 0.0031052118 0.2709969 -0.14979717
0.15618993 0.31406736 0.28377444 0.11552346 -0.054924615 0.0769719 -0.07400975 0.46811074
-0.024956921 -0.24742293 0.20471811 -0.21191312 0.3409897 0.06133671 -0.33333308 -0.09733064
0.05897238 -0.12478309 0.11431667 0.0044758376 -0.021323413 0.034260243 0.27435246 -0.47711346
0.3350637 -0.17047463 -0.62280136 -0.012435903 -0.0012742571 0.018052544 -0.13144943 -0.038481098
-0.14487904 0.23691761 0.016889313 -0.051917583 -0.579473 -0.19540882 -0.01099905 0.3841324
-0.40679976 -0.67725927 0.29566365 -0.069915175 -0.1550428 -0.035497032 0.09938234 -0.42407838
0.17227377 -0.53741777 0.3322884 -0.032932915 0.2351083 -0.022142354 -0.18433678 0.10560018
-0.3854152 0.08913502 0.28265882 -0.043065578 0.18856463 -0.18241093 0.103703804 -0.023489006
0.023390023 -0.17447563 0.0052877194 0.12988843 -0.04525889 -0.068434425 0.004218613 0.031068504
-0.5347514 0.038476158 -0.018600153 -0.25057325 0.4248781 0.38005477 -0.060100544 0.3237824
00000000: ea13 1cbe 7e8a 8f3e 0bb0 a2bd 3f27 16bf
00000010: ce21 f6be b99e fdbd c20c 9abb b6e0 acbd
00000020: bf5f b13c 1f22 86bd cf92 3bbf 5312 693d
00000030: be3d 08bf f669 e3bc 25db ed3b fd27 c43c
00000040: c38e bd3d 0c32 15bf 6159 b4bd 1cae 62be
00000050: 0db4 5abd 3383 edbc b66f 8b3e b81a eebd
00000060: fe9f afbd 8663 f33b 0381 d93c 895a 913e
00000070: eb89 613e a54c 6fbd a2ce 02bf 6313 953e
00000080: 35b6 85bd e0ac 01bf 9861 08bf 66ac a93d
00000090: b43e 8d3e d756 a63e 9d12 323e 834d f1bd
000000a0: acbf a13e e5a5 77bb d96d 3abe cd59 b93e
000000b0: f84f cebd 879a 8bbd 96d1 92bd 471f 1fbe
000000c0: ae30 713e 6eb7 8dbe da88 9e3e 24f9 56bf
000000d0: 8440 ab3e ba8a c13d 0917 6e3d aedd f8bd
000000e0: 4fb8 83bc e3ec dd3e 856d 703c ba12 283e
000000f0: 13ed 0dbf bcc1 fbbc 3512 70bd 14af b9be
00000100: 9be3 5f3e 5ad3 13be 0fe4 793d 60c6 b43d
00000110: 4614 c4be 93cf 55bc a9f6 ec3d 5cbb d5be
00000120: f4ab 04be 8728 3e3e bb96 e83d 2f02 833e
00000130: a10d 113e 9d15 183e 867b 743d 8d3f d7bd
00000140: 57a4 fcbd 4e5b c3bd b51b 003f b6db 0e3e
00000150: 3738 10bd fe7f ab3e 5f16 cb3d 75e1 ef3d
00000160: ffc4 143e d003 463e 8632 2dbe a6a1 f13e
00000170: 6f25 4b3e 3ee5 11bf 1ad3 6c3e b5a1 953e
00000180: 52e7 3e3e de7e 89be d7cd 853d a3b4 743d
00000190: cc60 a8bd 22d5 9e3e ca54 873e 5f90 b33e
000001a0: 0ce7 1abf fc31 d4be 4185 303e 86f2 0fbd
000001b0: 8fe2 b9bc df7c 4abd 0ddd 443e faef e9b7
000001c0: 8eeb 94be 0e83 cc3d a0ec 793e 06a8 b33e
000001d0: 9536 31be 6615 d53d ee24 643d 4469 22bd
000001e0: 46fa 2a3e b14f 0a3e 1696 29be a3f3 a93e
000001f0: 603f ae3d 745a 4bbe 1bc6 4e3e b362 b33c
00000200: 562a a93e 8a39 9f3e 8f56 f0bd e219 543e
00000210: babe 9ebd 856b 22be 834c 3cbd 9cae 51bf
00000220: a4a2 8d3e cde6 2e3a 794e 2dbe 80be cabc
00000230: 377b a9bd 1002 bf3d ecac a5bb 739f 23be
00000240: 2e22 4bbe 5cc6 40bd fdb1 84bd 33af 403d
00000250: 4f73 563d ba19 213d a860 183e 890a da3e
00000260: 3e6e 5dbe 921f 8e3d de59 483e ebb8 d53b
00000270: 155f c63e fa51 e7bc cb20 ad3c 45a5 863a
00000280: b72e 67be 78af a9bc 161f c63e 61bf 563e
00000290: 222b 8bbe d1a2 d23e 2407 a33d 58b4 e43e
000002a0: da85 0bbe f6da 20be 4e9b 25be fc53 0d3f
000002b0: ec4a 933d cf80 4b3b 1bc0 8a3e 6e64 19be
000002c0: 41f0 1f3e 70cd a03e e24a 913e 9097 ec3d
000002d0: a2f8 60bd 72a3 9d3d 6c92 97bd 36ac ef3e
000002e0: 7572 ccbc 705c 7dbe a0a1 513e c1ff 58be
000002f0: 3496 ae3e 343c 7b3d a2aa aabe 4955 c7bd
00000300: 068d 713d 478e ffbd dc1e ea3d 0caa 923b
00000310: 70ae aebc 7854 0c3d ed77 8c3e 3748 f4be
00000320: 788d ab3e e790 2ebe e96f 1fbf f5bf 4bbc
00000330: f904 a7ba eee2 933c ae9a 06be 5b9e 1dbd
00000340: 2c5b 14be 889a 723e 755b 8a3c 88a7 54bd
00000350: 5858 14bf 4019 48be 5c35 34bc 00ad c43e
00000360: 0f48 d0be dd60 2dbf 3a61 973e b02f 8fbd
00000370: 8ac3 1ebe 5665 11bd f888 cb3d cd20 d9be
00000380: 8968 303e 3694 09bf b521 aa3e aae4 06bd
00000390: 3bc0 703e e263 b5bc c8c2 3cbe e844 d83d
000003a0: 2455 c5be 6c8c b63d a8b8 903e 8865 30bd
000003b0: 1617 413e eec9 3abe a962 d43d 046c c0bc
000003c0: 6f9c bf3c bda9 32be 9b44 ad3b 7901 053e
000003d0: 6361 39bd 5927 8cbd 4a3c 8a3b 6083 fe3c
000003e0: 78e5 08bf 2d99 1d3d 595f 98bc 234b 80be
000003f0: 9f89 d93e 8a96 c23e fd2b 76bd cfc6 a53e

layers.2.bias f4 [256]
-0.26102224 0.017510703 -0.01951202 -0.2258622 -0.0099656945 -0.0064766863 -0.030941024 -0.6099524
-0.07650171 -0.53224075 -0.10889442 -0.010661559 -0.18348472 0.062222328 0.07924504 -0.019310325
-0.12667237 -0.08121843 -0.4491686 -0.04002739 -0.034765135 0.00071743695 -0.114117086 -0.035543248
-0.012371838 -0.44961515 -0.038981874 -0.03474156 -0.19837952 -0.39331132 -0.026049057 -0.24743548
-0.2955444 -0.053768016 -0.007835549 -0.04798559 -0.21901608 -0.021729918 -0.1311948 -0.33101055
-0.28727904 -0.036793496 -0.00117313 -0.27332622 -0.3361386 -0.013660924 -0.42281204 -0.23708856
-0.015642725 -0.543839 -0.063959666 -0.018740784 -0.33985516 -0.053714015 0.001688396 -0.07644273
-0.023674294 -0.06432867 -0.438641 -0.49599993 -0.007089932 -0.07902247 -0.01698597 -0.42068678
-0.3887325 -0.062940516 -0.023268625 -0.055747587 0.026593205 -0.051145986 -0.09186518 -0.008323215
-0.052408084 -0.09619505 -0.017778048 -0.1514409 -0.299518 -0.12422077 -0.07197495 -0.15491134
-0.07594552 -0.3083317 -0.33274385 -0.07507811 -0.028256781 -0.28014776 -0.25850546 -0.018451761
-0.20378308 -0.66058356 -0.13797224 -0.41713053 -0.26894337 -0.03590232 -0.0842328 -0.2515247
-0.2730335 -0.058828417 -0.009541541 0.0041073738 -0.07555575 -0.0038476135 -0.049972944 -0.047064852
-0.29778966 -0.3280237 -0.40339732 -0.109811075 -0.18640445 -0.15839814 -0.07285135 -0.068613
-0.11912293 -0.059053164 -0.006105743 -0.14648397 -0.25443754 -0.065142736 -0.27260074 -0.111170985
-0.022066174 -0.021401387 -0.06210561 -0.05054866 -0.08487467 -0.04194779 -0.26329166 -0.04342531
-0.643782 -0.08647348 -0.23639178 -0.7338064 -0.10838746 -0.116909206 -0.44160518 -0.08405651
-0.6118755 -0.01558575 -0.7149002 -0.3057621 -0.090780914 -0.0912722 0.11561614 -0.14731507
-0.28766674 -0.03794196 -0.03728273 -0.32452142 -0.11790649 -0.015748683 0.005414388 0.07416313
-0.03343398 -0.31733084 -0.11778175 -0.061416868 -0.061571695 -0.0017181494 -0.010972826 -0.03210118
0.040226996 -0.017476512 0.017107159 -0.021388564 -0.1256928 -0.013776175 -0.33234894 -0.019335466
-0.018933713 -0.017308636 -0.022849666 -0.29513156 -0.09164092 0.03376536 -0.037215408 -0.063601494
0.06114745 0.0074852845 -0.29059127 0.00060523365 -0.033225242 0.0903491 -0.07474506 -0.030708702
-0.031106662 -0.061293054 -0.112656325 -0.097598 -0.046772476 -0.09467921 -0.015046063 -0.1011309
-0.07723188 -0.08440164 -0.065955326 -0.035665944 -0.0418022 -0.14863667 0.0076352027 -0.1379265
-0.18355653 -0.028215501 -0.06347703 -0.05208841 -0.036363553 -0.39503855 -0.19798008 -0.0007133715
-0.20936649 -0.4318615 -0.0020443716 -0.10068333 -0.13331763 -0.007292885 -0.04206047 -0.39730597
-0.10944724 0.19834064 0.12712602 -0.35736322 -0.5138205 -0.26322764 -0.006969839 -0.42373523
-0.060306106 -0.07266934 0.041159585 -0.03820828 -0.01054632 -0.15289557 -0.14101087 -0.08058417
-0.02248302 -0.07824337 -0.029537655 -0.14027002 -0.33060274 -0.15413728 -0.26295727 -0.03360721
-0.029415857 -0.015675327 -0.028798148 -0.56373125 -0.20585051 -0.023585157 -0.10224399 -0.07874111
-0.034099203 -0.061418302 -0.26863873 -0.07495727 -0.08086897 -0.019684548 -0.023351427 -0.1037555
00000000: b5a4 85be 9b72 8f3c acd7 9fbc 6c48 67be
00000010: 2747 23bc 623a d4bb 0878 fdbc d725 1cbf
00000020: eeac 9cbd ee40 08bf 0a04 dfbd d2ad 2ebc
00000030: 6be3 3bbe d7dc 7e3d 394b a23d b030 9ebc
00000040: 67b6 01be d955 a6bd 6df9 e5be c3f3 23bd
00000050: e365 0ebd 6112 3c3a 38b6 e9bd cc95 11bd
00000060: 40b3 4abc f533 e6be 75ab 1fbd 2b4d 0ebd
00000070: 0024 4bbe 1a60 c9be d564 d5bc ba5f 7dbe
00000080: 9851 97be da3b 5cbd ad60 00bc 8a8c 44bd
00000090: c045 60be f102 b2bc ee57 06be 377a a9be
000000a0: 3d16 93be c7b4 16bd b6c3 99ba 6af1 8bbe
000000b0: 5c1a acbe 11d2 5fbc d27a d8be 58c7 72be
000000c0: 2c25 80bc 0839 0bbf 49fd 82bd 4686 99bc
000000d0: 7f01 aebe 3a03 5cbd 2b4d dd3a 028e 9cbd
000000e0: 98f0 c1bc c0be 83bd 8e95 e0be b4f3 fdbe
000000f0: a952 e8bb 88d6 a1bd 2926 8bbc 4264 d7be
00000100: f207 c7be f5e6 80bd d89d bebc 9557 64bd
00000110: fed9 d93c 747e 51bd d023 bcbd 185e 08bc
00000120: dca9 56bd e901 c5bd 45a3 91bc 5313 1bbe
00000130: 6c5a 99be 7667 febd 9a67 93bd 14a1 1ebe
00000140: 5389 9bbd a7dd 9dbe 675d aabe 8dc2 99bd
00000150: c47a e7bc 876f 8fbe d45a 84be 2628 97bc
00000160: 83ac 50be 011c 29bf 9848 0dbe 2292 d5be
00000170: f2b2 89be 500e 13bd 3f82 acbd d8c7 80be
00000180: 0ccb 8bbe 11f6 70bd 2054 1cbc 2697 863b
00000190: f9bc 9abd 3e28 7cbb 6eb0 4cbd 13c7 40bd
000001a0: e377 98be b9f2 a7be 188a cebe a1e4 e0bd
000001b0: cfe0 3ebe 1f33 22be 1733 95bd f984 8cbd
000001c0: b9f6 f3bd bbe1 71bd af12 c8bb e5ff 15be
000001d0: a345 82be 8e69 85bd 5392 8bbe 9dad e3bd
000001e0: 1fc4 b4bc f651 afbc 7462 7ebd 1d0c 4fbd
000001f0: c5d2 adbd 72d1 2bbd 2ace 86be bdde 31bd
00000200: e6ce 24bf 0219 b1bd b010 72be bcda 3bbf
00000210: 3ffa ddbd 186e efbd 131a e2be d225 acbd
00000220: dfa3 1cbf 605b 7fbc b303 37bf da8c 9cbe
00000230: 58eb b9bd ebec babd 28c8 ec3d c3d9 16be
00000240: 0e49 93be 0769 1bbd c7b5 18bd ac27 a6be
00000250: f578 f1bd 6203 81bc 2e6b b13b d7e2 973d
00000260: 12f2 08bd 3079 a2be 8f37 f1bd 4190 7bbd
00000270: 9a32 7cbd 8733 e1ba 5ec7 33bc 877c 03bd
00000280: 10c5 243d e72a 8fbc 5024 8c3c 1237 afbc
00000290: 9db5 00be 77b5 61bc a429 aabe 6965 9ebc
000002a0: e01a 9bbc d7ca 8dbc 392f bbbc 7c1b 97be
000002b0: 3cae bbbd 8c4d 0a3d 2f6f 18bd 8041 82bd
000002c0: c075 7a3d 1e47 f53b 61c8 94be 8ba8 1e3a
000002d0: 3117 08bd f308 b93d f013 99bd d190 fbbc
000002e0: 66d3 febc 6d0e 7bbd 5cb8 e6bd 76e1 c7bd
000002f0: 7f94 3fbd 2ce7 c1bd c383 76bc b81d cfbd
00000300: bf2b 9ebd c4da acbd 9613 87bd 7416 12bd
00000310: c938 2bbd 3634 18be b930 fa3b 9b3c 0dbe
00000320: 3ef6 3bbe 3224 e7bc 3f00 82bd a85a 55bd
00000330: f3f1 14bd 7e42 cabe 4abb 4abe 8d01 3bba
00000340: 2b64 56be f31c ddbe ddfa 05bb 1033 cebd
00000350: 6b84 08be 27f9 eebb 9947 2cbd b06b cbbe
00000360: e025 e0bd cf19 4b3e 532d 023e 50f8 b6be
00000370: be89 03bf c6c5 86be 3f63 e4bb d3f3 d8be
00000380: 8903 77bd aad3 94bd f496 283d 4980 1cbd
00000390: 79ca 2cbc a890 1cbe 2765 10be 5009 a5bd
000003a0: 4f2e b8bc 0f3e a0bd f4f8 f1bc f2a2 0fbe
000003b0: c344 a9be 2ad6 1dbe 56a2 86be b7a7 09bd
000003c0: 86f9 f0bc 8b69 80bc 18ea ebbc b150 10bf
000003d0: 7aca 52be a935 c1bc 4c65 d1bd 0543 a1bd
000003e0: 9bab 0bbd c291 7bbd 048b 89be 3283 99bd
000003f0: a19e a5bd 7d41 a1bc 7e4b bfbc c37d d4bd

layers.4.weight f4 [256, 256]
0.16860494 0.09254377 -0.066130795 0.080523 0.20421904 0.1680527 0.068581164 0.20728908
0.26428133 0.10094657 0.2335857 0.19476093 0.26088098 0.18273981 -0.026683554 0.20164196
-0.047785692 0.1744693 0.030424941 0.25055116 0.20958486 0.24628267 -0.057652958 0.07547993
0.19126564 0.13605124 0.24685565 0.16772206 -0.060301915 -0.009936346 0.15738863 0.028191615
0.06829383 0.12385622 0.25043106 0.19502233 0.18258512 0.24295647 -0.19934255 -0.042336915
0.22330071 0.17326593 0.22346717 0.12960649 0.07800503 0.23245953 0.028620576 0.22064504
0.27574006 0.14143501 0.05249657 0.0633057 0.14592525 0.05876856 0.2696613 -0.018185599
0.25038895 0.070452414 0.09356276 0.08979587 0.14177756 0.20546797 0.15404333 0.107762724
0.09073488 0.016322147 0.13499533 0.017989356 -0.057454966 0.2950577 0.06726957 0.15205066
0.28402418 0.14290875 0.22544849 0.16721237 0.1573398 0.13361783 0.06994258 -0.042821173
0.019239781 -0.12236157 0.08017146 0.28404546 0.2847126 0.1541293 0.40986964 0.16874544
0.08309201 0.1541233 0.22220093 0.04970817 0.28594306 0.24996611 0.17276514 0.115008935
0.014477425 0.085275754 0.16355394 0.21780188 0.075995386 0.24427752 0.2405724 0.2499105
-0.08645801 0.04151943 -0.022988044 0.2312055 -0.09460859 0.26963052 0.031403363 0.22594304
0.22609107 0.16261426 0.25397366 0.26906943 0.34934205 0.089693464 -0.04744404 0.16979912
0.24882466 0.12192116 0.12008567 0.13068566 0.15185864 0.15929213 -0.053638574 -0.021263687
-0.05240468 0.21610975 -0.094269924 0.06426896 0.15652394 0.20178996 0.0011852855 0.16855375
0.14592159 0.06183345 0.06593866 0.10319208 -0.007974542 0.13365851 -0.10681164 0.13310593
0.05972781 0.086521156 0.021891465 -0.008993447 0.19410251 0.2280632 0.14582336 -0.0797225
0.17246442 0.16965725 0.17197989 0.2758694 0.10737257 0.043757364 0.19325522 0.22168908
0.111397035 0.20846853 0.13913535 0.2740266 -0.029278183 0.23251732 0.0580709 0.11263829
0.25995734 0.13915764 0.043521613 -0.03808722 -0.21853733 0.12672661 0.039831225 0.22927828
0.25852636 0.073709175 0.10626702 0.055481784 0.22103083 0.09339629 0.25258654 0.10741461
0.20838252 0.08576589 0.25621217 0.14813466 0.17635734 0.112474956 0.20464556 0.11097803
0.22485003 0.26073554 0.23274729 0.12583785 0.1359286 0.20832334 0.11903239 -0.18779646
0.109843016 0.07933425 0.20243737 0.20738815 0.27170733 0.11984725 0.10427806 0.105250664
-0.099371515 -0.12900873 0.31996065 0.23103887 0.22270599 0.15441099 0.11469616 0.08119124
0.07119861 -0.12626763 -0.01192661 0.018816298 -0.046453685 0.17051908 0.079773 0.08077458
0.100938156 0.18928762 0.21426418 0.29735637 0.21484047 -0.09840505 0.24303369 0.10127693
0.3353103 0.16993144 0.13021228 0.11505117 0.12648095 0.029367797 0.17202757 0.17358546
0.08777256 0.09605847 0.18323797 -0.010369052 -0.12853527 0.14732695 0.20609093 0.26462898
0.16567118 0.1439937 0.3671772 0.23228703 0.22496435 0.19697767 0.09526576 0.070728794
00000000: c6a6 2c3e 9787 bd3d 956f 87bd 3ee9 a43d
00000010: cc1e 513e 0216 2c3e 4874 8c3d 9743 543e
00000020: e24f 873e 13bd ce3d 1731 6f3e 696f 473e
00000030: 3192 853e 2520 3b3e 7897 dabc 3b7b 4e3e
00000040: eeba 43bd 15a8 323e ba3d f93c 3e48 803e
00000050: 6a9d 563e 8631 7c3e 8225 6cbd 3995 9a3d
00000060: 24db 433e 0451 0b3e bac7 7c3e 55bf 2b3e
00000070: 24ff 76bd 0ecc 22bc 7c2a 213e 1af2 e63c
00000080: a3dd 8b3d 54a8 fd3d 8038 803e efb3 473e
00000090: 98f7 3a3e 95c9 783e 7420 4cbe 7969 2dbd
000000a0: f1a8 643e a06c 313e 94d4 643e 90b7 043e
000000b0: 1ac1 9f3d df09 6e3e b375 ea3c c6f0 613e
000000c0: cd2d 8d3e 57d4 103e a506 573d 6ba6 813d
000000d0: 6e6d 153e 4db7 703d 0c11 8a3e f7f9 94bc
000000e0: fb32 803e 5b49 903d d59d bf3d e6e6 b73d
000000f0: 232e 113e 3266 523e 89bd 1d3e b4b2 dc3d
00000100: 35d3 b93d 06b6 853c 373c 0a3e 6a5e 933c
00000110: e655 6bbd ce11 973e a1c4 893d 2bb3 1b3e
00000120: 9e6b 913e ac56 123e f8db 663e b839 2b3e
00000130: af1d 213e 1dd3 083e 0e3e 8f3d 4165 2fbd
00000140: bf9c 9d3c b498 fabd ef30 a43d 686e 913e
00000150: dac5 913e 12d4 1d3e 6fda d13e 9bcb 2c3e
00000160: 252c aa3d 80d2 1d3e a488 633e cb9a 4b3d
00000170: 2167 923e 1ef7 7f3e 58e9 303e ce89 eb3d
00000180: b932 6d3c 0ea5 ae3d af7a 273e 7507 5f3e
00000190: 78a3 9b3d e323 7a3e 9c58 763e 8ae8 7f3e
000001a0: e610 b1bd 4710 2a3d 6c51 bcbc 22c1 6c3e
000001b0: 26c2 c1bd 030d 8a3e d0a0 003d 9d5d 673e
000001c0: 6b84 673e 5a84 263e d608 823e 78c3 893e
000001d0: f6dc b23e 35b1 b73d af54 42bd d2df 2d3e
000001e0: e4cb 7e3e cdb1 f93d 7aef f53d 76d2 053e
000001f0: d580 1b3e 7a1d 233e 1fb4 5bbd 2f31 aebc
00000200: 4aa6 56bd e04b 5d3e 9710 c1bd 729f 833d
00000210: d047 203e 07a2 4e3e 955b 9b3a 5b99 2c3e
00000220: 786c 153e 1245 7d3d d90a 873d 5f56 d33d
00000230: a7a7 02bc c7dd 083e 10c0 dabd ec4c 083e
00000240: 26a5 743d 0132 b13d bb55 b33c 4059 13bc
00000250: cfc2 463e 6689 693e b852 153e 8d45 a3bd
00000260: 839a 303e a1ba 2d3e 7f1b 303e c13e 8d3e
00000270: 26e6 db3d ec3a 333d b2e4 453e 7602 633e
00000280: 2124 e43d c678 553e 7f79 0e3e 374d 8c3e
00000290: cdd8 efbc 0519 6e3e c1db 6d3d e7ae e63d
000002a0: 2119 853e 577f 0e3e b843 323d 5801 1cbd
000002b0: 40c8 5fbe 9fc4 013e 1126 233d edc7 6a3e
000002c0: 915d 843e d6f4 963d 86a2 d93d de40 633d
000002d0: e855 623e 8e46 bf3d 0653 813e 31fc db3d
000002e0: 3a62 553e 07a6 af3d 3e2e 833e 9db0 173e
000002f0: 0597 343e 4559 e63d 9b8e 513e 7348 e33d
00000300: 163f 663e 217f 853e 4e55 6e3e a3db 003e
00000310: de30 0b3e b752 553e 41c7 f33d b74d 40be
00000320: 60f5 e03d ff79 a23d be4b 4f3e 8f5d 543e
00000330: 391d 8b3e 7a72 f53d bc8f d53d a98d d73d
00000340: 4b83 cbbd dd1a 04be e2d1 a33e 7495 6c3e
00000350: 0a0d 643e ea1d 1e3e d2e5 ea3d 9847 a63d
00000360: 94d0 913d 4d4c 01be d467 43bc a324 9a3c
00000370: 3846 3ebd 8e9c 2e3e 0760 a33d 256d a53d
00000380: aab8 ce3d 9dd4 413e 1268 5b3e 183f 983e
00000390: 24ff 5b3e 9688 c9bd d3dd 783e 476a cf3d
000003a0: cbad ab3e 8202 2e3e 5e56 053e f39f eb3d
000003b0: 3984 013e bc94 f03c ff27 303e 63c0 313e
000003c0: 1ac2 b33d 4eba c43d bca2 3b3e f5e2 29bc
000003d0: c09e 03be e0dc 163e 8009 533e 737d 873e
000003e0: b5a5 293e 1673 133e a6fe bb3e a7dc 6d3e
000003f0: 0e5d 663e 84b4 493e b21a c33d 42da 903d

layers.4.bias f4 [256]
-0.09034624 -0.20339857 -0.17581874 0.0054014563 -0.09774456 -0.16333932 0.019155225 -0.12347204
-0.036883384 0.00071822223 -0.18505777 -0.112776995 -0.029431792 -0.10362168 0.017694728 0.02267634
-0.04921972 -0.10156821 -0.068811774 -0.026728388 -0.10152784 -0.037641216 -0.08691975 -0.010439778
-0.12101252 -0.113741554 -0.21197575 -0.0915624 0.00085292273 -0.16922793 -0.05218879 -0.19305329
-0.23518984 -0.010094868 -0.024466973 -0.08539206 -0.116061054 -0.12708957 -0.07080916 -0.06353617
-0.09081357 -0.11396259 -0.06194701 -0.07105196 -0.12321081 -0.06651748 -0.15210694 -0.18289585
-0.2972162 -0.33471245 -0.060778204 -0.103262894 -0.07462456 -0.6701218 -0.1166442 0.013744757
-0.105452545 -0.07546149 -0.09886926 -0.294313 0.01232525 0.018185355 -0.053550366 -0.10199775
-0.037763488 -0.069664836 -0.1546736 0.016652472 -0.076898724 -0.04544513 -0.010715904 -0.07272949
-0.20986614 -0.12387595 -0.36177143 0.0057919966 -0.01567205 -0.09305812 -0.06954489 -0.007032595
0.013876519 -0.20962395 -0.30710024 -0.058709107 -0.10399391 -0.08573706 0.020610856 -0.13596377
-0.16922909 -0.042701956 -0.28872856 -0.069144614 -0.023237184 -0.14369117 -0.039958555 -0.108563185
-0.10321209 -0.124348864 -0.03540262 -0.015639871 -0.17292939 -0.12503958 -0.14757417 -0.14482132
-0.16600429 -0.13095945 -0.15488572 -0.08357182 -0.15421306 -0.15965052 -0.22526655 -0.06898504
-0.2352652 -0.012392338 -0.10951723 -0.0056086206 -0.14279649 -0.09818875 -0.10117179 -0.015721187
-0.071861506 -0.17882426 -0.059424955 -0.054061916 -0.073248416 -0.09229482 -0.21092401 -0.09899748
-0.06500522 -0.3951181 -0.034090385 0.017018454 -0.097505994 -0.1192339 -0.079739355 -0.03526506
-0.12362488 -0.19009069 -0.08960515 -0.012651979 -0.05853082 -0.028725378 -0.13323297 -0.077376515
-0.037645835 -0.11445334 -0.079557285 -0.05077724 0.0024565195 -0.10454005 0.007660309 -0.14569964
-0.0770701 -0.055933382 -0.06908409 -0.03860721 -0.07518209 -0.07632664 -0.007022595 -0.09639831
-0.056364488 -0.09642983 -0.022772916 -0.39657426 -0.029950693 -0.06570797 -0.097081 -0.085298985
-0.10557056 -0.243216 0.009120566 0.035511717 -0.16080381 -0.02515727 -0.5998199 -0.3018862
0.01147201 -0.2919889 -0.48513368 -0.11146562 -0.13472646 -0.03601659 -0.0707765 -0.17973422
0.035097815 -0.079066224 -0.10662597 -0.22354893 -0.5685555 -0.047630355 -0.10583229 -0.17850268
-0.11257718 -0.08148206 -0.09295333 -0.006595537 -0.005744118 -0.0704395 -0.15194446 -0.1603108
-0.065717 -0.044174403 -0.28168723 -0.0360823 -0.029502572 -0.05883764 -0.32064334 -0.06483106
-0.28675815 -0.095202886 -0.10737751 -0.1172255 -0.0587704 -0.14485896 -0.011911019 -0.3887943
-0.29155502 -0.15719983 -0.14105704 -0.057102643 -0.12731197 -0.0947517 -0.24090244 -0.0335788
0.024057785 -0.15415873 -0.017342601 -0.07842183 -0.09749364 -0.11268647 -0.12904558 -0.025751937
-0.2735843 -0.1195748 0.079121016 -0.11618459 -0.13060433 -0.0024159485 -0.49760842 -0.15134512
-0.11016009 -0.083491035 -0.13623972 -0.07589736 -0.09665474 -0.024875702 -0.07824833 -0.090957835
-0.040108103 -0.24716726 -0.090424575 -0.1270313 -0.30539212 -0.15776935 -0.0996267 -0.06363915
00000000: 7307 b9bd b747 50be d409 34be b3fe b03b
00000010: 4d2e c8bd 6c42 27be 6beb 9c3c e9de fcbd
00000020: 0813 17bd 1447 3c3a c97f 3dbe a0f7 e6bd
00000030: f11a f1bc 9a37 d4bd 89f4 903c bbc3 b93c
00000040: 9e9a 49bd fe02 d0bd 30ed 8cbd 7ef5 dabc
00000050: d4ed cfbd ad2d 1abd fb02 b2bd 9a0b 2bbc
00000060: 69d5 f7bd 55f1 e8bd 2c10 59be 1185 bbbd
00000070: ad96 5f3a 164a 2dbe eac3 55bd c3af 45be
00000080: 9bd5 70be f264 25bc f66e c8bc 08e2 aebd
00000090: 6bb1 edbd c523 02be 6504 91bd 401f 82bd
000000a0: 77fc b9bd 3865 e9bd 26bc 7dbd b183 91bd
000000b0: f355 fcbd 513a 88bd ecc1 1bbe 0d49 3bbe
000000c0: b92c 98be 6e5f abbe 91f2 78bd 7f7b d3bd
000000d0: c3d4 98bd 1a8d 2bbf 28e3 eebd b031 613c
000000e0: 81f7 d7bd 8e8b 9abd f77b cabd 32b0 96be
000000f0: d8ef 493c 74f9 943c a157 5bbd 32e4 d0bd
00000100: e3ad 1abd 70ac 8ebd c262 1ebe c46a 883c
00000110: 147d 9dbd ac24 3abd c291 2fbc 33f3 94bd
00000120: 26e7 56be adb2 fdbd 1b3a b9be caca bd3b
00000130: ac62 80bc 4195 bebd 8d6d 8ebd af71 e6bb
00000140: 575a 633c a9a7 56be 3e3c 9dbe f678 70bd
00000150: c2fa d4bd e996 afbd 19d8 a83c 163a 0bbe
00000160: 644a 2dbe 3fe8 2ebd 3bd4 93be b19b 8dbd
00000170: e85b bebc c723 13be 95ab 23bd 6056 debd
00000180: dc60 d3bd 9eaa febd 5602 11bd 301f 80bc
00000190: 6714 31be 600a 00be af1d 17be 0a4c 14be
000001a0: 07fd 29be 3c1a 06be 5d9a 1ebe b427 abbd
000001b0: 07ea 1dbe 6d7b 23be 46ac 66be 0748 8dbd
000001c0: 5ce9 70be 3c09 4bbc 924a e0bd 85c8 b7bb
000001d0: 3e39 12be 2f17 c9bd 2833 cfbd b8c9 80bc
000001e0: 202c 93bd b51d 37be 9567 73bd 0770 5dbd
000001f0: 4403 96bd 1105 bdbd 77fc 57be 31bf cabd
00000200: 7521 85bd eb4c cabe 5ca2 0bbd 496a 8b3c
00000210: 39b1 c7bd e730 f4bd 634e a3bd 1872 10bd
00000220: 0b2f fdbd 22a7 42be e882 b7bd 3f4a 4fbc
00000230: 03be 6fbd 7c51 ebbc 396e 08be 9477 9ebd
00000240: 8532 1abd 8366 eabd eeee a2bd ccfb 4fbd
00000250: 8ffd 203b 1819 d6bd 5403 fb3b 4932 15be
00000260: eed6 9dbd 671a 65bd f67b 8dbd 9822 1ebd
00000270: 11f9 99bd 2451 9cbd cc1d e6bb 7a6c c5bd
00000280: 73de 66bd 017d c5bd 448e babc c80b cbbe
00000290: 285b f5bc e691 86bd 67d2 c6bd 3cb1 aebd
000002a0: 6135 d8bd 9d0d 79be 6d6e 153c bc74 113d
000002b0: c1a9 24be 9e16 cebc cc8d 19bf d490 9abe
000002c0: 19f5 3b3c 927f 95be 7163 f8be 1648 e4bd
000002d0: bcf5 09be 2286 13bd 45f3 90bd 3f0c 38be
000002e0: bac2 0f3d 79ed a1bd b75e dabd 03ea 64be
000002f0: da8c 11bf 0c18 43bd 9abe d8bd 68c9 36be
00000300: dd8e e6bd 11e0 a6bd 515e bebd 601f d8bb
00000310: 2739 bcbb 9642 90bd 5497 1bbe 8428 24be
00000320: a296 86bd 38f0 34bd 4f39 90be 09cb 13bd
00000330: 61af f1bc bdff 70bd 5d2b a4be 26c6 84bd
00000340: f7d1 92be bbf9 c2bd bde8 dbbd ec13 f0bd
00000350: 3bb9 70bd e855 14be 6f26 43bc 0c10 c7be
00000360: b346 95be fef8 20be 4271 10be 76e4 69bd
00000370: 125e 02be 2e0d c2bd 21af 76be ec89 09bd
00000380: d514 c53c c9db 1dbe 1212 8ebc a09b a0bd
00000390: bfaa c7bd 2ac8 e6bd 8624 04be baf5 d2bc
000003a0: 3e13 8cbe a2e3 f4bd 330a a23d 30f2 edbd
000003b0: 24bd 05be e454 1ebb 88c6 febe 37fa 1abe
000003c0: 9d9b e1bd 59fd aabd 6d82 0bbe 1370 9bbd
000003d0: ecf2 c5bd 21c8 cbbc a940 a0bd 1a48 babd
000003e0: 6548 24bd 6a19 7dbe 8530 b9bd 7e14 02be
000003f0: 5b5c 9cbe 4a8e 21be 1509 ccbd 3e55 82bd

layers.6.weight f4 [1, 256]
-0.033354264 0.29583943 0.041857183 -0.004377506 0.016801883 0.00022988686 0.00089478574 0.505076
0.028190462 0.017229114 -0.11542283 -0.049361825 -0.055421256 -0.06357006 0.004516234 8.598907e-05
4.773109e-05 -0.0021221205 -0.044660356 -0.09359644 -0.16051441 0.009251759 -0.013662696 -0.016778182
0.40633905 0.0015775276 0.046074443 0.004923665 9.282421e-05 0.26727003 -0.01366937 0.023410223
-0.047151927 4.2447806e-05 -0.0026246856 0.029677471 -0.076584 -0.04497679 -0.016664125 -0.017541336
-0.00882629 -0.2416497 -0.019670287 -0.023799378 -0.04628227 0.009730506 -0.045607287 -0.13385847
0.10329915 0.16016121 0.011722182 -0.07326405 5.2395375e-05 0.32380095 -0.05074921 -0.009891972
-0.023537204 -0.006787963 2.7233244e-05 0.18754716 0.00010678353 0.026174465 2.9549035e-05 -0.09207142
4.2733423e-05 5.0058963e-05 0.026110481 -0.004803809 -0.021146854 -0.0069704107 0.0002786391 0.0006413068
0.49404255 -0.035262495 0.11729537 0.007310242 -0.090549305 0.035670653 -0.018233068 0.0062886295
0.023825355 -0.35975498 0.087332204 -0.019357925 0.012345868 -0.021934874 0.00024528033 -0.033617273
-0.010522011 0.027662799 0.20494202 0.05477133 3.0378726e-05 0.004085342 -0.08123201 -0.1236386
0.0084875915 -0.08354023 0.033244535 0.0004623992 0.12004701 -0.062750064 -0.11836958 -0.0076035527
-0.09131094 0.08600182 -0.22572768 -0.023862738 -0.09448303 -0.02443282 0.1820424 -0.027038677
-0.06206107 7.8351484e-05 -0.009908563 0.008569062 -0.017565737 0.04606021 0.00448871 0.056309324
-0.025444964 -0.23590596 -0.016183075 7.496097e-06 -0.04219034 -0.016016854 0.057610366 -0.045895666
0.017967438 0.0821334 3.447555e-05 8.564122e-05 -0.4979717 -0.088817604 7.6977885e-05 0.018490082
-0.073596165 0.009170373 -0.085143015 -0.0024054097 0.016470939 -0.0043390305 -0.1023725 0.000104206214
0.0008511895 0.038240734 -0.05565177 -0.014876805 0.029475795 -0.034857392 0.0052095656 0.060770907
-0.00060789037 0.0406322 -0.016596848 -0.016365623 5.116414e-05 -0.08124838 0.08158308 0.03338966
-0.007168959 -0.08030361 0.006988306 0.29217914 -0.056264777 -0.0037068813 0.066930175 0.08950747
3.584375e-05 -0.2729148 0.006710661 1.4730337e-05 -0.1039991 0.004572175 0.2548613 -0.058787536
-0.0012505064 0.018672809 0.4106934 -0.07934338 -0.04340568 -0.0040254365 7.284402e-05 -0.010001685
-0.006030353 0.02014525 -0.08790067 0.14071767 0.16127789 0.005076596 -0.08478826 0.25543928
-0.36840603 5.650831e-05 -0.076529674 0.0024250033 0.031915378 0.01936748 0.023074925 -0.019975178
-0.020212976 6.9131216e-05 -0.14961292 8.5632324e-05 0.0048626666 -0.19313201 0.12161595 -0.086767785
-0.0422562 0.019666515 0.011927317 0.0005545115 -0.06387736 -0.01493613 0.000158692 0.25555417
0.13617328 -0.07682416 -0.12020496 3.8279744e-05 0.10610753 -0.06323501 -0.10989082 5.1114304e-05
0.0054424047 -0.06610053 -0.01925051 -0.012171951 5.8301033e-05 -0.10025464 -0.064876586 2.0938818e-05
-0.041052513 -0.053307362 0.17758684 0.009594455 -0.23209798 6.0757513e-05 0.69482553 0.019335447
-0.13623066 -0.009871345 -0.023328604 3.9015682e-05 -0.033816174 -0.013040222 9.0357156e-05 -0.009379357
-0.00046364282 0.10832621 -0.106125616 0.03363272 0.13120432 -0.0776513 4.7226902e-05 7.615517e-05
00000000: 7b9e 08bd 4478 973e 7072 2b3d 2f71 8fbb
00000010: 1aa4 893c c90d 7139 0e90 6a3a a94c 013f
00000020: afef e63c 1224 8d3c ce62 ecbd a02f 4abd
00000030: 6601 63bd 0531 82bd ebfc 933b 0855 b438
00000040: de32 4838 4613 0bbb c7ed 36bd 7eaf bfbd
00000050: e45d 24be b194 173c 80d9 5fbc 6672 89bc
00000060: ac0b d03e 0bc5 ce3a 8eb8 3c3d b256 a13b
00000070: 9eaa c238 9ed7 883e 7ef5 5fbc ccc6 bf3c
00000080: 6122 41bd fc09 3238 eb02 2cbb 2b1e f33c
00000090: 12d8 9cbd 9539 38bd 3483 88bc d9b2 8fbc
000000a0: 259c 10bc 0573 77be 9523 a1bc eaf6 c2bc
000000b0: 7a92 3dbd b36c 1f3c b5ce 3abd 3212 09be
000000c0: 818e d33d 4d01 243e 650e 403c 760b 96bd
000000d0: 1bc3 5b38 3dc9 a53e 67de 4fbd f011 22bc
000000e0: 18d1 c0bc 906d debb f272 e437 5d0c 403e
000000f0: f9f0 df38 d56b d63c 12e0 f737 f18f bcbd
00000100: aa3c 3338 67f6 5138 a6e5 d53c 4569 9dbb
00000110: 2b3c adbc 0b68 e4bb 4f16 9239 5f1d 283a
00000120: 25f3 fc3e 686f 10bd 8e38 f03d c18a ef3b
00000130: ea71 b9bd 641b 123d 845d 95bc d910 ce3b
00000140: 642d c33c ce31 b8be 3adb b23d 8394 9ebc
00000150: 5346 4a3c c4b0 b3bc f898 8039 44b2 09bd
00000160: 8364 2cbc 189d e23c 52dc 513e e757 603d
00000170: d1d5 fe37 55de 853b f85c a6bd 3c36 fdbd
00000180: 8a0f 0b3c 2417 abbd 6c2b 083d 2c6e f239
00000190: 35db f53d 1b83 80bd c06b f2bd 3927 f9bb
000001a0: 3b01 bbbd b921 b03d 2825 67be ca7b c3bc
000001b0: 5280 c1bd 5627 c8bc 5369 3a3e 3780 ddbc
000001c0: c033 7ebd a250 a438 8757 22bc 4065 0c3c
000001d0: 05e6 8fbc a1a9 3c3d 0716 933b 9ba4 663d
000001e0: f571 d0bc 5591 71be 5e92 84bc fc86 fb36
000001f0: c7cf 2cbd c735 83bc d9f8 6b3d 18fd 3bbd
00000200: 7330 933c 8e35 a83d d799 1038 489a b338
00000210: 26f6 febe 01e6 b5bd 306f a138 8378 973c
00000220: 96b9 96bd 553f 163c 765f aebd 14a4 1dbb
00000230: 10ee 863c 6d2e 8ebb aca8 d1bd 4989 da38
00000240: 5c22 5f3a 51a2 1c3d 1cf3 63bd d8bd 73bc
00000250: 3977 f13c a0c6 0ebd 01b5 aa3b eaea 783d
00000260: d55a 1fba f36d 263d 1df6 87bc 3311 86bc
00000270: 1499 5638 8d65 a6bd 0815 a73d 99c3 083d
00000280: 96e9 eabb 3876 a4bd 29fe e43b 8198 953e
00000290: e575 66bd 26ef 72bb b012 893d b14f b73d
000002a0: ef56 1638 7dbb 8bbe 1be5 db3b 5122 7737
000002b0: 7bfd d4bd 2fd2 953b 2e7d 823e 33cb 70bd
000002c0: 08e8 a3ba b8f7 983c 6846 d23e c87e a2bd
000002d0: 28ca 31bd cfe7 83bb d6c3 9838 1bde 23bc
000002e0: 449a c5bb a707 a53c 4405 b4bd 4b18 103e
000002f0: 0826 253e 9359 a63b 78a5 adbd f0c8 823e
00000300: b79f bcbe 5603 6d38 97bb 9cbd ceec 1e3b
00000310: b3b9 023d 8da8 9e3c a007 bd3c fca2 a3bc
00000320: af95 a5bc 8afa 9038 2134 19be 8195 b338
00000330: 0157 9f3b 66c4 45be c811 f93d 4fb3 b1bd
00000340: d614 2dbd ac1b a13c cb6a 433c a35c 113a
00000350: 22d2 82bd abb6 74bc 8f66 2639 ffd7 823e
00000360: 0271 0b3e fc55 9dbd 052e f6bd 908e 2038
00000370: e84e d93d 5b81 81bd 700e e1bd 9163 5638
00000380: 3356 b23b b75f 87bd 3fb3 9dbc dd6c 47bc
00000390: 4288 7438 4e52 cdbd 04de 84bd c5a5 af37
000003a0: ae26 28bd d258 5abd 53d9 353e 1032 1d3c
000003b0: 18ab 6dbe e2d5 7e38 16e0 313f 5f65 9e3c
000003c0: 0d80 0bbe 6cbb 21bc a11b bfbc c5a4 2338
000003d0: d482 0abd a8a6 55bc 217e bd38 e0ab 19bc
000003e0: 1615 f3b9 22da dd3d 6358 d9bd 77c2 093d
000003f0: 6d5a 063e a507 9fbd 8015 4638 7fb5 9f38
