Results_dir/2022-03-20-22-02-07/actor.pth (torch, 274391 bytes, 6 tensors)

layers.0.weight f4 [256, 6]
00000000: 2fb3 5c3d 1d86 be3b 1071 f13d 58c6 c73a
00000010: ed61 293d 2b77 bebc f0f6 f6bd 7739 a3bb
00000020: 6880 2b3d c297 ddbd 2c0e 523d 90f3 f8bd
00000030: 14d7 18be 72b5 c7bd 455e e13b 83a7 ebbd
00000040: 76d5 0a3e 36ea 01be 6a83 9ebd f491 1a3d
00000050: 1452 d73d 8638 8ebd b1a9 fa3d 5587 a23c
00000060: 0bdd 69bd c656 95bd 581c cbbc 279d 7cbd
00000070: e098 153e 9777 0fbe cdba 6fbd d01e d43d
00000080: 532e fcbd e211 80bd 7a24 e43c 8c97 d4bc
00000090: ed4b 9dbd eac4 8a3c 8d3f 633d 7b1b fdbd
000000a0: 032e 023d 640e 493d 5c05 153e 7d9e 85bd
000000b0: 848a 943d 5f3b 2ebd ee20 b83d 4519 42bd
000000c0: 5b16 ca3d f7a9 ccbd 44cb 113e 0bc2 043c
000000d0: cf18 5b3d 5c14 323d d88a aabd 7041 013d
000000e0: 5e06 ebbd 5947 fd3d a7cb 8bbd fc13 06be
000000f0: 668a d93c eb79 f2bc e46e ef3d df67 123d
00000100: 972d a83d bead 2f3d d120 ddbd ec3d 113e
00000110: a68c 003e 4ef9 0c3e f405 053e a15f e2bd
00000120: 9879 f53d 4967 c0bc bd56 3cbc a986 b53d
00000130: fbec 0fbe 7b1a fb3d 9123 473b e6cd 06be
00000140: f844 3f3b 1e00 93bc 853c 04bd fe55 de3a
00000150: fb09 2b3c ac7c e53d 031b 123d 7d0c e53c
00000160: dad6 c2bd 3d6a 0b3e c3c6 16be 94c9 0a3e
00000170: 02ae 843b 073a f3bd b0d8 fd3d 02d2 18bd
00000180: bc2f 303c 2282 eabd 4c01 3c3b b3d8 a33d
00000190: 3c39 d7bb cbba f1bd 6e33 91bc 1408 11bd
000001a0: 584f 0ebe 416d 18be 4c03 c03d f8d3 1a3e
000001b0: 4bd4 1abe fcf0 7e3d 764b 14be d10a 08be
000001c0: 3ef5 d0bc 49b5 97bd 0a27 eabb ad53 fcbd
000001d0: c462 99bd fb52 003d c2ae 133e 7df3 0c3d
000001e0: dba9 e6bc 2167 8e3d 7043 803d ef2b 28bd
000001f0: 2daa 4cbd 682e 193e 7792 b43d 78c1 ab3d
00000200: 2630 a23d ce62 e7bc 10b1 043e 97ee ba3d
00000210: f17e 8e3d e829 253d 73ac 8fbd 9648 cabb
00000220: 975b 9c3b a4c2 3db9 1f2e 40bd 38a4 7abd
00000230: 0ad7 a93a 8b33 1abe fa9b c7bc 05be 0cbe
00000240: 94dc 893d e6d5 ba3d 680b f9bd 9456 183e
00000250: c55b edbd 5069 14be 4d63 c8bd 5f9e 8bbd
00000260: e47e ddbb d492 81bd d18e 11be 6229 7abd
00000270: 78d0 f73d 2001 153e f7ab 94bd 6b0c 923d
00000280: f069 b73d 55e9 8fbd 1c0b ddbd cc14 f13d
00000290: a1b4 b0bc 0b66 dd3d 9d8d 58bd e4f3 0f3e
000002a0: 0b49 d8bd 0990 7e3d 9a87 6eba 69b5 d4bd
000002b0: f1b2 a13d 7621 38bc a31d 053d d143 8ebd
000002c0: 99c8 c73d c53b bc3d cee1 b0bc 825b 833d
000002d0: 91cc 1d3d 28c2 043e b2a8 03be 7940 fd3d
000002e0: 7d6e 6cbc 306f 03b9 c562 dbbd a92b 02be
000002f0: 19ff 14be 251a 753c be9a 0c3e dbd0 b63c
00000300: f6e0 c9bc f458 e6bd 570d d7bd 9459 133e
00000310: 81f4 343d 51a1 00bd b05e 9bbd 97cc bd3c
00000320: 8c69 f5ba 8aef cdbb 4ee4 a4bd 5e1a 173e
00000330: 4b65 6ebd adbe 333d df65 823d 612e 7cbd
00000340: 4c67 d93d a8c1 02bd e244 003e bc31 d73d
00000350: 3e9e 06bc 7d95 b73d cf9d 1f3d 3b70 193e
00000360: 396f d33d 78d9 bb3c 383e 823d 97e1 cebd
00000370: 8ba9 e9bd 78d4 ca3d e7c9 293d ea7a d33d
00000380: 06ba a5bd 6beb 7f3c fb0d 67bc 6c43 00bd
00000390: 2658 0cbe c5d5 c3bc b21c 013e 4de8 203d
000003a0: 739d d23d 3f62 9cbd 85e7 66bc 12ae e13c
000003b0: 3272 0abe a1e0 c73d 0316 a8bd 379b 113e
000003c0: dd31 d03d 2505 90bc 70af b5bc 5195 9e3d
000003d0: 22d8 e8bc a5a1 e63d 53ea 38bc 2294 b23d
000003e0: d03d ee3d 6dfb 90bd cbb9 00bd ab1c fcbd
000003f0: 45e2 14bd 54d0 dcbc 7e23 85bd b7dc e13c
0.05388182 0.0058143274 0.11789143 0.0015241606 0.041353155 -0.023250183 -0.12058818 -0.0049812156
0.041870505 -0.10819961 0.051283047 -0.12155831 -0.14925796 -0.09751405 0.006877693 -0.1150656
0.13557991 -0.12687 -0.07739909 0.037736848 0.10513702 -0.06944375 0.12239397 0.019839922
-0.05709557 -0.07291941 -0.024793789 -0.06167331 0.14609098 -0.14010464 -0.058527756 0.103574395
-0.12313523 -0.06253411 0.027849425 -0.02595117 -0.07680497 0.016939599 0.05548053 -0.12358757
0.03178216 0.04908599 0.14552826 -0.0652437 0.07252982 -0.04253709 0.08990656 -0.04738738
0.09867545 -0.09993356 0.14237696 0.008102904 0.053490456 0.043476447 -0.083272636 0.031556547
-0.11475824 0.12367124 -0.06825953 -0.13093561 0.026555251 -0.02959915 0.116910726 0.03574359
0.082118206 0.042890303 -0.10797275 0.14183778 0.12553653 0.13766977 0.12990552 -0.11053396
0.11986083 -0.02348675 -0.011495289 0.08863575 -0.14055245 0.1226091 0.003038619 -0.13164482
0.0029185396 -0.017944392 -0.03228428 0.0016962884 0.010439391 0.1120542 0.03567029 0.027960056
-0.09513636 0.13614745 -0.14724259 0.13553458 0.0040490637 -0.11876302 0.123948455 -0.037309654
0.010753568 -0.11450602 0.0028687296 0.080003165 -0.006568102 -0.11803206 -0.017724719 -0.035408095
-0.13897455 -0.14885427 0.09375629 0.15119922 -0.15120046 0.06224154 -0.14481911 -0.13285376
-0.025507566 -0.07407624 -0.007145767 -0.123206474 -0.07489541 0.031329136 0.14422134 0.034411896
-0.028157165 0.06953264 0.06262863 -0.041057523 -0.04996698 0.14959109 0.088169985 0.083865106
0.0791934 -0.028245356 0.12958169 0.09127539 0.06957806 0.040323168 -0.07015314 -0.0061732037
0.0047716605 -0.00018096954 -0.046918985 -0.061191767 0.0012957763 -0.15058725 -0.024366368 -0.13744362
0.06731525 0.09122829 -0.12160379 0.14876777 -0.11589769 -0.14493299 -0.09784565 -0.06817316
-0.0067595113 -0.06326833 -0.14214636 -0.061074622 0.12100309 0.1455121 -0.07259362 0.07131275
0.08955753 -0.070269264 -0.107931346 0.11771545 -0.021570506 0.10810479 -0.052869428 0.1405788
-0.10560807 0.06214908 -0.00090991857 -0.10386164 0.078954585 -0.011238446 0.032498967 -0.06946529
0.09755058 0.09191088 -0.021592047 0.06413938 0.038525168 0.1296469 -0.12857321 0.12365813
-0.014430639 -0.00012534554 -0.10712198 -0.12711968 -0.14550437 0.014959847 0.13730904 0.022316387
-0.024643403 -0.11247435 -0.10500591 0.1438964 0.04417849 -0.031403843 -0.075864196 0.023168845
-0.0018723472 -0.006284659 -0.08051358 0.14756152 -0.05820207 0.043883014 0.063670866 -0.061567668
0.106154054 -0.031922966 0.12526277 0.10507533 -0.008216439 0.089640595 0.038968857 0.14984219
0.103239484 0.022930846 0.063595235 -0.101016216 -0.11409291 0.099038064 0.041452315 0.10326178
-0.08092122 0.015620093 -0.014102454 -0.0313143 -0.13705501 -0.023905644 0.12608603 0.03928404
0.10283937 -0.076359265 -0.0140932845 0.027548824 -0.13520125 0.097596414 -0.082073234 0.14219366
0.10165761 -0.017580578 -0.022178382 0.077433236 -0.028423373 0.112613 -0.011286336 0.0871966
0.116328835 -0.07079206 -0.031427186 -0.123101555 -0.0363486 -0.026954807 -0.0650091 0.027571065

layers.0.bias f4 [256]
00000000: 4f49 1dba 4649 1d3a 5049 1d3a 4f49 1dba
00000010: 4e49 1dba 5049 1dba 4e49 1d3a 4f49 1d3a
00000020: 4d49 1dba 4f49 1d3a 5049 1dba 4e49 1dba
00000030: 4c49 1dba 4d49 1d3a 5049 1dba 4f49 1d3a
00000040: 4e49 1dba 4949 1d3a 4f49 1dba 5049 1dba
00000050: 4449 1d3a 4f49 1d3a 5049 1d3a 4e49 1d3a
00000060: 4a49 1dba 4d49 1dba 4249 1dba 4d49 1dba
00000070: 5049 1d3a 5049 1dba 4749 1d3a 4f49 1d3a
00000080: 5049 1d3a 4e49 1dba 5149 1d3a 5149 1d3a
00000090: 5149 1d3a 5049 1dba 5049 1d3a 5149 1dba
000000a0: 5049 1d3a 4449 1dba 4f48 1d3a 4d49 1dba
000000b0: 5049 1d3a 5049 1dba 3449 1dba 5049 1d3a
000000c0: 4e49 1dba 5049 1dba 3f49 1dba 4849 1dba
000000d0: 5049 1d3a 4749 1d3a 4b49 1d3a 4e49 1dba
000000e0: 4d49 1d3a 4d49 1dba 4f49 1d3a 3f49 1d3a
000000f0: 4d49 1dba 4e49 1dba 4f49 1dba 4e49 1d3a
00000100: 4f49 1d3a 4f49 1d3a e348 1dba 4d49 1d3a
00000110: 4e49 1dba 2949 1d3a 4f49 1dba 4949 1dba
00000120: 4e49 1dba 5049 1d3a 4c49 1dba 4d49 1dba
00000130: 5149 1dba 4f49 1dba 4a49 1d3a 4f49 1dba
00000140: 5149 1d3a 5049 1dba 4a49 1d3a 5149 1dba
00000150: 4f49 1dba 4a49 1dba 4e49 1d3a 4d49 1dba
00000160: 4f49 1dba 4f49 1dba 4e49 1d3a 5049 1dba
00000170: 4349 1dba 4d49 1dba 4f49 1dba 4d49 1d3a
00000180: 4e49 1d3a 4949 1d3a 4f49 1d3a 4a49 1dba
00000190: 5049 1dba 4f49 1d3a 4f49 1d3a 5049 1dba
000001a0: 4f49 1d3a 4d49 1d3a 4d49 1d3a 4e49 1d3a
000001b0: 4f49 1d3a 4849 1d3a 4549 1dba 5149 1d3a
000001c0: 4649 1dba 5049 1d3a 4e49 1dba 5049 1d3a
000001d0: 4749 1d3a 4e49 1dba 5049 1d3a 5049 1d3a
000001e0: 4e49 1dba 4c49 1d3a 4949 1dba 4e49 1d3a
000001f0: 4049 1dba 4749 1d3a 3249 1d3a 4d49 1d3a
00000200: 4049 1dba 4e49 1dba 4a49 1d3a 4e49 1d3a
00000210: 4d49 1dba 4f49 1d3a 4e49 1d3a 4e49 1dba
00000220: 4549 1d3a 4f49 1dba 4b49 1dba 5149 1d3a
00000230: 4c49 1d3a 4d49 1dba 4d49 1d3a 5049 1dba
00000240: 3f49 1d3a 4349 1d3a 4d49 1d3a 4f49 1dba
00000250: 4e49 1d3a 4c49 1dba 4d49 1dba 4f49 1dba
00000260: 4e49 1dba 4d49 1d3a 4e49 1dba 4e49 1d3a
00000270: 4e49 1dba 4f49 1d3a 4e49 1dba 4549 1d3a
00000280: 5049 1dba 5149 1dba c048 1d3a 4a49 1d3a
00000290: 4d49 1d3a 4449 1dba 4e49 1dba 5049 1d3a
000002a0: 4f49 1dba 4e49 1d3a 4a49 1dba 4f49 1d3a
000002b0: 5049 1dba 4c49 1d3a 4f49 1dba 4f49 1d3a
000002c0: 4649 1dba 5149 1d3a 5149 1d3a 5049 1dba
000002d0: 4e49 1dba 4e49 1dba be48 1d3a 4d49 1d3a
000002e0: 4d49 1dba 4b49 1d3a 5049 1dba 4e49 1dba
000002f0: 4a49 1dba 4d49 1d3a 4c49 1d3a 5149 1dba
00000300: 5049 1d3a 3049 1dba 5149 1d3a 4e49 1d3a
00000310: 4d49 1dba 5049 1dba 1d49 1d3a 3049 1d3a
00000320: 4e49 1dba 5049 1dba 3849 1dba 4d49 1d3a
00000330: 5049 1dba 4d49 1d3a 5049 1d3a 4c49 1dba
00000340: 4e49 1d3a 4d49 1d3a 5049 1d3a 5049 1d3a
00000350: 4e49 1dba 5049 1dba 4449 1d3a 4d49 1d3a
00000360: 4f49 1d3a 4949 1d3a 4249 1d3a 4c49 1d3a
00000370: 5049 1d3a 4e49 1dba 4e49 1dba 4a49 1dba
00000380: 4c49 1dba 4e49 1d3a 4f49 1d3a 4d49 1d3a
00000390: 4c49 1d3a 5149 1d3a 4e49 1d3a 4549 1dba
000003a0: ef48 1d3a 5049 1dba 5049 1dba 4749 1d3a
000003b0: 5049 1dba 4a49 1dba 5049 1dba 5149 1d3a
000003c0: 4e49 1dba 4f49 1d3a 5149 1dba 3d49 1d3a
000003d0: 4749 1d3a 4a49 1dba 2a49 1d3a 4f49 1d3a
000003e0: 4e49 1d3a 4c49 1dba 3249 1dba 4a49 1d3a
000003f0: 5149 1d3a 2649 1d3a 4d49 1dba 4f49 1d3a
-0.00059999985 0.00059999933 0.0005999999 -0.00059999985 -0.0005999998 -0.0005999999 0.0005999998 0.00059999985
-0.00059999974 0.00059999985 -0.0005999999 -0.0005999998 -0.0005999997 0.00059999974 -0.0005999999 0.00059999985
-0.0005999998 0.0005999995 -0.00059999985 -0.0005999999 0.0005999992 0.00059999985 0.0005999999 0.0005999998
-0.00059999956 -0.00059999974 -0.0005999991 -0.00059999974 0.0005999999 -0.0005999999 0.0005999994 0.00059999985
0.0005999999 -0.0005999998 0.00059999997 0.00059999997 0.00059999997 -0.0005999999 0.0005999999 -0.00059999997
0.0005999999 -0.0005999992 0.00059998495 -0.00059999974 0.0005999999 -0.0005999999 -0.0005999983 0.0005999999
-0.0005999998 -0.0005999999 -0.0005999989 -0.00059999945 0.0005999999 0.0005999994 0.0005999996 -0.0005999998
0.00059999974 -0.00059999974 0.00059999985 0.0005999989 -0.00059999974 -0.0005999998 -0.00059999985 0.0005999998
0.00059999985 0.00059999985 -0.00059999357 0.00059999974 -0.0005999998 0.00059999764 -0.00059999985 -0.0005999995
-0.0005999998 0.0005999999 -0.0005999997 -0.00059999974 -0.00059999997 -0.00059999985 0.00059999956 -0.00059999985
0.00059999997 -0.0005999999 0.00059999956 -0.00059999997 -0.00059999985 -0.00059999956 0.0005999998 -0.00059999974
-0.00059999985 -0.00059999985 0.0005999998 -0.0005999999 -0.00059999916 -0.00059999974 -0.00059999985 0.00059999974
0.0005999998 0.0005999995 0.00059999985 -0.00059999956 -0.0005999999 0.00059999985 0.00059999985 -0.0005999999
0.00059999985 0.00059999974 0.00059999974 0.0005999998 0.00059999985 0.00059999945 -0.0005999993 0.00059999997
-0.00059999933 0.0005999999 -0.0005999998 0.0005999999 0.0005999994 -0.0005999998 0.0005999999 0.0005999999
-0.0005999998 0.0005999997 -0.0005999995 0.0005999998 -0.000599999 0.0005999994 0.00059999817 0.00059999974
-0.000599999 -0.0005999998 0.00059999956 0.0005999998 -0.00059999974 0.00059999985 0.0005999998 -0.0005999998
0.0005999993 -0.00059999985 -0.0005999996 0.00059999997 0.0005999997 -0.00059999974 0.00059999974 -0.0005999999
0.0005999989 0.00059999916 0.00059999974 -0.00059999985 0.0005999998 -0.0005999997 -0.00059999974 -0.00059999985
-0.0005999998 0.00059999974 -0.0005999998 0.0005999998 -0.0005999998 0.00059999985 -0.0005999998 0.0005999993
-0.0005999999 -0.00059999997 0.00059999153 0.00059999956 0.00059999974 -0.0005999992 -0.0005999998 0.0005999999
-0.00059999985 0.0005999998 -0.00059999956 0.00059999985 -0.0005999999 0.0005999997 -0.00059999985 0.00059999985
-0.00059999933 0.00059999997 0.00059999997 -0.0005999999 -0.0005999998 -0.0005999998 0.0005999914 0.00059999974
-0.00059999974 0.0005999996 -0.0005999999 -0.0005999998 -0.00059999956 0.00059999974 0.0005999997 -0.00059999997
0.0005999999 -0.00059999805 0.00059999997 0.0005999998 -0.00059999974 -0.0005999999 0.00059999694 0.00059999805
-0.0005999998 -0.0005999999 -0.0005999985 0.00059999974 -0.0005999999 0.00059999974 0.0005999999 -0.0005999997
0.0005999998 0.00059999974 0.0005999999 0.0005999999 -0.0005999998 -0.0005999999 0.0005999992 0.00059999974
0.00059999985 0.0005999995 0.0005999991 0.0005999997 0.0005999999 -0.0005999998 -0.0005999998 -0.00059999956
-0.0005999997 0.0005999998 0.00059999985 0.00059999974 0.0005999997 0.00059999997 0.0005999998 -0.0005999993
0.00059999427 -0.0005999999 -0.0005999999 0.0005999994 -0.0005999999 -0.00059999956 -0.0005999999 0.00059999997
-0.0005999998 0.00059999985 -0.00059999997 0.0005999988 0.0005999994 -0.00059999956 0.0005999977 0.00059999985
0.0005999998 -0.0005999997 -0.00059999817 0.00059999956 0.00059999997 0.00059999747 -0.00059999974 0.00059999985

layers.2.weight f4 [256, 256]
00000000: 76a2 c8bc 4a6a 10bd c6ff b4bd a251 64bd
00000010: 7980 723d f96a 96bd 792d a03d c790 e6bc
00000020: 664f 2fbd 1491 15bd 2d74 863c a17d aabd
00000030: fb41 9f3d 0620 8abd 2f51 53bd 8548 c7bd
00000040: 8d61 a63c 8832 05bb c53c a8bb 0762 5dbd
00000050: 5618 453d dc4b 3a3d 0077 71bd d95f 623d
00000060: eb05 563d 9f28 10bd 64d3 af3b a394 c2bc
00000070: 7325 a73c 3d33 c1bd 2798 18bd 9c67 37bd
00000080: 1520 b63d f3aa 93bd da4e 1dbc 9304 19bd
00000090: 499f f2bc 89d9 b13d e099 72bd 18f4 523c
000000a0: 86c7 1f3d f406 cf3c cf06 753d 0907 823d
000000b0: 2cd7 87bd 27c1 dbbd 1ec0 e4bc 252c c93d
000000c0: 152b e63c 8b14 cf3d 2a03 183d 41ab d83d
000000d0: 51bd c03d 3edd 83bd 3440 ef3c 3b4d d93c
000000e0: 0403 86bd d6f0 88bd 1b01 cb3c 4dca 75bd
000000f0: cb32 2b3c b9c7 d83d b075 c6bd 9d62 aebd
00000100: 1d58 863d 86b2 c1bd 1e12 7e3d 9b0f c33d
00000110: 954a cf3d ca4f ba3c 8d6e 563d 1215 0f3d
00000120: cba4 933d fcf6 cfbd 3dd8 d53d 156b c2bc
00000130: 2bd4 a6bc c8bb 77bd da2d 573d b764 803d
00000140: ad2b a23d e1cd ba3d 4b8b 8b3b 7ac8 843c
00000150: 79d4 8c3d fd7f 203d 51cb d73d 41bf bdbb
00000160: d919 b1bc 8756 2c3d 24ab 98bd 84ee 24bd
00000170: f57c 52bd cbc4 9c3d 8d60 a23d e9cc 58bd
00000180: e339 77bd 1a6b dcbd 66cf 66bd 1153 283d
00000190: 8b40 b43d 220f c43d 789e acbd ff0d fabc
000001a0: a33f 14bd 9582 c83d 6046 3abd 892d 5e3c
000001b0: 359c 24bd ff19 833d 3e15 6f3d 03ac bc3d
000001c0: efd5 6d3d 8391 d3bd 056f 4a3d 0dc1 923d
000001d0: b65e 0cbd 03f0 c63d e57e 9c3d fc9a 81bd
000001e0: f689 2d3d 58f8 f7bc 5b4e 873d a111 3b3c
000001f0: 8b28 b03d 6671 2b3d 239e 963d 3f72 993d
00000200: e617 543d 36f2 a9bd 2593 babc bd1f f73c
00000210: 5b86 973d 00e1 2ebd 7dc6 7bbd a8c2 c2bd
00000220: ea61 bdbd 3bfb bcbd afb4 ab3d a285 ba3b
00000230: 3ada 8abd 76ef 7fbd 31ff abbc 132c 1abd
00000240: 88c4 663c 98bc ecbc bde0 8a3d 567c 1e3d
00000250: 531a 873d db69 d43d 0ac8 fabb 37ec b03d
00000260: c4b7 83bd d580 dd3d 18df 58bc c550 073d
00000270: f310 4a3c 72e0 e9bc ab0c aebd d13d b33d
00000280: ff29 c73d 00ed bcbc 4b23 7c3d 7e12 be3b
00000290: d611 ab3b 962a c53c f679 19bc 6130 d1bd
000002a0: 9790 a03d b82b afbc 547a 23bd 6810 d3bd
000002b0: c7b8 b8bc a519 8c3d 215a 7e3d 78a0 97bd
000002c0: c719 dcbc 67f2 86bd bb94 74bd 2e84 a33c
000002d0: db5e 92bd d954 5b3d c0c0 d0bd 4b00 05bd
000002e0: 6e99 acbd 9f67 cf3d 0ad8 3d3d 8961 2cbd
000002f0: 4c03 6dbd 12b2 013d 0632 adbd d92f bf3d
00000300: cf9f dfba 34cd da3c 1c37 d13d 7c40 87bd
00000310: 89f7 a2bc 5527 82bd 1741 b53d c1ce 983d
00000320: 08dd 0abd 950e c4bd 9b9f 54bd d359 cabd
00000330: 15d5 89bd 6f22 68bd 5dec 95bd 4460 a53c
00000340: fd75 27bc a4ee 583d 2c33 d4bd 67e2 803d
00000350: cb71 85bd 9de4 8e3d 1333 c6bd 6bbb b13d
00000360: bc66 973c bfd4 953d 7af9 aebd d72a 1bbd
00000370: bf8d 9a3d 7d50 233d 543a a7bd dae2 d3bd
00000380: 2bab 613b cc44 c43a 2d28 b2bd 7305 f03c
00000390: eaa0 23bc 72e9 383d fb1f 8ebd 0036 d6bd
000003a0: a03e cf3d b4c4 41bd 0edb 74bd 9e8b 8abd
000003b0: c0ca d73d 7c1f 4d3d 36c9 193d db6d 9fbd
000003c0: 64de debd 0e0d c4bd 9176 9d3d 77c1 6abd
000003d0: 24a0 acbd eab6 243d 060b 76bd 8a7a 82bd
000003e0: 87be 913d 569c 93bd 8a76 143d 3eee 3e3c
000003f0: 81b9 ca3d 0fd2 223d e39e ce3c 83d4 863c
-0.02449153 -0.035257615 -0.088378474 -0.055741914 0.059204552 -0.07344622 0.07821173 -0.028145207
-0.04280033 -0.03651531 0.016412819 -0.08324743 0.07776257 -0.06744389 -0.051591095 -0.09730629
0.020310188 -0.0020324308 -0.0051341974 -0.054048564 0.04811891 0.0454825 -0.058951378 0.05526719
0.052251738 -0.03519499 0.005365776 -0.023752516 0.0204036 -0.09433601 -0.03725448 -0.044776544
0.08892838 -0.0721034 -0.009601319 -0.037357878 -0.029616969 0.0868407 -0.059228778 0.012875579
0.03900864 0.02527187 0.059820946 0.06348998 -0.06632838 -0.107302 -0.02792364 0.09822873
0.028096715 0.1011134 0.037112392 0.10579539 0.09411109 -0.06438683 0.02920542 0.026526084
-0.06543544 -0.06686561 0.0247808 -0.060007382 0.010449122 0.10584969 -0.09690416 -0.08514903
0.06559775 -0.09457879 0.062028997 0.09524461 0.10121647 0.022743125 0.052351523 0.034932204
0.07209166 -0.101545304 0.10441635 -0.023732701 -0.020364841 -0.060481817 0.05253396 0.0626921
0.07918487 0.091212995 0.0042585484 0.016208876 0.068764634 0.03918456 0.105368264 -0.0057906215
-0.02161877 0.042074706 -0.074545175 -0.04026653 -0.0513887 0.07654723 0.07928572 -0.052929793
-0.06035794 -0.107626155 -0.056350134 0.041094843 0.08801373 0.09573199 -0.08428663 -0.030524252
-0.0361935 0.097905315 -0.04547727 0.013560661 -0.040188033 0.06401443 0.058369868 0.09212496
0.05806535 -0.103304885 0.049422283 0.07165728 -0.03427001 0.09713747 0.07641391 -0.06328389
0.042367898 -0.030269787 0.06606742 0.011417777 0.08601483 0.041856192 0.07354381 0.07492494
0.051780604 -0.08298151 -0.022775242 0.030166501 0.07398673 -0.042695045 -0.06146859 -0.09509784
-0.09247191 -0.09227606 0.08384072 0.0056922 -0.06779905 -0.062484227 -0.020995708 -0.03763969
0.014084943 -0.028898522 0.06781147 0.038692795 0.06596818 0.10371753 -0.007653241 0.086388044
-0.06431535 0.108155884 -0.013236783 0.033036012 0.012333143 -0.028549407 -0.0849851 0.08752025
0.09724807 -0.02306223 0.061557095 0.0058005443 0.005220632 0.024068158 -0.009367457 -0.10214306
0.07840078 -0.021383151 -0.039911583 -0.103058636 -0.022549046 0.06840829 0.062097672 -0.07403654
-0.02686776 -0.06589203 -0.059712153 0.01996049 -0.071469985 0.053547714 -0.10193014 -0.032470983
-0.08427702 0.10127186 0.04634861 -0.042085204 -0.057864472 0.03166396 -0.08456807 0.09335298
-0.0017061176 0.026709177 0.102155894 -0.06604096 -0.019893425 -0.06355158 0.088503055 0.0746131
-0.033902198 -0.09573094 -0.051910024 -0.09880414 -0.06730095 -0.056673463 -0.07320473 0.020187505
-0.010221002 0.05296196 -0.10361323 0.06293183 -0.06515845 0.06977198 -0.096777104 0.08678325
0.018481605 0.07315969 -0.08543678 -0.037882652 0.07546567 0.03987168 -0.08165422 -0.10346003
0.00344343 0.0014974116 -0.08699069 0.029299473 -0.009987095 0.045144506 -0.069396935 -0.104595184
0.10119367 -0.04730673 -0.05977922 -0.06764911 0.10536718 0.050078854 0.037545405 -0.07784625
-0.108822614 -0.095728025 0.0768863 -0.05731341 -0.08428982 0.040213503 -0.060069107 -0.06371029
0.07116418 -0.07207553 0.03624586 0.011653481 0.09898663 0.03975111 0.025222247 0.016458755

layers.2.bias f4 [256]
00000000: 3a49 1d3a 4b49 1dba 4849 1dba 4849 1dba
00000010: 5049 1dba 5049 1dba 4e49 1d3a 4e49 1dba
00000020: 4e49 1d3a 4f49 1dba 4f49 1d3a 4e49 1dba
00000030: 4f49 1d3a 5049 1dba 5149 1d3a 5049 1d3a
00000040: 5049 1d3a 4f49 1d3a 5249 1dba 5049 1dba
00000050: 4b49 1d3a 4d49 1d3a 4f49 1dba 5049 1dba
00000060: 4f49 1dba 4f49 1d3a 4f49 1dba 4f49 1dba
00000070: 4e49 1d3a 5049 1dba 5049 1dba 5049 1d3a
00000080: 4e49 1dba 4f49 1d3a 4e49 1d3a 4e49 1dba
00000090: 4149 1dba 4e49 1dba 5049 1dba 4e49 1dba
000000a0: 4e49 1dba 4e49 1dba 5049 1dba 5149 1dba
000000b0: 4249 1d3a 5049 1dba 4f49 1d3a 4e49 1d3a
000000c0: 5049 1dba 4e49 1d3a 4849 1d3a 5049 1dba
000000d0: 5149 1dba 4e49 1dba 4849 1d3a 4449 1dba
000000e0: 4c49 1dba 4f49 1dba 5049 1d3a 4f49 1dba
000000f0: 5049 1dba 4e49 1d3a 1549 1dba 4b49 1dba
00000100: 6948 1d3a 4f49 1d3a 4f49 1dba 5049 1d3a
00000110: 4449 1d3a 4f49 1dba 5049 1d3a 5049 1d3a
00000120: 1949 1d3a 4f49 1d3a 4a49 1dba 5149 1d3a
00000130: 5149 1d3a 4f49 1d3a 4f49 1d3a 4e49 1dba
00000140: 4f49 1dba 4549 1dba 4f49 1d3a 4d49 1dba
00000150: 5049 1d3a 4d49 1d3a 5049 1dba 4e49 1dba
00000160: 4f49 1d3a 4f49 1d3a 5049 1dba 5049 1dba
00000170: 4e49 1d3a 4e49 1d3a 5049 1dba 5149 1dba
00000180: 5149 1dba 4d49 1dba 4f49 1d3a 2049 1d3a
00000190: 5149 1dba 4f49 1dba 5149 1dba 5049 1d3a
000001a0: 4d49 1dba 4d49 1dba 5049 1dba 4e49 1d3a
000001b0: 4f49 1d3a 4e49 1d3a 4e49 1d3a 4e49 1dba
000001c0: 5049 1dba 4f49 1d3a 4e49 1dba 4e49 1dba
000001d0: 5149 1d3a 4e49 1dba 5149 1dba 5049 1d3a
000001e0: 4849 1d3a 4f49 1dba 4c49 1d3a 5049 1d3a
000001f0: 5049 1d3a 4e49 1d3a 4f49 1d3a 4f49 1dba
00000200: 5049 1d3a 5049 1d3a d848 1d3a 5149 1dba
00000210: 4b49 1dba 4b49 1d3a 4d49 1dba 4e49 1d3a
00000220: 5049 1dba 4f49 1d3a 4d49 1d3a f848 1d3a
00000230: 4c49 1d3a 4d49 1d3a 4f49 1d3a 5149 1dba
00000240: 4f49 1d3a 5049 1dba 4e49 1dba 4e49 1dba
00000250: 4b49 1d3a 4b49 1dba 4e49 1d3a 5049 1d3a
00000260: 4f49 1d3a 4b49 1dba 5149 1dba 5049 1d3a
00000270: 5149 1dba 4f49 1d3a 5149 1dba 4f49 1d3a
00000280: 4b49 1d3a 4f49 1dba 5049 1dba 4c49 1d3a
00000290: 5049 1dba 5049 1dba 5149 1dba 4c49 1dba
000002a0: 4f49 1d3a 4e49 1dba 5049 1dba 4549 1d3a
000002b0: 4f49 1dba 4749 1dba 3649 1d3a 4f49 1d3a
000002c0: 5049 1dba 4849 1d3a 5149 1dba 5049 1dba
000002d0: 5049 1d3a 4a49 1dba 5049 1d3a 4f49 1d3a
000002e0: 5049 1dba 4d49 1d3a 4f49 1d3a 4849 1dba
000002f0: 4f49 1d3a 5149 1d3a 5149 1d3a 5049 1dba
00000300: 4e49 1dba 4f49 1dba 4e49 1d3a 0e49 1d3a
00000310: 4349 1d3a 4f49 1d3a 4a49 1dba 5049 1dba
00000320: 4e49 1dba 4d49 1dba 5149 1dba 1749 1d3a
00000330: 4f49 1d3a 4f49 1dba 4c49 1dba 4f49 1d3a
00000340: 4d49 1dba 4f49 1dba 5049 1d3a 4949 1d3a
00000350: 4f49 1d3a 4e49 1dba 5049 1d3a 5049 1dba
00000360: 5049 1d3a 5049 1dba 4e49 1d3a 3d49 1d3a
00000370: 4849 1d3a 2d49 1dba 5149 1dba 4f49 1d3a
00000380: 5049 1dba 5049 1dba 4f49 1d3a 5049 1dba
00000390: 4549 1d3a 5049 1dba 5049 1d3a 4f49 1dba
000003a0: 5049 1d3a 4e49 1d3a 4849 1dba 4549 1dba
000003b0: 4d49 1dba 4e49 1d3a 4b49 1dba 5049 1dba
000003c0: 4d49 1d3a 5149 1d3a 5049 1dba 2a49 1d3a
000003d0: 5149 1d3a 5049 1d3a 2949 1d3a 4d49 1dba
000003e0: 4f49 1d3a 5049 1d3a 2849 1d3a 4f49 1dba
000003f0: 4d49 1dba 4f49 1d3a 4d49 1d3a 5049 1dba
0.00059999863 -0.0005999996 -0.00059999945 -0.00059999945 -0.0005999999 -0.0005999999 0.0005999998 -0.0005999998
0.0005999998 -0.00059999985 0.00059999985 -0.0005999998 0.00059999985 -0.0005999999 0.00059999997 0.0005999999
0.0005999999 0.00059999985 -0.0006 -0.0005999999 0.0005999996 0.00059999974 -0.00059999985 -0.0005999999
-0.00059999985 0.00059999985 -0.00059999985 -0.00059999985 0.0005999998 -0.0005999999 -0.0005999999 0.0005999999
-0.0005999998 0.00059999985 0.0005999998 -0.0005999998 -0.00059999904 -0.0005999998 -0.0005999999 -0.0005999998
-0.0005999998 -0.0005999998 -0.0005999999 -0.00059999997 0.0005999991 -0.0005999999 0.00059999985 0.0005999998
-0.0005999999 0.0005999998 0.00059999945 -0.0005999999 -0.00059999997 -0.0005999998 0.00059999945 -0.0005999992
-0.0005999997 -0.00059999985 0.0005999999 -0.00059999985 -0.0005999999 0.0005999998 -0.0005999965 -0.0005999996
0.00059998647 0.00059999985 -0.00059999985 0.0005999999 0.0005999992 -0.00059999985 0.0005999999 0.0005999999
0.0005999967 0.00059999985 -0.00059999956 0.00059999997 0.00059999997 0.00059999985 0.00059999985 -0.0005999998
-0.00059999985 -0.0005999993 0.00059999985 -0.00059999974 0.0005999999 0.00059999974 -0.0005999999 -0.0005999998
0.00059999985 0.00059999985 -0.0005999999 -0.0005999999 0.0005999998 0.0005999998 -0.0005999999 -0.00059999997
-0.00059999997 -0.00059999974 0.00059999985 0.0005999971 -0.00059999997 -0.00059999985 -0.00059999997 0.0005999999
-0.00059999974 -0.00059999974 -0.0005999999 0.0005999998 0.00059999985 0.0005999998 0.0005999998 -0.0005999998
-0.0005999999 0.00059999985 -0.0005999998 -0.0005999998 0.00059999997 -0.0005999998 -0.00059999997 0.0005999999
0.00059999945 -0.00059999985 0.0005999997 0.0005999999 0.0005999999 0.0005999998 0.00059999985 -0.00059999985
0.0005999999 0.0005999999 0.0005999929 -0.00059999997 -0.0005999996 0.0005999996 -0.00059999974 0.0005999998
-0.0005999999 0.00059999985 0.00059999974 0.0005999948 0.0005999997 0.00059999974 0.00059999985 -0.00059999997
0.00059999985 -0.0005999999 -0.0005999998 -0.0005999998 0.0005999996 -0.0005999996 0.0005999998 0.0005999999
0.00059999985 -0.0005999996 -0.00059999997 0.0005999999 -0.00059999997 0.00059999985 -0.00059999997 0.00059999985
0.0005999996 -0.00059999985 -0.0005999999 0.0005999997 -0.0005999999 -0.0005999999 -0.00059999997 -0.0005999997
0.00059999985 -0.0005999998 -0.0005999999 0.0005999993 -0.00059999985 -0.0005999994 0.0005999984 0.00059999985
-0.0005999999 0.00059999945 -0.00059999997 -0.0005999999 0.0005999999 -0.00059999956 0.0005999999 0.00059999985
-0.0005999999 0.00059999974 0.00059999985 -0.00059999945 0.00059999985 0.00059999997 0.00059999997 -0.0005999999
-0.0005999998 -0.00059999985 0.0005999998 0.00059999607 0.00059999916 0.00059999985 -0.00059999956 -0.0005999999
-0.0005999998 -0.00059999974 -0.00059999997 0.0005999966 0.00059999985 -0.00059999985 -0.0005999997 0.00059999985
-0.00059999974 -0.00059999985 0.0005999999 0.0005999995 0.00059999985 -0.0005999998 0.0005999999 -0.0005999999
0.0005999999 -0.0005999999 0.0005999998 0.0005999988 0.00059999945 -0.0005999979 -0.00059999997 0.00059999985
-0.0005999999 -0.0005999999 0.00059999985 -0.0005999999 0.0005999993 -0.0005999999 0.0005999999 -0.00059999985
0.0005999999 0.0005999998 -0.00059999945 -0.0005999993 -0.00059999974 0.0005999998 -0.0005999996 -0.0005999999
0.00059999974 0.00059999997 -0.0005999999 0.0005999977 0.00059999997 0.0005999999 0.00059999764 -0.00059999974
0.00059999985 0.0005999999 0.0005999976 -0.00059999985 -0.00059999974 0.00059999985 0.00059999974 -0.0005999999

layers.4.weight f4 [2, 256]
00000000: 8b2c 513c bae4 bebc 2249 b7bc 6b97 c6bc
00000010: 0a2f 19be 4d8e b0bd 2b18 783d db58 0bbd
00000020: 7503 183d 780e 07be 3537 c53d f9bd 3ebd
00000030: 8580 783d d471 febd cd94 133e 818a 063e
00000040: d775 c73d 291f 163e 472d 00be dc4f 10be
00000050: 4b79 993c 1396 613d 9b49 34bd 73fe b2bd
00000060: 4978 44bd 93ff b53d 69ed 8bbd b114 d5bd
00000070: e149 733d 5d78 d6bd 0a01 abbd d343 0f3e
00000080: af10 c0bd e15d e63d efa9 343d 8f84 afbd
00000090: d614 b0bb a7bb 9bbd e389 03be 63ee 22bd
000000a0: 5dfc b4bd 4b38 4fbd 46bb 16be 8d1c 10be
000000b0: 1b6d 323c 53f0 0dbe 07b8 753d 9567 a33d
000000c0: 937d cdbd 89a5 293d 7b30 7e3c a6a6 0dbe
000000d0: e65b e7bd c9e2 6abd 3e68 843c 3612 eabb
000000e0: 6d5e 7ebd ae89 99bd c957 e53d 1dad 9ebd
000000f0: 8730 94bd b12a 2e3d a09c e939 43db 3cbd
00000100: d8c6 80ba 67d8 0e3e bcba adbd efc4 093e
00000110: 5504 1f3c e294 d9bd 0395 e43d 07f3 aa3d
00000120: 367e be3b 4d85 c53d bbb4 6cbc 2b9e e93d
00000130: e107 e33d 2b84 9a3d a521 a33d 1763 34bd
00000140: cc5e f7bd 5334 a6bc ad00 e03d b730 73bd
00000150: 15a0 153e b18c 803d 8397 ffbd 654e 21bd
00000160: e197 8a3d 73d3 913d 0be4 b0bd c900 c8bd
00000170: 01d1 423d 89c6 283d 13f8 1abe 8b5e eebd
00000180: 734b f3bd 6e68 efbc bfb8 823d d65f 8a3b
00000190: 62bd e1bd 9f04 dcbd 003c 14be 813a 073e
000001a0: 59b5 4cbd 0712 63bd 67e5 fdbd 258f 4e3d
000001b0: 29bb fe3d b537 8c3d 17d3 193d 0278 91bd
000001c0: 9d28 fabd 5b5b a83d c560 03bd 753d 59bd
000001d0: 6fea 1a3e 6f5c 2abd ea54 15be 43d8 e83d
000001e0: 7d98 cd3c 736b d3bd 12a3 b43c 59c6 0a3e
000001f0: 07b2 cf3d 9b8c 513d 9954 853d 0821 86bd
00000200: e9e6 113e e3cf 9a3d 6ca0 103b b28e 0bbe
00000210: 16ac f6bc 6e3a b93c d526 20bd 054b 8c3d
00000220: 59b8 0ebe f727 943d 23d6 4f3d 51a9 28ba
00000230: 1df4 243d 4be9 a53d df05 983d f2ee f7bd
00000240: 3954 1b3e bc3e a1bd a5d1 1fbd fd5a 62bd
00000250: 0a10 cf3c 45ee a3bc 6dfb bf3d 15eb e03d
00000260: 5fd2 ad3d 534a d9bc 4384 05be 2b11 0e3e
00000270: 50f5 00be 9961 f13d 5afd 16be 2580 943d
00000280: 27e6 2f3d be62 06be 02b5 0cbe 5b62 013d
00000290: 3df3 eabd 03ed debd da5b f5bd 7605 d4bc
000002a0: 5dbd 903d 2d9b 02be 5b5f fcbd 4b5f 533c
000002b0: 558d 72bd 3580 7dbc d6f8 a13b c5cd 903d
000002c0: 93d8 e1bd 4bb3 553c b3f0 c0bd bd40 e9bd
000002d0: 8525 0c3e 13b4 b4bc a94c b83d 2129 bb3d
000002e0: 8407 13be 7f03 4d3d 57e5 0b3e 5e45 80bc
000002f0: c5e9 d93d fddd 143e 9d8d 143e 31d3 cdbd
00000300: ad96 03bd 702b 97bd 5316 f93c 5914 853a
00000310: d5d7 323c 534a 873d f3cf aabc e0db 10be
00000320: 1f90 55bd 4255 fabc 9f4a d1bd d7dd ca3a
00000330: 8d33 8a3d 21c2 59bd 99e2 25bd 7134 643d
00000340: 4b9b 50bd b1f6 06be 17e7 bd3d 3b64 873c
00000350: 6103 1a3e b037 0cbe bd05 b33d d3d4 a0bd
00000360: c530 003e 9b8e ffbd c734 523d 76e6 f33b
00000370: 055f 563c d4ad 2cbb 86bf 0abe d7e6 853d
00000380: d105 13be ec40 dfbd 1bd8 953d 3d29 b8bd
00000390: ab22 463c 673b f6bd 1fed cc3d 29a1 d8bd
000003a0: df71 ff3d 4bb6 673d 035a d8bc e24c 16bc
000003b0: 3d7a 70bd cdf4 233d 02ca bebc 0181 dfbd
000003c0: 39c3 2d3d 0f14 bb3d c7e6 ddbd 942c 4b3b
000003d0: e18a 153e 713d c53d 6ce5 283b 7f0e 5abd
000003e0: dbaa a53d 8575 a83d ac6b 323b 5168 e7bd
000003f0: ffe0 0dbd 0fa6 8a3d a9cb 123d eb76 b0bd
0.0127669675 -0.023302425 -0.02237374 -0.024242124 -0.1495935 -0.08620892 0.060569923 -0.034020286
0.037112672 -0.13189113 0.096296705 -0.04656789 0.06066944 -0.12424055 0.14412232 0.13138773
0.09739273 0.14660324 -0.12517272 -0.14092964 0.018734595 0.055074763 -0.04401551 -0.087399386
-0.047966275 0.088866375 -0.06832392 -0.10404337 0.05939663 -0.10472176 -0.083498076 0.13990717
-0.09378182 0.11248375 0.044107374 -0.085702054 -0.0053735776 -0.07604151 -0.12845568 -0.039778125
-0.08837197 -0.050590795 -0.14719877 -0.14073391 0.010890271 -0.13861208 0.059989955 0.07978741
-0.10033717 0.041417632 0.015514488 -0.13833103 -0.11296825 -0.057345185 0.016162988 -0.007143284
-0.06210177 -0.074969634 0.11198384 -0.077478625 -0.07235818 0.042521182 0.00044557918 -0.04610754
-0.0009824885 0.13949738 -0.084828824 0.1345403 0.009705623 -0.106241 0.11161234 0.08347135
0.0058133854 0.09644566 -0.014447386 0.11407121 0.11085487 0.0754474 0.079654016 -0.044039812
-0.12078628 -0.020288622 0.10937629 -0.05937263 0.14611848 0.06276835 -0.124800704 -0.039381403
0.0676725 0.07120409 -0.08637246 -0.09765775 0.047562603 0.041204963 -0.15133695 -0.116391264
-0.11879625 -0.0292246 0.06382894 0.0042228503 -0.1102245 -0.10743069 -0.14476013 0.13205911
-0.049977634 -0.055437114 -0.12397271 0.050429482 0.12438042 0.06846563 0.037554827 -0.07102968
-0.122147776 0.0822055 -0.03207471 -0.053037126 0.15128492 -0.041592058 -0.14583173 0.11369374
0.025097126 -0.10323229 0.022050414 0.13552226 0.10141378 0.051159482 0.06510276 -0.06549269
0.14248241 0.075591825 0.0022068275 -0.13628653 -0.030111354 0.02261087 -0.039099533 0.06850246
-0.1393751 0.07234185 0.050741326 -0.00064339215 0.040271867 0.08101138 0.07422995 -0.12106122
0.15168847 -0.07873294 -0.039018292 -0.055262554 0.025276203 -0.020011077 0.093741275 0.10982338
0.08487391 -0.026524698 -0.13038735 0.13873737 -0.1259358 0.117861934 -0.14745083 0.07251004
0.0429441 -0.13123605 -0.13740924 0.03158794 -0.11472175 -0.1088505 -0.1198041 -0.02588151
0.07067368 -0.12754507 -0.12322875 0.012901138 -0.059216816 -0.0154724615 0.0049429936 0.070704974
-0.110276364 0.013043235 -0.0942091 -0.11389301 0.13686188 -0.022058522 0.08998997 0.09138704
-0.14358336 0.050052162 0.13661705 -0.015658077 0.10640291 0.14537807 0.14507146 -0.10050047
-0.032126117 -0.07381332 0.030406153 0.0010153159 0.010915716 0.06605973 -0.020851111 -0.14146376
-0.052139398 -0.030558232 -0.10219311 0.001547749 0.06748114 -0.05316365 -0.040499303 0.055714075
-0.05092935 -0.13180043 0.092725925 0.016527286 0.15040351 -0.13693118 0.08741329 -0.07853093
0.12518604 -0.12478372 0.051319864 0.0074432446 0.013084178 -0.0026348727 -0.13549623 0.0653817
-0.14357688 -0.10901055 0.073166095 -0.089922406 0.012093226 -0.12023049 0.10006165 -0.10577614
0.12472891 0.056570332 -0.026410108 -0.009173604 -0.058710326 0.040028382 -0.023289684 -0.109132774
0.042422507 0.09134685 -0.10835033 0.0031001912 0.1460376 0.0963086 0.0025771512 -0.05323648
0.08089229 0.0822554 0.0027224822 -0.11299194 -0.0346384 0.067699544 0.035838757 -0.08616432

layers.4.bias f4 [2]
00000000: 5049 1d3a 4749 1d3a
0.0005999999 0.0005999994
