Results_dir/2022-03-20-22-02-07/critic.pth (torch, 536911 bytes, 7 tensors)

layers.0.weight f4 [256, 6]
00000000: d82d 113e d3cc 0abc 8f82 d93c 2467 e43d
00000010: 2814 92bd 7cf4 2abb 35dd 213c ce92 2abd
00000020: db4f 12be 5f0a a0bd d3db 0abd f7d8 cebd
00000030: 8759 eebd d56b 603d c23d 0d3c c45a 193e
00000040: dfea 8dbd 6765 8bbb a875 ef3d a499 e2bd
00000050: 86b9 073e 374f 4bbd 226e 4e3d 6a58 90bd
00000060: 0ed8 553c 94e7 0c3e 6855 de3b c4f8 8bbd
00000070: 1c99 e0bd ee01 cbbd 601a f83d 9a9a ecbd
00000080: 2402 8ebc 0004 0f3e 4031 0b3e 5633 10be
00000090: 5c11 843d 3078 b8bd f20e db3d 4cd4 e33d
000000a0: af2e 543c 1600 023e 27ee 85bd 4c2d 3a3d
000000b0: 1205 533c eaf3 103e ccb5 d3bd 2b0e 0fbe
000000c0: ec0b aabb b82e 833d 99b0 ebbd b9c4 81bd
000000d0: fb10 c7bc 5004 86bd 8fc9 3c3c 3b1b 85bd
000000e0: 4e7e cdbc b8c8 c73d d962 9fbc e0bb 13be
000000f0: bfbb 193d 9072 18be f5ca fa3d d5a3 9cbd
00000100: aafc aa3d f294 3fbd f03f 14be 2270 82bd
00000110: 8d03 04bd e941 cabc 8e60 8dbd fb10 19bd
00000120: df91 2ebd bede f3bd ae7c fb3d af6b 9dbc
00000130: bb73 9dbd 3ba1 90bd 2f31 16be 2131 783d
00000140: 6b72 b03d 1a22 113e abbc e8bd 5376 0ebe
00000150: bdc1 103e 11f3 afbc 4c88 34bd ba40 033b
00000160: dabc a43d 003a ea3d 40d9 b03c 3f39 0fbe
00000170: 985c 08be a4df 013e 7252 db3d bd88 ecbd
00000180: cace fbbc b47d dfbd 9b38 e73d 91ee ea3c
00000190: ccb3 da3d e030 5ab9 aeeb 78bc 5f66 e1bd
000001a0: b175 db3d ea36 78bd f605 483d 0d81 9d3d
000001b0: c1b5 d23d 80bb fd3d 6e20 04bd 72f2 dcbd
000001c0: 0af1 0d3e d0b0 9b3d f2b8 cc3d 5c9e 173e
000001d0: 8d17 b13d aef8 afbd 75fd 8dbd 7e97 f83c
000001e0: 42a3 8bbd eef1 f13d e01e 98bd ab0e 03be
000001f0: c2d1 a5bd fdd7 4fbd 6655 1e3e 47f6 31bc
00000200: 4dbe a0bd f6e1 20bb c112 12bd b7f0 cebd
00000210: 8f84 13be 3849 823b 6b9b 00be 146a 1fbe
00000220: 68ce fd3d 3e76 a3bc 7ead a7bd 9973 9dbd
00000230: cf53 083e 6396 00be eecc 00be 5fed 843d
00000240: aa80 48bd ca67 91bc bb45 b0bd d45a 963d
00000250: dfb1 81bd db4e 843d 58a5 08be b735 5cbd
00000260: 8195 983d de74 663c 50dd 35bd 5e6c 0d3d
00000270: 6deb fd3d 9415 703c 3bea 03bd 80df 15be
00000280: c183 babd 299f c83d 2d38 173d 2d44 0cbd
00000290: 9eda 1c3b dca0 1bbd 841a dabd 1470 13be
000002a0: a371 e8bd cc87 233c 0df7 623d 174f 093d
000002b0: 8342 d2bd df8f e6bd c122 ec3c 2324 8dbd
000002c0: a380 9a3d 889d f53d dea8 edbd 9012 45bd
000002d0: 0716 ad3d 5e4c 363d 7df3 adbd 5abe 66bd
000002e0: 428a ebbd 63ba fe3d bf20 4ebd 6efc 93bb
000002f0: 9237 25bb 7937 813c 0946 59bc ef0b 083d
00000300: d772 60bd 4845 af3d 7551 aa3d 90cd f03d
00000310: 788d 9e3c f723 6abd dff4 833d 4f07 acbd
00000320: 747a e4bc 08a9 c8bc 463b e6bc bf52 13be
00000330: 10da 5b3c 48f3 f13c 69bf 9ebd 0f3f ffbc
00000340: 101d 353d 03c2 243d 0235 67bd 4239 9e3d
00000350: 6170 293c 034e bfbb 2913 bfbd 219f 8bbd
00000360: 2fd8 d9bd 6c0b 033e ea5b d4bd 9815 03be
00000370: 84cf b83c 9712 2cbd 1839 81bc b086 93bd
00000380: 88ac ecbc cde1 163d 4167 8dbd e507 18be
00000390: bffb a9bd 4758 08be 35ab 00be e0ab 003e
000003a0: e833 72bb afdf 08be 6d28 08be 77e2 7e3d
000003b0: 2370 77bc 428a e1bd 4d18 02be cb75 a0bb
000003c0: 4d0a 9e3c 6ea7 eb3d 38a3 d5bb d835 f4bd
000003d0: 21fe 873d e689 f5bd d05d c03d cc0a 87bc
000003e0: b657 503d cc1b 063d 6a9e b2bd c0bc 67bd
000003f0: 2f82 3e3d 4307 06be 86c3 c73c 6ce1 b2bd
0.14177644 -0.008471685 0.026551513 0.11152485 -0.07132751 -0.0026085665 0.0098794 -0.04164391
-0.14288275 -0.07814478 -0.033901047 -0.100999765 -0.1163817 0.054790337 0.008620681 0.1497603
-0.06929564 -0.0042540315 0.11692363 -0.11064461 0.13254365 -0.049636092 0.050398 -0.07048114
0.013052 0.13760215 0.0067850836 -0.06834558 -0.10966703 -0.099124774 0.12114406 -0.115529254
-0.017335005 0.1396637 0.13593006 -0.14082083 0.064486235 -0.09007299 0.1069621 0.11124477
0.012950583 0.12695345 -0.065395646 0.045453355 0.012879627 0.14155546 -0.103374094 -0.13970248
-0.0051894095 0.06405395 -0.11508293 -0.0633635 -0.02430009 -0.06543791 0.011522665 -0.064993344
-0.02508464 0.09755081 -0.019456314 -0.14427137 0.037532564 -0.14887452 0.12245742 -0.07648436
0.08348973 -0.046772905 -0.14477515 -0.06369044 -0.03222995 -0.024689632 -0.06903182 -0.03736971
-0.042619582 -0.11907719 0.1227964 -0.019216387 -0.076880895 -0.07062002 -0.146672 0.060593728
0.086155735 0.14173165 -0.113641106 -0.13912325 0.14136405 -0.021478208 -0.044075295 0.0020027594
0.08043833 0.11436844 0.021587968 -0.13986681 -0.13316572 0.12682968 0.107090846 -0.11549518
-0.030738253 -0.10912648 0.112900935 0.02867821 0.10678825 -0.00020808307 -0.015192909 -0.11005854
0.10715807 -0.060599245 0.04883381 0.0769063 0.10288573 0.123892784 -0.03225749 -0.1078843
0.1386148 0.07602084 0.09996213 0.14806503 0.0864707 -0.08592354 -0.06933109 0.030345675
-0.06818248 0.118137226 -0.07427764 -0.12798564 -0.08096649 -0.05074309 0.15462264 -0.01086194
-0.07848797 -0.0024548746 -0.035662416 -0.101045065 -0.14406036 0.0039760135 -0.12559287 -0.1556781
0.123928845 -0.019953843 -0.08187388 -0.07688064 0.1331322 -0.12557368 -0.12578174 0.064905874
-0.04895083 -0.017749686 -0.0860705 0.07341543 -0.06332754 0.06460353 -0.13344324 -0.053762164
0.074503906 0.014065949 -0.044400513 0.034527175 0.123984195 0.014653582 -0.0322058 -0.1463604
-0.09107161 0.097959824 0.036918808 -0.034244705 0.0023934017 -0.037995204 -0.10649589 -0.14398223
-0.113497995 0.009981107 0.055411387 0.03352269 -0.10266592 -0.1125791 0.028825166 -0.06891658
0.07544067 0.11992937 -0.116044745 -0.048113406 0.08451467 0.044506423 -0.08493707 -0.056333877
-0.1150098 0.12437894 -0.050324198 -0.004516176 -0.0025210124 0.015773522 -0.013261327 0.033214506
-0.05479702 0.08558136 0.08316318 0.11757958 0.019354567 -0.057163205 0.0644319 -0.083998315
-0.027890421 -0.024494663 -0.028104436 -0.14387034 0.013418689 0.02953495 -0.07751352 -0.031157998
0.04421717 0.040224086 -0.056447037 0.07725765 0.010341735 -0.005838157 -0.093298264 -0.06817461
-0.10636937 0.12797326 -0.10369094 -0.12801206 0.022559889 -0.042009916 -0.015774295 -0.07203424
-0.028890863 0.036836434 -0.0690446 -0.14846762 -0.0829997 -0.13314925 -0.1256531 0.12565565
-0.0036957208 -0.13366579 -0.13296671 0.062227692 -0.015102419 -0.11012699 -0.12704583 -0.0048968545
0.019292021 0.11506544 -0.0065197013 -0.119243324 0.06640268 -0.11989193 0.09392893 -0.01648464
0.050864898 0.032741353 -0.08721621 -0.05657649 0.04651087 -0.13088708 0.024385225 -0.08734402

layers.0.bias f4 [256]
00000000: a19b c43b 9f9b c4bb a19b c43b a29b c4bb
00000010: 9b9b c4bb a29b c4bb a29b c43b a49b c43b
00000020: a09b c43b a59b c43b a19b c43b a09b c4bb
00000030: 9c9b c43b a39b c4bb 9b9b c4bb a29b c43b
00000040: a09b c43b a19b c4bb 9b9b c4bb 909b c43b
00000050: 969b c43b a29b c43b 9e9b c4bb a09b c43b
00000060: a29b c43b a19b c4bb 9b9b c4bb a19b c4bb
00000070: a39b c4bb 989b c4bb a19b c43b a19b c43b
00000080: a29b c43b 959b c4bb a39b c43b a09b c4bb
00000090: 7d9b c43b a39b c43b a19b c43b a09b c43b
000000a0: a09b c43b a19b c4bb a19b c43b a29b c4bb
000000b0: a09b c43b 9f9b c43b 9b9b c43b a29b c43b
000000c0: 9a9b c4bb a19b c43b 9e9b c43b 819b c43b
000000d0: 539b c43b 9d9b c43b a19b c4bb a49b c43b
000000e0: 6f9b c43b a29b c4bb a29b c43b 9f9b c4bb
000000f0: a29b c43b a29b c43b a59b c43b 889b c43b
00000100: a09b c4bb a09b c4bb a39b c4bb 9d9b c4bb
00000110: 5c9b c43b a19b c43b a09b c4bb a19b c43b
00000120: 949b c43b 8a9b c43b 869b c43b a29b c4bb
00000130: a39b c4bb a19b c43b 469b c4bb a39b c43b
00000140: a29b c43b a19b c43b 999b c4bb a39b c4bb
00000150: a29b c4bb 959b c4bb 959b c4bb 9b9b c4bb
00000160: a29b c43b 9e9b c4bb 9f9b c4bb 839b c4bb
00000170: a39b c4bb a19b c4bb 9e9b c4bb a39b c4bb
00000180: a19b c4bb 9e9b c43b 919b c4bb 979b c43b
00000190: a39b c43b 889b c43b 929b c4bb 9a9b c43b
000001a0: a19b c43b a09b c43b 789b c43b a29b c43b
000001b0: 929b c4bb 9b9b c4bb a39b c43b a39b c43b
000001c0: 9f9b c43b 8f9b c4bb 9b9b c43b a09b c4bb
000001d0: a19b c4bb 8a9b c4bb a29b c43b a49b c4bb
000001e0: a19b c43b 7b9b c4bb 9f9b c4bb a09b c4bb
000001f0: a19b c4bb a09b c43b a19b c4bb fe98 c43b
00000200: a09b c43b 799b c4bb a09b c43b a19b c4bb
00000210: a19b c4bb a39b c43b 949b c43b a19b c43b
00000220: 989b c43b a39b c4bb a49b c4bb 9f9b c43b
00000230: a09b c4bb 9e9b c4bb a09b c4bb a09b c4bb
00000240: a19b c4bb a19b c43b 859b c43b 9f9b c4bb
00000250: a19b c4bb a19b c43b 949b c43b 9f9b c43b
00000260: a09b c43b a19b c4bb 029b c4bb a49b c4bb
00000270: 1e9b c4bb 9e9b c4bb a19b c43b a09b c4bb
00000280: 8d9b c4bb a49b c43b 9f9b c4bb a19b c43b
00000290: a39b c43b 9e9b c4bb a29b c43b 9b9b c43b
000002a0: 9d9b c43b 979b c43b a29b c43b a39b c43b
000002b0: a49b c4bb a39b c43b a09b c4bb a39b c4bb
000002c0: 9a9b c43b 8e9b c43b a09b c4bb 9f9b c4bb
000002d0: a39b c43b a49b c4bb a09b c43b 9e9b c43b
000002e0: a59b c43b a49b c4bb a09b c4bb 9a9b c4bb
000002f0: 9e9b c43b 9f9b c4bb a29b c43b 9f9b c4bb
00000300: a29b c4bb 959b c43b a19b c43b a59b c4bb
00000310: 9d9b c4bb 9f9b c43b 939b c4bb a19b c4bb
00000320: a29b c4bb 9f9b c43b 9f9b c4bb 4997 c43b
00000330: a39b c4bb a09b c43b a19b c4bb 9b9b c43b
00000340: 799b c4bb a29b c4bb a19b c43b a39b c43b
00000350: a39b c4bb a09b c43b a29b c43b a29b c43b
00000360: 789b c43b 9f9b c4bb a09b c4bb a59b c4bb
00000370: a29b c43b 909b c4bb a29b c4bb a59b c43b
00000380: 689b c43b d499 c4bb 9d9b c4bb a09b c4bb
00000390: 989b c4bb a49b c4bb 709b c43b 9e9b c4bb
000003a0: 8b9b c4bb a19b c43b 9d9b c43b 9a9b c4bb
000003b0: 899b c43b a09b c43b 9f9b c4bb a19b c4bb
000003c0: a39b c4bb a49b c4bb a39b c4bb 8d9b c43b
000003d0: 999b c43b a19b c4bb a49b c4bb a29b c4bb
000003e0: a29b c4bb 9f9b c43b 9e9b c43b a09b c4bb
000003f0: a29b c4bb 9a9b c43b a09b c43b a19b c4bb
0.0059999977 -0.005999997 0.0059999977 -0.005999998 -0.005999995 -0.005999998 0.005999998 0.005999999
0.0059999973 0.0059999996 0.0059999977 -0.0059999973 0.0059999954 -0.0059999987 -0.005999995 0.005999998
0.0059999973 -0.0059999977 -0.005999995 0.00599999 0.0059999926 0.005999998 -0.0059999963 0.0059999973
0.005999998 -0.0059999977 -0.005999995 -0.0059999977 -0.0059999987 -0.0059999935 0.0059999977 0.0059999977
0.005999998 -0.005999992 0.0059999987 -0.0059999973 0.005999981 0.0059999987 0.0059999977 0.0059999973
0.0059999973 -0.0059999977 0.0059999977 -0.005999998 0.0059999973 0.005999997 0.005999995 0.005999998
-0.0059999945 0.0059999977 0.0059999963 0.005999983 0.0059999614 0.005999996 -0.0059999977 0.005999999
0.0059999744 -0.005999998 0.005999998 -0.005999997 0.005999998 0.005999998 0.0059999996 0.005999986
-0.0059999973 -0.0059999973 -0.0059999987 -0.005999996 0.0059999656 0.0059999977 -0.0059999973 0.0059999977
0.0059999917 0.005999987 0.005999985 -0.005999998 -0.0059999987 0.0059999977 -0.0059999553 0.0059999987
0.005999998 0.0059999977 -0.005999994 -0.0059999987 -0.005999998 -0.005999992 -0.005999992 -0.005999995
0.005999998 -0.0059999963 -0.005999997 -0.0059999838 -0.0059999987 -0.0059999977 -0.0059999963 -0.0059999987
-0.0059999977 0.0059999963 -0.0059999903 0.005999993 0.0059999987 0.005999986 -0.0059999907 0.0059999945
0.0059999977 0.0059999973 0.0059999786 0.005999998 -0.0059999907 -0.005999995 0.0059999987 0.0059999987
0.005999997 -0.0059999893 0.005999995 -0.0059999973 -0.0059999977 -0.005999987 0.005999998 -0.005999999
0.0059999977 -0.00599998 -0.005999997 -0.0059999973 -0.0059999977 0.0059999973 -0.0059999977 0.0059996834
0.0059999973 -0.005999979 0.0059999973 -0.0059999977 -0.0059999977 0.0059999987 0.0059999917 0.0059999977
0.0059999935 -0.0059999987 -0.005999999 0.005999997 -0.0059999973 -0.0059999963 -0.0059999973 -0.0059999973
-0.0059999977 0.0059999977 0.0059999847 -0.005999997 -0.0059999977 0.0059999977 0.0059999917 0.005999997
0.0059999973 -0.0059999977 -0.0059999237 -0.005999999 -0.0059999367 -0.0059999963 0.0059999977 -0.0059999973
-0.0059999884 0.005999999 -0.005999997 0.0059999977 0.0059999987 -0.0059999963 0.005999998 0.005999995
0.005999996 0.005999993 0.005999998 0.0059999987 -0.005999999 0.0059999987 -0.0059999973 -0.0059999987
0.0059999945 0.005999989 -0.0059999973 -0.005999997 0.0059999987 -0.005999999 0.0059999973 0.0059999963
0.0059999996 -0.005999999 -0.0059999973 -0.0059999945 0.0059999963 -0.005999997 0.005999998 -0.005999997
-0.005999998 0.005999992 0.0059999977 -0.0059999996 -0.005999996 0.005999997 -0.005999991 -0.0059999977
-0.005999998 0.005999997 -0.005999997 0.00599948 -0.0059999987 0.0059999973 -0.0059999977 0.005999995
-0.005999979 -0.005999998 0.0059999977 0.0059999987 -0.0059999987 0.0059999973 0.005999998 0.005999998
0.0059999786 -0.005999997 -0.0059999973 -0.0059999996 0.005999998 -0.00599999 -0.005999998 0.0059999996
0.005999971 -0.005999783 -0.005999996 -0.0059999973 -0.0059999935 -0.005999999 0.005999975 -0.0059999963
-0.0059999875 0.0059999977 0.005999996 -0.0059999945 0.0059999865 0.0059999973 -0.005999997 -0.0059999977
-0.0059999987 -0.005999999 -0.0059999987 0.0059999884 0.005999994 -0.0059999977 -0.005999999 -0.005999998
-0.005999998 0.005999997 0.0059999963 -0.0059999973 -0.005999998 0.0059999945 0.0059999973 -0.0059999977

layers.2.weight f4 [256, 256]
00000000: bec1 47bb 4135 78bd da13 cfbd 7559 97bb
00000010: 8e3d 47bc fa25 bbbd 201d e2bc e11d ea3b
00000020: 3abf 413d 2af0 533d 3e40 cbbd a787 a5bd
00000030: deac 163c 8e08 18bd f081 cfbd af83 a73d
00000040: 89a7 36bd b8b1 80bd 7023 d5bc 575f c33d
00000050: fa0b 5d3d f86a afbc 08d9 4dbd c0eb 44bc
00000060: 2f9a 943c 1310 b1bb f8d4 5b3c 1f9c 1ebd
00000070: 62d7 d13d bf92 62bd a57e 89bd b36e 893c
00000080: 742e f43c d948 c0bc dd54 a8bd b977 9bbd
00000090: 90eb b1bc 96dd 1cbc 41f8 b83d 600c 793b
000000a0: c816 333c 2cbd 5a3c 834a c83d 4213 ddbc
000000b0: 34ed bb3c e5ea d3bb b8d2 47bc f7ee 50bd
000000c0: 0608 d13d fe41 b8bd d79b 933d 0eac 8cbd
000000d0: cace 753d 367e 603d 8f2d 483d 08a8 94bc
000000e0: 64ac a0ba a47e af3d e026 a63d a640 413d
000000f0: 5b26 9e3d cdaf 8e3d 2df6 283d 94bf b8bd
00000100: 8ece 97bd 0663 1dbd d447 80bd 689f e6bc
00000110: 381f 9abd 528f 91bd 3ad1 733d 2624 34bd
00000120: f49c ca3c c90f b23d 3dd1 cc3d b5d9 2f3d
00000130: ac3b c9bd 7de0 c53d cda2 e2bd 5110 24bd
00000140: 104c 6f3c 7419 0dbd ddfb b43d 8ef4 7b3d
00000150: f48a 8cbd 54f1 b0bd cc6b f33c 8e1f 66bc
00000160: bbb4 0f3d 6556 c83d 3826 98bd 22c2 17bc
00000170: 05cc b63d e87d 2e3d 09ce c03d 028f 0e3d
00000180: 75e6 e33d b884 5dbd 75b1 c6bd 6b39 803d
00000190: fe50 5fbd f77c 6abd 517e cabd 5e9f 4f3d
000001a0: 74b8 383d 005e afbd 39a1 f5bb a00a d83d
000001b0: 489e 5dbc 4762 c8bd 15fb d03d ff67 dc3d
000001c0: 1a54 f6bc 60bd fdbc 7684 22bd 0e07 aebd
000001d0: 8b85 37bd d217 84bd 69d4 18bd 616d a43d
000001e0: 55d7 8d3d d0f9 adbb 87dc bcbd 34f4 2fbd
000001f0: 8f46 d93d 6415 9fbd 6aa1 6a3d 6b38 9d3d
00000200: ac7e be3c 45f7 8c3d 8e44 c6bd ac9b b23c
00000210: 4514 c8bd 70c6 14bd cee0 543d a91e 1dbd
00000220: 40b1 02bd 6857 33bd 1d70 90bd 6606 553d
00000230: fc66 bbbd d8de 8e3d 2553 c73d e8c7 aebd
00000240: 0c73 0bbc 50e5 d2bd 5e00 56bd 185e 7abd
00000250: 90f9 a43a 7f92 e43d e5c3 db3c e7a7 b53d
00000260: 6485 a6bd c8e5 893c 3e86 5bbb ab9f 5dbd
00000270: 66e0 5d3d 65fa 98bd 9ac2 b43d ddc1 d93c
00000280: 722f 9a3c 3dc8 bf3d 0440 b3bd 0f98 c23d
00000290: 0a59 c9bc 2425 0abd 7833 7f3c ec25 dc3c
000002a0: 14d6 e5bc 9388 81bd 9448 9fbd c111 cc3d
000002b0: a054 463d fec8 abbc f201 cebd 300f febb
000002c0: 58a6 8bbd f088 5fbc 7b18 1e3d de37 743b
000002d0: c1af 5c3d 0545 8f3d 007d 2c3c 44c3 e8bc
000002e0: e5c1 d53c ace6 ccbd 960a 03bd 31e3 9abd
000002f0: bae0 683d 9c44 67bb e019 b8bc cace 75bd
00000300: 0c51 6abd 5adb a6bd 9111 aebd 8626 273d
00000310: b4eb 88bb 0851 473c e2ea 693d dd61 20bd
00000320: 9101 953d d498 f93a c24e 5bbd 0409 81bd
00000330: 65a0 e63d d7af 64bd 1417 8bbd 120a 28bd
00000340: bc59 b7bd 5870 50bc 6a7a 513d 6d53 713d
00000350: d6f4 8a3d 6112 2d3d 060e 0a3d 406a c3bc
00000360: 34f8 d7bd 3a10 88bd af6f 003d 91ae 96bd
00000370: 72a9 143d 30a7 06bd 5dc5 08bd b0e8 db39
00000380: 7e9f a83d ae80 1f3b 0443 8bbd 7d99 8e3d
00000390: 88ab 32bd 847d 9cbc 5d6b abbd 788c c63d
000003a0: f373 55bd a6ec c33d 8890 86bd b16f bb3d
000003b0: 8ac0 293d d2c7 83bd aa51 a6bd 5806 9e3c
000003c0: 2e50 c4bd f89d 403a a6cb ab3c c8b5 83bd
000003d0: be15 553d aeea 6e3c 40b0 fdbc 9195 2e3c
000003e0: ae6f 96bd b5a6 843d 22b8 2e3d f400 aebd
000003f0: 8e72 b3bc 3efd 0a3d f3e2 803d 54ce a63c
-0.003048047 -0.060597662 -0.10111208 -0.0046188184 -0.012160672 -0.09138103 -0.027601779 0.007144675
0.04730151 0.05174271 -0.099243626 -0.08082514 0.009196488 -0.037117533 -0.101322055 0.081794135
-0.044593368 -0.06283897 -0.026017874 0.09539669 0.0539665 -0.021413311 -0.050255805 -0.012019098
0.018139927 -0.0054035275 0.013417475 -0.038723107 0.10246159 -0.05531573 -0.06713609 0.016776418
0.029807307 -0.023472236 -0.082193114 -0.07591195 -0.02171877 -0.009574315 0.09031726 0.003800176
0.010930724 0.013350766 0.09779837 -0.026986722 0.022940256 -0.0064672106 -0.012196235 -0.051009145
0.102066085 -0.08996962 0.072074585 -0.06868754 0.060011663 0.054807864 0.048871573 -0.01814653
-0.0012258408 0.08569077 0.081128836 0.047180794 0.077221595 0.06967125 0.041250397 -0.09020916
-0.07412444 -0.038424514 -0.062637 -0.028152183 -0.07525486 -0.07107414 0.059525706 -0.043979786
0.024733044 0.08694417 0.100008465 0.04293223 -0.09825835 0.09661958 -0.11066208 -0.040054623
0.014605537 -0.034448102 0.088371016 0.061512522 -0.06862441 -0.0863978 0.029714487 -0.014045609
0.035084467 0.097821034 -0.07429165 -0.009262593 0.089256324 0.042600542 0.09414298 0.03480435
0.111279406 -0.05408165 -0.09701816 0.062609516 -0.0545206 -0.057248082 -0.09887374 0.050689094
0.045097783 -0.08562851 -0.007496026 0.105489016 -0.013526507 -0.0978437 0.1020414 0.10762023
-0.0300694 -0.03097409 -0.039677106 -0.08497439 -0.04480509 -0.06449856 -0.037311945 0.08028675
0.06925837 -0.005309321 -0.0922175 -0.0429575 0.10609161 -0.07767752 0.057282843 0.076767765
0.023253761 0.068831004 -0.096810445 0.021802746 -0.09769491 -0.036322057 0.051972203 -0.038359318
-0.03190732 -0.04378453 -0.07052634 0.052008055 -0.09150502 0.06976098 0.097326554 -0.08534223
-0.008511316 -0.10297644 -0.052246444 -0.06112489 0.0012586582 0.111607544 0.026826808 0.088699155
-0.08130911 0.016833201 -0.0033496763 -0.05410735 0.05416908 -0.07469634 0.0882618 0.026581699
0.018821452 0.09364364 -0.087524444 0.09501659 -0.02457859 -0.033726826 0.015576236 0.026873551
-0.028056182 -0.063248776 -0.07777515 0.09964324 0.04842055 -0.020969864 -0.10058965 -0.0077532753
-0.06818837 -0.013643488 0.038597565 0.0037264745 0.05387855 0.06995586 0.010527849 -0.028413422
0.026093433 -0.10004935 -0.031992517 -0.075628646 0.05685494 -0.0035288697 -0.022473276 -0.060011663
-0.0572062 -0.08147307 -0.08499444 0.040808223 -0.0041784886 0.012165315 0.057108767 -0.03915583
0.072756894 0.0019042739 -0.053541906 -0.06300548 0.112610616 -0.055831756 -0.06791511 -0.04102523
-0.08952662 -0.012722097 0.051142134 0.05891745 0.0678498 0.042253856 0.03370478 -0.023854375
-0.10545388 -0.0664372 0.03135651 -0.07357515 0.03629441 -0.032874286 -0.033391345 0.000419443
0.08233546 0.0024338174 -0.067998916 0.06962869 -0.043620616 -0.01910282 -0.08370087 0.09694761
-0.05211253 0.095666215 -0.06570536 0.09152163 0.041443385 -0.06434597 -0.08121045 0.019290134
-0.095856056 0.0007347758 0.02097113 -0.064311564 0.052022688 0.014582319 -0.030967832 0.010655777
-0.0734552 0.06477109 0.04265607 -0.084962755 -0.02190521 0.033932917 0.06293287 0.020362057

layers.2.bias f4 [256]
00000000: a39b c43b 9b9b c43b 9e9b c43b a19b c43b
00000010: a19b c43b 9d9b c4bb a19b c43b a39b c4bb
00000020: a09b c4bb 9b9b c4bb 509b c43b a39b c43b
00000030: 8e9b c43b 8e9b c43b a49b c43b a49b c4bb
00000040: a49b c4bb 909b c43b a49b c43b ea9a c4bb
00000050: 9d9b c4bb 9b9b c43b a09b c43b a09b c43b
00000060: a29b c4bb a19b c43b a09b c4bb a29b c4bb
00000070: a49b c4bb a29b c43b a49b c4bb a49b c43b
00000080: a39b c4bb a19b c43b 2c9b c4bb a09b c43b
00000090: 9c9b c4bb a29b c4bb a39b c4bb a39b c4bb
000000a0: 9b9b c43b a29b c43b 6a9b c43b 9e9b c4bb
000000b0: 1a9b c43b 9f9b c4bb a29b c43b a19b c4bb
000000c0: a29b c4bb a09b c43b a39b c4bb a09b c4bb
000000d0: a09b c43b a49b c43b 999b c4bb a59b c43b
000000e0: 9c9b c4bb a39b c4bb 8f9b c43b a49b c4bb
000000f0: 9e9b c4bb a19b c43b a09b c43b a09b c4bb
00000100: a39b c4bb a39b c43b a19b c43b a49b c43b
00000110: a39b c4bb a39b c4bb a29b c43b a19b c4bb
00000120: 9f9b c4bb a49b c4bb a49b c43b a29b c4bb
00000130: a19b c43b a49b c4bb a29b c43b a09a c4bb
00000140: a29b c4bb a19b c43b 9e9b c43b a39b c4bb
00000150: a19b c4bb 939b c4bb a39b c4bb a29b c4bb
00000160: 8f9b c43b 9f9b c43b a29b c43b a09b c43b
00000170: 9e9b c43b 9f9b c4bb 959b c4bb a09b c4bb
00000180: a39b c43b 789b c43b 939b c43b a49b c43b
00000190: a29b c4bb 889b c4bb a39b c4bb a09b c4bb
000001a0: a19b c43b a39b c43b a19b c43b a49b c4bb
000001b0: a29b c4bb a39b c4bb a19b c43b a09b c4bb
000001c0: a49b c4bb a09b c4bb 9f9b c4bb 949b c43b
000001d0: a19b c4bb a39b c4bb 9e9b c4bb a09b c4bb
000001e0: a29b c4bb a19b c4bb a19b c4bb a19b c4bb
000001f0: a59b c4bb 9b9b c4bb a59b c43b 979b c43b
00000200: 949b c43b 9d9b c43b a69b c43b a19b c43b
00000210: a09b c43b a39b c43b a29b c43b 9e9b c4bb
00000220: a49b c43b 9d9b c4bb a29b c43b a39b c43b
00000230: a49b c4bb a39b c4bb 979b c4bb a29b c4bb
00000240: 9f9b c43b 959b c4bb a09b c43b a59b c43b
00000250: a09b c4bb 9c9b c43b a39b c43b 9c9b c43b
00000260: 9d9b c43b a39b c43b a09b c43b a49b c4bb
00000270: a29b c4bb a19b c43b 9f9b c4bb a19b c43b
00000280: a39b c43b a29b c4bb 9f9b c43b a39b c4bb
00000290: a39b c43b a19b c4bb a69b c43b a09b c4bb
000002a0: a29b c4bb 8a9b c43b 889b c43b a49b c43b
000002b0: a19b c43b a09b c43b a19b c43b a59b c4bb
000002c0: 9f9b c43b a29b c4bb a49b c43b a39b c43b
000002d0: a49b c4bb 899b c4bb 9f9b c4bb a39b c4bb
000002e0: a49b c4bb a19b c4bb a49b c4bb 9f9b c43b
000002f0: a19b c4bb a09b c4bb 8e9b c4bb a39b c4bb
00000300: a59b c4bb 9e9b c43b a39b c43b 9f9b c4bb
00000310: a49b c4bb a39b c4bb a29b c43b a49b c4bb
00000320: a09b c4bb a39b c4bb a39b c43b 9b9b c4bb
00000330: a09b c4bb 9b9b c43b a29b c43b a49b c4bb
00000340: 9e9b c4bb a19b c4bb 4b9a c4bb a29b c43b
00000350: a19b c4bb a29b c43b a39b c43b a19b c43b
00000360: a09b c4bb 9f9b c43b 909b c43b a29b c4bb
00000370: a19b c43b 769b c43b a19b c43b a29b c43b
00000380: a29b c43b a49b c4bb a29b c43b a09b c4bb
00000390: a19b c43b a39b c43b 9b9b c43b a29b c4bb
000003a0: a49b c4bb a39b c43b a29b c4bb a29b c43b
000003b0: a19b c4bb a19b c4bb 949b c43b 9c9b c4bb
000003c0: 989b c4bb 979b c4bb 8a9b c4bb a39b c43b
000003d0: a39b c4bb a29b c4bb a29b c4bb a39b c4bb
000003e0: 829b c4bb 959b c43b 9f9b c43b a09b c4bb
000003f0: a19b c4bb a09b c4bb a29b c4bb a29b c43b
0.0059999987 0.005999995 0.0059999963 0.0059999977 0.0059999977 -0.005999996 0.0059999977 -0.0059999987
-0.0059999973 -0.005999995 0.00599996 0.0059999987 0.005999989 0.005999989 0.005999999 -0.005999999
-0.005999999 0.00599999 0.005999999 -0.0059999125 -0.005999996 0.005999995 0.0059999973 0.0059999973
-0.005999998 0.0059999977 -0.0059999973 -0.005999998 -0.005999999 0.005999998 -0.005999999 0.005999999
-0.0059999987 0.0059999977 -0.0059999432 0.0059999973 -0.0059999954 -0.005999998 -0.0059999987 -0.0059999987
0.005999995 0.005999998 0.005999972 -0.0059999963 0.005999935 -0.005999997 0.005999998 -0.0059999977
-0.005999998 0.0059999973 -0.0059999987 -0.0059999973 0.0059999973 0.005999999 -0.005999994 0.0059999996
-0.0059999954 -0.0059999987 0.0059999893 -0.005999999 -0.0059999963 0.0059999977 0.0059999973 -0.0059999973
-0.0059999987 0.0059999987 0.0059999977 0.005999999 -0.0059999987 -0.0059999987 0.005999998 -0.0059999977
-0.005999997 -0.005999999 0.005999999 -0.005999998 0.0059999977 -0.005999999 0.005999998 -0.005999878
-0.005999998 0.0059999977 0.0059999963 -0.0059999987 -0.0059999977 -0.005999991 -0.0059999987 -0.005999998
0.0059999893 0.005999997 0.005999998 0.0059999973 0.0059999963 -0.005999997 -0.005999992 -0.0059999973
0.0059999987 0.0059999786 0.005999991 0.005999999 -0.005999998 -0.005999986 -0.0059999987 -0.0059999973
0.0059999977 0.0059999987 0.0059999977 -0.005999999 -0.005999998 -0.0059999987 0.0059999977 -0.0059999973
-0.005999999 -0.0059999973 -0.005999997 0.0059999917 -0.0059999977 -0.0059999987 -0.0059999963 -0.0059999973
-0.005999998 -0.0059999977 -0.0059999977 -0.0059999977 -0.0059999996 -0.005999995 0.0059999996 0.005999993
0.0059999917 0.005999996 0.006 0.0059999977 0.0059999973 0.0059999987 0.005999998 -0.0059999963
0.005999999 -0.005999996 0.005999998 0.0059999987 -0.005999999 -0.0059999987 -0.005999993 -0.005999998
0.005999997 -0.005999992 0.0059999973 0.0059999996 -0.0059999973 0.0059999954 0.0059999987 0.0059999954
0.005999996 0.0059999987 0.0059999973 -0.005999999 -0.005999998 0.0059999977 -0.005999997 0.0059999977
0.0059999987 -0.005999998 0.005999997 -0.0059999987 0.0059999987 -0.0059999977 0.006 -0.0059999973
-0.005999998 0.005999987 0.005999986 0.005999999 0.0059999977 0.0059999973 0.0059999977 -0.0059999996
0.005999997 -0.005999998 0.005999999 0.0059999987 -0.005999999 -0.0059999865 -0.005999997 -0.0059999987
-0.005999999 -0.0059999977 -0.005999999 0.005999997 -0.0059999977 -0.0059999973 -0.005999989 -0.0059999987
-0.0059999996 0.0059999963 0.0059999987 -0.005999997 -0.005999999 -0.0059999987 0.005999998 -0.005999999
-0.0059999973 -0.0059999987 0.0059999987 -0.005999995 -0.0059999973 0.005999995 0.005999998 -0.005999999
-0.0059999963 -0.0059999977 -0.0059998385 0.005999998 -0.0059999977 0.005999998 0.0059999987 0.0059999977
-0.0059999973 0.005999997 0.00599999 -0.005999998 0.0059999977 0.0059999777 0.0059999977 0.005999998
0.005999998 -0.005999999 0.005999998 -0.0059999973 0.0059999977 0.0059999987 0.005999995 -0.005999998
-0.005999999 0.0059999987 -0.005999998 0.005999998 -0.0059999977 -0.0059999977 0.0059999917 -0.0059999954
-0.0059999935 -0.005999993 -0.005999987 0.0059999987 -0.0059999987 -0.005999998 -0.005999998 -0.0059999987
-0.0059999833 0.005999992 0.005999997 -0.0059999973 -0.0059999977 -0.0059999973 -0.005999998 0.005999998

layers.4.weight f4 [256, 256]
00000000: 0854 813d 8ded b6bd ad31 c0bd b9eb 9cbd
00000010: 763e 883d a48c e93a c179 c8bd 6263 e3bd
00000020: b6e9 c03d e993 263d 701e d03d ad13 5f3d
00000030: b676 bc3d f062 493d 5464 96bd d601 023d
00000040: 3903 5bbd 1a85 1c3d 4e16 a2bd 8d7c a73d
00000050: 745c 283c 4649 483d 7d2b 203d d9dc 78bd
00000060: fa72 1f3d 7088 d63d 1bae 913d 7ad7 2fbc
00000070: 8246 cebd 608d 8cbd e061 20bc 76b7 4a3d
00000080: b4b7 8f3c 0063 0b38 ce87 873d 1e59 2d3c
00000090: ca9a 0c3d 3cc5 9f3d 81a0 54bd 944b bebd
000000a0: 9070 72bd 6867 86bc 7e7d 2b3d 1561 ad3c
000000b0: 129d 3d3c 96b3 5d3d 53eb d53c 93f0 16bd
000000c0: 5e1c b13d 27fb c43d fdfb 923d de6b a3bd
000000d0: f5ef 1abd 955a bfbd 9b75 c53d 6d6b d73d
000000e0: 8e9d da3d 1d97 dbbd 48af d5bc e252 053d
000000f0: fd36 8c3d aadf c73d d91f 6b3d d0c8 3fbc
00000100: a266 afbd 465b 81bd 6254 f8bc 15c6 a8bd
00000110: 859e f33c 0032 e03d 1f51 3ebd 4640 1cbc
00000120: 9fd7 c43d 540e 02bd 63a6 583d e442 683c
00000130: a296 793d d34f 51bd 3070 73bd 5a2f a7bd
00000140: 545e debd 7eb6 dfbd 1626 5f3d 050c 8c3d
00000150: 0e3f e63d 14ed 7e3d 8e55 fd3c 4287 bb3b
00000160: d8d8 b7bb 1f73 883d 2672 a73d cfd0 90bc
00000170: 7ec4 043b 2e50 1f3d 4ce1 7d3d b091 193d
00000180: 4a9c 9dbc 8639 a2bd 3e0a ff3c bcf9 c03d
00000190: 03f0 80bd 20f9 c93d 5951 8c3d 0695 963d
000001a0: 59df a1bd 60e4 783b 126d bebd 260f a93d
000001b0: 80ec 553b af7b a73d 9c59 c7bd 587f 8c3d
000001c0: 06ca 333d b1d0 fc3b 858e a53d d43c b93d
000001d0: f106 723d f2f1 8abd d10f b7bd e0cc 0eba
000001e0: f99e cf3d da08 12bc 24a5 17bd f648 ebbc
000001f0: 3655 88bc 1231 60bc 2ada 3c3d 566c 753d
00000200: a4f1 ccbd ff73 a83d 601e 26bc 3511 973d
00000210: 1666 0f3c dde8 8a3d 4c2e 8dbd d8c8 183d
00000220: 30c9 c33d c22c b6bd 40e4 0b3b 21da 7e3d
00000230: ce38 85bd c2dc 363c 6e99 d6bd dd3a e03c
00000240: 15e9 94bd 52d7 80bd 97a3 c4bd c28c 63bd
00000250: 61c9 d23c b619 db3c a755 413d 1b0d 99bd
00000260: a63f 523d 6879 323d f310 cf3b 06a6 9f3d
00000270: abab 40bd 6edb 8bbd 7132 db3c d8c8 523c
00000280: 7788 523d e826 683d 1fbd c23c be4e 983d
00000290: 2ad5 5abd bd49 0d3d 4833 48bc fa6b 4ebd
000002a0: f005 c53d 9244 5abc 2ac1 8fbd 1770 d0bd
000002b0: dfd1 84bb 9808 813d c94e ac3d e9ae 853d
000002c0: f534 bc3d 491a 8e3d cec4 c33d 1d2b aebd
000002d0: ee7e af3c 7caa 0c3d d93f b43d b60e 78bd
000002e0: 50d5 f23c 1eab 8b3c cad6 cb3d ded0 963c
000002f0: 94dd d73a ae2b c4bc 269d 463d 88c9 16bd
00000300: f423 643b c38d a83d 31b8 843d 50bf 34bd
00000310: 43b8 0ebd c827 f13c 2cdf 49bd c37f 2cbd
00000320: 921d 4cbd 8850 d1bd 5dd1 d43d 7628 7f3d
00000330: 6401 d93d 1a5f 4c3b 8c78 4fbd 76dc f83c
00000340: 92d3 3ebd 7f0a dfbd a05b c63d 7ffe e53d
00000350: d6e6 8f3d 2bdc e93c 7969 683c c0fe e3ba
00000360: 4dfb 80bd d1ec 91bd 17c8 85bb 6c77 cdbb
00000370: 8ed8 e0bc 642e cabc 9890 67bd 811e b13c
00000380: 39b0 27bd a6c3 c13d e0af 923d 7f1c dc3d
00000390: 4901 1fbd 84a7 de3c f3e7 8e3d 2602 24bc
000003a0: d847 e83d 4e98 b53c b8a3 30bd 3382 6dbd
000003b0: 500c 5bbc 62b3 433d f869 593c 5365 d03b
000003c0: 9ad9 e4bd c59b 79bd 041a 813d 7a80 89bd
000003d0: 8978 cbbd d4bc b73d 8bb0 7fbd 4735 ab3d
000003e0: e523 ee3c a94a 82bd 7a73 d23d 9808 943d
000003f0: bda9 bb3d 85af 0c3d d210 63bd bde5 86bd
0.06314856 -0.08932028 -0.09384475 -0.07662148 0.066525385 0.0017818403 -0.09788848 -0.1110294
0.09419577 0.040668402 0.101620555 0.054462124 0.0920233 0.04916662 -0.07343355 0.031740032
-0.05346987 0.038212873 -0.079144105 0.08178053 0.010275949 0.048898004 0.039103974 -0.06075749
0.03892801 0.10475242 0.07113286 -0.010732526 -0.10072042 -0.06862903 -0.00978896 0.04949137
0.017543651 3.3232383e-05 0.066176996 0.010580329 0.034327306 0.07801291 -0.05191088 -0.09291759
-0.05918938 -0.01640673 0.041867726 0.021164456 0.011573093 0.054126345 0.026113188 -0.036850523
0.08647989 0.09618216 0.07176969 -0.079795584 -0.037826497 -0.09343449 0.09641572 0.10518537
0.106745824 -0.10722182 -0.026084557 0.032549746 0.06846426 0.097594574 0.05740342 -0.011705592
-0.085644975 -0.06316237 -0.030313674 -0.08240906 0.029738674 0.10947037 -0.04646408 -0.009536808
0.09611439 -0.031751946 0.052893054 0.014176104 0.06093467 -0.051101517 -0.059433162 -0.081633285
-0.108578354 -0.109234795 0.05447968 0.0683823 0.112424955 0.062237814 0.030924585 0.005722911
-0.0056105666 0.066625826 0.08176069 -0.017677693 0.002025872 0.038894825 0.061982438 0.037492454
-0.019239563 -0.07921128 0.031132814 0.09422633 -0.062957786 0.0986197 0.06851453 0.07352643
-0.07903928 0.003797792 -0.09298147 0.082548425 0.0032642186 0.08177888 -0.097338885 0.068602264
0.043893836 0.0077153076 0.08083824 0.09044805 0.05908865 -0.06784429 -0.089385636 -0.0005447399
0.101377435 -0.008913243 -0.037022725 -0.028721314 -0.016642194 -0.013683574 0.046106495 0.05991777
-0.10007027 0.082252495 -0.010139078 0.07376329 0.0087523665 0.067826964 -0.06893596 0.037300915
0.09559858 -0.088952556 0.0021345764 0.062219743 -0.06504975 0.011161031 -0.10478483 0.027371818
-0.07271019 -0.06291069 -0.09601515 -0.05555416 0.02573079 0.026745658 0.047200825 -0.07473203
0.05133023 0.043572813 0.006319159 0.07795338 -0.047038715 -0.06828962 0.02675745 0.012865268
0.051399674 0.05667773 0.02377182 0.07436894 -0.053425945 0.03449415 -0.012219258 -0.050395943
0.09620273 -0.0133220125 -0.07019265 -0.101776294 -0.004053339 0.06300467 0.084134646 0.06527502
0.09189788 0.06938607 0.09559022 -0.08504317 0.02142283 0.034342274 0.088012405 -0.060560904
0.029642731 0.017049368 0.09953077 0.018410143 0.0016469234 -0.02394661 0.048489712 -0.03681329
0.0034811469 0.08230164 0.06480444 -0.044127762 -0.034843694 0.029437914 -0.0492851 -0.04211403
-0.049832888 -0.10220438 0.103914954 0.062294446 0.10595968 0.0031184615 -0.05065207 0.030378561
-0.046588488 -0.10890674 0.09685445 0.11230182 0.0702645 0.028547367 0.014185303 -0.0017394647
-0.06297932 -0.07125247 -0.0040826905 -0.0062703397 -0.027447011 -0.024680324 -0.05653438 0.02162099
-0.040939543 0.09461145 0.07162452 0.10747623 -0.038819585 0.027179487 0.069778346 -0.010010278
0.11341828 0.022167351 -0.043124884 -0.057985496 -0.013369635 0.047778495 0.013269894 0.006359735
-0.11174317 -0.06093957 0.0630379 -0.06713958 -0.099351 0.08971563 -0.062424224 0.08359771
0.02906985 -0.063618965 0.10275932 0.07228202 0.091632344 0.034347076 -0.055435963 -0.06586788

layers.4.bias f4 [256]
00000000: a19b c4bb a39b c43b 9f9b c43b a29b c43b
00000010: a09b c43b 9b9b c43b a39b c43b a39b c43b
00000020: a49b c43b a19b c43b 909b c43b a49b c4bb
00000030: a29b c43b a49b c4bb a59b c43b a09b c43b
00000040: a19b c43b 979b c43b a39b c4bb a29b c4bb
00000050: a49b c4bb a49b c43b a19b c43b a39b c43b
00000060: a39b c43b 969b c43b a09b c4bb a29b c4bb
00000070: a49b c43b a39b c43b a29b c4bb a19b c43b
00000080: 9c9b c4bb a29b c43b a49b c43b a49b c43b
00000090: a49b c4bb a09b c4bb a39b c4bb a59b c4bb
000000a0: 999b c4bb a49b c4bb a49b c43b a49b c4bb
000000b0: a59b c4bb a09b c43b 9d9b c43b a29b c4bb
000000c0: a59b c43b a19b c43b a29b c4bb a09b c43b
000000d0: 9e9b c43b 5b9b c43b 8e9b c43b a49b c43b
000000e0: a39b c4bb a59b c4bb a49b c4bb a39b c43b
000000f0: a59b c43b a39b c43b 959b c4bb a09b c4bb
00000100: a09b c4bb a19b c4bb a29b c43b a29b c43b
00000110: a09b c43b 9d9b c4bb a29b c43b a49b c4bb
00000120: a39b c43b a39b c4bb a29b c43b 9f9b c43b
00000130: a39b c4bb a19b c43b a59b c43b a09b c43b
00000140: a39b c43b 1e9b c4bb a19b c43b a39b c4bb
00000150: 9f9b c4bb a39b c43b a09b c43b 759b c4bb
00000160: a19b c4bb a39b c4bb a29b c43b a39b c4bb
00000170: a49b c43b 959b c4bb a09b c4bb 9e9b c43b
00000180: 9e9b c4bb a29b c4bb 949b c43b 9c9b c4bb
00000190: a49b c43b a19b c4bb a29b c4bb 9d9b c43b
000001a0: a19b c4bb a39b c43b a29b c4bb a19b c43b
000001b0: a19b c4bb a49b c4bb a59b c43b a29b c4bb
000001c0: ab9a c4bb a19b c43b a49b c4bb a19b c43b
000001d0: a29b c4bb a59b c4bb a09b c4bb a09b c43b
000001e0: a29b c4bb a49b c4bb 9f9b c43b a39b c4bb
000001f0: a39b c4bb a19b c43b a49b c43b a49b c4bb
00000200: a19b c43b 8e9b c4bb a49b c4bb a19b c43b
00000210: a39b c4bb a39b c4bb a19b c43b a19b c4bb
00000220: a49b c4bb 9a9b c4bb a49b c4bb a29b c43b
00000230: a09b c43b 9f9b c43b a29b c4bb a19b c4bb
00000240: a09b c43b a09b c4bb a39b c43b a49b c4bb
00000250: a19b c43b a29b c43b a19b c43b a09b c4bb
00000260: a19b c43b a09b c4bb a49b c4bb a19b c43b
00000270: 9c9b c43b 7f9b c4bb a09b c43b 9199 c4bb
00000280: a39b c4bb a39b c4bb a59b c43b a29b c43b
00000290: a39b c4bb a19b c4bb a09b c4bb a09b c4bb
000002a0: a39b c4bb a29b c4bb a29b c43b a29b c43b
000002b0: a09b c4bb 929b c43b 939b c43b 6d9b c43b
000002c0: a39b c43b a19b c4bb 939b c4bb a39b c4bb
000002d0: 929b c43b 9b9b c43b a19b c4bb 9e9b c43b
000002e0: a39b c43b a39b c4bb a59b c4bb a49b c43b
000002f0: 9d9b c43b a39b c4bb a39b c4bb a09b c43b
00000300: a59b c4bb 959b c4bb a59b c4bb a29b c43b
00000310: a39b c43b a29b c43b 999b c43b a29b c4bb
00000320: a39b c4bb 759b c43b 9f9b c4bb a39b c43b
00000330: a59b c43b a49b c4bb 8e9b c43b a49b c4bb
00000340: 949b c4bb a09b c43b a49a c43b 9f9b c4bb
00000350: a59b c4bb 959b c43b a59b c4bb a39b c43b
00000360: a49b c43b a09b c43b a09b c4bb a39b c4bb
00000370: a59b c43b a29b c4bb 9c9b c43b a19b c43b
00000380: a19b c43b 5e9b c4bb a39b c43b a29b c4bb
00000390: 4c8e c4bb a29b c4bb 999b c43b a29b c43b
000003a0: 939b c43b a49b c4bb 999b c43b a29b c43b
000003b0: a39b c4bb a39b c43b 9c9b c4bb a09b c43b
000003c0: a59b c4bb a19b c4bb a09b c4bb a59b c4bb
000003d0: a49b c4bb a29b c43b a09b c4bb a29b c4bb
000003e0: a59b c43b a49b c43b a39b c4bb a49b c43b
000003f0: a49b c43b a19b c4bb 9f9b c4bb a19b c43b
-0.0059999977 0.0059999987 0.005999997 0.005999998 0.0059999973 0.005999995 0.0059999987 0.0059999987
0.005999999 0.0059999977 0.00599999 -0.005999999 0.005999998 -0.005999999 0.0059999996 0.0059999973
0.0059999977 0.005999993 -0.0059999987 -0.005999998 -0.005999999 0.005999999 0.0059999977 0.0059999987
0.0059999987 0.0059999926 -0.0059999973 -0.005999998 0.005999999 0.0059999987 -0.005999998 0.0059999977
-0.0059999954 0.005999998 0.005999999 0.005999999 -0.005999999 -0.0059999973 -0.0059999987 -0.0059999996
-0.005999994 -0.005999999 0.005999999 -0.005999999 -0.0059999996 0.0059999973 0.005999996 -0.005999998
0.0059999996 0.0059999977 -0.005999998 0.0059999973 0.0059999963 0.005999965 0.005999989 0.005999999
-0.0059999987 -0.0059999996 -0.005999999 0.0059999987 0.0059999996 0.0059999987 -0.005999992 -0.0059999973
-0.0059999973 -0.0059999977 0.005999998 0.005999998 0.0059999973 -0.005999996 0.005999998 -0.005999999
0.0059999987 -0.0059999987 0.005999998 0.005999997 -0.0059999987 0.0059999977 0.0059999996 0.0059999973
0.0059999987 -0.0059999367 0.0059999977 -0.0059999987 -0.005999997 0.0059999987 0.0059999973 -0.0059999772
-0.0059999977 -0.0059999987 0.005999998 -0.0059999987 0.005999999 -0.005999992 -0.0059999973 0.0059999963
-0.0059999963 -0.005999998 0.0059999917 -0.0059999954 0.005999999 -0.0059999977 -0.005999998 0.005999996
-0.0059999977 0.0059999987 -0.005999998 0.0059999977 -0.0059999977 -0.005999999 0.0059999996 -0.005999998
-0.005999883 0.0059999977 -0.005999999 0.0059999977 -0.005999998 -0.0059999996 -0.0059999973 0.0059999973
-0.005999998 -0.005999999 0.005999997 -0.0059999987 -0.0059999987 0.0059999977 0.005999999 -0.005999999
0.0059999977 -0.005999989 -0.005999999 0.0059999977 -0.0059999987 -0.0059999987 0.0059999977 -0.0059999977
-0.005999999 -0.0059999945 -0.005999999 0.005999998 0.0059999973 0.005999997 -0.005999998 -0.0059999977
0.0059999973 -0.0059999973 0.0059999987 -0.005999999 0.0059999977 0.005999998 0.0059999977 -0.0059999973
0.0059999977 -0.0059999973 -0.005999999 0.0059999977 0.0059999954 -0.005999982 0.0059999973 -0.005999752
-0.0059999987 -0.0059999987 0.0059999996 0.005999998 -0.0059999987 -0.0059999977 -0.0059999973 -0.0059999973
-0.0059999987 -0.005999998 0.005999998 0.005999998 -0.0059999973 0.0059999907 0.005999991 0.0059999735
0.0059999987 -0.0059999977 -0.005999991 -0.0059999987 0.0059999907 0.005999995 -0.0059999977 0.0059999963
0.0059999987 -0.0059999987 -0.0059999996 0.005999999 0.005999996 -0.0059999987 -0.0059999987 0.0059999973
-0.0059999996 -0.005999992 -0.0059999996 0.005999998 0.0059999987 0.005999998 0.005999994 -0.005999998
-0.0059999987 0.0059999772 -0.005999997 0.0059999987 0.0059999996 -0.005999999 0.005999989 -0.005999999
-0.0059999917 0.0059999973 0.00599988 -0.005999997 -0.0059999996 0.005999992 -0.0059999996 0.0059999987
0.005999999 0.0059999973 -0.0059999973 -0.0059999987 0.0059999996 -0.005999998 0.0059999954 0.0059999977
0.0059999977 -0.0059999665 0.0059999987 -0.005999998 -0.0059984084 -0.005999998 0.005999994 0.005999998
0.005999991 -0.005999999 0.005999994 0.005999998 -0.0059999987 0.0059999987 -0.0059999954 0.0059999973
-0.0059999996 -0.0059999977 -0.0059999973 -0.0059999996 -0.005999999 0.005999998 -0.0059999973 -0.005999998
0.0059999996 0.005999999 -0.0059999987 0.005999999 0.005999999 -0.0059999977 -0.005999997 0.0059999977

layers.6.weight f4 [1, 256]
00000000: 70af 5fbd 0c65 bf3d 749e 713d 0024 c73d
00000010: fdb4 5a3d 30f9 cb3c 3418 033e 20c7 023e
00000020: 8ccb e23d 5895 5c3d ba45 6e3b 8afc f0bd
00000030: 5e8e 853d 8a82 0ebe 65d3 e33d e853 be3d
00000040: c0bb 443d d102 a63c 35da a5bd 56e3 ecbd
00000050: 019c 01be dc77 083e 38f2 293d ec07 d13d
00000060: 42d8 0d3e beca 403c 1439 51bd 0809 32bd
00000070: 4ce7 f93d 567e cd3d c937 babd 737b 743d
00000080: 9e15 7ebc 3a08 b03d 5434 ea3d b056 fc3d
00000090: 48bf 0fbe 237c cebc 4a98 0abe e1a6 e9bd
000000a0: 58bf b9bc ec92 f7bd 00d3 c23d beb6 adbd
000000b0: 29a0 e3bd b4ed 9d3d e068 023d 95c1 1bbe
000000c0: 1c6e 003e 129d 083e 1c8e 7dbd 683e 1c3d
000000d0: bc60 043d 0a7c 13bb 9e46 153c 8a60 1c3e
000000e0: 5265 f7bd 780f d5bd 6f26 abbd 92cb 073e
000000f0: 7cac d63d 680b d23d 8994 dbbc 761a 89bd
00000100: 4ad8 9abd 2c6a 94bd 6451 a03d b8a8 903d
00000110: acbd 2a3d 7336 34bd 826a 9e3d 93fe 06be
00000120: e4d8 e03d 6f2a b8bd b00f f33d 681a 113d
00000130: 99ca 9bbd c8ce ca3d c605 073e d02d 0a3d
00000140: 603f 033e 7a7c f3bb fec6 883d e55b b8bd
00000150: ba8d 4abd b891 463d cb6e 093d 62d7 46bc
00000160: b40b 42bd d2b3 babd d813 dc3d 3839 e5bd
00000170: ae42 d33d bdb7 9bbb 9ea0 93bd 6fd5 3b3d
00000180: 6380 cfbc 718b 8cbd 11ce 883c 8d00 37bd
00000190: d62d 1c3e a42a 5ebd 2eb4 45bd 5f08 e93c
000001a0: f207 62bd 7e52 1f3e 8f5d 96bd 5c80 333d
000001b0: 8bca b6bd 532d b9bd 1809 c73d 5546 9ebd
000001c0: 0434 e0bb 6036 613d 34b4 d4bd 2cc6 7a3d
000001d0: f737 9dbd 36af dfbd 9719 f5bc 2446 a73d
000001e0: f026 79bd 03aa c1bd 3dde 163d 086e 05be
000001f0: d788 1ebe 4017 373d 7e9d d13d 94f2 f8bd
00000200: 80c0 603d 6c91 d4ba 1200 e4bd 46c9 8d3d
00000210: 7eb6 d7bd 66e1 cebd bc02 7b3d 983c 6dbd
00000220: 779b fbbd 2db9 32bc bad3 09be 70de 9a3d
00000230: b473 693d 04ab 013d 79d9 91bd b00e 6ebd
00000240: 1ce4 913d b445 26bd 786f d13d bfca 06be
00000250: 5482 d43d f6ec 953d 969e 813d ecac 20bd
00000260: 33b9 5e3d 6407 48bd 2203 12be a802 8e3d
00000270: df5e a43c 2247 4fbc fdc3 683d 434a d2bb
00000280: 1920 03be cd44 f3bd 1422 0d3e 2a71 053e
00000290: 3258 0bbe 7d89 c4bd 2508 38bd c70b dabc
000002a0: b95f 67bd 0c57 f2bd c451 603d 3065 dd3d
000002b0: 6f31 6abd 1d2e ac3b f1c2 893c f674 2fbb
000002c0: cc66 c83d e3a1 40bd 3adc 6dbb ac20 0ebe
000002d0: 3185 833c 1e0b 713c e074 8abd 7bbb 073d
000002e0: c2cc a63d 0e11 a2bd 1160 14be 1cc9 ea3d
000002f0: 3cbe 0d3d 8a7c d0bd 5c35 01be 2296 9b3d
00000300: 06bd ebbd 7076 94bc bc03 d5bd 58e9 903d
00000310: dad3 b83d 0884 0c3e 0333 103d 006c 17bd
00000320: 84e8 a0bd e26d 1f3c 6b03 b6bc 54be d03d
00000330: c8e2 d73d e95e 10be fa89 473b ddb5 efbd
00000340: 1d6d a9bb e769 f33c 034c db3b ef2f aebc
00000350: 7d01 e6bd 8efe 033c e06f b9bd 20f0 c73d
00000360: 3811 1a3e 20cf 2b3d c614 92bd d718 fabd
00000370: b8f3 bf3d 57c7 bdbd 41e7 cf3c dcba 913d
00000380: d2a3 8e3d 8886 643b 3cbb d63d 27c4 bbbd
00000390: 6461 c7bb 8092 1abe 6157 b73c ca36 903d
000003a0: 516a 843c dd6c 09be 4779 dc3c 3409 6c3d
000003b0: 74e4 01be 984e ea3d 2d60 04bd e6d2 823d
000003c0: e074 00be 2c5f 34bd e848 f3bc fcae febd
000003d0: 0110 a4bd b01b ae3d 4ab8 5ebd dcc5 89bd
000003e0: 7867 c53d 800d 203e 7c61 17be 20d3 f83d
000003f0: da91 223e f053 8fbd b73f e2bc a7f9 3a3d
-0.05461067 0.09345445 0.058989003 0.09723663 0.05339526 0.024899095 0.12802202 0.12771273
0.1107398 0.053853363 0.0036357478 -0.11766918 0.06521295 -0.13916984 0.11124305 0.092933476
0.048030615 0.020265015 -0.0809826 -0.115667984 -0.12657167 0.13326973 0.041490763 0.10206589
0.13852027 0.0117670875 -0.051079825 -0.043465644 0.122023195 0.10033862 -0.090926714 0.059688043
-0.015508084 0.08595319 0.11435762 0.12321222 -0.14037812 -0.025205677 -0.13534656 -0.11408783
-0.022674248 -0.1208857 0.09512901 -0.08482121 -0.111145325 0.07711354 0.031838298 -0.15210564
0.12542003 0.13341168 -0.061903104 0.038145453 0.032318816 -0.0022504353 0.009111075 0.15271202
-0.12079872 -0.10403341 -0.0835694 0.1326125 0.104821175 0.10256082 -0.026804226 -0.066945
-0.07560785 -0.07246813 0.07828024 0.070634305 0.04168479 -0.04399724 0.077351585 -0.1318305
0.109788686 -0.089924686 0.118682265 0.035425574 -0.07607002 0.09902722 0.13185796 0.033735096
0.12817144 -0.0074306102 0.0667858 -0.090019025 -0.049451567 0.048478812 0.033552926 -0.012136312
-0.047374442 -0.09116329 0.107459724 -0.11192554 0.103154525 -0.004752128 -0.0720837 0.045857843
-0.025329774 -0.06862534 0.016699823 -0.04467826 0.1525186 -0.054239884 -0.048267536 0.028446374
-0.05518336 0.15558812 -0.07342064 0.043823585 -0.08925351 -0.09041848 0.09718531 -0.077282585
-0.0068421382 0.054983497 -0.103859335 0.061224148 -0.0767669 -0.10922091 -0.029919429 0.08167675
-0.06082815 -0.09456255 0.036833037 -0.13030255 -0.15481888 0.044699907 0.102351174 -0.12155643
0.054871082 -0.0016217656 -0.11132826 0.069231555 -0.105328545 -0.10101585 0.061281905 -0.057919115
-0.12285512 -0.010908407 -0.13459674 0.07561958 0.05699511 0.031657234 -0.07121558 -0.058119476
0.071235865 -0.040593818 0.10226339 -0.13163279 0.103764206 0.07320587 0.06329076 -0.03922741
0.05437584 -0.048835173 -0.14259008 0.069341004 0.02006477 -0.012651237 0.056827534 -0.006417544
-0.12805213 -0.11878357 0.13782531 0.1303145 -0.13607863 -0.09596536 -0.044929642 -0.026616944
-0.056487773 -0.11833009 0.054765478 0.108103156 -0.05717605 0.0052545206 0.016816588 -0.0026772595
0.09785232 -0.047029387 -0.0036294595 -0.13879651 0.016054722 0.014712123 -0.067605734 0.03313778
0.08144523 -0.07913409 -0.14489771 0.1146414 0.03460525 -0.10180004 -0.12618011 0.07596995
-0.11510663 -0.018122882 -0.10401103 0.07075757 0.090247825 0.13722241 0.0352049 -0.03696823
-0.07856849 0.009730788 -0.022218427 0.10192552 0.10541302 -0.14098705 0.003044723 -0.117046095
-0.005170478 0.029713584 0.006692411 -0.02126309 -0.112307526 0.008056296 -0.090545416 0.09762597
0.15045631 0.041945577 -0.071328685 -0.12211769 0.093726575 -0.09266537 0.025378825 0.07115719
0.0696484 0.0034870226 0.10484931 -0.091682725 -0.006084608 -0.15094948 0.022380533 0.070417
0.016163977 -0.13420434 0.026913298 0.057625964 -0.12684804 0.11440772 -0.032318283 0.06387882
-0.12544584 -0.044036075 -0.02969785 -0.12435719 -0.08010865 0.08501375 -0.05437497 -0.06727192
0.09638876 0.1563015 -0.14783281 0.12149644 0.1587595 -0.06998432 -0.027618272 0.045648243
