Results_dir/2022-03-20-18-21-46/actor.pth (torch, 274391 bytes, 6 tensors)

layers.0.weight f4 [256, 6]
0	0x3d596ed1	0.0530842
1	0xbdbf7ac9	-0.09349591
2	0x3e8064a7	0.25076792
3	0x3b8fa339	0.0043834713
4	0x3d36e1e0	0.044649005
5	0x3c0ad5c5	0.008473818
6	0xbde32749	-0.110914774
7	0x3c195662	0.009358974
8	0x3cfd5645	0.030924926
9	0xbdc4d437	-0.09610789
10	0x3d73a5b6	0.059484206
11	0xbde57852	-0.1120459
12	0xbe18c713	-0.14919691
13	0xbe11e3dd	-0.14247079
14	0x3d880413	0.06641402
15	0xbde46013	-0.11151137
16	0x3e0810e2	0.1328769
17	0xbe021599	-0.12703551
18	0xbd99458e	-0.0748397
19	0xbae186ea	-0.0017206345
20	0x3e2752bc	0.16340154
21	0xbd828f83	-0.06375029
22	0x3e05c60f	0.13063835
23	0x3ce0b1c7	0.02742852
24	0xbd65c965	-0.056100268
25	0xbdbfe00e	-0.09368907
26	0x3d889c23	0.06670406
27	0xbd72a0f7	-0.05923554
28	0x3e1c576e	0.15267727
29	0xbe050171	-0.12988831
30	0xbd5490bc	-0.051895842
31	0x3e1fd042	0.15606788
32	0xbe52a135	-0.20569308
33	0xbd6ef67a	-0.058340527
34	0x3d078da0	0.03309405
35	0xbceccc46	-0.028905999
36	0xbd95c01f	-0.07312035
37	0x3d506584	0.050878063
38	0xbb15a8f4	-0.00228363
39	0xbdf74359	-0.120733924
40	0x3cd07470	0.025446147
41	0x3d30a8e7	0.043129828
42	0x3e1285b6	0.14308819
43	0xbe0ddbb2	-0.13853338
44	0x3e2dfa22	0.1698995
45	0xbd05944d	-0.032612134
46	0x3daa1c85	0.08306221
47	0xbd3003a6	-0.04297223
48	0x3db67864	0.089096814
49	0xbe1e215d	-0.15442415
50	0x3e6cf839	0.23141564
51	0x3c102f83	0.00880039
52	0x3d74bf12	0.05975253
53	0x3dcc1ded	0.099666454
54	0xbda63769	-0.081160374
55	0x3d0e691f	0.03476822
56	0xbe1296c7	-0.1431533
57	0x3df91fb6	0.121642515
58	0xbd8fb7bf	-0.07017469
59	0xbe06a0bc	-0.13147253
60	0x3cf90375	0.030397156
61	0xbde62fe3	-0.112396024
62	0x3e6a7420	0.2289586
63	0x3d0dc40e	0.0346108
64	0x3dbcabbf	0.092124455
65	0x3d8b8d76	0.06814091
66	0xbde47a85	-0.11156181
67	0x3e44ea7b	0.19230072
68	0x3d3e6247	0.046480443
69	0x3e0a741e	0.13520858
70	0x3df6f267	0.12057953
71	0xbe00cb64	-0.12577587
72	0x3e01f743	0.12691979
73	0xbd7ec37d	-0.06219815
74	0x3d526bfe	0.05137252
75	0x3db55594	0.08854213
76	0xbe0bf1cd	-0.13666458
77	0x3e05871d	0.13039823
78	0x3c05162b	0.008122961
79	0xbe7ba7bf	-0.24575709
80	0x3e051e8a	0.12999931
81	0xbb76031c	-0.0037538474
82	0xbca9ad56	-0.020712536
83	0x3d1aa433	0.03775425
84	0x3c45bf70	0.012069568
85	0x3e400c4c	0.18754691
86	0xbd958839	-0.07301373
87	0x3ce7735d	0.028253252
88	0xbdcd24cd	-0.10016785
89	0x3dea623f	0.1144452
90	0xbe19602c	-0.14978093
91	0x3ddabb5d	0.10680268
92	0x3d560998	0.052255243
93	0xbdee2bd8	-0.11629456
94	0x3dfaaae5	0.12239627
95	0xbd1c0104	-0.038086906
96	0x3c6dd2b2	0.014515566
97	0xbe504efe	-0.20342633
98	0x3ddbdbf4	0.10735312
99	0x3d96ba34	0.07359734
100	0xba601c5e	-0.0008549149
101	0xbdd31ba7	-0.10308009
102	0xbcc135be	-0.023585197
103	0xbd90c2ea	-0.07068427
104	0xbda51785	-0.080611266
105	0xbe12bfee	-0.14331028
106	0x3dba6a17	0.09102266
107	0x3e172428	0.14759886
108	0xbe138584	-0.14406401
109	0x3d433d71	0.047666017
110	0xbe058207	-0.13037883
111	0xbe080a85	-0.13285263
112	0xbca48398	-0.02008228
113	0xbd93e1af	-0.0722078
114	0xbb1102e6	-0.0022126972
115	0xbe3db0e8	-0.18524516
116	0x3c927bb3	0.01788125
117	0x3cf67107	0.030083193
118	0x3e164520	0.14674807
119	0x3d33ce88	0.043898135
120	0xbc758803	-0.014986041
121	0x3e1f52c6	0.1555892
122	0xbd39e17c	-0.045381054
123	0xbcd7aa7b	-0.026326409
124	0xbd81724d	-0.06320629
125	0x3df420ff	0.11920356
126	0x3dade02d	0.08490024
127	0x3e192ae9	0.14957775
128	0xbc212315	-0.009835024
129	0xbcd186e4	-0.025577016
130	0x3dfc1c22	0.123100534
131	0x3d9b5abc	0.075856656
132	0x3d831912	0.06401266
133	0x3e146699	0.14492263
134	0xbe4e022b	-0.20118015
135	0xba59938e	-0.00082998804
136	0xbbe470ce	-0.006971455
137	0xbcce33aa	-0.02517112
138	0xbd26393f	-0.040581938
139	0xbdc742cf	-0.097295396
140	0x3d11e0f9	0.03561494
141	0xbe182c4a	-0.14860645
142	0xbd018692	-0.031622477
143	0xbe1222c9	-0.14271082
144	0x3d56efcd	0.052474786
145	0x3e108b8d	0.14115734
146	0xbe4ef051	-0.20208861
147	0x3e124e88	0.1428777
148	0xbdf707f2	-0.12062062
149	0xbe22c4e2	-0.15895417
150	0xbdb5a71b	-0.088697635
151	0xbdf90318	-0.12158793
152	0x3dac1adb	0.0840356
153	0xbd660590	-0.05615765
154	0xbe0cecd1	-0.13762213
155	0xbd5f306c	-0.054489538
156	0x3df33b4a	0.11876543
157	0x3e6222d2	0.22083595
158	0xbe3b6dbf	-0.18303584
159	0x3d89a759	0.06721372
160	0x3d99bc32	0.075065985
161	0xbdc9685f	-0.0983436
162	0xbde86839	-0.11348004
163	0x3e34b460	0.17646933
164	0xbdd9ebab	-0.10640653
165	0x3dd25496	0.1027004
166	0xbd77eecf	-0.06053048
167	0x3e012629	0.12612213
168	0xbddfdad7	-0.10930412
169	0x3dc06015	0.09393326
170	0xbd1ac2ed	-0.037783552
171	0xbdd25f6b	-0.10272106
172	0x3d99487e	0.0748453
173	0xbc41a44a	-0.011818955
174	0x3d24d115	0.04023846
175	0xbdf87fa0	-0.121337175
176	0x3e2f9e01	0.17150117
177	0x3db76548	0.08954865
178	0xbc804cdd	-0.015661651
179	0x3d948eb6	0.072537825
180	0x3d33e312	0.043917723
181	0x3e151f9d	0.14562841
182	0xbe3a30b0	-0.18182635
183	0x3ded6d8d	0.11593161
184	0xbcb48c87	-0.022039665
185	0xbccaa51c	-0.024736933
186	0xbdc62d90	-0.09676659
187	0xbe49a22a	-0.19690767
188	0xbd3c9c83	-0.0460477
189	0x3c6abaab	0.014326732
190	0x3e0fd73c	0.14046949
191	0x3d327788	0.043571025
192	0xbccdfcf8	-0.025145039
193	0xbe1c1612	-0.15242794
194	0xbd3922f8	-0.045199364
195	0x3e11c328	0.14234602
196	0x3d3a5411	0.04549033
197	0xbcd52d27	-0.026022507
198	0xbd8a2c0d	-0.06746683
199	0x3de1a8d9	0.11018533
200	0xbdf810c6	-0.12112574
201	0xbb747b93	-0.0037305101
202	0xbdbafd8e	-0.09130393
203	0x3ddbf238	0.10739559
204	0xbd70af46	-0.058760904
205	0x3db3c802	0.08778383
206	0x3c43c069	0.01194773
207	0xbd7ae6e4	-0.06125535
208	0x3dcd9b02	0.10039331
209	0xbd112200	-0.035432816
210	0x3dfb38a1	0.122666605
211	0x3e0ce130	0.13757777
212	0xbd81d2ff	-0.063390724
213	0x3db6e361	0.08930088
214	0x3d0d8869	0.03455392
215	0x3e1709db	0.14749853
216	0x3dd4fd8b	0.10399922
217	0xbc2f24bf	-0.010689913
218	0x3dd44b06	0.10365872
219	0xbdcd22d2	-0.10016407
220	0xbdf847d3	-0.121230744
221	0x3dc13e6c	0.09435734
222	0x3d3fba39	0.046808455
223	0x3e3c3dbe	0.18382928
224	0xbe45b167	-0.19305955
225	0x3c7db4c8	0.015484996
226	0xbcb14086	-0.021637212
227	0xbd63b66d	-0.055593897
228	0xbe09d7c6	-0.13461217
229	0xbcb115fc	-0.021616928
230	0x3dfdd648	0.123943865
231	0x3d12e33a	0.03586123
232	0x3dcdb580	0.10044384
233	0xbd8fb112	-0.07016195
234	0xbc3f5cd9	-0.011679851
235	0x3d64894b	0.055794995
236	0xbe347d46	-0.17625913
237	0x3dc590ba	0.09646745
238	0xbda78d3a	-0.08181234
239	0x3e0b30d0	0.13592839
240	0x3dc96ec2	0.098355785
241	0x3c91caee	0.01779696
242	0xbda64b04	-0.08119777
243	0x3d9c6a86	0.07637505
244	0xbd033392	-0.032031603
245	0x3de460ca	0.111512735
246	0xbca52a0f	-0.020161657
247	0x3e02b7ad	0.12765379
248	0x3d664445	0.05621745
249	0xbd80ad03	-0.06282999
250	0xbd0db1b0	-0.034593284
251	0xbe044577	-0.12917124
252	0xbd636713	-0.05551822
253	0xbda224fd	-0.07917211
254	0x3c032d1d	0.008006361
255	0x3c42f771	0.011899815

layers.0.bias f4 [256]
0	0x3b32485e	0.0027203779
1	0x3c64268f	0.013925209
2	0x3baf39db	0.005347473
3	0x3b827406	0.003981116
4	0x3abc4800	0.0014364719
5	0x3b1eb75a	0.0024218173
6	0x3b94b369	0.004537989
7	0x3c2cee00	0.0105547905
8	0x3a14af2b	0.0005671854
9	0xb98dd0eb	-0.00027049272
10	0xbab38448	-0.0013696039
11	0xbb903747	-0.004401121
12	0xb90690fe	-0.0001283325
13	0x3c8a0fed	0.016853297
14	0xbab52680	-0.0013820678
15	0x3b866161	0.004100964
16	0xbbe15736	-0.0068768514
17	0x3bd0780d	0.0063619674
18	0xbac620de	-0.0015115996
19	0xbad72c22	-0.0016416351
20	0x3c82ae68	0.015952304
21	0x3b56d73f	0.0032782105
22	0x3b990b01	0.004670501
23	0x3b9923cc	0.004673457
24	0xbc0167c1	-0.007898272
25	0x3bdf699d	0.00681801
26	0xbbc2cd8b	-0.005944913
27	0xbbf1ce64	-0.00737934
28	0x3b20e5bb	0.0024550993
29	0xbb3bbc9e	-0.002864636
30	0xbbe79d94	-0.0070683453
31	0x3b02c5f3	0.0019954413
32	0x39d9d68c	0.00041549315
33	0x3a7ac0cb	0.00095654716
34	0x3aedfe0d	0.0018157378
35	0x3a85e05d	0.001021396
36	0x3b45d8e9	0.0030189103
37	0xbaf9c838	-0.0019056862
38	0xba8ab5ed	-0.0010582783
39	0xbb2c20a0	-0.0026264563
40	0x39356b17	0.00017301399
41	0x3bbc18ec	0.0057402756
42	0xbc5aeb94	-0.01336183
43	0x3b2c605b	0.002630255
44	0x3b4de4c2	0.0031416868
45	0xbb87ee53	-0.0041482835
46	0xbc359063	-0.011081788
47	0x3c00cff2	0.007862078
48	0xbb81a025	-0.0039558583
49	0xbafd323e	-0.0019317342
50	0x3bd7e668	0.006588746
51	0x3bb09508	0.0053888597
52	0x3a16df65	0.0005755334
53	0x3c95751f	0.018244324
54	0x3c271d2a	0.010199824
55	0x3bae98a6	0.0053282557
56	0x3be026bd	0.0068405555
57	0xbbf3a5aa	-0.00743552
58	0x3b0b6f3c	0.0021276018
59	0xbb886004	-0.0041618366
60	0xbad6034f	-0.001632789
61	0x3af1100e	0.0018391625
62	0x3b231778	0.0024885815
63	0xb982667f	-0.00024871898
64	0xba1dda83	-0.00060216355
65	0xb8eb5aab	-0.000112225614
66	0xbbae8a13	-0.0053265183
67	0xbae58832	-0.0017511903
68	0x3bb53edf	0.0055311765
69	0xbc51c054	-0.012802202
70	0xbb0d02a4	-0.0021516467
71	0xbb7c4806	-0.0038495078
72	0xbb933be6	-0.0044932244
73	0x3951b055	0.00019997482
74	0x3977b51f	0.00023623228
75	0x3b7a6575	0.0038207446
76	0xbb552ce2	-0.0032527973
77	0xbb3013bc	-0.0026867231
78	0x3b9d5cc9	0.0048023206
79	0xbb7a33c8	-0.0038177837
80	0xba1b6fd8	-0.0005929447
81	0xbb7eab30	-0.003885936
82	0x3be734cd	0.007055855
83	0xbabc250e	-0.0014354305
84	0xbaf1b782	-0.001844153
85	0x3c89945b	0.016794374
86	0x3b6d7677	0.003623394
87	0xbbbd219d	-0.0057718293
88	0x3afb29ff	0.0019162296
89	0xbba55f4e	-0.0050467616
90	0x3ba32f0c	0.0049799737
91	0x3b8bc177	0.004265006
92	0x3c891862	0.01673526
93	0x3bed97bc	0.007250754
94	0xbb233bf0	-0.0024907552
95	0xbba78b75	-0.00511306
96	0x3c044884	0.00807393
97	0x3c42970d	0.011876834
98	0x3b614fb9	0.0034379794
99	0xbb72b5e6	-0.003703469
100	0xbb733101	-0.0037108066
101	0x3b6830d6	0.00354295
102	0xb9a73e0e	-0.00031898957
103	0xbafab936	-0.0019128683
104	0xba407ede	-0.00073431234
105	0xbb8610b6	-0.0040913476
106	0x3b7d4c7a	0.003865032
107	0xbb9d6f01	-0.0048044925
108	0xbb02e8c1	-0.0019975158
109	0x3b912e49	0.0044305664
110	0xbb96f1bf	-0.004606455
111	0xbb11355f	-0.0022157056
112	0x3c7a3b2b	0.015272896
113	0x3b9af308	0.0047286786
114	0xb9484130	-0.0001909777
115	0x3b610fc8	0.0034341682
116	0xbbe4be44	-0.0069806892
117	0xbbdc06e5	-0.006714689
118	0xbae6bb30	-0.0017603394
119	0x3b8579e8	0.0040733702
120	0x3b3336a1	0.0027345794
121	0x3c9c18ea	0.019054849
122	0x3c4c8d9d	0.012484935
123	0xbad3548b	-0.0016123218
124	0xbca9a2d4	-0.020707525
125	0x3c2ccb2b	0.010546486
126	0x3bd53a54	0.0065071974
127	0xbb497cc9	-0.0030744544
128	0x3bfc3f92	0.007698008
129	0xbb2f97d1	-0.002679337
130	0x3bade1ad	0.0053064437
131	0x3b09e464	0.0021040672
132	0x3b3635f6	0.002780316
133	0x3c5fac4b	0.013651918
134	0xba40d0fb	-0.0007355359
135	0xbb36287a	-0.0027795122
136	0x3cb876d0	0.022517592
137	0xbb295a56	-0.0025841198
138	0x3b7f4f4b	0.0038957174
139	0xb8ae6b6f	-8.3169776e-05
140	0xbafc997c	-0.0019271816
141	0xbb6f8031	-0.0036544914
142	0x3b9f09c0	0.004853457
143	0x3b53bd54	0.0032308893
144	0xbbfc6983	-0.0077030077
145	0xbbbf8674	-0.0058448855
146	0x3ba60fc5	0.005067798
147	0xbaa68026	-0.0012702986
148	0x3b97a294	0.004627535
149	0x3b5cf2a8	0.003371397
150	0x3baa3e42	0.00519541
151	0x3b882799	0.004155111
152	0x3796c2a0	1.7972023e-05
153	0xbba59e74	-0.0050542895
154	0x3b045931	0.0020194764
155	0x3bde63d6	0.0067868037
156	0xbb9e0d39	-0.0048233536
157	0x3afa3e57	0.0019092065
158	0xbba2b735	-0.0049656876
159	0x3ca61259	0.02027242
160	0xbb24dc18	-0.00251556
161	0xbb24c7b7	-0.0025143453
162	0xbc1e3fb0	-0.009658739
163	0x3bf7b6c9	0.0075596315
164	0xbbefd5ad	-0.0073191733
165	0xbc363471	-0.011120901
166	0xbb097036	-0.0020971424
167	0xba21c4cc	-0.00061709876
168	0xbb5e2c4f	-0.0033900922
169	0x3b863a60	0.0040963143
170	0x3a8ca520	0.0010730363
171	0xb9a76a3e	-0.0003193188
172	0xbba4e3ff	-0.005032062
173	0xbaa6022e	-0.0012665445
174	0x39dc6086	0.00042033585
175	0xba380150	-0.00070192385
176	0xbc12e325	-0.008965288
177	0x3bf504d3	0.0074773817
178	0xb9dd7aa5	-0.00042243782
179	0xbb183e35	-0.0023230438
180	0xbbc27c51	-0.00593523
181	0xbb8e7457	-0.004347365
182	0x3c62fb02	0.01385379
183	0x3bd36969	0.006451775
184	0x3bc1b920	0.005911961
185	0x3b906b7f	0.004407346
186	0x3b230335	0.0024873738
187	0xbb9bd289	-0.0047553224
188	0x3c6c2ebd	0.01441544
189	0x3c315903	0.010824445
190	0xbc03b1f5	-0.008038034
191	0xb9600273	-0.00021363217
192	0x3b9fdee8	0.0048788674
193	0x3c0a8e8f	0.00845684
194	0x3b44895e	0.0029989104
195	0xba1d69a2	-0.0006004815
196	0x3b08239c	0.0020773178
197	0xbbc62445	-0.006046804
198	0x3d0609bf	0.03272414
199	0x3d12d718	0.03584966
200	0xbb76edbb	-0.003767832
201	0x383bdb86	4.478872e-05
202	0x3b8e856e	0.004349402
203	0x3c026dfe	0.0079607945
204	0xbb6f3559	-0.0036500304
205	0x3c6762cf	0.014122679
206	0x39b5cbfd	0.00034674993
207	0x3a17a0ed	0.00057841727
208	0xbb7413a6	-0.0037243157
209	0x3b7a9adc	0.0038239276
210	0x3c17dc5d	0.009268847
211	0x3b80db42	0.0039323876
212	0x3b8dd82a	0.0043287473
213	0xbb69912a	-0.0035639503
214	0x3ca50798	0.020145223
215	0x3c0b5925	0.00850514
216	0x3b97332c	0.0046142545
217	0x3c6fa2eb	0.014626245
218	0x3c999b0e	0.018750694
219	0x3a42a2b3	0.0007424757
220	0x3ba62a26	0.0050709425
221	0x3b705b7a	0.0036675618
222	0x3bd32084	0.006443085
223	0xbc3246f1	-0.010881172
224	0x3b900ee3	0.004396306
225	0xbae774f0	-0.0017658751
226	0x3bbbedf6	0.0057351543
227	0x3bc50408	0.0060124435
228	0x3c37b4b6	0.011212518
229	0x3c083148	0.008312531
230	0x3c2f787d	0.010709879
231	0x3c0e038d	0.008667839
232	0x3a79021c	0.00094989105
233	0x3b0877b7	0.0020823309
234	0xbadda675	-0.001691057
235	0x3c99e160	0.018784225
236	0x3a13b4bd	0.0005634537
237	0x3b10c5cb	0.002209055
238	0xbb9b0098	-0.0047302954
239	0x3bd7838f	0.0065769623
240	0x386bd79c	5.6229168e-05
241	0x3be6e67a	0.007046518
242	0xbb86589a	-0.0040999176
243	0x3c8bd9ef	0.017071692
244	0x3c250ad9	0.010073387
245	0x3af36e2b	0.0018572261
246	0xbc0fa117	-0.008766434
247	0xb9685ea5	-0.00022160502
248	0x399c7c5d	0.00029847297
249	0x3ba8a8a9	0.005147059
250	0x3cbccfd1	0.023048313
251	0x3aab6fec	0.001307962
252	0xbab05b9e	-0.0013455038
253	0x3c955560	0.018229187
254	0xbb072172	-0.00206193
255	0x3b6af035	0.003584874

layers.2.weight f4 [256, 256]
0	0x3d36e344	0.04465033
1	0xbd0108f0	-0.031502664
2	0xbda1fcbe	-0.07909535
3	0xbd4e8a8c	-0.050425097
4	0x3d902275	0.07037822
5	0xbdc5c8e3	-0.09657457
6	0x3da342f8	0.07971758
7	0xbb7f3ae0	-0.0038945004
8	0xbbb44264	-0.0055010784
9	0xbd345745	-0.04402854
10	0x3d3a8882	0.04554034
11	0xbdbd200e	-0.092346296
12	0x3da07d1c	0.07836363
13	0xbd1271d9	-0.035753105
14	0xbd9cf389	-0.07663638
15	0xbdd0f0ce	-0.1020218
16	0x3d207728	0.039176136
17	0xba547e86	-0.00081060117
18	0xbc02ebc5	-0.007990782
19	0xbca6a758	-0.020343468
20	0x3ce1c7c5	0.027561078
21	0x3c8df433	0.017328357
22	0xbdd9d9ae	-0.10637222
23	0x3d7c0695	0.061529715
24	0x3d26844b	0.04065351
25	0xbcba8981	-0.022770645
26	0xbc62366c	-0.0138069205
27	0xbd1cfa00	-0.038324356
28	0x3c8c054b	0.017092368
29	0xbda582e9	-0.0808161
30	0xbd505dca	-0.050870694
31	0xbc1acfb5	-0.009448935
32	0x3dc029dd	0.09382985
33	0xbdf7ed9d	-0.12105868
34	0xbc465439	-0.012105041
35	0xbd50652a	-0.050877728
36	0xbcda902e	-0.026680078
37	0x3d6c1ea2	0.0576464
38	0xbd218c1f	-0.03944027
39	0x3ab579df	0.0013845525
40	0x3d0b2a6e	0.03397601
41	0x3caa2908	0.020771518
42	0x3d8637b5	0.06553594
43	0x3d588867	0.05286446
44	0xbd85186d	-0.064987995
45	0xbd9cf650	-0.07664168
46	0xbcd40f9b	-0.025886348
47	0x3e05d653	0.1307004
48	0x3d28e1fa	0.041231133
49	0x3dbefad1	0.09325183
50	0x3d322e26	0.04350104
51	0x3ddc7379	0.10764212
52	0x3da72528	0.08161384
53	0xbda176e7	-0.07884007
54	0x3d0f2c05	0.03495409
55	0x3d0b03f4	0.033939317
56	0xbccef7d3	-0.025264656
57	0xbd462671	-0.048376504
58	0x3cd9ebc2	0.026601676
59	0xbd3215b3	-0.043477725
60	0x3c1411dc	0.009037461
61	0x3de95642	0.113934055
62	0xbd9aee06	-0.075649306
63	0xbda531d5	-0.08066145
64	0x3d2c39a0	0.042047143
65	0xbdae354b	-0.085062586
66	0x3d971a92	0.07378115
67	0x3dd4c60a	0.103893355
68	0x3d80c51e	0.06287597
69	0x3bf6808d	0.0075226487
70	0x3c7cd18e	0.015430821
71	0x3d22aab8	0.03971359
72	0x3da0924d	0.07840405
73	0xbdbd1f1d	-0.0923445
74	0x3dcfad3b	0.10140463
75	0xbc852d3b	-0.01625692
76	0xbc463f7a	-0.012100095
77	0xbd1d1773	-0.03835244
78	0x3d704327	0.05865779
79	0x3d6e0761	0.058112506
80	0x3d8b59a2	0.068042055
81	0x3d852320	0.0650084
82	0x3c40559a	0.011739159
83	0x3b543ba3	0.003238418
84	0x3d9b1405	0.07572178
85	0x3d4f9bfb	0.050685864
86	0x3dcb77c0	0.0993495
87	0xbcf341f5	-0.029694537
88	0xbc5071fd	-0.012722489
89	0x3d080dc0	0.033216238
90	0xbde102d7	-0.1098687
91	0xbd5f2d13	-0.054486345
92	0xbd2f4645	-0.042791624
93	0x3db6912b	0.08914407
94	0x3da4e11f	0.08050751
95	0xbd89755b	-0.06711837
96	0xbcdc1a2f	-0.026867954
97	0xbde3c9a8	-0.11122447
98	0xbd3547ed	-0.044258047
99	0x3d215c51	0.03939468
100	0x3daed91e	0.085375056
101	0x3e0610d3	0.13092355
102	0xbda12b7f	-0.07869624
103	0xbd25ff09	-0.040526424
104	0xbd2ffa1f	-0.042963143
105	0x3dbb3b38	0.091421545
106	0xbd46a998	-0.04850158
107	0x3d1e441d	0.038639177
108	0xbd5ae1ed	-0.053438116
109	0x3d496f1a	0.04917822
110	0x3da0800b	0.07836922
111	0x3dade71e	0.08491348
112	0x3cbddb79	0.023175942
113	0xbdb20867	-0.08693009
114	0x3d5e39c9	0.054254327
115	0x3d0b8bcb	0.034068864
116	0xbd1e3904	-0.038628593
117	0x3daa710d	0.08322344
118	0x3d9e5d6f	0.07732665
119	0xbe05ee45	-0.13079174
120	0x3d570afb	0.052500706
121	0xbbd16f55	-0.0063914456
122	0x3d973bef	0.07384478
123	0x3c1409f0	0.009035572
124	0x3d9c4307	0.07629972
125	0x3d37b014	0.044845656
126	0x3d97708e	0.07394515
127	0x3d8ce126	0.06878881
128	0x3d5e1875	0.054222543
129	0xbdaeeabd	-0.085408665
130	0xbcd9a27d	-0.026566738
131	0xbb0d03d3	-0.0021517172
132	0x3d7f6d6e	0.06236022
133	0xbda6fd5d	-0.08153794
134	0xbd615044	-0.055008188
135	0xbdbbb6e2	-0.091657415
136	0xbda74527	-0.08167487
137	0xbdc838dd	-0.09776471
138	0x3da3cfa4	0.07998589
139	0xbcae2b9e	-0.021261033
140	0xbd6ab37e	-0.057300083
141	0xbdc34c6e	-0.09536062
142	0xbc6b71e8	-0.014370419
143	0xbce29fa6	-0.027664017
144	0x3c270b37	0.010195545
145	0xbd20ce26	-0.0392591
146	0x3d9151c8	0.07095677
147	0x3d82e1a8	0.06390697
148	0x3d896933	0.06709518
149	0x3dcf1d1a	0.101129726
150	0x3b786136	0.003789974
151	0x3d7d42bf	0.061831232
152	0xbd9271c2	-0.07150604
153	0x3df5011e	0.11963104
154	0xbcb85552	-0.022501621
155	0xbc099021	-0.008396179
156	0x3cd9720e	0.026543643
157	0xbd62d275	-0.05537649
158	0xbdc6ae0c	-0.097011656
159	0x3dad90c2	0.08474876
160	0x3d944920	0.0724051
161	0xbd1715ca	-0.036886014
162	0x3d7eb651	0.06218559
163	0x3c175620	0.009236842
164	0xbb860f3d	-0.004091172
165	0x3ccd8abf	0.025090573
166	0x3a141c68	0.0005649985
167	0xbdd57e88	-0.104245245
168	0x3dc8a4c0	0.097970486
169	0xbc99e0f4	-0.018784024
170	0x3b703128	0.0036650393
171	0xbde9bdb0	-0.11413133
172	0xbce5438a	-0.027986307
173	0x3d64b859	0.05583987
174	0x3d8a70f1	0.06759823
175	0xbd7e5a7d	-0.062098015
176	0xbced96bf	-0.029002545
177	0xbde561d2	-0.11200298
178	0xbd9f20ca	-0.07769926
179	0x3c91b0b5	0.017784456
180	0xbd8ba51f	-0.06818604
181	0x3d248be0	0.040172458
182	0xbdbd9a3c	-0.092579335
183	0xbd1e5c27	-0.038662102
184	0xbda081db	-0.07837268
185	0x3dc8851b	0.09791013
186	0x3d5391b3	0.05165262
187	0xbd119a94	-0.035547808
188	0xbd2892a0	-0.041155457
189	0x3d2eb9d0	0.042657673
190	0xbdba9db1	-0.091121085
191	0x3dc81039	0.09768719
192	0x3b422481	0.0029623809
193	0x3d24ac7d	0.04020356
194	0x3e0254ff	0.12727736
195	0xbdaef7c3	-0.085433505
196	0xbca96183	-0.02067638
197	0xbd883c90	-0.066521764
198	0x3db98827	0.09059172
199	0x3dd56d8c	0.10421285
200	0xbce963d5	-0.028489986
201	0xbd763ff3	-0.06011958
202	0xbd77c899	-0.06049404
203	0xbddac900	-0.10682869
204	0xbd8af199	-0.06784362
205	0xbd372dbc	-0.04472135
206	0xbd8ce66c	-0.06879887
207	0x3cd19336	0.025582891
208	0xbcb936ba	-0.022609103
209	0x3c22fa15	0.0099473195
210	0xbd96138b	-0.07327946
211	0x3d3b0f95	0.045669157
212	0xbdcfcb7b	-0.10146233
213	0x3d63161a	0.055441
214	0xbdba10f7	-0.09085267
215	0x3dc4851d	0.09595702
216	0x3d230114	0.03979595
217	0x3da3d428	0.0799945
218	0xbdd8885b	-0.10572883
219	0xbd087b98	-0.033320993
220	0x3dabd6de	0.08390592
221	0x3d128911	0.035775248
222	0xbdd7f28f	-0.10544311
223	0xbde71442	-0.11283161
224	0xbd035d7d	-0.03207158
225	0xbcaabdb2	-0.020842407
226	0xbdfa2622	-0.122143045
227	0x3d1c59e7	0.038171675
228	0xbcbc71d2	-0.023003493
229	0x3d9f2340	0.07770395
230	0xbd5d793f	-0.054070707
231	0xbdcb8766	-0.099379346
232	0x3d862d6a	0.06551631
233	0x3883a7e5	6.2778396e-05
234	0xbd45ea92	-0.048319407
235	0xbdc20593	-0.094737194
236	0x3db2c23f	0.08728456
237	0x3c505ef7	0.012717954
238	0x3c97d728	0.018535212
239	0xbd1efc54	-0.038814858
240	0xbdc6dfe6	-0.09710674
241	0xbdad5622	-0.08463694
242	0x3d7a576a	0.06111852
243	0xbccdb26c	-0.025109492
244	0xbd9d4087	-0.07678323
245	0x3d43f3fa	0.047840096
246	0xbd62d5cd	-0.055379678
247	0xbd6bec68	-0.0575985
248	0x3cc403bb	0.02392756
249	0xbd8b98e9	-0.06816275
250	0x3d282dbc	0.04105924
251	0xbc9c499e	-0.019078072
252	0x3dc6268c	0.09675321
253	0x3d7d442c	0.061832592
254	0x3d4a59d3	0.04940207
255	0x3c64271b	0.013925339

layers.2.bias f4 [256]
0	0xbaae489c	-0.0013296786
1	0x39c697d1	0.00037878615
2	0x3ade40f6	0.0016956616
3	0xba67a6c4	-0.00088368007
4	0xbb20abc8	-0.0024516452
5	0xb8f5419f	-0.00011694733
6	0x3b0fa042	0.002191559
7	0xba87692d	-0.0010331027
8	0x3a89a30e	0.0010500865
9	0xba78138a	-0.0009463361
10	0x3ad93465	0.0016571401
11	0xbad845a8	-0.0016500251
12	0x3a95b6d7	0.0011422288
13	0x3a51f8c1	0.00080097845
14	0x39e92da9	0.00044475243
15	0xb7e5d622	-2.739864e-05
16	0x3a16cff5	0.0005753034
17	0x3b28998c	0.0025726287
18	0xba956fa5	-0.001140107
19	0xba5da7c3	-0.00084554794
20	0xb9dfdf81	-0.00042700398
21	0x3aa58e2f	0.0012630875
22	0xba889eef	-0.0010423342
23	0xba469893	-0.0007575836
24	0xba842133	-0.0010080695
25	0x3b944b18	0.0045255534
26	0xba85c85a	-0.0010206804
27	0xba9df169	-0.0012050095
28	0x3a2d50d6	0.0006611472
29	0xbad99d71	-0.0016602707
30	0xb8d9f3a7	-0.0001039275
31	0x3b1f09a5	0.0024267223
32	0x3a8b81eb	0.0010643577
33	0x3b994764	0.0046777
34	0x3ab5fb06	0.0013884015
35	0xbaa2f019	-0.0012431174
36	0x385d391a	5.2743686e-05
37	0x3b21d437	0.002469314
38	0xbb01235c	-0.0019704914
39	0x398ca80e	0.0002682809
40	0xba318671	-0.00067720475
41	0xbac673b3	-0.0015140682
42	0xba4d5764	-0.00078331516
43	0x3a84ae72	0.001012279
44	0x3c032d9b	0.008006479
45	0xbb1bff6b	-0.0023803364
46	0x3a9d6691	0.0012008717
47	0x3b6bdd85	0.003599019
48	0xba7e5b51	-0.0009702938
49	0x3b5460a2	0.003240623
50	0x3b87c97f	0.0041438933
51	0xb9f4dc1e	-0.00046703307
52	0xb89eb8c5	-7.568443e-05
53	0x3a78925b	0.0009482258
54	0x3b936793	0.004498431
55	0x3b0d4824	0.0021557892
56	0xbaa64328	-0.0012684809
57	0xba1ab598	-0.00059016934
58	0x3a9733e4	0.001153585
59	0xba8fa8a6	-0.0010960295
60	0xba1ba941	-0.00059380016
61	0xb9ccbb6b	-0.0003904955
62	0x3b614d01	0.0034378173
63	0x3b171c3e	0.0023057605
64	0xbacc69ed	-0.0015595533
65	0x3a349a82	0.00068894785
66	0xba860bea	-0.0010226939
67	0x3ae94121	0.0017795899
68	0xba882870	-0.0010388028
69	0x39ff9091	0.000487451
70	0x3a41718a	0.00073792844
71	0x3ae11ab3	0.0017174095
72	0x3c3aa4ef	0.011391862
73	0x3af90324	0.0018998128
74	0xba04f83d	-0.0005072391
75	0x3a3b3923	0.0007141998
76	0x3b25ef30	0.0025319569
77	0x39dc8b4e	0.0004206546
78	0x3a9e9835	0.0012099805
79	0xba7bfe84	-0.0009612816
80	0xbab667a4	-0.0013916385
81	0x3ba63d18	0.005073201
82	0x3ae42e89	0.0017408888
83	0x39fc34c5	0.00048104502
84	0x3996ef3b	0.0002878847
85	0x3c31ee9b	0.010860111
86	0xb8445744	-4.6811314e-05
87	0xba36d9a0	-0.00069751777
88	0x3a95a6e1	0.0011417532
89	0x3a5ac133	0.0008344829
90	0xbab1560a	-0.001352967
91	0x3a9ee149	0.0012121584
92	0x3b1c2e33	0.0023831248
93	0x3a7497ea	0.0009330498
94	0xba83d4b3	-0.0010057896
95	0xbb73316f	-0.0037108322
96	0xbaadf5ab	-0.0013272067
97	0x3a39c1bd	0.0007086059
98	0x3a37bcfc	0.0007009057
99	0x3b64e3a6	0.0034925728
100	0xba9b2bcc	-0.0011838614
101	0xbb4b1dbf	-0.0030993072
102	0xba9b951a	-0.0011869997
103	0x3b09a410	0.002100233
104	0xba844081	-0.0010090024
105	0xbae5df7b	-0.0017537916
106	0xba7fc725	-0.0009757153
107	0x39c04889	0.00036675137
108	0x3a6133eb	0.0008590805
109	0x3aed0a74	0.001808478
110	0x3b644fa7	0.0034837516
111	0x3b6a2471	0.0035727287
112	0xbac0a5ba	-0.0014697828
113	0x3946040c	0.00018884259
114	0xbadfa0be	-0.0017061455
115	0xbab9bc5a	-0.0014170513
116	0x3a38d272	0.0007050402
117	0xbabe5a1d	-0.0014522705
118	0xbaa0ea22	-0.0012276808
119	0x39faf521	0.0004786635
120	0x3c0c6749	0.008569547
121	0xbb114dfe	-0.002217173
122	0x395ef231	0.00021261793
123	0x3a63a744	0.00086842873
124	0x3a3d85e2	0.0007229728
125	0xb9965c0a	-0.00028678804
126	0x3a72c05e	0.00092602323
127	0x3a19c7cc	0.0005866259
128	0x3a9589a5	0.0011408819
129	0x39ef4e55	0.00045643994
130	0x3c45884d	0.012056422
131	0xba683b4d	-0.0008858934
132	0x3be20604	0.00689769
133	0x3ac58363	0.0015069064
134	0x3aeb01f5	0.001792966
135	0x3baad9b0	0.0052139387
136	0xba7b76bb	-0.00095925824
137	0x3ae07acc	0.001712644
138	0x3bb0fbec	0.005401125
139	0x3b7fb083	0.0039015121
140	0x3af74205	0.001886428
141	0x3ae1cead	0.0017227732
142	0x3a1c57bd	0.0005964002
143	0xba8bfc3b	-0.0010680029
144	0x3a5d69e8	0.0008446262
145	0xbaa9be64	-0.0012950418
146	0x3aa6e3b4	0.0012732656
147	0xba948b34	-0.001133299
148	0xb8cb2360	-9.6863834e-05
149	0xba156816	-0.0005699409
150	0x3bb3edf0	0.005491011
151	0x3b0bb3dd	0.0021316924
152	0x3b403fc8	0.0029334892
153	0xba752d43	-0.0009352753
154	0xba60e244	-0.0008578638
155	0x3afc8172	0.0019264652
156	0xbaa5982f	-0.0012633855
157	0xb8b08bcb	-8.4183725e-05
158	0x3a25601c	0.0006308572
159	0x3abe932c	0.001453971
160	0x3af332b2	0.0018554537
161	0xbb111ce5	-0.0022142467
162	0xbae99d7e	-0.0017823426
163	0x3b98ed49	0.0046669585
164	0xba6ff507	-0.00091536384
165	0xba60c3c0	-0.0008574091
166	0xb9c7b297	-0.00038089298
167	0x39d8ca99	0.00041349677
168	0x3b982990	0.0046436265
169	0x3b913811	0.0044317325
170	0xba821a8e	-0.0009926127
171	0x3be3b6af	0.006949268
172	0xbab39bc4	-0.0013703038
173	0x3aaecc03	0.0013335947
174	0x3c045a23	0.008078131
175	0x37128e46	8.735404e-06
176	0xba7d954f	-0.0009673433
177	0x3b6e4672	0.0036357907
178	0xba5e9255	-0.0008490433
179	0xba32dc18	-0.00068229577
180	0x3b21cd7a	0.0024689124
181	0x3be697f6	0.007037158
182	0x3b2d2b52	0.0026423526
183	0x3a6e31be	0.00090863917
184	0xbb0ec9e0	-0.0021787807
185	0x3b34724c	0.0027533947
186	0x3a8dfe5b	0.001083325
187	0xba0cda0d	-0.0005373068
188	0x3b01e63f	0.0019821075
189	0x3a3788f8	0.0007001306
190	0x3a81cd23	0.0009903054
191	0x39f22d43	0.0004619156
192	0xbafe93ad	-0.0019422673
193	0x3abb010e	0.0014267282
194	0x3ac5ea1c	0.0015099677
195	0x3a873825	0.0010316415
196	0x3ac999dd	0.0015380938
197	0x3a5874af	0.00082571333
198	0x3b67fa50	0.0035397
199	0xba71a2bf	-0.00092176715
200	0xbacc5e2b	-0.0015592029
201	0xb7e3cb73	-2.7155247e-05
202	0xba808f28	-0.0009808289
203	0x3bf0422d	0.0073321075
204	0x3b0d32ca	0.0021545165
205	0xba50feb8	-0.00079725264
206	0x3b95aa7c	0.0045674425
207	0x3a750bfa	0.0009347793
208	0x3a73b448	0.00092965784
209	0xba79a5d1	-0.0009523305
210	0x3aebe64c	0.0017997711
211	0x3af31517	0.0018545714
212	0x3b191eef	0.0023364385
213	0xba96c44a	-0.001150259
214	0xb96e2780	-0.00022712164
215	0xbaa4c99c	-0.0012572291
216	0x3ae846c5	0.0017721286
217	0xb95dc672	-0.00021150129
218	0x3a5c3b45	0.0008401166
219	0x3bdd96d0	0.006762363
220	0x39ae15c8	0.00033204095
221	0x3bbabcd2	0.0056987787
222	0xba6f3bb5	-0.00091260235
223	0x39ed372e	0.00045245275
224	0xba8860b0	-0.0010404792
225	0xba76c0e6	-0.00094128994
226	0x3a2af677	0.00065217115
227	0xba007d7a	-0.000490151
228	0x3bbf741b	0.0058426983
229	0xba3eae3e	-0.0007273889
230	0x3a5a80ab	0.0008335213
231	0x382fc782	4.1909057e-05
232	0x39faf49a	0.00047865958
233	0x3b5f8c01	0.0034110548
234	0x3bd9c957	0.006646316
235	0x3a918d23	0.0011104684
236	0xbb00802f	-0.0019607653
237	0x3ada7ef2	0.0016669913
238	0x3b4033fe	0.0029327865
239	0xba9d8520	-0.0012017824
240	0x399a0504	0.00029376906
241	0x39a2478a	0.0003095235
242	0xbab85306	-0.0014062829
243	0xb8804270	-6.1158906e-05
244	0x3a85e696	0.0010215815
245	0x3b1f77a1	0.002433278
246	0x3bedf7b8	0.0072621964
247	0x3b956d3e	0.004560142
248	0x3a790f2c	0.0009500857
249	0x39a2fa9d	0.0003108577
250	0x3b647c8c	0.0034864275
251	0xba93a0ca	-0.0011263129
252	0xbb152007	-0.0022754685
253	0x398914af	0.00026146087
254	0x396a530a	0.00022346913
255	0xbaddb1bd	-0.0016913932

layers.4.weight f4 [2, 256]
0	0x3c52118c	0.012821566
1	0xbcafee18	-0.021475837
2	0xbcaa1414	-0.020761527
3	0xbcba926d	-0.0227749
4	0xbe138133	-0.14404754
5	0xbd9cd702	-0.07658197
6	0x3d6ef765	0.058341403
7	0xbd04079d	-0.032233823
8	0x3d15f3ca	0.03660945
9	0xbe061df6	-0.13097367
10	0x3dbfdd27	0.09368353
11	0xbd3b1a76	-0.045679532
12	0x3d672504	0.056431785
13	0xbdfa24f2	-0.12214078
14	0x3e0b71b4	0.13617593
15	0x3e0305a7	0.12795125
16	0x3dc01ed6	0.093808815
17	0x3e1634fb	0.14668648
18	0xbdfcff35	-0.123533644
19	0xbe0f025c	-0.13965744
20	0x3c90c157	0.017670317
21	0x3d60bb67	0.05486622
22	0xbd2cf991	-0.042230193
23	0xbdaa0ab1	-0.083028205
24	0xbd3373c9	-0.043811593
25	0x3dadfbcc	0.08495292
26	0xbd86212d	-0.065492965
27	0xbdd4f8df	-0.10399031
28	0x3d6bfd87	0.05761483
29	0xbdca37e3	-0.09873941
30	0xbda7064a	-0.081554964
31	0x3e0db4a2	0.13838437
32	0xbdbdba46	-0.092640445
33	0x3de080fb	0.10962101
34	0x3d2f43bb	0.042789202
35	0xbdad0b61	-0.08449436
36	0xbb678aa8	-0.0035330448
37	0xbd96ad17	-0.07357233
38	0xbe00b582	-0.1256924
39	0xbd0bea27	-0.034158852
40	0xbdb39ca6	-0.08770113
41	0xbd4e5eb6	-0.050383292
42	0xbe1634cd	-0.1466858
43	0xbe0de464	-0.13856655
44	0x3c20a772	0.009805547
45	0xbe0c5a0e	-0.13706228
46	0x3d6ea5f9	0.058263753
47	0x3d9b8ef6	0.07595627
48	0xbdca125c	-0.09866783
49	0x3d199c6c	0.03750269
50	0x3c32102c	0.0108681135
51	0xbe0b1f59	-0.13586177
52	0xbdd31513	-0.10306754
53	0xbd366773	-0.04453225
54	0x3c5fac2f	0.013651892
55	0xbbb63c85	-0.0055614137
56	0xbd7c1288	-0.06154111
57	0xbd8def37	-0.06930392
58	0x3de05814	0.109542996
59	0xbd975956	-0.07390086
60	0xbd8fdb8f	-0.07024299
61	0x3d274f0b	0.040846866
62	0x394835aa	0.00019093478
63	0xbd38b62e	-0.045095615
64	0xbb07fda4	-0.0020750547
65	0x3e0ce845	0.13760479
66	0xbda8cc4b	-0.08242091
67	0x3e08c002	0.13354495
68	0x3c113543	0.008862796
69	0xbdcecad3	-0.100972794
70	0x3de0a869	0.10969622
71	0x3d9ad746	0.075605914
72	0x3bbe111b	0.005800379
73	0x3dbd3ab8	0.09239715
74	0xbc693409	-0.014233598
75	0x3de141cb	0.10998877
76	0x3dc454f4	0.09586516
77	0x3d96ab8f	0.07356941
78	0x3da1d6c3	0.07902291
79	0xbd25b975	-0.04046007
80	0xbdf33a96	-0.11876409
81	0xbca1a586	-0.019732248
82	0x3ddb5719	0.10709972
83	0xbd7100e0	-0.058838725
84	0x3e1283e0	0.14308119
85	0x3d80487f	0.062638275
86	0xbdf8428c	-0.12122068
87	0xbd07245d	-0.032993663
88	0x3d88bebc	0.06677005
89	0x3d8f0215	0.06982819
90	0xbda03660	-0.07822871
91	0xbdc0c0c6	-0.094117686
92	0x3d2a0435	0.04150792
93	0x3d1133b8	0.035449713
94	0xbe1a81f1	-0.15088631
95	0xbdeb1071	-0.11477745
96	0xbded3709	-0.11582763
97	0xbcdbfd2c	-0.02685412
98	0x3d811e73	0.06304636
99	0x3b6f9639	0.0036558046
100	0xbdddb917	-0.10826319
101	0xbdd7c437	-0.10535472
102	0xbe13010e	-0.14355871
103	0x3dfe6cd5	0.12423102
104	0xbd2f62b0	-0.042818725
105	0xbd5bd571	-0.05367035
106	0xbdfca12d	-0.12335429
107	0x3d46caf1	0.048533384
108	0x3dfdbf33	0.12389984
109	0x3d5f9080	0.054581165
110	0x3cff078f	0.031131534
111	0xbd8d4a92	-0.06898989
112	0xbdf72072	-0.12066735
113	0x3d9f0939	0.07765431
114	0xbd02845d	-0.031864513
115	0xbd5571eb	-0.052110594
116	0x3e1729cc	0.14762038
117	0xbd1f423b	-0.03888152
118	0xbe140854	-0.14456302
119	0x3de3fee8	0.11132604
120	0x3cbb7f6c	0.022887908
121	0xbdd1344d	-0.10215054
122	0x3c938958	0.018009827
123	0x3e099f8e	0.13439772
124	0x3dca812b	0.09887918
125	0x3d4c8909	0.049935374
126	0x3d7b6280	0.061373234
127	0xbd5a7b64	-0.05334033
128	0x3e1143e7	0.14186059
129	0x3d92e64f	0.07172834
130	0x3ac01f39	0.0014657743
131	0xbe0ade84	-0.13561445
132	0xbce8f719	-0.028438138
133	0x3c7b0ed3	0.015323359
134	0xbd1ed746	-0.03877952
135	0x3d865bfa	0.06560512
136	0xbe000d7d	-0.12505145
137	0x3d8c9a55	0.06865374
138	0x3d4a9555	0.04945882
139	0xba2a9e03	-0.0006508531
140	0x3d1907be	0.0373609
141	0x3da549f2	0.080707446
142	0x3d8ff0ea	0.070283726
143	0xbdf31b75	-0.118704714
144	0x3e1a6523	0.15077643
145	0xbd9f0f06	-0.07766537
146	0xbd15b798	-0.03655204
147	0xbd5c743b	-0.053821784
148	0x3cb008cb	0.021488568
149	0xbc9fe88d	-0.019520069
150	0x3dbb7491	0.09153093
151	0x3dd38812	0.10328688
152	0x3d9e33ce	0.07724725
153	0xbcca4480	-0.024690866
154	0xbe04d433	-0.12971573
155	0x3e0aecc2	0.13566878
156	0xbe00c0b2	-0.12573507
157	0x3df01eb6	0.11724608
158	0xbe1042e7	-0.14088021
159	0x3d6c44c4	0.057682768
160	0x3d2e24ae	0.04251545
161	0xbe04db1b	-0.12974207
162	0xbe0b2e62	-0.13591912
163	0x3ce81ba2	0.028333489
164	0xbde73ac4	-0.112905055
165	0xbddcaeb7	-0.10775512
166	0xbdd6cea1	-0.1048863
167	0xbcbee7f1	-0.023303958
168	0x3d8a8fcb	0.067657076
169	0xbe024138	-0.12720191
170	0xbdfa5350	-0.12222922
171	0x3c41c494	0.011826653
172	0xbd6e511a	-0.058182813
173	0xbc6ef4d2	-0.014584737
174	0x3b74489f	0.003727473
175	0x3d8dc009	0.069213934
176	0xbddd5f21	-0.1080916
177	0x3aa251a9	0.0012383956
178	0xbdbd1ef0	-0.092344165
179	0xbde6d86d	-0.11271749
180	0x3e08d765	0.13363416
181	0xbca6dd68	-0.020369247
182	0x3dabad86	0.08382706
183	0x3db96c44	0.09053853
184	0xbe1126c3	-0.14174943
185	0x3d42f1fc	0.047594056
186	0x3e0ba823	0.13638358
187	0xbc670523	-0.014100346
188	0x3dd952e0	0.1061151
189	0x3e115491	0.14192416
190	0x3e12445c	0.1428389
191	0xbdc4c828	-0.09608489
192	0xbcfe0d36	-0.031012159
193	0xbd91c509	-0.071176596
194	0x3cf2934f	0.029611258
195	0xbab00cf8	-0.0013431599
196	0x3c21ff5d	0.0098875435
197	0x3d851253	0.06497636
198	0xbca8590a	-0.02055027
199	0xbe0ef688	-0.13961232
200	0xbd532459	-0.051548336
201	0xbce57cc3	-0.028013593
202	0xbdcdd2f5	-0.100500025
203	0x39e039f6	0.00042767794
204	0x3d7a7c0b	0.061153453
205	0xbd56be60	-0.05242765
206	0xbd1bdd06	-0.03805258
207	0x3d609c17	0.05483636
208	0xbd4fd82a	-0.05074326
209	0xbe04f617	-0.12984501
210	0x3da9245a	0.08258887
211	0x3c7ae517	0.015313408
212	0x3e194c79	0.14970578
213	0xbe0bbe64	-0.13646847
214	0x3daee38d	0.085394956
215	0xbd9b1799	-0.0757286
216	0x3dff5dc0	0.12469053
217	0xbde20943	-0.11036923
218	0x3d4b5c92	0.04964883
219	0x3bdbeaae	0.0067113256
220	0x3c47b6dc	0.012189593
221	0xbb244549	-0.0025065711
222	0xbe02c79d	-0.12771459
223	0x3d842ef1	0.06454266
224	0xbe01a6ee	-0.12661335
225	0xbdde2bc6	-0.10848193
226	0x3d91f901	0.07127572
227	0xbdaf8071	-0.0856942
228	0x3c1c5a74	0.00954305
229	0xbdf33624	-0.11875561
230	0x3dc472b4	0.095921904
231	0xbdd7a0c0	-0.105287075
232	0x3df8b624	0.121441156
233	0x3d3d742d	0.046253372
234	0xbccfa855	-0.025348822
235	0xbbbb2579	-0.005711254
236	0xbd6afadc	-0.057368144
237	0x3d1b0911	0.037850443
238	0xbca35390	-0.019937307
239	0xbdda9b80	-0.106741905
240	0x3d266d8d	0.04063182
241	0x3db369bf	0.08760404
242	0xbdd9a507	-0.106271796
243	0x3a70973e	0.000917781
244	0x3e120dd9	0.14263095
245	0x3da25ffa	0.07928462
246	0x3b29ec89	0.002592834
247	0xbd53c197	-0.051698294
248	0x3da0d64e	0.078533754
249	0x3da5309a	0.08065911
250	0x3af34ed6	0.0018562924
251	0xbde0d175	-0.10977451
252	0xbd0a7b77	-0.03380915
253	0x3d86cf26	0.06582479
254	0x3d06e4a2	0.032932885
255	0xbdac4c7d	-0.084130265

layers.4.bias f4 [2]
0	0x3a750523	0.0009346774
1	0xbaa35eee	-0.0012464204
