Results_dir/2022-03-20-18-21-46/critic.pth (torch, 536911 bytes, 7 tensors)

layers.0.weight f4 [256, 6]
00000000: f383 11bf 8a71 a6bd 3d9a 053d fc32 a4bd
00000010: 7d97 2dbe 56be 263e 5567 003f 28bf ba3e
00000020: 1883 dcbe 6c2c 213d 884d 543c 2086 65bd
00000030: 9fd9 ccbe 65aa 48bd 0bcf 2b3d 375c 013c
00000040: 48c3 92bd ee42 dd3d d638 88be 9864 84bd
00000050: aec7 f43d 568b 5d3d 7363 db3d 697b ab3d
00000060: 3fdd 97be 1831 bebd fcb1 923e 32dd 2cbd
00000070: a561 293d 401f a9bd 20c0 34be ccb6 2bbe
00000080: c26d d53c a2d3 ae3d 6667 113d 1b13 363c
00000090: 30a3 cd3e 613c 21be fb31 013e 77ae 13bd
000000a0: 9259 433b 35b6 af3d 562c b4be 0915 bbbd
000000b0: bd90 063e f614 5b3d 87cc 99bd 5e8f d43b
000000c0: 2a29 4b3d fc71 6f3e 23c6 acbe 824e 7fbd
000000d0: f97b 16bd 8ab8 c3be e5cd 253f 8b10 3fbe
000000e0: 689d 4d3e 6909 233e 5357 f23c 3219 86be
000000f0: 38b2 21bd c1f1 a53d 28db e9bc 23aa 753d
00000100: eec2 333e ab64 f03d 4594 babf 78fa d2bd
00000110: 81f7 a1bd 8feb 2d3e e840 73bc 8f5b a2bd
00000120: 9a14 3fbf 3607 803e 6bd4 10be 8379 62bd
00000130: 862e 78bc 3866 49bc ddc0 bcbe e87b 9b3d
00000140: 7190 41bd a69e ef3c 1042 183a 33ec 85bd
00000150: a89b b83d 062c 7dbc 1a89 49bd f28f 22bd
00000160: 12c2 4a3d 9286 2b3e 4b00 d1be 2135 6ebe
00000170: 7837 57bd 6a6a 543c 5232 843c 86b6 f13d
00000180: f2b3 843f cb59 ac3d 2a23 113e e6f5 fabd
00000190: cb08 8d3d 22b0 833d 8efb e5be 63b4 34be
000001a0: c060 433e fe4a c43c 3850 a23c e7ca 853e
000001b0: df84 603f 7a01 b13e 1740 93be c4fb f13d
000001c0: f360 713c 63f0 063d 24ea 7abe e528 b1be
000001d0: 4498 f63e 909e ff3c 49fd 0ebe 16a2 2c3c
000001e0: 954e 7a3f c903 fb3e 742e 91be ab2e 53bd
000001f0: c656 4fbe 7b72 52be 6e83 3dbe 83d9 b43d
00000200: 9bfe babd 2902 b8bc 142e 293d 4d21 863d
00000210: 71c6 623f 7ff1 9e3e 0824 98be b75c a03c
00000220: 233a d8bc c158 66be ac4f ef3e 2add 3a3e
00000230: 010e ff3d e30a 263d 6f58 23be bfae 53bd
00000240: 759e b8bb b785 50bc 1591 13be 1187 be3b
00000250: f25c 8c3b 7afd aa3d 00bd ff3d 8e57 86bb
00000260: 3536 ac3d fcf9 a1bc b40c d33c 8152 a73d
00000270: 6ec1 993f 6981 ca3e b664 8fbe cd7f aabc
00000280: dad8 70bd 0192 173e 622e 13be 6269 5fbe
00000290: df6c 7a3e dbb3 47bd d927 b3bd c21c 94bd
000002a0: 62a5 99bf 1af3 29be 6717 2c3d d87d 283e
000002b0: 01bf 9e3c 20dd 11be 42f9 aabe cf18 9b3d
000002c0: 1a84 e3bd dc16 83bd bde8 b73c 09bc 3c3e
000002d0: 020a 8ebe b04e 98bd 5aed 71ba ec8f a0bd
000002e0: 86fb 05be 9e97 393e 3603 fb3e c19a 043e
000002f0: 646f 02be db1b 273e 49aa f43b ebcb c63e
00000300: e0bc ccbe ed98 6f3c 37c3 d13d eeec 003d
00000310: a6ca 4dbd a1ab 8f3d 5367 1cbd 783a 2a3d
00000320: b50d c4bd fb7a 9abd d649 853d 5aac 8ebb
00000330: 8160 5abe b9c9 3fbd 09e2 d7bd dfce 41bd
00000340: 9a84 373e e7ad 47bd 256c a0bf 0aa1 35bd
00000350: fce8 74bd 83c9 223e d85b d03b b322 46be
00000360: 731c 113f 2bee 003e ef72 67be 3f7d a63d
00000370: c2d6 ca3c 120e b8be 8df9 023f ed3e a3be
00000380: d501 723e 7af3 f63d 9e68 04be 3ceb 8fbd
00000390: f173 dcbe 4c0b 94be 8276 333d f0bf 473d
000003a0: aeaa 0abd 170a a13d b32e 8abf 4ced 32be
000003b0: adf1 99bc 8d13 123e 5210 e2bc ab4c e0bd
000003c0: f7bb 913d 7c6c 26be c507 723e 4c0c 143e
000003d0: db80 8b3c 1668 f7bd 9317 1dbf 150a f83d
000003e0: bfcb aabd 1447 1ebe c64b c0bc 70f0 12bc
000003f0: dc60 bdbe 786e 0bbe 50e8 c53d 2210 86bd
-0.56841964 -0.081271246 0.032617796 -0.08017537 -0.1695232 0.16283545 0.5015767 0.36473966
-0.43068767 0.039349005 0.012957938 -0.056036115 -0.40009782 -0.048990626 0.0419455 0.007895521
-0.07166153 0.108037814 -0.26605862 -0.06464499 0.119521484 0.05408796 0.10712328 0.08373148
-0.29660985 -0.09286708 0.28651416 -0.042203136 0.041352887 -0.082579136 -0.17651415 -0.1676895
0.026053313 0.085364595 0.035499 0.011112954 0.40163565 -0.15745689 0.12616722 -0.036055055
0.0029808027 0.08579675 -0.35190076 -0.091348715 0.13141151 0.053486787 -0.075097136 0.0064868173
0.049599804 0.23383325 -0.33744916 -0.06233073 -0.036739323 -0.3822673 0.64767295 -0.18658654
0.20079577 0.15921558 0.029582655 -0.26191097 -0.039476603 0.081027515 -0.028546885 0.05997671
0.17554829 0.11737951 -1.4576498 -0.103016794 -0.07908536 0.1698439 -0.014847018 -0.0792762
-0.7464081 0.25005502 -0.14143531 -0.055291664 -0.015147811 -0.012292437 -0.36865893 0.075919926
-0.04725689 0.029250454 0.0005808184 -0.06539192 0.09014064 -0.015452391 -0.049203016 -0.03968806
0.049501486 0.16750553 -0.40820536 -0.23262455 -0.052543133 0.012964824 0.016137276 0.11802392
1.0367415 0.08415564 0.1417357 -0.12253933 0.06886443 0.06430079 -0.44918483 -0.17646937
0.19079876 0.02396154 0.019813642 0.26131365 0.87702745 0.3457144 -0.28759834 0.118155986
0.014732587 0.032944094 -0.2450338 -0.34601513 0.48163044 0.031203538 -0.13963808 0.010536691
0.97776157 0.49026325 -0.28355753 -0.051558178 -0.20247945 -0.20551483 -0.18507168 0.088305496
-0.091305934 -0.022461968 0.04130371 0.0654932 0.8858405 0.31043622 -0.2971499 0.01957546
-0.02639491 -0.22494794 0.46740472 0.1824843 0.12453843 0.040537726 -0.15951703 -0.051680323
-0.005634124 -0.012727193 -0.14410813 0.005814441 0.004283541 0.08349128 0.12487221 -0.004099793
0.08408777 -0.019772522 0.025762893 0.08170033 1.2012155 0.39551857 -0.28006524 -0.020812893
-0.058800556 0.1480179 -0.14373162 -0.21817544 0.24455594 -0.048755508 -0.08747835 -0.072320476
-1.2003596 -0.16596642 0.042014506 0.16454256 0.019378187 -0.14244509 -0.33393294 0.07573091
-0.11109181 -0.064008445 0.022449845 0.18431105 -0.2774201 -0.074368834 -0.00092287885 -0.07839951
-0.1308423 0.18124244 0.49025887 0.12949659 -0.12737805 0.1631922 0.0074665886 0.38827452
-0.3998785 0.014623863 0.102423124 0.031475954 -0.05024209 0.070151575 -0.038184475 0.041559666
-0.09572927 -0.07542988 0.06508224 -0.004354042 -0.21325876 -0.046823237 -0.1054116 -0.04731643
0.17921677 -0.04874983 -1.2533003 -0.044343032 -0.059792504 0.15897183 0.006358605 -0.19349174
0.56684035 0.12590854 -0.22602437 0.081293575 0.024760608 -0.35948235 0.51162034 -0.31883946
0.23633511 0.12058158 -0.12930533 -0.07027289 -0.43057206 -0.2891487 0.04381419 0.04876703
-0.03385418 0.078632526 -1.0795501 -0.17473334 -0.018791998 0.1426527 -0.027595673 -0.10952123
0.071159296 -0.16252321 0.23635776 0.14457816 0.017029217 -0.120804 -0.61364096 0.12111298
-0.08339643 -0.15456802 -0.023473632 -0.008968458 -0.3698796 -0.13616359 0.09663451 -0.06546046

layers.0.bias f4 [256]
00000000: a734 843d 6ab5 2d3e 3c69 963d 460d f33d
00000010: 71ab ed3c 4b22 f03d 7322 c7bd 3c04 a73d
00000020: af53 87bc b2f3 873a 307a 203e 84b5 6cbe
00000030: a77b 5abd 8236 21be 0f86 a0bc b63c 063e
00000040: f406 293e 82ff 013e 5287 1a3e d239 623d
00000050: d712 0d3e bd6a 193e d44a fa3d 647e 003e
00000060: 2d91 f83c 4379 e1bd fdfe 153e 643d 0d3b
00000070: c45a 85be 47c1 19be c686 8a3c b871 1b3e
00000080: 2c5e ec3d 0da7 073c a101 7a3c b675 87be
00000090: 34fd ddbc 0916 103e 2373 dc3d 293c 5fbe
000000a0: df09 f73d 5a84 29bd 093f f53d 7449 74be
000000b0: 568e 0b3b 07f4 10be b7cb ed3d b18d e73d
000000c0: fe7e 2a3d f001 dbbb 6262 1f3e 5dc1 f13c
000000d0: 75aa 07be 344a 0b3d a34a 7fbe 185b ff3d
000000e0: faae 42be 4d2d 8cbd 076a c73d 033d 493e
000000f0: 2f15 ec3d d325 c4bd 1ce2 11bc c4ee 063b
00000100: dac7 f3bd d23e 623d 582a 093e d996 123e
00000110: 9f56 5fbc b7cb 263e af8b 133e 9480 f53d
00000120: 5d41 853d 7438 0d3e b116 0cbe f205 143e
00000130: dd47 9abd 9e49 103e 6194 233e cce6 063e
00000140: 71a3 6a3d 80ce 0dbe caf6 1d3e c4de 5e3c
00000150: 3c21 68bd 5bd2 403e 18f7 02be 1fb8 55bd
00000160: bd54 75be 089c b5bd 85d6 1c3d 311c 363e
00000170: 7362 3cbe 147f 193d 5600 96bd f9d5 eebd
00000180: 5cd3 eabd 116c 163e 97fd 0b3e 7ce9 b33d
00000190: 9ca8 0b3e 63f3 173e 3d9e a3bd c868 1b3e
000001a0: 0336 833c 5ae5 253b 9ae3 0dbd 1f54 fcbc
000001b0: 81f3 013e 50de 363e e8d1 32be 4947 f3bd
000001c0: df00 673d 8269 903e 094a e1bd 01cb 80ba
000001d0: 1c99 d9bd 32f5 9bbd 749a 8abd fac1 1bbd
000001e0: 2960 d83d 8f12 0d3e 4957 2a3e e5a7 cc3d
000001f0: 8c64 1bbd 17e2 8d3e d513 88be e5aa 823d
00000200: 34d7 1bbe f73f 183e e73c 263e 72d1 84be
00000210: bf26 80be 732a f13d 2a24 c83d b649 ef3c
00000220: 4410 093e 28dc edbc 2dc8 d83b 809c b2bd
00000230: 3d3b 073e a4f0 a23c 17e4 2dbe 9bd3 f73c
00000240: d5ee 83be c9de 3a3e c084 c73d dfef a7bd
00000250: 9caa fbbd a51e 223d a90d 0a3d fc23 a2bb
00000260: 2042 8e3a ed70 133e a957 1b3e 4e6f 1dbe
00000270: dcd9 e2bd 50cf 98bc ef53 febd 910b 78be
00000280: 50a5 5bbe bcd5 c5ba 3bd5 f3bc 0f93 9bbd
00000290: 216e 21bd 3056 56be 0338 063e deea ca3d
000002a0: 81b0 21be a1d8 eb3d c9be 293e 61dc bd3d
000002b0: 4162 6bbe 27d4 d4bd 5c24 133e d493 e23d
000002c0: 04e0 9abd 4afa ec3d 70ea 46be 5b3f 84be
000002d0: 094d 6cbe 4573 1e3d 6f9d 0b3e 1c19 bebc
000002e0: 11f5 66bd dd97 9ebd 4b80 f33d 071d a3bc
000002f0: f86b e43d 6508 123e 2bc2 163e 126a 88bd
00000300: 8e1c be3d fa25 1f3e e172 e3bd d366 e03d
00000310: 5cb4 b7bd f02e 753e d2ec 0c3e ef8b e63d
00000320: e037 353c 7ecd ca3d 595a a2bd 1222 093e
00000330: a41d 42bc 4913 3a3d b4b1 a7bd 5dfd 353e
00000340: 5af4 3e3e ad2a 10be 77d2 123e eb63 ab3c
00000350: 9edd f23d fdb5 80bd 60aa 97bd 9cba 253e
00000360: b4c2 023e 7137 5abe 6137 77be e95a e63c
00000370: fe9d c7bd 71ff 3a3d badf d2bd 7c75 003d
00000380: 4cfb 7e3e b738 8c3b d2ef 92bd e201 bebd
00000390: b0d2 85be ecd6 123e 68b9 fe3d ec6e c73d
000003a0: 54aa 583e 509f 4fbd 174d 5cbd 01c2 da3d
000003b0: 8be3 343e 30ea ad3d b79e e63d 37f0 5a3d
000003c0: b79b 1d3e 2907 82be bef4 ccbd edcd 04bb
000003d0: 8c30 d73d d022 7dbd ee2c e0bd 7837 02be
000003e0: 6947 debc 8292 33bd d8f7 643d 9adc 823e
000003f0: d515 c4ba 1b30 c0bb fa16 8c3d a37c 69be
0.06455355 0.16963735 0.073442906 0.11867766 0.029012414 0.11725291 -0.097233675 0.081551045
-0.016519396 0.001037231 0.15671611 -0.23116118 -0.05334058 -0.1574345 -0.019595174 0.13109097
0.16506559 0.12695125 0.15090683 0.055230923 0.13776718 0.14982124 0.122213036 0.12548214
0.030342663 -0.11009457 0.14648052 0.0021551484 -0.2604581 -0.15015136 0.016909968 0.15180099
0.11541399 0.008279574 0.015259177 -0.26456994 -0.027098276 0.14070906 0.10764148 -0.21800293
0.1206243 -0.041385986 0.119749136 -0.23856145 0.0021294556 -0.14155589 0.11611121 0.11306322
0.041625015 -0.0066835806 0.15564874 0.029511148 -0.13248618 0.034006312 -0.24930815 0.12468547
-0.19012061 -0.06844578 0.0973702 0.1965218 0.11527478 -0.09577527 -0.008904006 0.0020589093
-0.11903353 0.05523569 0.13395059 0.14315356 -0.013631492 0.16288649 0.14408754 0.11987415
0.06506608 0.13791066 -0.13680531 0.14455393 -0.07533238 0.14090583 0.15974571 0.1317398
0.057284776 -0.13848305 0.15426174 0.013602916 -0.05667232 0.18830244 -0.12789571 -0.052177545
-0.23958106 -0.08867651 0.03829052 0.17784192 -0.1839693 0.037474707 -0.07324283 -0.11661906
-0.11466095 0.14689662 0.13670956 0.08784768 0.13638538 0.14838938 -0.07989166 0.1517669
0.016016966 0.0025313706 -0.034640886 -0.03080183 0.12690546 0.17858243 -0.17462885 -0.11878831
0.056397315 0.28205496 -0.11000449 -0.0009826125 -0.106249064 -0.07615127 -0.06767741 -0.038026787
0.10565216 0.13776611 0.16634859 0.09992961 -0.037937686 0.27711555 -0.2657763 0.06380252
-0.15218812 0.1486815 0.1623417 -0.25941044 -0.2502956 0.11775675 0.09772523 0.029209953
0.13385111 -0.029035643 0.0066156597 -0.08721256 0.13206191 0.019890137 -0.1698154 0.030252269
-0.25768152 0.18249048 0.09742117 -0.08200049 -0.122884005 0.039580006 0.033704434 -0.0049481373
0.0010853447 0.14398547 0.15170158 -0.1537449 -0.1107671 -0.018653542 -0.12418353 -0.24223162
-0.2144978 -0.0015093605 -0.029764762 -0.075964086 -0.039411668 -0.20931315 0.13107304 0.099080786
-0.15789987 0.11515928 0.16576685 0.092705496 -0.229867 -0.10392027 0.14369339 0.11063352
-0.07562259 0.11571176 -0.19425368 -0.25829586 -0.23076262 0.03868415 0.13634275 -0.023205332
-0.056386057 -0.07743809 0.11889704 -0.019911302 0.11153406 0.14261015 0.14722507 -0.06660856
0.0928279 0.1554183 -0.11105896 0.10957112 -0.08969948 0.23943686 0.13762215 0.11257159
0.011060685 0.09902476 -0.07927389 0.13391903 -0.011847887 0.045428548 -0.08188191 0.17772432
0.186479 -0.1407878 0.14338098 0.020921668 0.118586764 -0.062847115 -0.07405543 0.16184467
0.12769586 -0.21310212 -0.24142219 0.028119521 -0.097469315 0.045653764 -0.10296579 0.03136204
0.2490055 0.004279222 -0.07174648 -0.09277703 -0.26137304 0.14339799 0.12437707 0.097379535
0.21158725 -0.05068904 -0.053784456 0.106815346 0.17664926 0.08491933 0.11260741 0.053451743
0.15391432 -0.25396088 -0.10007618 -0.0020264343 0.105073065 -0.061800778 -0.1094607 -0.12716472
-0.02713366 -0.043840893 0.055900425 0.2555893 -0.001496012 -0.0058651096 0.0684032 -0.22801451

layers.2.weight f4 [256, 256]
00000000: 7291 a83d adae 19be 05bd 5f3e 67c7 b5bc
00000010: 8efd 463e 0517 093e 638c 403c 1be6 b63e
00000020: c402 20be a1ec e53e 0226 22bd 2588 66be
00000030: feae cbbe 1efa 033e e56c d2bd 1ff9 a43e
00000040: 619f cbbe 690a ba3e 3606 f4be eb2f a23e
00000050: 5e20 c5be 9894 73be a757 3abe 0c59 5cbd
00000060: fb68 29bb 2c75 fabc c792 0fbf 6f3c 043e
00000070: 8949 b93d 3461 debe ae81 f0bd 15cc f6be
00000080: 3041 393e 20b0 a8bd a167 a2bd 96e3 9abd
00000090: 0fa2 b5be eb23 123f a46b cc3e db19 74bd
000000a0: 44d5 663d 2d9b 82be 24ce 833e aa11 aabd
000000b0: 278b 11be 4a09 8e3d 1181 523e 02b6 b43d
000000c0: 9ad7 ccbd da5b 6bbd 9bc0 febe 56f7 aabd
000000d0: 00f7 b5bc 1379 433e bfaf d43c 15fe 293e
000000e0: 0716 73bd 9604 17bf 1472 eabd 9c6b 353e
000000f0: db11 febd 3f19 c5be 0ecc d9bd 7499 4bbe
00000100: 2a26 da3d bb2e 593e 2dd5 22bf 0e6e 04bf
00000110: 7ba0 233c dcb3 4d3e e0bb dcbe 7675 6ebe
00000120: 1624 3a3e daf5 e7bd 4f9c 0cbd 7095 dabd
00000130: 9d77 2cbf 66c6 8c3c 729c 44bf 395c 973d
00000140: 06ed a33d d567 11bf a898 e3bd e930 f13d
00000150: 52fa cd3c ac9d 5ebf fb5f 52be 9873 d0bd
00000160: f841 ac3d 9b03 16be 7218 88be 4f36 01be
00000170: 0d25 9c3c be52 6abd 63a7 10bf a8b5 06be
00000180: a4c2 b7be ff17 fcbe a31d 27bf 3b22 f73e
00000190: 5005 a43d c41d 06bf 4055 c1be 3be2 d9be
000001a0: 178f 16bd bda9 08be b699 2bbf 0f1b 733d
000001b0: b68e 4dbe 857a 5a3d 1910 103e c52f 97be
000001c0: 056d bcbd 83b1 a3be 7a1a c7bc ebe4 27bd
000001d0: 909c 03bf 3b0a 1ebf 78b5 e7be e6f4 babe
000001e0: 8465 af3e a13a eebe ff9f 8a3d 1f7c 09bd
000001f0: dc04 62be 3968 5dbf b229 963c e723 8b3d
00000200: 0619 913d f480 2fbf 7cf1 333d 9313 a8bc
00000210: d4c1 47be da96 f63d 6fef 573e 3eee 11be
00000220: d915 423e 6f4a 97be 4ee0 03bf f433 88bd
00000230: 4758 13bf 6f0d 203d 0b13 a1be 03ff 37be
00000240: ade7 38bd bf69 3bbf 3a13 b73d 2ec5 27bf
00000250: 8dea 82bc d9a5 b33e 8113 4d3e 1bbe fa3d
00000260: 80bf ccbe 07ef 373e ccea 25bf a09a 88bd
00000270: eedd b1be 8250 fcbe 2ecb 483d 65d1 74bd
00000280: eb3f 163d 9313 eabd 285d 3abf 58b4 b0be
00000290: 097a 1bbe 8779 66bd d33d 2fbf f893 873e
000002a0: d3bf 38bf 9879 02bc 1a2a 993c 7dce a9bd
000002b0: 0c22 aabd fb67 8cbe 87ee 2cbf e8e7 543e
000002c0: 0057 ecbe 9e00 f93c 96c7 2fbb 0c96 c0bd
000002d0: a968 f4bc 929b 2bba fe4a b83e f52c 943e
000002e0: c0f0 f1bd a801 10bf a06e 8cbe e808 adbc
000002f0: 7bda 09be c512 e5be efe5 07bf 4b9a c8be
00000300: 9b15 403e 3e3d 803d 7474 acbe 4ec2 3b3e
00000310: 84e7 d5be 2028 74bf 0908 e7be f6d3 0e3e
00000320: ce9a ed3d 7492 98bc 07b5 7c3d ec50 133e
00000330: 11ba bfbe e0ca 31be b12e e0bd ac01 e83b
00000340: ba0d 66be 6167 f1be 9a10 753e aaa2 e4be
00000350: 9e65 e83e f74b a5bd db93 893d f3c2 0abf
00000360: ca46 443d d74a 27bd 0b56 dabd 91d7 a2bd
00000370: 412b 9fbe 349b a73e 9e86 0cbf 657c b73d
00000380: c1cc 7cbf bae1 77bd 0489 6f3b bea4 f8be
00000390: c265 04bd 7657 00bf 7404 2b3e d58f ce3e
000003a0: ab77 7fbd 85a5 fd3c 7a94 2fbe 2821 a13e
000003b0: 69f4 f03c 56c6 453e 6c0f 0bbf 7e8e a03d
000003c0: 92ed 803d bc4d 2ebd 8627 b9be 320e f83d
000003d0: f7dc a03e 76e0 3abe 9781 22be 66de 153e
000003e0: 8f83 57be 452a efbe e580 35be 6052 cdbe
000003f0: 6b96 6bbe af54 b43e e13f 683d 7e35 debc
0.082308665 -0.1500804 0.21849449 -0.022189809 0.19432661 0.13387688 0.011752221 0.35722432
-0.15626055 0.44907096 -0.03958703 -0.22512873 -0.39781946 0.12888381 -0.10274676 0.32221314
-0.39770034 0.36336067 -0.4766099 0.31677184 -0.38501257 -0.23787153 -0.18197499 -0.05379586
-0.0025849927 -0.03057345 -0.5608334 0.12913679 0.09047229 -0.43433535 -0.117434844 -0.48202577
0.18091273 -0.08236718 -0.07929922 -0.0756294 -0.35475203 0.57086056 0.39925873 -0.05959497
0.05635573 -0.25509015 0.2574321 -0.083041504 -0.14213239 0.069353655 0.20557047 0.08823778
-0.1000206 -0.057460643 -0.4975632 -0.08347957 -0.022212505 0.19089155 0.025962709 0.16600831
-0.05934718 -0.5899137 -0.1144754 0.17716831 -0.124057494 -0.38495824 -0.106346235 -0.19882756
0.106518105 0.21209233 -0.6360653 -0.5173043 0.009986992 0.20088142 -0.43112087 -0.23286995
0.18177828 -0.11326189 -0.034328755 -0.10673034 -0.67370015 0.017184447 -0.76801217 0.07390637
0.08004193 -0.5679906 -0.11113101 0.11776907 0.025143776 -0.8695934 -0.20544426 -0.10178298
0.0841102 -0.14649813 -0.2658115 -0.12618373 0.019060636 -0.057207815 -0.5650541 -0.13155234
-0.35890687 -0.49237058 -0.652796 0.48268303 0.08008826 -0.5238917 -0.37760353 -0.42555413
-0.036757555 -0.13346 -0.6703142 0.059351977 -0.20073971 0.0533395 0.14068641 -0.29528633
-0.09200481 -0.31971368 -0.024304617 -0.040989798 -0.5141077 -0.6173436 -0.45255637 -0.36514968
0.34257138 -0.46529105 0.06768798 -0.033565637 -0.22072166 -0.86487156 0.018330429 0.06793957
0.07084851 -0.6855614 0.04393147 -0.020517146 -0.19507533 0.120404914 0.2108743 -0.14251038
0.18953647 -0.29548976 -0.51514137 -0.06650534 -0.57556576 0.03907531 -0.3145984 -0.17968373
-0.04514282 -0.7320823 0.08939214 -0.6553525 -0.015980983 0.3508747 0.20026971 0.12243291
-0.39989853 0.17962275 -0.64811397 -0.066701174 -0.3473963 -0.49280173 0.049021892 -0.059770007
0.03668205 -0.11429515 -0.72798395 -0.3451259 -0.15183271 -0.05626824 -0.6845371 0.2648008
-0.721677 -0.0079635605 0.018696833 -0.08291338 -0.08307275 -0.2742308 -0.67551464 0.2079159
-0.46160126 0.030395802 -0.0026821843 -0.09403619 -0.029835062 -0.0006546314 0.35994714 0.2894055
-0.118134975 -0.5625253 -0.2742815 -0.02112241 -0.1346225 -0.44740883 -0.53085226 -0.39180216
0.18758242 0.06261681 -0.33682597 0.1833584 -0.41778195 -0.95373726 -0.45123318 0.13948044
0.11601792 -0.018624522 0.06169608 0.14386338 -0.37446645 -0.17362547 -0.10946406 0.0070802774
-0.22466174 -0.47149184 0.23932114 -0.44655353 0.45390028 -0.0807113 0.06717654 -0.5420372
0.047919072 -0.040842857 -0.10660943 -0.07951272 -0.31087688 0.32735598 -0.5489291 0.08959273
-0.9874993 -0.060518004 0.0036550174 -0.48563188 -0.032323606 -0.50133455 0.16700917 0.4034411
-0.062369984 0.030962715 -0.17146483 0.3147061 0.029413419 0.1931394 -0.54320407 0.07839678
0.06295313 -0.042554602 -0.36162966 0.121120825 0.31418583 -0.18249688 -0.15869747 0.1463562
-0.2104628 -0.46711937 -0.1772495 -0.4010191 -0.23006599 0.35220858 0.056701545 -0.027125116

layers.2.bias f4 [256]
00000000: 35b9 12be a4f6 b4bc 5a91 713c 2418 473c
00000010: 7c14 ad3d 38aa 0b3d c244 12bb 3c71 16bc
00000020: b7a5 a63e 95be a83e 1ab7 1ebd 531c be3d
00000030: b298 33bd 2dc7 853b a1e4 813c 12f8 3b3d
00000040: 0ef3 d8bd e6c7 48bc be52 a93d b0bf c33d
00000050: 7022 48ba 5541 f63d a922 4f3d 1f15 3d3e
00000060: 6290 043d cc75 023e 0d7a 0c3d 1768 a93d
00000070: 633d 17bc 0c28 563a c67e 803c 3b79 edbb
00000080: b1b6 30bd 9368 a93d 7728 42bd 34e3 9abd
00000090: be12 0e3e a256 b5bc 3b72 34bd 1e5e 8c3c
000000a0: 6f7a 93bc acea 6a3d 3c34 0f3d 7ddc 4a3d
000000b0: 6141 3c3d e5df bc3d de85 653d 43dd b1bc
000000c0: dc31 b53c f463 943c 2530 1e3e e0b1 803d
000000d0: 2ba2 70bd e064 ad3b 9141 913d d959 613e
000000e0: 724b 38bd 16c1 353e c714 82bb 4a6e d939
000000f0: 3e99 ffba e418 c13b 709a e4bc 3851 40bc
00000100: ea7b 7f3c 6bac 36bc 7ded 813c 3a86 d13d
00000110: e4c6 213d eae9 2d3d 38df 5eba 88a5 8e3c
00000120: a2cd e63c 3435 233e d91d e8ba 0efa 57bd
00000130: 8a36 05bc 43e9 80bd 7a93 993d 6888 513d
00000140: f2d1 923b 057c 2c3e 987a b9bb f29a a2bd
00000150: ee6a cf3c f7ed dcbc d218 033e 9b93 16bc
00000160: 25da 543c 0358 e43d 0c5f 273e 1a1b 983c
00000170: d00c 7c3c b62d bc3d bf98 c93b 2aed 383e
00000180: 7fcf d63c 393c 1fbd 8955 a1bb fb27 9f3d
00000190: cd51 233e 5c70 1cbd dd71 2c3d ed2e 72bd
000001a0: e7c7 a1bb 0fd6 11bb 0194 5ebc bb26 773c
000001b0: 0eb3 21bc 4c02 f0bc 46c1 a73b 18a4 5aba
000001c0: 3d34 6abd 3c6d 8bbc 7b42 463b 418b 7f3c
000001d0: e292 243e 12e3 593d edc4 a8bd e60d 12bd
000001e0: 02ca a13d 4978 033c 5fa5 123c 3ace 57bd
000001f0: db50 093e cd27 b0bc fef3 8bba a1f2 1d3d
00000200: 4683 c63c 3dd9 193a 23c2 8bbc 44fe 603e
00000210: df37 4b3d 0a27 3abd 57a7 923d f2f6 4a3d
00000220: d049 093d 9450 18bd 8c6a 693c cd76 f3ba
00000230: bd9f 14bc 8e0f cbba ed67 8d3c 5ada 80bd
00000240: b555 f83c de99 db3c d4f5 123c e256 1fbc
00000250: 22a1 d23e bbf8 503d e41e 073d 0367 373d
00000260: d844 cfbd 2722 833b dcbd 8d3c 7f4d 5c3d
00000270: cf94 80bd b7d7 0e3e bc4c 71bd 9a82 2f3d
00000280: 9ef7 da3d 5473 813d 166f 123a 9daa 8e3d
00000290: 48cd d73d de74 d43c 775b 4f3c 8c55 ed3d
000002a0: 9afb 973c 2a0b 8fbc 8125 2d3c a038 0abd
000002b0: d5dc 96bb 599a 0f3d b4c3 9fbc 133a 553e
000002c0: 2de1 f6bb 1c14 dcbd 7511 8d3c d15e da3d
000002d0: 46fb 8abb 9376 16be b189 4bbd ab99 ec3c
000002e0: 161b 9abc 6923 70bc 86f6 6ebd 12a9 433c
000002f0: 319a 163d 86ba 0b3e 3bbf 91bd 5e85 913e
00000300: 4f7a 1d3c ebbd dcba 1c34 69bc aadc 9d3d
00000310: 308d 91bd 53fc 32bd 5cf2 143e 7d42 a4bd
00000320: fd57 0abd ca97 0b3d 5474 e53c d1c7 7dbb
00000330: 5d89 29bc bd0a 253d a690 943d 728f ad3c
00000340: 58ee 96bc 47af b73e c410 e73c 0506 60bd
00000350: 538f a43d 32b1 c33d 1133 23bc b5ef 7b3d
00000360: 5b24 88bc 5be9 a9bd a648 0a3e b7c8 8e3d
00000370: 74d9 b93d 0029 2ebd 6e4c ba3e 01d8 663d
00000380: af0b 963b fe84 9d3b 4d00 773d 90fb 163c
00000390: 6886 1f3d 43f5 87bc ed2a c13d 7e09 25bd
000003a0: bf34 ec3d f171 2a3c 1c66 183d 660c 173b
000003b0: c0f7 a0bc 5b13 9a3b 11fd 953d e8fb 683c
000003c0: f16d 6e3d de86 28bd e515 6bbc 828c 3cbd
000003d0: 2516 07bc c8cd af3e dae1 5ebd 25fe a6bd
000003e0: 5af5 1e3e dedc 863d ab9e 0fbd d602 843e
000003f0: a1f8 ddbd 8c34 2cbc 2c91 99bd fbdc 383d
-0.14328463 -0.022090264 0.014744127 0.012151752 0.08451173 0.03409788 -0.0022318815 -0.009182271
0.32548305 0.32957903 -0.038748838 0.09282746 -0.043846793 0.0040825815 0.01585609 0.045890875
-0.10593234 -0.012254691 0.08267735 0.09558046 -0.0007634526 0.1202418 0.050570164 0.18465088
0.032364257 0.12740248 0.034296084 0.08271807 -0.009230944 0.00081694196 0.01568545 -0.007247118
-0.043142978 0.08271899 -0.04740187 -0.07562867 0.13874337 -0.022136036 -0.04405425 0.017134722
-0.018002717 0.057352707 0.034961924 0.04952668 0.045960788 0.09222392 0.05603587 -0.021711951
0.022118501 0.018114068 0.15448053 0.06283927 -0.058748405 0.0052915663 0.07092584 0.2200693
-0.044993825 0.17749438 -0.003969762 0.00041471637 -0.0019500626 0.00589286 -0.027905673 -0.011738114
0.015593508 -0.011149506 0.015860314 0.1023068 0.039496318 0.042459406 -0.000850189 0.017412916
0.028174225 0.15938264 -0.0017709091 -0.052728705 -0.008130679 -0.06294491 0.07498832 0.051155478
0.004480594 0.16844185 -0.0056603663 -0.0793971 0.025319543 -0.02696894 0.12802437 -0.009190465
0.012991463 0.111495994 0.16344851 0.01856761 0.015383914 0.09188406 0.006152242 0.18059221
0.026221989 -0.038875792 -0.0049235267 0.077712975 0.15949173 -0.03819309 0.042100776 -0.059126783
-0.0049371603 -0.0022252833 -0.013585092 0.015084918 -0.00986935 -0.02929797 0.0051194755 -0.0008340492
-0.057178725 -0.01701986 0.0030252028 0.015597166 0.16071656 0.053195067 -0.082406856 -0.035657786
0.07899858 0.008024284 0.00895056 -0.052686907 0.1340975 -0.021503353 -0.0010677574 0.038561467
0.024232518 0.0005868858 -0.017060345 0.21971995 0.04961383 -0.045447387 0.07160824 0.04955191
0.03351766 -0.03718622 0.014246594 -0.0018574834 -0.009071288 -0.0015492307 0.01726147 -0.06291647
0.030314306 0.026806768 0.008969743 -0.009725304 0.4113856 0.051018458 0.032988444 0.044775974
-0.10120553 0.004001874 0.017302446 0.053784844 -0.06278383 0.13949476 -0.05891107 0.04284916
0.106917605 0.06320825 0.0005586011 0.06966136 0.10537201 0.025934633 0.012656084 0.115885824
0.01855259 -0.017461378 0.010568024 -0.033745408 -0.004603962 0.035059307 -0.019502498 0.20822935
-0.0075341673 -0.10746023 0.017220238 0.10662616 -0.00424138 -0.1469367 -0.04969186 0.028881868
-0.018811744 -0.01465688 -0.05834057 0.011942165 0.036768142 0.13645372 -0.071165524 0.28422064
0.00961168 -0.0016841268 -0.014233615 0.07708104 -0.071070075 -0.043697666 0.14545578 -0.08020494
-0.03377532 0.034080304 0.028009571 -0.0038723836 -0.010347691 0.040293444 0.07254152 0.021186564
-0.018424198 0.35875914 0.028206237 -0.05469324 0.080351494 0.09555282 -0.009960906 0.0615079
-0.016618898 -0.08296462 0.13504276 0.06971877 0.09074679 -0.04251957 0.36386436 0.05635834
0.0045790295 0.0048071137 0.06030302 0.009215251 0.03894654 -0.016596442 0.094320156 -0.040292256
0.11533498 0.010403142 0.037206754 0.0023048162 -0.019649386 0.0047020144 0.07323659 0.014220215
0.058210317 -0.041144244 -0.014348482 -0.046032436 -0.008245026 0.34336686 -0.054414608 -0.08153943
0.15523282 0.06585096 -0.035063427 0.25783414 -0.10838438 -0.010510575 -0.074983925 0.04513262

layers.4.weight f4 [256, 256]
00000000: cb3f 90bd af71 83be 43ed 5fbd 6d91 9dbd
00000010: 3c27 41bc b96e 3e3d c4ce c9bd aa07 b7bd
00000020: acec 73be fdd7 e1bd a236 b73d 8d9a 883d
00000030: bde4 f43c 9571 973d b5ee 113d 51fc 9d3d
00000040: 4779 a4be 09ca 273e 6e74 ff3a c0cb eabc
00000050: fb6b b63c 57f0 093d 0ace 6f3d 9dda 4bbe
00000060: 5033 00bd e6e5 a83d 08ca f2bc 77ba 9ebd
00000070: 2454 e3bd 88d2 663c a7a8 92bd 27aa b03d
00000080: 4325 813c 1cba 823d 2f84 b43d 86fa 273d
00000090: cf68 993c 960c 903d 0bd9 f6bd 4e23 d7bd
000000a0: e082 0abd df98 b3bd c045 5d3d c219 f43d
000000b0: 8216 de3c a542 57bb a4f3 343d 1173 c8bd
000000c0: 6291 c0bb 045a 1c3e 143e 4dbe a720 1fbd
000000d0: 1da4 f8bb a29d 3dbd e5ab f33d e984 673e
000000e0: 2434 f53d e3bf 8dbd c2b5 023c 606c 55be
000000f0: cafe dd3d 9767 0b3e d0f2 253d 9d7d 1c3d
00000100: 840c 5dbe 42c4 90bc 8d74 a63b 44d6 6dbd
00000110: 28c5 9c3c 0048 833d 055b 453a e0db 16be
00000120: ec35 973d 2a9e 7abd de7c c83d e82f e63c
00000130: 5570 b13d b95f 48bd c8ec 9a3d 51d9 f8bc
00000140: b4ce f4bd e0dd 2a3b 1cb2 ad3d e8e7 963d
00000150: a8cd 75bc c66a 4f3d e04c 4e3d 2a16 e0bd
00000160: 2e12 353c d411 493d 7cce 203d 1aae a33b
00000170: 199a cdbd 5089 a5bd a196 9b3d bb11 b03d
00000180: 1264 a13d 8960 29be b698 673d 44f3 cb3d
00000190: 3c95 fdbd 62ad e93d 8ab8 a0bd ac20 c63d
000001a0: 1996 8dbd 3815 aa3d b976 a4bd 8c59 893d
000001b0: 0920 233d bb72 943d 75e4 23bd 53d6 943d
000001c0: 2d70 3d3d e308 bb3d 0a37 8eba 9ee0 633c
000001d0: 1669 ddbd 27a6 cbbc 36cd a4bd 7325 803c
000001e0: 5976 2c3d 2895 bbbd 2f61 19bd ca06 06bd
000001f0: 4fec 963c c3e0 af3c 51cb f33d e430 d03d
00000200: 8abe 8cbd 80f8 fc3d 1d05 663d 9143 2fbe
00000210: d900 093d 68da a93d 69e8 b43c e59b ecbc
00000220: 36bd 253e 67ec a7bd 8b65 763c e085 483e
00000230: 9031 3cbd ab14 233d 39da 87bd 1304 ce3c
00000240: f4fb 75bd 483a 08bd a295 5bbe d09c 0d3d
00000250: 589e f63b 77f6 063e 0064 a63d 4521 2ebe
00000260: 2796 183c 581d 8c3d 909a 8d3d dfd8 c3bb
00000270: c4b7 4fbd a04c 60bd eef2 4a3d 9bcf 763d
00000280: d134 bd3d eec9 d6bc 682b 6b3d da84 06be
00000290: 5155 033c 4a3a e1bc 8a3b fc3b 1294 25be
000002a0: 994f e43c a50f 46bc c4d5 69bc 2fcd 77bd
000002b0: fea2 50bb 0b19 f63d 5d7a ee3d 9812 d53d
000002c0: 89c0 043e c5b2 d53d 09ca 4f3e fbeb 2cbd
000002d0: 98f5 91bd 9aff e33c 23c1 9f3d b063 20bd
000002e0: af49 5a3d f1cb ebbd 6bd0 d23d 250f 853d
000002f0: 31d7 d6bd 3e07 c3be cc20 233b 6a5e 25be
00000300: ba56 00be b043 133e 62d9 1e3e 045c f3bd
00000310: 293a b8bc a62d 673d c331 babd 3308 bcbc
00000320: 9dde 72bd b904 5fbe 5363 2b3e a284 f23d
00000330: e497 063e 4a57 883c 12d7 13bc 6f2b 88bd
00000340: 509e 24bd 86a1 d1bd 6aee ad3d 60a1 2abd
00000350: 68d2 8d3c 5894 bcbd 698f 41be df98 81bd
00000360: e0df 94bd c0ab 0ebe 886e be39 8663 403d
00000370: e90c 18bc 8a07 d6bb 50da 63bd c268 113d
00000380: 5535 2e3c 22e2 e93d 4ba1 b13d fd8f 9e3d
00000390: 9311 bfbd fd55 a63d 48a8 a23d be67 843c
000003a0: 2587 61be d9fa 30bd 18de 29be 6d62 eeba
000003b0: 4ba0 363c cd1b 52bc 1f06 023c c915 003d
000003c0: 9fa9 dabd b7bd e9bc ea5e b83d 3c8b 483d
000003d0: fc3f 6bbd a519 7cbe 8973 4dbd a2a8 c03d
000003e0: 819e 20be e0d7 c4bd 5e4f 59bd fa88 b33d
000003f0: 5ab3 a23d f0bd 313d 62fa 87bc d5eb 973d
-0.070434175 -0.2567267 -0.05466963 -0.076937534 -0.011789139 0.046492312 -0.098538905 -0.08937009
-0.23820752 -0.110275246 0.08945967 0.06670103 0.029894227 0.07394711 0.03562804 0.07714141
-0.32123777 0.16385664 0.0019489655 -0.028661609 0.022268286 0.03367647 0.058546104 -0.19907613
-0.031298935 0.08246975 -0.029637352 -0.07750409 -0.11100033 0.0140882805 -0.07161074 0.08626204
0.015764838 0.06383154 0.088142745 0.041010402 0.018726734 0.070336506 -0.120531164 -0.10504781
-0.03381622 -0.08769392 0.054021597 0.119189754 0.027110342 -0.003284612 0.044177666 -0.09787572
-0.005876706 0.15268713 -0.20043212 -0.0388495 -0.007587923 -0.04629291 0.11898021 0.22609295
0.11972836 -0.06921365 0.007977905 -0.20842123 0.10839613 0.13613735 0.040514767 0.03820573
-0.21586806 -0.017671708 0.005079812 -0.058065668 0.01913698 0.06410217 0.00075285166 -0.14732313
0.07383332 -0.061185993 0.097894415 0.028099015 0.08664004 -0.048919413 0.07564694 -0.030377062
-0.11953488 0.002607219 0.08481237 0.07368451 -0.015002646 0.050638936 0.050366282 -0.109417275
0.011051698 0.049089268 0.03925942 0.0049951198 -0.100391574 -0.08082831 0.075970896 0.08597132
0.07880415 -0.16540731 0.05654212 0.099585086 -0.1238198 0.11410023 -0.07847698 0.096742004
-0.069133945 0.083048284 -0.08030457 0.06706533 0.039825473 0.072484456 -0.040012795 0.072674416
0.046249557 0.091325544 -0.0010850143 0.013908533 -0.10811059 -0.024859501 -0.080469534 0.015642857
0.042105053 -0.09159309 -0.037446197 -0.03272132 0.018423228 0.02146948 0.11904014 0.10165575
-0.0687228 0.12352085 0.05615722 -0.17115618 0.033448074 0.08293611 0.022083478 -0.02888293
0.1618546 -0.08199387 0.015038858 0.1958232 -0.045945704 0.039814632 -0.066334195 0.025148427
-0.060054734 -0.033258706 -0.21443799 0.034573376 0.0075262003 0.13179956 0.08124542 -0.17004879
0.009313143 0.068415344 0.06914246 -0.005976781 -0.050712362 -0.054760575 0.049548082 0.06025658
0.092385896 -0.026219334 0.057414442 -0.13136616 0.0080159465 -0.027493615 0.0076975273 -0.16169766
0.027869986 -0.012088691 -0.014272157 -0.060498413 -0.0031835432 0.12016495 0.11644433 0.10403937
0.12964071 0.10434488 0.20291914 -0.042217236 -0.071269214 0.027831841 0.0780051 -0.03915757
0.053292926 -0.11513508 0.10293659 0.06497029 -0.10490263 -0.38091463 0.0024891375 -0.16149297
-0.12533084 0.1438129 0.15512612 -0.11882785 -0.02248867 0.056440018 -0.090915225 -0.022953128
-0.05929433 -0.21779145 0.16737108 0.11841704 0.13143879 0.016643185 -0.009023445 -0.06648909
-0.04019004 -0.10235886 0.084927395 -0.041657805 0.017312244 -0.09207982 -0.18902363 -0.06327986
-0.07269263 -0.13932705 0.00036321976 0.046969913 -0.009280422 -0.0065316604 -0.05562812 0.035500295
0.010632833 0.114200845 0.08673342 0.07742307 -0.09329524 0.0812187 0.07942253 0.01616275
-0.2202421 -0.043207977 -0.16588628 -0.0018187292 0.011146615 -0.012824011 0.00793603 0.031270776
-0.10676884 -0.028532846 0.090024784 0.04896091 -0.057434067 -0.24619158 -0.05015901 0.09407164
-0.15685464 -0.096114874 -0.053054206 0.087663606 0.07944365 0.04339403 -0.016598884 0.07418028

layers.4.bias f4 [256]
00000000: 36d5 f4bc 0414 32bd 49b7 0abd f904 c43c
00000010: 5764 5bbd 044f 33be 205a 993d d3a5 573c
00000020: 37df 013c 5797 d4bc 1f4d 63be 34e0 35bc
00000030: 45fb 83bc fe5e 613c 7913 bd3b b1bf f3bb
00000040: 85e2 59bd 628f 02be 71eb 123d b5c1 32bd
00000050: 35d2 f4bb 7404 a33d 0509 31bd a33b 5c3c
00000060: e8e0 993b 3472 093e 189b 443c 0bb6 78bd
00000070: be65 65bc c8a0 213d 3f2a 9bbd 7321 0cbc
00000080: 9252 863d d7e9 273c 2e81 393c 7b68 9f3d
00000090: 63ea a23d d164 10be cf72 a5bc b2ea 1e3d
000000a0: 789e cd3c 3e0b d0bd a354 d83d 86b9 133e
000000b0: 5649 44bd 5cd9 0bbd c127 b1bd f2a7 843d
000000c0: 4d40 083d b9e2 eabc ff5b 6fbd fdb5 f1bc
000000d0: 3862 7cbd b148 e1bd cccf 0cbc cef3 453c
000000e0: 0d3f 8e3c b1f1 e43c 20f6 b23c 37ec dfba
000000f0: 826f 01bb 12ee 1f3c 8fcf c6be 1cb3 b53b
00000100: 0932 bfbc cb15 883d e331 0c3e acce 65bc
00000110: 3b48 b2be 7822 25be 2139 e63d 36ba 153d
00000120: 9244 e03d ab70 11be 7731 b43d 1cb8 3dbd
00000130: 9fb6 a0bc da2c 8c3c 7e48 9ebb cc5b aabe
00000140: bf21 55ba 1865 9bbe 1319 3dbc 236f a1bb
00000150: 25cb 25be d800 0dbd 6ce5 a9bd 21bc 223d
00000160: d377 04bd 6283 053e dff7 69bc 0a6b f83c
00000170: 0ee2 063e 701d b5be eb99 fabc bd0e 44be
00000180: d0bd 64be 1feb 47be 3bf1 dcbc db1b 28be
00000190: 3218 823d 4fb0 26bc feea 46be f914 c33d
000001a0: c2d0 d7bd eef5 4c3d 4a30 7a3c 6ce2 ebbd
000001b0: 26e2 b53b 4ee2 bbbc 9953 08bd a31c 77be
000001c0: fcc7 dcbd 4e0d f63d 3cb9 f0bd 756a 12bb
000001d0: 020d fb3b 2736 b6bd c3fc a6be 725d afbd
000001e0: 7ccf 8ebd a1dc 1fbc b0e4 edbd 1a1a c73d
000001f0: adf5 9c3d 9a94 78bd f844 e33c 404f 13bc
00000200: ec00 82bd 6a11 a03c cb48 d7bc 2025 21be
00000210: 10f0 4ebe 9e6c 2a3d c15d 413b d651 97bb
00000220: 56bd 3d3d 7933 cd3d be9a 773d 9847 60bc
00000230: 69a5 4abd 296d b0bd 7258 3e3d 706f 7a3e
00000240: 70bf 98bd 8d33 59bc 8da6 59bc 2d93 b93c
00000250: 7503 eabb 9149 fb3c 7dcc d4bc 4fce b5bc
00000260: 75f7 9dbc 8748 5abd 6d33 95bc 7392 05bd
00000270: 3e01 813c 901c 74be 6705 50bd 5ae7 de3c
00000280: b131 423d 4d97 353d ab39 b73d 8e0c c8bd
00000290: 4d2e debc 03f0 6cbe a0cc d43c 05a9 9cbd
000002a0: 35b4 1dbd 0699 9ebd f53b 4bbc e05f 013e
000002b0: 2a91 21bd 6357 ebbd c846 63be 27f1 633d
000002c0: a27d 273e 6def 4a3d 631e 2cbf 62d1 f43c
000002d0: 5bb3 3ebe 745f d2bc 2023 38be 7789 d3bc
000002e0: 74a8 033e 4056 b13b 3724 813d 1a50 023e
000002f0: b123 1bbe d970 b8bc a9d7 613d 7e6b 61bc
00000300: 059c 443d 8f8c 9e3c 58df a23c 9c80 44bd
00000310: 3ef9 bf3b 7463 22bd 395d 11be e0a5 65be
00000320: 84d0 76bd 7c55 5d3f ef93 f83c c446 533d
00000330: c67e 233c c381 fcbb 2699 debe 5aad dabd
00000340: 731e debd fa4d f6bd fe62 01bf 31bf 09bd
00000350: 0870 35bd 44e0 45bb 0345 5dbd 304c ad39
00000360: 44d4 0f3c f252 8dbd da74 23bc fdd4 803c
00000370: a42b d8bc 938a 4ebd 5f70 6d3d 35df 3fbd
00000380: 066d 7cbb e1e3 ee3c 4e67 ca3b b39a 323d
00000390: e0e6 21bd afa7 dc3c 8455 ddbd 9fb7 503b
000003a0: cc2f 46bd cec7 b43c 6ba9 b9bd b132 09be
000003b0: a491 23bd 7548 94bc 4d02 34bd e77c b33d
000003c0: f407 21be dc91 d7bc e9da 73bd c56b 12be
000003d0: 7929 2bbd 10c4 463c e3f4 d6bd 14c2 7dbe
000003e0: 459d fc3b 58c9 913b 5425 15be 5456 c03a
000003f0: c785 993d bad9 22be 0941 46bd b111 f13d
-0.029886823 -0.04347612 -0.0338662 0.023928152 -0.05356249 -0.17510611 0.07487893 0.013162094
0.007926754 -0.02595107 -0.22197388 -0.0111008175 -0.016111026 0.013755558 0.0057701436 -0.007438623
-0.05319454 -0.12750009 0.035869066 -0.043641765 -0.0074713477 0.07959834 -0.043221492 0.013441953
0.0046960004 0.13422471 0.011999868 -0.060720485 -0.014001308 0.039459974 -0.07576417 -0.008552897
0.06558718 0.010248623 0.011322303 0.077836 0.07954862 -0.14100958 -0.020196347 0.03879804
0.025099978 -0.10158394 0.10563018 0.1442624 -0.0479215 -0.034142837 -0.086501606 0.064773455
0.033264447 -0.028672563 -0.058437344 -0.029505724 -0.061617106 -0.11000193 -0.0085944645 0.012082053
0.01736405 0.027947279 0.021845877 -0.0017083947 -0.0019750302 0.00976135 -0.3883023 0.005545033
-0.023339288 0.06644782 0.13690905 -0.014026325 -0.34820732 -0.1612643 0.11241365 0.036554538
0.10950579 -0.14203136 0.08798497 -0.04631816 -0.01961833 0.01711123 -0.004830419 -0.3327316
-0.0008130334 -0.30350566 -0.011541623 -0.0049265786 -0.16190775 -0.034424633 -0.08295712 0.039730195
-0.032340836 0.130384 -0.0142802885 0.030324478 0.1317217 -0.35374022 -0.030590972 -0.19146247
-0.22338033 -0.19523285 -0.026970496 -0.16416876 0.06352271 -0.010173871 -0.1942558 0.095254846
-0.10537864 0.050039224 0.015270302 -0.11517796 0.0055506406 -0.022935059 -0.03328285 -0.24132018
-0.107803315 0.120142564 -0.11754081 -0.0022341285 0.0076614628 -0.088970475 -0.32614717 -0.08562745
-0.06973168 -0.009757192 -0.11615884 0.09721775 0.076640464 -0.060688592 0.027742848 -0.008991063
-0.06347832 0.019539554 -0.026279828 -0.15736818 -0.20208764 0.04160749 0.0029505345 -0.00461791
0.046323143 0.10019583 0.060450308 -0.013688944 -0.049474154 -0.08614571 0.046471067 0.24456573
-0.07458389 -0.01325692 -0.013284338 0.022653187 -0.0071415254 0.030674728 -0.025976414 -0.022193102
-0.019283036 -0.053291824 -0.018212998 -0.032610368 0.015747663 -0.2383902 -0.050786402 0.027209926
0.04741067 0.044333745 0.08946546 -0.097680196 -0.027121687 -0.23138432 0.025976479 -0.076494254
-0.038501937 -0.07744031 -0.012404432 0.1263423 -0.03944508 -0.11491277 -0.2219497 0.055649903
0.16356519 0.04954474 -0.67233866 0.029884998 -0.18623106 -0.025680281 -0.17982149 -0.025822384
0.12857229 0.005411893 0.063057356 0.12725869 -0.15150334 -0.022514747 0.05513731 -0.013758538
0.048000354 0.019354133 0.01988189 -0.047974214 0.0058585694 -0.039645627 -0.14195718 -0.22426558
-0.06025745 0.86458564 0.030343978 0.05158116 0.009978956 -0.0077058985 -0.43476218 -0.106775954
-0.108456515 -0.120265916 -0.50541675 -0.0336296 -0.044296294 -0.0030193487 -0.054020893 0.00033053895
0.008778635 -0.06900586 -0.00997659 0.01572656 -0.026387997 -0.050425123 0.057968494 -0.046843726
-0.0038517131 0.029161396 0.0061768657 0.043604564 -0.03952682 0.026935427 -0.108073264 0.0031847728
-0.048385426 0.02206793 -0.09065517 -0.13398243 -0.039933816 -0.018100956 -0.043947507 0.087640576
-0.1572569 -0.026314668 -0.05953494 -0.14298923 -0.0417876 0.012131706 -0.10495927 -0.24781066
0.0077091777 0.004449051 -0.14565021 0.0014674165 0.07496219 -0.15903369 -0.048401866 0.117709525

layers.6.weight f4 [1, 256]
00000000: 24a1 5ebe 6e5d 0c3e 9080 63be 15b9 66be
00000010: 41bd a6be 9a19 89be 0bcf 48bd ee1c 7a3b
00000020: 0651 afbc ad10 88be a801 23be 19d8 81be
00000030: 7c1a 7cbe 060a 8bbc 2583 5ebe 5e78 7fbe
00000040: 1abc 99be 57da d2be 9a8c dfbd 9881 5ebd
00000050: 8ff7 8fbd 4937 d8bd 2937 8dbe 9fb4 21be
00000060: 3829 d3bd 1dc5 5dbe 75c2 9abd 0b26 83be
00000070: e4cc bdbd 79e7 7fbd df37 aabd 299a 92be
00000080: c62d 9dbc 0d70 69be 24c5 3abe fd42 1fbe
00000090: ea64 bc3d d311 ebbd cf40 5abe c650 17be
000000a0: 517f 12be 5cfa aebe 6e5f e5bd 2242 c53d
000000b0: bc6d 95bd dc40 91be d8c7 a9be 76d2 cd3c
000000c0: 3af6 25be 9eed 20be 9560 2c3e 8b61 97be
000000d0: 164c 79be e900 413e 9aa1 ff3d a491 89be
000000e0: 6125 36bd 844e 88bd 7cc1 38bd 62c4 16bd
000000f0: 4954 c0bd 409e 6dbe 6f7f 11be b1cb 39bb
00000100: 3aa9 c9bd 6334 ebbd e733 7abd fcfc 8bbe
00000110: 2101 8a3d 5cab 48bd 5dd6 85be 1244 e13d
00000120: 5882 0dbe c5b3 e0bc 47ee 78bd bc0a 9bbe
00000130: a1cf 53be 96ea 9bbe 7905 5cbe e899 6d3d
00000140: aa88 0dbd ef90 11be 8318 42be 86b9 f83c
00000150: 0067 183d 15b1 90be f925 b7be 6ea1 b23c
00000160: 0565 8a3e 1736 b93e e16b 84bd 69e4 dabb
00000170: 2be9 18be d80f 07be 0738 f6bd 4419 7fbe
00000180: aeec 1ebf 7db0 85bc b761 68be e58a 0a3d
00000190: d76b fabc 0f51 fb3d b137 fabe 670c 4a3d
000001a0: 8de7 003c f768 bb3d db90 4dbd 070d 9cbe
000001b0: 9542 c0bd 2221 853d 56ec a3bd b00e 02bb
000001c0: be80 613e 552a 16be c2fd e93c 015d 97be
000001d0: ec09 d5bd a868 3f3c c246 01bf a55b b3bd
000001e0: 4881 94be 04cf 183e 0f29 96be 358c 2f3d
000001f0: 06d7 19be b09c 71be fe7c 37bd a441 ad3d
00000200: e62c 92be a4d5 8fbc 792b 28bc a25c 93bc
00000210: 3c21 a8be a7d8 b3bd 1954 79be 6999 c6bd
00000220: 0b18 703d d7f6 7a3e 497c 5cbd e175 61be
00000230: 7893 aebd a975 8abe 662b 8a3c f1b9 8d3e
00000240: 397b 86be 8cf4 9cbd 79ae 4fbe 672d 523b
00000250: 25b3 83be 07ae 68be 05eb 82be 7750 36bd
00000260: 09e2 afbe 34cf c4be c6b6 c83c 8a3c 86be
00000270: 8cd0 babd e224 22be e9c2 7cbe 990c 05be
00000280: 4abc 95ba 77fe c13c 19b0 35be 800d 8bbd
00000290: 550d 37bd f2b6 6c3b 4669 94bd b6b7 d63d
000002a0: 0661 26be d499 86be d7dd 5bbe 14aa c6bd
000002b0: be26 233e 1cc4 ebbe b335 7fbe 548b 44be
000002c0: 36e4 5cbe a0d2 e5bd 671e 0cbc c47f 12be
000002d0: 9245 8bbd 8b91 4fbd 2634 76bd f668 bcbe
000002e0: 0474 27be c5f6 4ebd a4ca 31bd 2102 a3bd
000002f0: 7d31 5bbe f9f2 00be 7332 01be 4557 89be
00000300: 7618 79bd 1985 6f3e 932a 1abe 36bd 43be
00000310: 4780 a0be 87c9 03bd ec18 8abe 22dc 18be
00000320: 1950 7ebe 3132 bb3e cf3c 8f3e fb31 08be
00000330: 50ce ecbd e5f3 debc 0449 a8bd 9eeb 77bc
00000340: 376d 2dbe 2a93 83be 6dc0 4f3d fbbf 983d
00000350: 2112 89bb 7183 363c e975 afbe 1f5c 31be
00000360: b839 b5bd b5a4 91be fd92 b63d 763f 893d
00000370: f688 52be ccb8 7cbe 266c 09be 51d2 84be
00000380: 01d0 84be 973f 00be b435 6dbe d12e 053c
00000390: b48e 623c 16bf f7bc 3219 a7be 5a4a 49be
000003a0: 4c79 a7be 84df 113b 9add c7bd 7092 92be
000003b0: eeaa 50bd dcfe ecbb 2439 6b3c 4a2e d6bd
000003c0: bd0b dfbd 5d16 25be f69d 2cbe 0c63 aebe
000003d0: c0e3 d63d 8c1c 67be 34d5 39be 5229 d0bd
000003e0: f3b8 dabd 1e7e cfbd b883 abbc ef22 35be
000003f0: 7e97 08be 59ff afbe 8c9e b0be 1fab f7bd
-0.21741158 0.13707516 -0.22217011 -0.2253154 -0.32566264 -0.26777345 -0.049025577 0.0038164216
-0.02140094 -0.26575223 -0.159186 -0.25360182 -0.24619478 -0.016972553 -0.21729715 -0.2494826
-0.30026323 -0.41182205 -0.109154895 -0.05432281 -0.0702964 -0.1055742 -0.27581146 -0.15791558
-0.10310596 -0.21657224 -0.07556621 -0.25614962 -0.092675954 -0.06247661 -0.08311438 -0.2863324
-0.019186866 -0.2279665 -0.18239266 -0.15552898 0.09198935 -0.11478009 -0.21313785 -0.14776906
-0.1430638 -0.34175384 -0.111998424 0.096317545 -0.07296321 -0.28369796 -0.3316028 0.02512477
-0.16207209 -0.15715644 0.16833718 -0.29566607 -0.2434543 0.18848003 0.12481995 -0.26868927
-0.04446924 -0.06655601 -0.045106396 -0.03680838 -0.09391076 -0.23204899 -0.14208768 -0.002835017
-0.098467305 -0.11484601 -0.061084654 -0.2734145 0.067384966 -0.048991546 -0.2614011 0.109993115
-0.13819253 -0.02742947 -0.060774114 -0.30281627 -0.20684673 -0.30452412 -0.21486463 0.058008105
-0.03455416 -0.14215444 -0.18954663 0.030361902 0.037207603 -0.28260103 -0.35771158 0.021805491
0.27030197 0.3617408 -0.06465889 -0.0066800606 -0.14932697 -0.13189638 -0.12022405 -0.24911982
-0.62079895 -0.016319508 -0.22693525 0.033823866 -0.030569 0.1227132 -0.48870614 0.049328234
0.007867706 0.0915088 -0.050186973 -0.3047869 -0.093876995 0.0650046 -0.08004062 -0.001984518
0.22021767 -0.14664586 0.028563384 -0.29563144 -0.10402283 0.011682667 -0.5049859 -0.08757714
-0.29004884 0.1492272 -0.293282 0.04285832 -0.15023431 -0.23594928 -0.044796936 0.084597856
-0.2854988 -0.017557926 -0.010264271 -0.017988507 -0.32837856 -0.087815575 -0.24348487 -0.096972294
0.05861668 0.24508224 -0.053829465 -0.22017623 -0.08524221 -0.27042893 0.016866397 0.27680925
-0.26265886 -0.07663831 -0.202814 0.003207052 -0.25722614 -0.22722636 -0.2556993 -0.04451033
-0.3435214 -0.38439333 0.024501216 -0.26218063 -0.091218084 -0.15834382 -0.24683727 -0.12993087
-0.0011423912 0.023680909 -0.17742957 -0.06789684 -0.04469045 0.0036119786 -0.07246642 0.10484259
-0.16247949 -0.26289237 -0.21471344 -0.097004086 0.15932748 -0.46048057 -0.24922828 -0.19193774
-0.2157143 -0.11221814 -0.00855217 -0.14306551 -0.06800379 -0.05067591 -0.060108326 -0.3679883
-0.1635285 -0.050528307 -0.043406144 -0.079593904 -0.21405597 -0.12592687 -0.12616901 -0.26824394
-0.060814343 0.23390616 -0.15055303 -0.19115147 -0.31347868 -0.032174613 -0.2697214 -0.14927724
-0.24835242 0.3656173 0.2797608 -0.13300316 -0.115627885 -0.027215907 -0.082170516 -0.015131859
-0.16936193 -0.25698215 0.05072062 0.07458492 -0.0041830693 0.0111397365 -0.34269646 -0.17320298
-0.088488996 -0.28445974 0.089147545 0.06701557 -0.20560059 -0.2467987 -0.13420162 -0.2594171
-0.25939944 -0.12524258 -0.23165017 0.008128838 0.013827968 -0.030242484 -0.3263641 -0.19657269
-0.3270973 0.002225847 -0.09759064 -0.28627348 -0.05094426 -0.00723253 0.014356885 -0.10458048
-0.10890911 -0.16121812 -0.16857132 -0.34059942 0.104926586 -0.22569484 -0.18147737 -0.10164131
-0.106798075 -0.10131477 -0.020936832 -0.17689107 -0.1333904 -0.34374502 -0.34495962 -0.12093186
