Results_dir/2022-03-20-18-16-28/actor.pth (torch, 274391 bytes, 6 tensors)

layers.0.weight f4 [256, 6]
0	0x3d04dd36	0.032437526
1	0xbdb97797	-0.09056013
2	0x3ef674ee	0.48136085
3	0x3b8f5fc6	0.0043754308
4	0x3cb87948	0.022518769
5	0x3c5f9aa7	0.013647712
6	0xbd33f95f	-0.04393899
7	0xbe025ab4	-0.12729913
8	0x3eae6ec6	0.34068888
9	0xbd04e965	-0.032449145
10	0x3e06c7aa	0.13162103
11	0x3c9dd4df	0.019266544
12	0xbd6fbf54	-0.058532074
13	0xbe6dfb67	-0.23240434
14	0x3e82c477	0.25540516
15	0xbda2df54	-0.07952753
16	0x3e314a6a	0.17313543
17	0xbd6e5551	-0.058186833
18	0xbcb2b549	-0.02181496
19	0xbded7e6b	-0.11596378
20	0x3ed98d23	0.4249049
21	0xbce4cd9b	-0.027930072
22	0x3e2beddf	0.1678996
23	0x3db9f754	0.09080377
24	0xbcc2a42f	-0.02375993
25	0xbe30d38d	-0.172682
26	0x3e4b3b87	0.19846927
27	0xbcce22f6	-0.025163155
28	0x3e4002c0	0.18751049
29	0xbd94d32a	-0.07266839
30	0xbd02b9a7	-0.031915333
31	0x3dd85083	0.105622314
32	0xbeb671d4	-0.3563372
33	0xbc806349	-0.015672343
34	0x3cfa3576	0.03054307
35	0xbd8c721d	-0.06857703
36	0xbcad7178	-0.02117227
37	0xbc86a76f	-0.01643726
38	0x3e08554b	0.13313787
39	0xbd2452f9	-0.04011819
40	0x3d304218	0.043031782
41	0x3dc514b4	0.096230894
42	0x3d557576	0.052113973
43	0xbde931e2	-0.113864675
44	0x3e6ec5ba	0.23317614
45	0xbd0a2e04	-0.03373529
46	0x3d9e4107	0.07727247
47	0xbcf44fd6	-0.029823225
48	0x3d26c8e1	0.040718917
49	0xbd5fa0de	-0.054596774
50	0x3e33b13b	0.17548077
51	0x3c2dddbb	0.010611947
52	0xbb0981db	-0.002098194
53	0x3c469452	0.012120323
54	0xbde04f6b	-0.10952648
55	0x3de43840	0.11143541
56	0xbec1fbb5	-0.3788735
57	0x3dc372f1	0.09543408
58	0xbd0f2586	-0.034947895
59	0xbe160f0f	-0.14654182
60	0x3bb7dd82	0.0056111226
61	0xbdf0a9d2	-0.11751141
62	0x3ecf214b	0.40455088
63	0x3c9ea4b1	0.01936564
64	0x3d679720	0.05654061
65	0x3d5654fd	0.052327145
66	0xbe0ae943	-0.13565545
67	0x3e54e3e8	0.20790064
68	0xbd77d653	-0.06050713
69	0x3dfd4d96	0.12368314
70	0x3e0c4ff4	0.13702375
71	0xbe0fcb2d	-0.14042349
72	0x3d533041	0.05155969
73	0xbdb41581	-0.08793164
74	0x3e43ca93	0.19120245
75	0x3d0c3a43	0.03423525
76	0xbe20e3a2	-0.15711835
77	0x3e169bc0	0.14707851
78	0xbcdbb5c0	-0.026820064
79	0xbe840e09	-0.25791958
80	0x3e9e6225	0.30934253
81	0xbbc8f3e8	-0.0061325915
82	0x3bc6e511	0.0060697873
83	0x3dcb11e1	0.099155195
84	0xbc0667d6	-0.008203467
85	0x3e7906d3	0.2431901
86	0xbe73c44f	-0.23805355
87	0x3cb530d2	0.022118006
88	0xbdfb8ad0	-0.12282336
89	0x3d5e0883	0.054207336
90	0xbd0b0968	-0.033944517
91	0x3daa9802	0.083297744
92	0x3dbffaab	0.09373983
93	0xbd66be1b	-0.056333642
94	0x3e399921	0.1812482
95	0x3d0df154	0.034653977
96	0xbd0b3060	-0.03398168
97	0xbde96f00	-0.11398125
98	0x3dcb7e1f	0.09936165
99	0x3d5c44a1	0.053776387
100	0xbc68038a	-0.014161
101	0xbde308f2	-0.110856906
102	0x3d794388	0.06085542
103	0xbe0ae59e	-0.13564155
104	0x3d755c46	0.059902452
105	0xbdecc08b	-0.11560162
106	0x3dff10ce	0.12454377
107	0x3e4fb8ae	0.20285293
108	0xbd4e478c	-0.0503612
109	0xbd215b4e	-0.039393716
110	0xbbe9bb26	-0.0071329055
111	0xbd029da1	-0.031888608
112	0x3c9fbd3a	0.01949941
113	0xbd0a11a5	-0.033708233
114	0xbd587afe	-0.05285167
115	0xbe5a11c5	-0.21295841
116	0x3e1e8146	0.15479001
117	0x3cf281a1	0.029602828
118	0x3e0d51e8	0.13800776
119	0x3d7de9fb	0.06199072
120	0x3beca6f7	0.007222052
121	0x3dd577a4	0.1042321
122	0xbd494c22	-0.04914487
123	0xbce95200	-0.028481483
124	0xbdb25409	-0.08707435
125	0x3de554d9	0.11197824
126	0x3dba2121	0.0908835
127	0x3e0c753c	0.13716596
128	0xbd76ef5c	-0.060286865
129	0xbd7fc29c	-0.062441453
130	0x3dce7ee2	0.10082795
131	0x3d5de549	0.05417374
132	0x3daf6c1c	0.08565542
133	0x3e2f922e	0.17145607
134	0xbeb5028b	-0.35353503
135	0xbd0786c3	-0.033087503
136	0xbc8d4d88	-0.017248884
137	0xbd5d91c9	-0.05409411
138	0x3ca14f4e	0.019691136
139	0xbe387dde	-0.18016765
140	0x3e463440	0.1935587
141	0xbdc73f91	-0.09728921
142	0xbb2c9da0	-0.002633907
143	0xbda17dc3	-0.07885315
144	0x3bb7c3c4	0.005608054
145	0x3e784639	0.24245538
146	0xbedc9d96	-0.4308898
147	0x3dfb37c8	0.12266499
148	0xbe1b3d20	-0.15160036
149	0xbe6a417b	-0.22876541
150	0xbcc4ce10	-0.02402404
151	0xbe9ee98f	-0.31037566
152	0x3ed629dd	0.41828814
153	0xbcc59191	-0.024117263
154	0xbde30c57	-0.11086338
155	0x3d014809	0.03156284
156	0x3d1f3508	0.038868934
157	0x3ea279c3	0.31733522
158	0xbedfefdb	-0.43737683
159	0x3d306319	0.043063257
160	0x3cfafdb3	0.030638551
161	0xbe3c4992	-0.1838744
162	0xbe1251ec	-0.14289063
163	0x3e5c29cb	0.21500318
164	0xbe913287	-0.28358862
165	0x3dd22d0a	0.10262497
166	0xbd37ec35	-0.044903
167	0x3dcd2846	0.10017447
168	0xbcd56048	-0.026046887
169	0x3de29f73	0.11065569
170	0xbdd6177e	-0.104536995
171	0xbd7d3a9f	-0.061823484
172	0x3dd7bd3b	0.1053414
173	0x3c77754f	0.015103652
174	0xbccf9061	-0.0253374
175	0xbd8ae060	-0.067810774
176	0x3e4aebcb	0.1981651
177	0x3d897402	0.0671158
178	0xbd227ac7	-0.03966787
179	0x3d7918c8	0.06081465
180	0xbcaf0c22	-0.02136809
181	0x3e5605b4	0.20900613
182	0xbed9459d	-0.42435923
183	0x3d9707fe	0.07374571
184	0xbc9de353	-0.019273436
185	0xbd7ef6f5	-0.062247235
186	0xbddaae0a	-0.106777266
187	0xbe8d1694	-0.27556288
188	0x3dfd263c	0.12360808
189	0x3cc6aa16	0.024251025
190	0x3e2f90d8	0.17145097
191	0x3dcebf55	0.100950874
192	0xbe0c7f87	-0.13720523
193	0xbe3bc071	-0.1833513
194	0x3d477fa2	0.048705705
195	0x3df613d9	0.120155044
196	0x3d697227	0.05699363
197	0x3c99d42d	0.018777931
198	0xbcce1325	-0.025155613
199	0xbda94ca7	-0.082665734
200	0x3e9681db	0.29395947
201	0x3b998aab	0.00468572
202	0xbdb4f9c7	-0.08836704
203	0x3e526fc3	0.20550446
204	0xbca19b4d	-0.019727373
205	0x3cfb78d7	0.03069727
206	0x3d8e0e98	0.06936377
207	0xbcaf770c	-0.02141907
208	0x3dc2c63e	0.09510468
209	0xbcef30b3	-0.029198026
210	0x3d23c079	0.039978478
211	0x3e4d223b	0.20032589
212	0xbe6292a0	-0.22126245
213	0x3c9ec2f2	0.019380067
214	0x3ba5b7db	0.0050573177
215	0x3dc6a04a	0.096985415
216	0x3e018179	0.12647046
217	0xbbdb03b4	-0.006683791
218	0x3e0e3efb	0.13891213
219	0xbdd6ce61	-0.104885824
220	0xbde36c52	-0.11104645
221	0x3df41c0a	0.119194105
222	0x3cb459fd	0.022015566
223	0x3e6443c0	0.2229147
224	0xbec44cb7	-0.3833978
225	0x3c3b9c95	0.011450906
226	0xbd14c7a1	-0.036323193
227	0xbdedf42e	-0.11618839
228	0xbde674c8	-0.11252743
229	0xbde96d26	-0.113977715
230	0x3ecb45cb	0.39701685
231	0x3d389f13	0.04507358
232	0x3e007c82	0.12547496
233	0xbbf17ef0	-0.0073698685
234	0xbd5a400b	-0.053283732
235	0x3dac12ca	0.08402021
236	0xbea7bb99	-0.32760313
237	0x3dacd693	0.08439364
238	0xbdada073	-0.08477869
239	0x3dcc48f6	0.09974854
240	0x3c9c78c7	0.01910056
241	0x3dd35a2d	0.10319934
242	0xbe944409	-0.28958157
243	0x3cc8454f	0.024447111
244	0xbd7689ae	-0.060189895
245	0x3d476db0	0.04868859
246	0x3db5264d	0.08845196
247	0x3e403b01	0.18772508
248	0xbdbe02e4	-0.09277895
249	0xbd7fe7ac	-0.0624768
250	0xbd223ba5	-0.039607663
251	0xbe2d2d49	-0.16911806
252	0xbd888bdc	-0.06667301
253	0x3dd2df84	0.102965385
254	0xbecd489c	-0.4009446
255	0x3cdedbd8	0.027204439

layers.0.bias f4 [256]
0	0xbd950828	-0.07276946
1	0x3d96c3f2	0.07361592
2	0x3d743954	0.059624985
3	0x3bd2e17d	0.0064355717
4	0x3d09b54f	0.033620175
5	0x3ddb117f	0.106966965
6	0x3da82c81	0.082116134
7	0xbceaf932	-0.028683279
8	0xbd88e61f	-0.06684517
9	0xbd092b39	-0.033488486
10	0xbdc707c3	-0.09718277
11	0xbd316b90	-0.04331547
12	0xbe0190ea	-0.12652937
13	0xbcab57cb	-0.020915886
14	0x3bd04849	0.0063562733
15	0x3dd7ba36	0.10533564
16	0xbdbb0823	-0.09132411
17	0x3da5c947	0.08095031
18	0x3e0591bf	0.13043879
19	0xbd945533	-0.07242813
20	0x3d91e251	0.071232446
21	0x3ce614ff	0.028086184
22	0x3d215e7b	0.039396744
23	0x3d96264d	0.07331524
24	0xbd368d40	-0.0445683
25	0x3cdc359d	0.026881034
26	0xbd0eb424	-0.034839764
27	0xbcd88dc4	-0.026434787
28	0x3dd5e947	0.10444885
29	0xbdbe683a	-0.092972234
30	0xbd83d5ff	-0.06437301
31	0xbcac6df5	-0.021048525
32	0xbdb535af	-0.0884813
33	0xbcc5e3e6	-0.024156522
34	0x3d7d337e	0.061816685
35	0xbd4033c7	-0.04692438
36	0x3d1f9739	0.038962577
37	0x3c987660	0.018611133
38	0xbd321c51	-0.043484036
39	0xbd1ca7c8	-0.038245946
40	0xbd34b67f	-0.044119354
41	0x3dacd81c	0.08439657
42	0x3cc20303	0.023683077
43	0x3d6c48f9	0.05768678
44	0x3c5373de	0.012906043
45	0xbdb66704	-0.089063674
46	0xbe114652	-0.14186981
47	0xbcaf6c1e	-0.021413859
48	0xbda8aa9c	-0.08235666
49	0xbdb21e7a	-0.08697219
50	0x3d856203	0.06512835
51	0x3dedad78	0.11605352
52	0xbc721c90	-0.014777318
53	0x3e296a0c	0.1654436
54	0x3da1be21	0.07897592
55	0x3d781f17	0.060576525
56	0xbd238a53	-0.039926838
57	0xbd872ff9	-0.06600947
58	0x3d6a0a51	0.057138745
59	0xbdec073e	-0.11524819
60	0xbdf19639	-0.11796231
61	0x3d38f237	0.04515287
62	0xbcc60ee0	-0.024177015
63	0xbd8c3842	-0.06846668
64	0x3d092e91	0.033491675
65	0xbde9bce7	-0.114129834
66	0xbd98b556	-0.07456462
67	0xbd4493c1	-0.04799247
68	0x3d51bf12	0.05120761
69	0xbd614a91	-0.055002753
70	0x3c090906	0.008363968
71	0x3dec403e	0.11535691
72	0xbd63f1e3	-0.055650603
73	0xbd8b1282	-0.067906395
74	0x3b98dde2	0.0046651224
75	0x3cc674fc	0.024225704
76	0xbdcf2b30	-0.10115659
77	0xbd1e507a	-0.038650967
78	0x3d7beb15	0.06150349
79	0xbd7553ed	-0.05989449
80	0xbd812fb9	-0.063079305
81	0x3cab0297	0.020875258
82	0x3d8efdb9	0.069819875
83	0xbd890220	-0.066898584
84	0x3d7bfca3	0.06152023
85	0x3d4c96ec	0.049948618
86	0x3dde5a12	0.10857023
87	0x3aee98db	0.0018203513
88	0x3d57a2f5	0.052645642
89	0xbda30bcd	-0.07961235
90	0x3ce7895e	0.028263744
91	0x3da498fc	0.08036992
92	0x3d9d14e4	0.0767
93	0x3cc3bbb1	0.02389321
94	0xbe03e8d8	-0.12881792
95	0xbd5f793e	-0.054558985
96	0xbd2b093a	-0.041756846
97	0x3e14a99e	0.14517829
98	0x3d0002af	0.03125256
99	0x3dd8eeb1	0.10592402
100	0xbd0c23e6	-0.034213923
101	0xbcfa273e	-0.03053629
102	0xbdd24e73	-0.10268869
103	0xbd552932	-0.05204124
104	0xbd8bac79	-0.06820006
105	0xbc3a91be	-0.011387287
106	0x3d903523	0.07041385
107	0xbcf61a85	-0.030041942
108	0xbd42b4ee	-0.04753583
109	0x3e07baa6	0.13254794
110	0xbd8ae109	-0.06781203
111	0xbd7b5dc3	-0.061368715
112	0x3d8ec09c	0.06970331
113	0xbbbdfa7e	-0.0057976833
114	0x3d806000	0.062683105
115	0x3d566690	0.052343905
116	0xbd6f1f12	-0.05837924
117	0xbd692ff0	-0.056930482
118	0xbc9703af	-0.018434374
119	0x3c82b91b	0.015957406
120	0x3d80b9ee	0.06285463
121	0x3ba01c05	0.0048861527
122	0x3d5d99bb	0.054101687
123	0xbdcb8384	-0.09937194
124	0xbd9d2487	-0.07672983
125	0x3e016946	0.12637815
126	0x3d920bd7	0.071311645
127	0xbd0bbfbd	-0.034118403
128	0x3da6544f	0.08121549
129	0xbd68705b	-0.056747776
130	0x3d6f6392	0.058444567
131	0x3cb1252e	0.021624174
132	0x3cedd81a	0.02903371
133	0x3d9bd0e0	0.07608199
134	0xbd9d0dcf	-0.076686494
135	0xbd1f90df	-0.03895652
136	0x3c98b700	0.018641949
137	0x3c963fe4	0.018341012
138	0x3d8c690d	0.06855974
139	0x3c411349	0.011784383
140	0xbd5b9add	-0.053614486
141	0x3d3abc4e	0.045589738
142	0x3db064da	0.08612986
143	0xbb8ee6f2	-0.004361027
144	0xbd817fe0	-0.06323218
145	0xbd2015c2	-0.03908325
146	0x3d2675b2	0.040639587
147	0x3ce21e89	0.02760245
148	0x3d9d7e5e	0.07690118
149	0x3db6214c	0.088930696
150	0x3c69f40b	0.014279376
151	0x3d785d37	0.06063577
152	0x3de27e58	0.110592544
153	0xbd698e24	-0.05702032
154	0x3dc0de03	0.094173454
155	0x3dc316e4	0.095258504
156	0xbe0279b0	-0.12741733
157	0x3d08f4ee	0.03343671
158	0xbd59c429	-0.05316559
159	0x3da2a8fc	0.079423875
160	0x3bf37066	0.0074291704
161	0xbd495abe	-0.049158804
162	0x3bedd17d	0.007257639
163	0x3d674aa8	0.056467682
164	0xbda823b3	-0.08209934
165	0xbdf02370	-0.11725509
166	0xbd00c0e9	-0.031433973
167	0xbd2c43b1	-0.042056743
168	0xbd61dbd5	-0.05514129
169	0x3d823125	0.0635703
170	0xbd58b3c3	-0.05290581
171	0xbba63c67	-0.0050731185
172	0xbd35b159	-0.044358585
173	0x3d903fc3	0.070434116
174	0x3d9f8b45	0.077902354
175	0xbdb450f3	-0.08804502
176	0xbd0b6246	-0.034029268
177	0x3d2f2a4c	0.042764947
178	0x3a4d75c1	0.0007837676
179	0xbd771251	-0.060320202
180	0xbdaf841a	-0.08570118
181	0x3c571f7a	0.013130063
182	0x3d3b794a	0.045769967
183	0x3de2404b	0.11047419
184	0x3d3ecb54	0.046580628
185	0x3d93644d	0.07196865
186	0x3c429117	0.011875412
187	0xbd91dfc3	-0.07122757
188	0x3d121e9d	0.035673726
189	0x3d489bb3	0.04897661
190	0xbd0edac6	-0.034876607
191	0x3dbae4fa	0.09125705
192	0x3d783aaf	0.06060284
193	0x3cce8037	0.025207622
194	0xbc9e6a50	-0.019337803
195	0xbcbc1a0c	-0.022961639
196	0x3dec6c4a	0.11544092
197	0xbd532acc	-0.051554486
198	0x3d77e616	0.06052216
199	0xbb3cb1b7	-0.002879245
200	0xbc5ad2d6	-0.013355931
201	0xbcf2932e	-0.029611196
202	0x3db7f42e	0.089821205
203	0x3e09f6eb	0.13473098
204	0xbcb5c8e2	-0.022190515
205	0x3d5a68ba	0.05332253
206	0xbd52282f	-0.051307853
207	0x3d7cd6ce	0.06172829
208	0xbd5e52b2	-0.054278083
209	0x3d5a4fbf	0.053298708
210	0x3b6517f9	0.0034956916
211	0x3dbca64f	0.09211408
212	0x3d96fa0f	0.07371914
213	0xbcd4ca24	-0.025975294
214	0x3d91f909	0.07127578
215	0x3cf004f5	0.029299239
216	0xbcd1bfa0	-0.02560407
217	0x3d875213	0.06607451
218	0x3d965c29	0.07341797
219	0x3dd18b36	0.102316305
220	0x3d2d9056	0.042373978
221	0x3dd2031e	0.10254501
222	0x3de2444c	0.11048183
223	0xbd1203ea	-0.035648264
224	0xb9813d86	-0.00024650636
225	0x3cd12e3b	0.02553474
226	0x3db43015	0.087982334
227	0x3d694497	0.056950178
228	0x3d188134	0.037232593
229	0xbcb80f9d	-0.022468382
230	0x3d118daf	0.03553551
231	0x3dd1f78f	0.10252296
232	0x3d9f7dcf	0.07787668
233	0xbcd4a0be	-0.025955554
234	0xbdbf6d60	-0.093470335
235	0x3dd856a4	0.105634004
236	0x3d13bc09	0.036067996
237	0x3cad6bea	0.021169621
238	0xbc587a54	-0.013212759
239	0xbd416e6a	-0.04722444
240	0x3d112d89	0.035443816
241	0x3af2fb76	0.0018538076
242	0xbd3fe92a	-0.046853222
243	0xbb3a8bee	-0.0028464752
244	0x3d7948c4	0.06086041
245	0x3cb70f5c	0.022346191
246	0xbdd3cd3e	-0.10341881
247	0xbdafd568	-0.08585626
248	0xbcc104f5	-0.023561934
249	0x3cbd5e11	0.023116143
250	0x3dc8c1fc	0.098026246
251	0x3d6d3294	0.057909563
252	0xbd127815	-0.03575905
253	0x3b5cc99b	0.0033689502
254	0xbd8720cc	-0.065980524
255	0x3daa8d77	0.083277635

layers.2.weight f4 [256, 256]
0	0x3c99965e	0.018748458
1	0xbcd5b1d2	-0.026085768
2	0xbd5d2d77	-0.053998437
3	0xbccc8780	-0.024966955
4	0x3d89e37d	0.06732843
5	0xbdd7f1de	-0.105441794
6	0x3db6a6da	0.08918543
7	0xbd0139a5	-0.031549115
8	0xbd0fe121	-0.03512681
9	0xbd6e9909	-0.058251414
10	0x3d6a3fbd	0.05718969
11	0xbdd2cece	-0.10293351
12	0x3d8e3296	0.06943242
13	0x3b939513	0.004503855
14	0xbda647b7	-0.08119147
15	0xbdb76e53	-0.089565895
16	0x3cc1a4fa	0.023638237
17	0x3bac23ac	0.005253276
18	0x3b52a3f1	0.0032141174
19	0xbcf87e21	-0.03033358
20	0x3d1d7ce4	0.038449183
21	0x3cc4f34a	0.02404179
22	0xbe127ef3	-0.1430624
23	0x3da6484d	0.08119259
24	0x3c2bf4a8	0.010495342
25	0x3cb28851	0.021793516
26	0xbd531e18	-0.05154237
27	0xbd4d6a81	-0.0501504
28	0x3cf44088	0.029815927
29	0xbdbe0d03	-0.092798255
30	0xbd8eb716	-0.069685146
31	0xbaf37d01	-0.0018576683
32	0x3d9bd168	0.076083004
33	0xbcb29d00	-0.021803379
34	0xbc149870	-0.009069547
35	0xbd893ae9	-0.06700689
36	0xbd01edf9	-0.03172109
37	0x3c8aea4f	0.01695743
38	0xbb3affc2	-0.0028533791
39	0xbc8bd81b	-0.01707082
40	0x3caee1c2	0.021347884
41	0x3c9efc64	0.019407459
42	0x3d6ef757	0.05834135
43	0x3cee38b0	0.029079765
44	0xbdedb9ce	-0.11607705
45	0xbd95ccdb	-0.07314464
46	0xbd112d8e	-0.035443835
47	0x3e353940	0.1769762
48	0x3cafc4d2	0.021456156
49	0x3da0f240	0.078587055
50	0x3d0d9c10	0.03457266
51	0x3de90a17	0.113788776
52	0x3d1ad4a8	0.03780046
53	0xbdb384fd	-0.087656
54	0x3d20e73b	0.03928302
55	0x3d921f28	0.07134849
56	0x3cc1e53a	0.023668874
57	0xbd7d5e5d	-0.06185757
58	0x3d2d3d6a	0.042294897
59	0xbd6290e4	-0.05531396
60	0xbb80acdf	-0.003926858
61	0x3dc90cb8	0.09816879
62	0xbdbb821c	-0.09155676
63	0xbdbbce95	-0.09170262
64	0x3ce456df	0.027873455
65	0xbdc44f7a	-0.095854715
66	0x3d90a37d	0.07062433
67	0x3dcc707e	0.09982394
68	0x3b872809	0.0041246456
69	0xbc14cdb8	-0.00908225
70	0xbcfc3c07	-0.030790342
71	0x3d66bb2e	0.056330852
72	0x3d7a9328	0.061175495
73	0xbdca711f	-0.098848574
74	0x3dc234d9	0.09482736
75	0xbd216301	-0.039401058
76	0xbceab924	-0.028652735
77	0xbd7ba4cb	-0.061436456
78	0x3d32a417	0.04361352
79	0x3d47d6f2	0.048788972
80	0x3d2ada66	0.041712187
81	0x3dc79c7b	0.09746643
82	0x3ce5736e	0.028009143
83	0xbc7779c4	-0.015104715
84	0x3dcd57a6	0.10026483
85	0x3d1768c8	0.03696516
86	0x3dd5277b	0.10407921
87	0xbd621853	-0.05519898
88	0x3b4af16d	0.0030966655
89	0x3c645975	0.013937344
90	0xbe019172	-0.12653139
91	0xbdc20939	-0.09474415
92	0xbc5f7019	-0.013637566
93	0x3da7e662	0.08198239
94	0x3d82f4e8	0.063943684
95	0xbdcaa3ee	-0.09894548
96	0xbd8d6cb9	-0.06905503
97	0xbdc1ff38	-0.09472507
98	0xbcdac230	-0.026703924
99	0x3d2e9eca	0.0426319
100	0x3d9a9091	0.07547105
101	0x3e21ebf8	0.15812671
102	0xbdac0771	-0.08399857
103	0xbd610260	-0.054933906
104	0xbd894bba	-0.06703897
105	0x3dcf02de	0.10107969
106	0xbd749e04	-0.059721008
107	0x3d524d61	0.051343326
108	0xbdb637f2	-0.088973895
109	0x3cb9ba5f	0.022671876
110	0x3d9d2f7d	0.07675073
111	0x3d900922	0.07032992
112	0xbc0dffe1	-0.008666963
113	0xbdcf07bf	-0.10108899
114	0x3d768229	0.060182724
115	0x3d352169	0.044221316
116	0xbd12e1dc	-0.035859928
117	0x3d79e003	0.06100465
118	0x3cda0c94	0.026617326
119	0xbdc50b09	-0.096212454
120	0x3d3a2ddc	0.04545389
121	0x3cdf36e8	0.027247861
122	0x3dcb28ca	0.09919889
123	0x3b74f00c	0.0037374524
124	0x3d804678	0.06263441
125	0x3d41bc0a	0.04729847
126	0x3db21e7c	0.08697221
127	0x3d6e6446	0.058201097
128	0x3d78de8b	0.06075911
129	0xbdbeeacf	-0.0932213
130	0xbd4b81cf	-0.049684342
131	0xbd81ceb8	-0.063382566
132	0x3d38f275	0.0451531
133	0xbe00fd78	-0.1259669
134	0xbd8ef00e	-0.069793805
135	0xbd7c58b0	-0.061608016
136	0xbd49d152	-0.04927189
137	0xbdbd3a6f	-0.09239661
138	0x3d428aae	0.047495537
139	0xbd83e7df	-0.0644071
140	0xbd9caf54	-0.07650629
141	0xbe05c8c8	-0.13064873
142	0x3be5002f	0.0069885473
143	0xbd19f767	-0.037589457
144	0x3c6454cf	0.013936236
145	0xbd4b3226	-0.049608372
146	0x3d855b0e	0.06511508
147	0xbceb7f7d	-0.028747315
148	0x3d98ff1c	0.07470533
149	0x3dcb7f00	0.09936333
150	0xbc20f95e	-0.009825079
151	0x3db2dc4e	0.08733426
152	0xbdb4191a	-0.0879385
153	0x3df0b129	0.117525406
154	0xbcca1cba	-0.024671901
155	0xbd4515ec	-0.04811661
156	0x3c8b8dcd	0.01703539
157	0xbdaaa866	-0.08332901
158	0xbdf4be63	-0.11950376
159	0x3dbb4f0c	0.09145936
160	0x3d4601c5	0.04834153
161	0xbd49c3d8	-0.049259037
162	0x3d80b0f9	0.06283755
163	0x3bce0549	0.006287251
164	0xbcdb7e7c	-0.02679371
165	0x3d130459	0.035892818
166	0xbc13eba6	-0.009028351
167	0xbdd76b22	-0.10518481
168	0x3dd4d36d	0.10391889
169	0xbcebf64f	-0.028803973
170	0x3d0e1a57	0.03469309
171	0xbe074d9f	-0.13213204
172	0xbd0f9e47	-0.035063054
173	0x3d5a9504	0.05336477
174	0x3db2398b	0.08702382
175	0xbda44f3f	-0.080229275
176	0xbd4ebeb7	-0.05047485
177	0xbdfe4720	-0.1241591
178	0xbdff0a5f	-0.1245315
179	0x3aa9d96e	0.0012958476
180	0xbda31d10	-0.079645276
181	0x3d78edf1	0.060773794
182	0xbdb5ff49	-0.088865824
183	0xbd1626b6	-0.03665801
184	0xbd4457a2	-0.047935136
185	0x3dce5f6f	0.10076796
186	0x3d73e5b1	0.059545223
187	0xbd2c0c8a	-0.042004146
188	0xbc92df86	-0.01792885
189	0x3d6766d5	0.056494553
190	0xbdda25c1	-0.10651732
191	0x3ddb7b51	0.1071688
192	0x3ccbac5f	0.024862466
193	0x3ca4a253	0.020096933
194	0x3ddae665	0.106884755
195	0xbda6d164	-0.08145407
196	0xbc94bbe5	-0.018156001
197	0xbda66548	-0.081247866
198	0x3da33f18	0.079710186
199	0x3dad8edd	0.08474515
200	0xbcfa23f9	-0.030534731
201	0xbd80708b	-0.06271466
202	0xbdc4675c	-0.09590027
203	0xbdc9bca4	-0.098504335
204	0xbdae1028	-0.08499175
205	0xbd599ca5	-0.053127903
206	0xbdb7b6e8	-0.089704335
207	0x3ce15e26	0.027510714
208	0xbd1f690f	-0.03891855
209	0xbd70e168	-0.058808714
210	0xbcf4324a	-0.029809136
211	0x3d1dfaaa	0.03856913
212	0xbe4dfe49	-0.20116533
213	0x3d167721	0.036734704
214	0xbdb8c6c9	-0.0902229
215	0x3ddd33de	0.108009085
216	0x3d9b7e75	0.07592479
217	0x3dd1b1c0	0.10238981
218	0xbda817c6	-0.082076594
219	0xbc8ef841	-0.017452361
220	0x3dc82abe	0.097737774
221	0x3d2be6f8	0.041968316
222	0xbdf558e0	-0.11979842
223	0xbdde2a8b	-0.10847958
224	0x3d235db4	0.039884284
225	0xbd832167	-0.06402855
226	0xbe1d9d96	-0.15392146
227	0x3d8bbc5b	0.06823035
228	0x3bfcb927	0.0077125016
229	0x3df40d38	0.11916584
230	0xbd82e73b	-0.0639176
231	0xbdbe5f29	-0.09295494
232	0x3cea3ed4	0.028594412
233	0xbbe84895	-0.0070887306
234	0xbd955978	-0.072924554
235	0xbdea5125	-0.11441258
236	0x3d57b752	0.052665062
237	0xbb94b21a	-0.004537833
238	0xbbe074f1	-0.006849878
239	0xbbe58e2a	-0.0070054727
240	0xbd986ae4	-0.07442263
241	0xbdf1d7c6	-0.11808734
242	0x3d8c8bd8	0.068626106
243	0x3cb26142	0.021774892
244	0xbda561c8	-0.08075291
245	0x3dad4766	0.08460884
246	0xbd8223a0	-0.06354451
247	0xbd7bf4e9	-0.06151286
248	0x3deb4178	0.114870965
249	0xbd749366	-0.059710883
250	0x3d59dcb2	0.053188987
251	0xbd51ec98	-0.051251024
252	0x3d9512b3	0.07278957
253	0x3db38d9e	0.08767246
254	0x3d36d75c	0.044638976
255	0x3c3aaf7d	0.011394379

layers.2.bias f4 [256]
0	0xbd54c17b	-0.05194233
1	0x3d000971	0.031259004
2	0x3ba7a9aa	0.005116661
3	0xbcce6610	-0.025195152
4	0x3b70cb58	0.0036742296
5	0xbcbe4b18	-0.023229167
6	0x3d33f818	0.043937773
7	0xbcda3a3a	-0.026639093
8	0xbc8536eb	-0.016261538
9	0xbc32815e	-0.010895101
10	0xbccfe4e5	-0.0253777
11	0x3c6e943a	0.014561707
12	0xbc66347a	-0.014050597
13	0x3ca016d5	0.019542137
14	0x3d05fa84	0.032709613
15	0xbcfe6dd9	-0.031058239
16	0x3c4eb5b0	0.01261656
17	0xbca39a70	-0.019971102
18	0x3a5c78d5	0.00084103394
19	0xbcaa4578	-0.020785078
20	0x3bc0b3de	0.005880817
21	0x3d112732	0.03543777
22	0xbd07bb0d	-0.03313737
23	0x3c9269db	0.017872741
24	0xbcb7a801	-0.022418978
25	0x3d1ec3e3	0.03876103
26	0xbd12411e	-0.03570663
27	0x3c44a270	0.012001619
28	0x3be43e8e	0.006965465
29	0x3b55dde7	0.0032633485
30	0xbd0771d5	-0.033067543
31	0xbcc27549	-0.023737567
32	0x3c2919ab	0.010321061
33	0xbce2e661	-0.027697744
34	0x3d28506a	0.041092314
35	0xbcc5677d	-0.024097199
36	0xbc64665d	-0.013940421
37	0xbcdf4a28	-0.02725704
38	0xbc6deda5	-0.014521991
39	0x3c82331f	0.015893517
40	0x3bacbcf3	0.005271548
41	0x3b9999d5	0.0046875277
42	0xbcd3e877	-0.025867684
43	0x3c2885fe	0.0102858525
44	0x3d8646b3	0.065564536
45	0xbcce8cd3	-0.025213635
46	0xbbc92932	-0.006138944
47	0x3d212da1	0.039350156
48	0xbc68e5e8	-0.01421497
49	0xbcde0ed4	-0.02710668
50	0xbc3876c3	-0.011258784
51	0xbcc5c789	-0.024142997
52	0xbcc96030	-0.024581999
53	0xbcc96d37	-0.02458821
54	0x3d384a0c	0.04499249
55	0xbd0337c6	-0.03203561
56	0xbcf2ede5	-0.029654453
57	0x3c10ca7b	0.008837338
58	0xbc5e6d5f	-0.013575881
59	0xbc3025af	-0.010751172
60	0xbcaafc8c	-0.020872377
61	0x3c99218b	0.018692752
62	0xbcee8240	-0.029114842
63	0xbcb8fa0b	-0.022580167
64	0x3c68a22f	0.014198824
65	0xbcd33bf9	-0.025785433
66	0xbbc038ca	-0.005866145
67	0xbcaf0477	-0.021364434
68	0xb9dd7aa1	-0.0004224377
69	0xbcc70848	-0.024295941
70	0x3c51c88a	0.01280416
71	0x3d1eae69	0.03874055
72	0xbccf2fe9	-0.0252914
73	0x3d315433	0.04329319
74	0xbcee810b	-0.029114267
75	0x3ba81550	0.005129494
76	0xbd05c858	-0.032661766
77	0x3c9b424f	0.018952517
78	0xbce7ecf1	-0.028311225
79	0x3b29ebd3	0.0025927916
80	0x3c18e989	0.009333023
81	0x3ccb8e9d	0.024848277
82	0x3d1f8190	0.03894192
83	0x3c86d8bb	0.016460767
84	0xbcbd69cf	-0.023121743
85	0xbcc19632	-0.023631189
86	0x3bb57b35	0.005538369
87	0x3bdcd42d	0.0067391605
88	0xbc509555	-0.012730916
89	0x3b58197b	0.0032974172
90	0xbca39d43	-0.01997245
91	0xbcc442df	-0.023957668
92	0xbc960177	-0.018311245
93	0xb9f9861a	-0.00047592894
94	0xbb3e0eb8	-0.0029000472
95	0x3c478c90	0.012179509
96	0xbc200ddf	-0.009768932
97	0x3c51d209	0.012806424
98	0x3adf0593	0.0017015211
99	0x3d3ef3ee	0.04661935
100	0xbcc83191	-0.024437698
101	0xb95a9024	-0.00020843797
102	0xbc8290c0	-0.015938163
103	0xbc9e881e	-0.019352015
104	0x3c607e06	0.013701921
105	0xbcae802f	-0.021301357
106	0x3c31b3ae	0.010846062
107	0x3c215b24	0.00984839
108	0xbc4447ba	-0.011979992
109	0x3af6a8cc	0.0018818616
110	0xbb0a7065	-0.0021124121
111	0xbc8979be	-0.016781684
112	0xbbb23394	-0.0054382775
113	0x3d00dc28	0.031459957
114	0x3c547f1f	0.012969761
115	0x3b96914b	0.004594957
116	0xbc1ff2f1	-0.009762512
117	0x3bd806ef	0.0065926234
118	0x3c4bf4a2	0.012448462
119	0x3ca549af	0.020176737
120	0x3d4beeb0	0.049788177
121	0x3b2b3f43	0.0026130236
122	0xbc382bcc	-0.011240911
123	0xbb6eba6e	-0.0036427039
124	0x3c9dc667	0.019259645
125	0x3ca1e057	0.019760294
126	0xbc252dc7	-0.010081715
127	0xbd1b470f	-0.037909564
128	0xbd0d638b	-0.03451876
129	0x3cab3e4c	0.020903729
130	0xbd1ad595	-0.037801344
131	0xbc3f49c6	-0.011675304
132	0xbc98db8e	-0.01865938
133	0xbc0d7155	-0.0086329775
134	0xbca7591f	-0.020428238
135	0xbcbd5443	-0.023111468
136	0x3b7b351e	0.003833122
137	0xbc76958d	-0.015050304
138	0xbca0bdbb	-0.01962172
139	0x3d99b2ee	0.07504831
140	0xbcc8295a	-0.02443378
141	0xbcf13138	-0.029442415
142	0x3c616075	0.013755907
143	0xbad5386a	-0.0016267423
144	0xbbc95546	-0.0061441986
145	0x3c5f3ca1	0.013625295
146	0xbca33c8a	-0.019926328
147	0xbd0703ac	-0.032962486
148	0x3baf835c	0.0053562354
149	0xbd1fa6d9	-0.038977478
150	0x3d6e6ba2	0.058208115
151	0x3d1b2ca6	0.037884377
152	0xbd0eb8ce	-0.034844212
153	0xb9a66824	-0.00031739578
154	0xbcc690b3	-0.02423892
155	0xbcda5150	-0.026650101
156	0x3c7ac621	0.015306027
157	0x3d30aad2	0.043131657
158	0xbca2ad73	-0.019858098
159	0x3ce7212c	0.02821406
160	0xbba24356	-0.0049518747
161	0xbcb00b8c	-0.021489881
162	0x3c021b19	0.007941031
163	0xbccbf1a1	-0.024895491
164	0xbce2b71f	-0.02767521
165	0xbcb1a942	-0.021687154
166	0xbd007a5c	-0.03136669
167	0x3c3d8bb7	0.011568955
168	0xbcc8e9e5	-0.024525592
169	0x3c1aa59a	0.009438897
170	0xbbe4ca2d	-0.006982109
171	0x3c9e0e5b	0.019293955
172	0xbcb9f3cf	-0.022699265
173	0x3c44eed4	0.012019832
174	0x3d3d1a80	0.04616785
175	0x3c86d3c4	0.0164584
176	0xbce35458	-0.02775018
177	0xbc959fab	-0.018264612
178	0xba3fc46a	-0.000731534
179	0x3bd0fc95	0.0063777664
180	0x3d236e63	0.039900195
181	0xbcbc7ed4	-0.023009695
182	0x3d2f87e0	0.04285419
183	0xbc61a4df	-0.0137722185
184	0xba085524	-0.0005200675
185	0x3d1fdfc8	0.039031774
186	0x3d0e3d75	0.03472658
187	0x3c567bde	0.013091056
188	0xbd341b73	-0.04397149
189	0xbc79ad17	-0.015239022
190	0xbc800dea	-0.015631635
191	0xbcdbc626	-0.026827883
192	0x3c0a9e43	0.008460584
193	0xbc925bb9	-0.017866002
194	0xbccd1ff4	-0.02503965
195	0xbb0f5dc2	-0.0021875952
196	0xbd246756	-0.04013761
197	0x39a6d92e	0.000318238
198	0x3c7245ba	0.014787132
199	0xbc45d951	-0.012075738
200	0x3c94e144	0.018173821
201	0x3c433135	0.011913587
202	0x3b1748d8	0.002308419
203	0x3d580d01	0.052746776
204	0xbcd15494	-0.025553025
205	0xbd0ce50d	-0.034398127
206	0xbce5e5ae	-0.028063621
207	0x3baee34a	0.0053371536
208	0xbb1cf69a	-0.0023950697
209	0xbcd1bbf3	-0.025602316
210	0xbd237b14	-0.0399123
211	0xbd10bd3e	-0.035336725
212	0xbce45a84	-0.027875192
213	0x3c317974	0.010832179
214	0x3c95d1d7	0.018288536
215	0x3b18dbfc	0.002332448
216	0x3d392847	0.045204427
217	0xbcafb0b8	-0.02144657
218	0x3bb0b45e	0.005392595
219	0x3d509f41	0.050933126
220	0x3c30f603	0.010800841
221	0xbcbb9e40	-0.022902608
222	0x3c105533	0.008809376
223	0x3c355c5a	0.011069382
224	0xbc263745	-0.010145013
225	0x3c248b6f	0.010043009
226	0x3ba81efc	0.0051306468
227	0xbc81bc19	-0.015836762
228	0x3a7fa764	0.0009752421
229	0xbcc7e384	-0.02440048
230	0x3c261512	0.0101368595
231	0xbd0bf041	-0.03416467
232	0x3cea17ff	0.028575895
233	0xbce163db	-0.027513435
234	0xbcccc3bc	-0.024995677
235	0xbcca6246	-0.024705064
236	0xbc03f50a	-0.008054027
237	0xbc660f5f	-0.014041751
238	0xbcc66915	-0.024220029
239	0xbc10b6ea	-0.008832673
240	0x3c352164	0.011055324
241	0xbcaad6a3	-0.0208543
242	0x3c0813d0	0.008305505
243	0xbaf8dbaa	-0.0018986363
244	0xbcab6099	-0.020920085
245	0xbccc5e5d	-0.02494734
246	0x3d809c7b	0.06279846
247	0xbd17af27	-0.037032273
248	0xbbf0cebf	-0.007348865
249	0x3c630562	0.013856264
250	0x3b9b383d	0.0047369287
251	0xbc7ced3d	-0.015437421
252	0x3be9c288	0.0071337856
253	0x3c9a6b0f	0.018849878
254	0xbb5a078d	-0.003326866
255	0xbca86490	-0.020555764

layers.4.weight f4 [2, 256]
0	0x3cce5ac4	0.025189765
1	0x3c6c4f79	0.014423245
2	0x3a2ff5bf	0.0006712339
3	0x398fe7b8	0.0002744773
4	0xbdf956bc	-0.121747464
5	0xbd8c1971	-0.0684079
6	0x3db287bf	0.08717298
7	0xbcbe7f8d	-0.02325418
8	0x3c1aa4a4	0.009438667
9	0xbe166335	-0.14686282
10	0x3d82b9e4	0.06383112
11	0xbd7eaa97	-0.062174406
12	0x3cff1a27	0.0311404
13	0xbdc478ef	-0.09593379
14	0x3e04674b	0.12930028
15	0x3dfa8b64	0.12233618
16	0x3d557e8a	0.05212263
17	0x3e14d6cf	0.14535068
18	0xbe00358b	-0.12520425
19	0xbdfd059d	-0.12354586
20	0xbc628e1e	-0.013827829
21	0x3dc547be	0.09632824
22	0xbccf6a38	-0.025319204
23	0xbd94a087	-0.07257181
24	0xbc24b8c5	-0.010053818
25	0x3df048e4	0.11732653
26	0xbd537cef	-0.051632818
27	0xbdd4959d	-0.10380099
28	0x3bd30415	0.0064396956
29	0xbce3c2a2	-0.02780277
30	0xbd081908	-0.033226997
31	0x3df97c66	0.1218193
32	0xbd729bcd	-0.059230614
33	0x3dc0615d	0.093935706
34	0x3d916ba8	0.07100612
35	0xbd3d80bf	-0.04626536
36	0xbc1c1c58	-0.009528242
37	0xbd49f8e3	-0.049309622
38	0xbd8cda96	-0.068776295
39	0xbce5a0f3	-0.028030848
40	0xbcfd4215	-0.0309153
41	0xbd8d552d	-0.069010116
42	0xbe345d2f	-0.17613672
43	0xbe0f0505	-0.13966759
44	0x3d47f7a3	0.04882015
45	0xbddb9c9a	-0.10723229
46	0x3ce88f79	0.028388726
47	0x3db3194c	0.08745059
48	0xbd593e37	-0.05303785
49	0x3c9c7d3d	0.019102687
50	0x3c31146f	0.010808094
51	0xbde81370	-0.113318324
52	0xbdc97907	-0.09837537
53	0xbd1a53a5	-0.037677426
54	0x3d157328	0.036486775
55	0xbc9305b5	-0.017947057
56	0xbcd99d29	-0.026564198
57	0xbd6f21fc	-0.05838202
58	0x3da649c6	0.0811954
59	0xbd1ce676	-0.038305722
60	0xbd5afe3a	-0.053465106
61	0x3c9f6eaf	0.019461958
62	0xbc6ad670	-0.014333352
63	0xbc38891a	-0.011263156
64	0xbd1274a8	-0.035755783
65	0x3e0c2741	0.13686849
66	0xbd8e003f	-0.06933641
67	0x3dfc9690	0.12333405
68	0xba072003	-0.00051546114
69	0xbd9bd305	-0.07608608
70	0x3d82814f	0.0637232
71	0x3dc1b1b0	0.09457719
72	0x3bec8f5f	0.0072192396
73	0x3dd0322c	0.101658195
74	0xbc50da30	-0.012747332
75	0x3d9679b2	0.0734743
76	0x3da52a35	0.08064691
77	0x3ca4db9b	0.020124247
78	0x3d7bde00	0.061491013
79	0xbb3f8c5f	-0.0029227955
80	0xbe0c5726	-0.1370512
81	0x3af7ff57	0.0018920702
82	0x3e0ec95e	0.13944003
83	0xbc92391c	-0.017849497
84	0x3e04b358	0.12959039
85	0x3d557091	0.052109305
86	0xbd9be156	-0.07611339
87	0xb95b759e	-0.00020929283
88	0x3ce39e14	0.027785338
89	0x3c961d71	0.018324586
90	0xbc14fb6f	-0.00909315
91	0xbd62ac46	-0.055340074
92	0x3baddb13	0.0053056567
93	0x3b7258c7	0.0036979185
94	0xbe4e167e	-0.20125768
95	0xbcf639e6	-0.030056905
96	0xbd2ba6c9	-0.041907106
97	0xbb8b8c59	-0.004258674
98	0x3ba677ba	0.0050801905
99	0x3d1280f7	0.03576752
100	0xbddcf444	-0.107887775
101	0xbd60a8e9	-0.054848585
102	0xbe2095d2	-0.15682152
103	0x3dd8584b	0.105637155
104	0xbd37f972	-0.044915624
105	0xbc4b8b53	-0.012423354
106	0xbe016d81	-0.12639429
107	0x3bcb9d99	0.0062138555
108	0x3db8703e	0.090057835
109	0x3d08f4f2	0.033436723
110	0x3c055ef7	0.008140317
111	0xbcf98961	-0.030461015
112	0xbca156f7	-0.019694788
113	0x3d96d319	0.073644824
114	0xbd2f5933	-0.042809676
115	0xbd71cd84	-0.059033886
116	0x3dfed411	0.12442792
117	0x3b30ccd2	0.0026977551
118	0xbe267ef0	-0.1625936
119	0x3d68127b	0.05665825
120	0x3d2a80fa	0.041626908
121	0xbdd22d9e	-0.10262607
122	0x38769afa	5.8795304e-05
123	0x3db7313c	0.089449376
124	0x3d078cc4	0.03309323
125	0x3da1e6a5	0.0790532
126	0x3d5b59d6	0.05355247
127	0xbbb66354	-0.00556604
128	0x3e14da7b	0.14536469
129	0x3d10f10a	0.035386123
130	0x3c48ddea	0.01225994
131	0xbe2a3480	-0.1662159
132	0xbba390a9	-0.00499161
133	0x3a23f756	0.00062548125
134	0xbbd9e30b	-0.00664938
135	0x3d3bca9b	0.045847517
136	0xbe175283	-0.1477757
137	0x3d161bba	0.036647536
138	0x3cd9aecc	0.026572607
139	0x3d3f3064	0.04667701
140	0x3c4ec445	0.0126200365
141	0x3d9b64b3	0.07587566
142	0x3ca9746e	0.0206854
143	0xbded43e0	-0.11585212
144	0x3de1b707	0.11021238
145	0xbdabf919	-0.08397121
146	0xbc3fad0e	-0.011698974
147	0xbd363c9c	-0.044491395
148	0xbb77e5e5	-0.0037826237
149	0xbc5186f6	-0.012788525
150	0x3dfbc0f1	0.1229266
151	0x3dc2d6d7	0.09513634
152	0x3d811009	0.063018866
153	0x3b82069b	0.0039680726
154	0xbe181295	-0.14850838
155	0x3ded3fb1	0.11584414
156	0xbe03c537	-0.128682
157	0x3e20626c	0.15662545
158	0xbdf0c7a8	-0.117568314
159	0x3d9e9416	0.07743089
160	0x3c842b21	0.016133847
161	0xbd1b7414	-0.037952498
162	0xbdf9c082	-0.12194921
163	0xba45141a	-0.0007517949
164	0xbdc2c809	-0.0951081
165	0xbdd95098	-0.10611075
166	0xbdb33150	-0.0874964
167	0xbd325345	-0.043536443
168	0x3d5162de	0.051119678
169	0xbda43714	-0.08018318
170	0xbe185d39	-0.14879312
171	0xbb05997a	-0.0020385669
172	0xbc408c49	-0.011752197
173	0xbbc2789e	-0.005934789
174	0x3ca810c2	0.020515803
175	0x3d141cab	0.036160152
176	0xbd9fff14	-0.07812324
177	0x3b881500	0.004152894
178	0xbd98d316	-0.074621364
179	0xbda9ba14	-0.08287445
180	0x3e108247	0.14112197
181	0x3aed9eca	0.0018128988
182	0x3dcf913a	0.10135122
183	0x3d9e0817	0.07716387
184	0xbdabf309	-0.08395965
185	0x3d8cd4c1	0.06876517
186	0x3e267d82	0.16258815
187	0xbceca2f8	-0.028886303
188	0x3dca5c05	0.098808326
189	0x3e02615b	0.1273245
190	0x3d662ff1	0.056198064
191	0xbd65424d	-0.055971432
192	0xbd0e40b1	-0.034729663
193	0xbd17380c	-0.036918685
194	0x3c6e286e	0.014536006
195	0x3abe3e18	0.0014514355
196	0x3bf1994f	0.007373012
197	0x3ba90359	0.00515787
198	0xbc210e12	-0.009830015
199	0xbdecac66	-0.1155632
200	0xbd7b85df	-0.061406966
201	0xbca75d85	-0.020430336
202	0xbd5e783c	-0.054313883
203	0x3d026c68	0.031841666
204	0x3c6ed52b	0.01457719
205	0xbd4b5534	-0.049641803
206	0xbc902f9d	-0.017600829
207	0x3bc0b463	0.005880879
208	0xbc436f53	-0.011928397
209	0xbdd75bd4	-0.10515562
210	0x3d622df8	0.05521962
211	0xbb4a6dd6	-0.0030888221
212	0x3df752a5	0.1207631
213	0xbd9a339e	-0.075293764
214	0x3d259e7a	0.04043434
215	0xbd96c936	-0.07362597
216	0x3e1262f6	0.14295563
217	0xbdb7d5df	-0.089763395
218	0x3d23a262	0.039949782
219	0x3d3e2552	0.04642231
220	0xbcd2740c	-0.025690101
221	0x3b8dc1f5	0.0043261
222	0xbdb63a1f	-0.088978045
223	0x3d3f2bd2	0.04667265
224	0xbdc47813	-0.09593215
225	0xbdf042ff	-0.117315285
226	0x3d8c7c00	0.068595886
227	0xbd09a20f	-0.033601817
228	0x3adadb78	0.0016697487
229	0xbdc8a3cb	-0.09796866
230	0x3dd7b527	0.10532599
231	0xbd7629d4	-0.060098484
232	0x3dca3e65	0.09875182
233	0x3d331e9f	0.043730374
234	0xbb927f19	-0.0044707176
235	0xbbd528c2	-0.006505103
236	0x3b1e55fc	0.0024160137
237	0x3c124827	0.008928335
238	0xbc8a921b	-0.016915372
239	0xbdb4bfa6	-0.088256165
240	0x3c1aeb27	0.009455479
241	0x3d91f899	0.07127494
242	0xbdb4fff5	-0.088378824
243	0x3bc29c09	0.005939011
244	0x3db3a91a	0.08772488
245	0x3d33e28e	0.04391723
246	0x3d101c7b	0.03518341
247	0xbc9225d3	-0.017840302
248	0x3cab4d07	0.020910753
249	0x3cadfa09	0.02123739
250	0xb97398d0	-0.00023231213
251	0xbcccec4f	-0.025015024
252	0xba95a2bf	-0.00114163
253	0x3c68b244	0.014202658
254	0x3bc2fae5	0.005950319
255	0xbb79e507	-0.0038130896

layers.4.bias f4 [2]
0	0xbbd17c42	-0.0063929865
1	0x3d163436	0.036670886
