Results_dir/2022-03-20-18-16-28/critic.pth (torch, 536911 bytes, 7 tensors)

layers.0.weight f4 [256, 6]
000000 28 12 85 3d e9 5f 07 be 6b 58 f5 3e cf 31 06 3b
       0.06497604 -0.1322018 0.4791902 0.0020476466
000010 ef 78 39 bd 5e a0 31 3e 0e b1 17 bd 30 bb b5 be
       -0.045281347 0.17346331 -0.037034087 -0.35494375
000020 2c b4 b7 bf 02 dc 59 3d dc 5e bd 3c db 84 09 bf
       -1.4351859 0.05318833 0.023116522 -0.53718346
000030 20 60 f4 be 47 08 a7 bd 84 81 bd bc b8 57 b0 3e
       -0.47729588 -0.08155876 -0.023133047 0.34441924
000040 b5 32 41 bd f6 98 81 3b 4a 52 f5 3e 54 1a 6a be
       -0.0471675 0.003955002 0.47914344 -0.22861606
000050 f8 fc 4c 3e f7 ae c3 bd dd 58 90 3d 41 18 a5 3b
       0.20018375 -0.09554856 0.07048199 0.0050382917
000060 22 2b 30 3d 58 f5 9a b9 c0 0e 53 bf 19 4a b4 3c
       0.043009885 -0.00029555964 -0.8244438 0.022007989
000070 07 9c a0 bd 2e 9c d4 be 0f a5 c1 bd 53 fc bf be
       -0.0784226 -0.41525406 -0.094553106 -0.37497196
000080 8f 1a c2 3e d0 f4 45 3e 27 d3 f6 3d 47 06 fd bd
       0.37910888 0.1933167 0.12051993 -0.12354713
000090 ad 6f 53 be 80 38 b2 be 41 30 4c 3f 6f 85 b5 3d
       -0.2064807 -0.3480873 0.7976113 0.08863341
0000a0 86 63 25 3d 10 c7 7a 3e 1d 06 cf be d8 de 77 bd
       0.040378116 0.24489999 -0.40434352 -0.060515255
0000b0 83 44 21 3d 4b e6 89 3e af fe 1d bd 2d 2e 8d bd
       0.03937198 0.26933512 -0.038572963 -0.06893573
0000c0 44 34 2d be 89 98 35 bc 88 25 a5 bf 5b a8 a4 3d
       -0.16914469 -0.0110837305 -1.2902079 0.08039924
0000d0 44 58 f9 bc d8 59 c0 be dd ed 41 be 4c 83 9b be
       -0.030437596 -0.37568545 -0.18938394 -0.3037361
0000e0 bd 71 03 3f 8d 1f a3 3d 6b 12 90 3d cb 07 aa 3c
       0.51345426 0.07965002 0.07034763 0.02075567
0000f0 dc 88 88 ba d8 0a dc be 99 5e 02 3f 31 f7 8a bc
       -0.0010416764 -0.42977023 0.50925595 -0.016963573
000100 a6 70 12 3e 24 c2 09 3e 71 84 05 3f 03 a6 96 3e
       0.14300784 0.13452965 0.52155215 0.29423532
000110 04 e5 72 be 6f 1b 31 bf e4 4c a4 3e 00 ab 17 3e
       -0.23720175 -0.69182485 0.32089913 0.14811325
000120 a1 21 cf be ba 07 04 bf 27 56 74 3f 4e 2a 38 3e
       -0.40455344 -0.5157429 0.9544396 0.17984888
000130 e1 7c 84 3d ac 97 42 3e e6 40 8c be 1d c6 fa 3d
       0.06469131 0.1900317 -0.27393264 0.12244818
000140 cf f2 9a be 52 fe 50 3e a6 6b 08 be a7 83 57 be
       -0.30263373 0.20409516 -0.13322315 -0.21046315
000150 99 31 8f 3e 3c 72 fa bd dd ca 34 bf 8a bf ad bc
       0.27967528 -0.1222882 -0.70622045 -0.021209497
000160 85 66 06 bd 17 5a 5a be 00 70 39 be 56 c3 f2 be
       -0.032812614 -0.21323429 -0.18109131 -0.47414654
000170 50 68 bb 3e cb f1 32 3e 14 84 fb 3d 71 49 8e bd
       0.36603022 0.17475049 0.12281051 -0.069476016
000180 8b fc b0 be 70 77 e6 be e1 c0 7e 3f 97 ab 15 3e
       -0.34567675 -0.45013 0.9951306 0.14616238
000190 8d 78 18 3e ae 5e 64 3e 66 2b 28 bd eb 16 89 be
       0.14889736 0.22301742 -0.041057013 -0.26775298
0001a0 67 f3 93 3d 28 38 ea 3a 06 5f 33 3b fa 0c 80 3e
       0.0722416 0.0017869519 0.002736987 0.250099
0001b0 c7 aa 31 be 19 e7 aa 3e de 1d 48 bf 0a 02 9f 3d
       -0.17350303 0.3337944 -0.78170574 0.07764061
0001c0 71 34 a1 3a 98 f6 ba bd e8 ee fc 3a e6 9f d0 3e
       0.0012298954 -0.09129065 0.0019297274 0.40746993
0001d0 9f fa 53 bf 86 14 46 3d f6 ea e9 bd e0 d7 88 bd
       -0.8280429 0.048359416 -0.11421768 -0.066818
0001e0 fb 1d a4 3a 38 27 27 be 23 e5 bf be 9e 6b f2 3b
       0.0012521142 -0.16323555 -0.37479505 0.007398083
0001f0 13 f3 cf 3c ce 92 25 be ce 51 03 3f bb 11 d1 3d
       0.025384462 -0.16169283 0.512967 0.1020846
000200 8e 5a dc bf 92 d3 59 3d 37 72 87 bd ea 5b e7 be
       -1.7215135 0.053180285 -0.06613582 -0.45187312
000210 49 2c d2 be bf ff 4d 3c 29 d8 95 be 28 c6 39 bf
       -0.41049412 0.012573182 -0.2926648 -0.7256799
000220 6c cc 3e 3d cf 8e b5 be ac a9 89 3e 4f 06 4d 3e
       0.04658167 -0.35460517 0.26887262 0.20021938
000230 35 0a b7 be 9c 3d 1c be d4 3f 54 3e f5 41 46 3e
       -0.35749975 -0.15257877 0.20727473 0.19361098
000240 d6 9c 57 bd 09 63 71 be 58 80 68 3d b4 66 12 3b
       -0.052639805 -0.23572935 0.056763023 0.0022339048
000250 bd e8 ec 3c 11 91 25 3e 4e f2 80 be 05 c3 60 be
       0.028919572 0.1616862 -0.25184864 -0.21949394
000260 2b 28 cc 3e 32 76 26 be e3 d1 5a 3c af 53 3a 3e
       0.39874396 -0.16256025 0.013355705 0.18195985
000270 51 fe 71 3e cd 76 34 3e 40 6e a4 be 5a 51 f1 bc
       0.2363217 0.17623444 -0.32115364 -0.029457737
000280 4d 39 0a be ae 98 a3 3c f8 9d 44 be 1b 7c 34 3e
       -0.13498421 0.019970264 -0.19200885 0.17625467
000290 1e 1c bd bf ca 24 d1 3d 4c e5 4c bd a7 49 c0 be
       -1.4774206 0.10212095 -0.050023362 -0.37556192
0002a0 e3 da f1 be 94 9c 61 bd 79 64 0b 3b 8b 73 18 bf
       -0.4723731 -0.055080965 0.0021269603 -0.59551305
0002b0 94 40 9b 3d 8b 71 25 3d bb dc 6d be 1b 7c bb be
       0.07580677 0.040391486 -0.23228733 -0.36618122
0002c0 67 83 39 3f 2b 65 0c 3e ed 1d 94 bd d4 3f ca 3d
       0.7246613 0.13710468 -0.072322704 0.098754555
0002d0 3f b2 b7 bd 11 5c 57 3e 0b 72 b3 bf d1 ba b5 3d
       -0.089695446 0.21031214 -1.4019178 0.08873523
0002e0 90 7b 0b be 8e de 1a be 04 f0 f9 be 61 8b 51 be
       -0.13621354 -0.1512396 -0.4881593 -0.20463325
0002f0 fe d8 9a bc e0 a6 e3 be 4c df 68 3d f3 74 0e 3e
       -0.018902298 -0.44463253 0.056853577 0.139118
000300 66 15 b0 be 08 cf 12 bd 8f 4e 21 3e 42 b6 54 3e
       -0.34391326 -0.03584197 0.15752624 0.20772651
000310 ab 00 36 3d 9a d4 29 bd 01 84 82 3e 99 14 1d bf
       0.04443423 -0.04146252 0.25491336 -0.61359555
000320 5c 3b 83 3e 01 39 52 bc 05 11 04 bd 40 cc 01 be
       0.25631225 -0.012830974 -0.032242794 -0.12675571
000330 de ed f4 bc 76 fd 56 be a3 cf 74 bf da e9 06 3d
       -0.02989858 -0.20995125 -0.9562933 0.032937862
000340 32 41 08 3c ef 63 9f be 2c bb 08 be 1e eb e2 be
       0.008316325 -0.3113093 -0.1335265 -0.44320005
000350 2b 30 35 bf 10 ca 2b 3d 98 3b c2 3d 96 ea 72 3a
       -0.70776623 0.04194075 0.09484023 0.00092665234
000360 1a ae 15 bf de fb a1 3d 31 4e 51 be 61 fe 65 bf
       -0.5846878 0.07909368 -0.20439984 -0.89841276
000370 a9 d8 19 3d b8 f9 a6 be cc de 6b be 9c c8 d3 be
       0.03756014 -0.32612395 -0.23034209 -0.4136399
000380 a6 1f 35 3f c4 71 af 3d f2 56 a1 3d d7 8c ef 3d
       0.70751417 0.08566621 0.078779116 0.11696785
000390 3a 62 82 be 7f 9a dd be f1 97 88 3e 3d 28 37 3e
       -0.25465566 -0.43281934 0.26678422 0.17886443
0003a0 6f 75 8c 3c 65 55 e6 bd 9f fe 92 3e 64 b5 95 3d
       0.01714584 -0.112467565 0.28709885 0.07309988
0003b0 3a 7d 47 be 91 04 e8 bd 09 fe 3d bd b5 e1 04 be
       -0.19481364 -0.11328996 -0.046384845 -0.12976725
0003c0 e6 fe 05 3d 9a 7a 36 3e 54 46 92 be cc 4c 7c 3b
       0.032713793 0.17820206 -0.2856928 0.0038497923
0003d0 2a 5a 34 bc ee 4d 8c be 78 4b 2d bc a4 3f c8 be
       -0.011007825 -0.27403206 -0.010577075 -0.39111054
0003e0 08 36 30 3f 30 d1 17 3d bd f1 74 3c 28 20 21 3e
       0.68832445 0.03706473 0.014950213 0.15734923
0003f0 06 a2 2f 3e 0d 74 27 bf 00 20 3f 3e 9e e5 10 bd
       0.17151651 -0.65411454 0.18664551 -0.03537523

layers.0.bias f4 [256]
000000 10 0b 2f 3d 3d 8c 6a bc d1 39 b9 bd f8 29 3d 3e
       0.04273516 -0.014315662 -0.09044231 0.18473041
000010 aa 50 07 3b 54 ac 47 bd ae 68 47 3d d6 72 44 bd
       0.0020647445 -0.04874833 0.048683815 -0.04796108
000020 77 52 43 bd b8 8b aa 3c ea 13 15 3e 41 61 bc bd
       -0.047686066 0.020818576 0.14558378 -0.09198237
000030 f6 b4 cb ba aa e3 79 be 31 0f 7c 3d 02 18 7e bc
       -0.0015541601 -0.24403253 0.061537925 -0.015508654
000040 26 17 45 3d 95 d8 34 b9 ca 21 8b 3d d7 67 10 3e
       0.04811778 -0.00017246821 0.06793554 0.14102112
000050 fa f4 90 bb f5 b1 12 3e c5 e9 84 bd 6a 3a 9d bd
       -0.0044237347 0.14325698 -0.064899005 -0.07677157
000060 22 e4 a7 bc 41 14 fe bd 1d 35 d9 3d b2 dc 8e 3c
       -0.020494524 -0.12406207 0.10605834 0.01743922
000070 db 9c 04 be 06 68 0c bb fc 37 c0 3d f3 39 ad bd
       -0.1295046 -0.0021424307 0.09385678 -0.084583186
000080 41 53 ab bd e6 28 c8 3d 16 3a 7b bc ab 8c 82 3c
       -0.08365489 0.09773426 -0.015333673 0.015936216
000090 f6 bf 91 bc 18 33 e9 3c 2e e8 da bd 65 13 a0 bd
       -0.01779173 0.028466746 -0.10688816 -0.07816199
0000a0 e0 c4 2c 3d 7d 47 37 3d 5e ed 7e 3d 95 f7 f0 bd
       0.042179942 0.04474591 0.06223809 -0.117659725
0000b0 cd ae b9 bc fd 78 fe bd f8 c0 3a bd 67 40 b5 bd
       -0.02266636 -0.124254204 -0.045594186 -0.088501744
0000c0 f6 58 0c 3a 3f e3 1f 3e f8 3c d9 3c 27 34 88 3d
       0.00053538324 0.15614031 0.02651833 0.06650572
0000d0 51 21 3d bc 82 70 ac bd 45 31 22 bd 0e e5 13 bd
       -0.011543588 -0.08419897 -0.03959777 -0.036107115
0000e0 69 5a b7 bd 30 61 00 3e 72 aa 69 be 11 b1 a8 bc
       -0.08952791 0.12537074 -0.22818926 -0.020592244
0000f0 e5 4c c9 3e ec 35 f2 bc 75 af 0b 3d 94 2f 86 3d
       0.39316478 -0.029566728 0.034102876 0.065520436
000100 96 e7 42 bd 5b f6 c2 bc 5b 7a bf 3d f4 f2 89 3d
       -0.04758414 -0.023799112 0.09349509 0.06735793
000110 a3 ae a5 3c 14 cd 74 bd 68 c5 de bc 93 5a cd 3d
       0.020224875 -0.05976589 -0.02719374 0.10027041
000120 25 c5 0a bd 40 3f ff 3a 48 70 5e be f5 22 00 be
       -0.033879418 0.0019473806 -0.2172252 -0.12513335
000130 8d 4c ef bd 8e 1c af bc cd c1 0c be af 16 7a bd
       -0.11684523 -0.02137592 -0.13745804 -0.06105679
000140 01 ff 00 bc ac 53 76 be 55 f8 20 bc f1 09 ae be
       -0.007873298 -0.24055356 -0.009824832 -0.3399196
000150 5e a3 9b be a9 c6 49 bd 14 70 f0 be 7f 23 90 3d
       -0.30398077 -0.049261723 -0.4696051 0.0703802
000160 7b 22 fe bd de 1b ef bd 40 0e 0d be 5e 29 31 3d
       -0.124089204 -0.11675237 -0.13774967 0.04325234
000170 ac 35 ea bc ca 84 7a 3b 5d 7e 9b be 06 cb ea be
       -0.028590046 0.003822612 -0.30369845 -0.4585802
000180 09 c0 35 be 71 b3 22 3d 07 24 12 3e 7e 36 9d bc
       -0.17749037 0.03972191 0.14271556 -0.019191023
000190 1c ae 64 bd 64 88 59 3d 0c 39 cc bd 5e 41 7c bd
       -0.055830106 0.053108588 -0.09971818 -0.061585777
0001a0 2f 0c 57 3e 5f f9 bd 3d 64 83 8a 3d 4d 36 91 3d
       0.21000741 0.092760794 0.06763342 0.07090435
0001b0 c9 ba 3e 3c b3 ed 04 3e 00 fe 66 be ae 29 25 be
       0.011641213 0.129813 -0.22557831 -0.16129181
0001c0 4d 8a d5 3d ed 5c d9 ba 52 9c ac bd d1 d6 1f bd
       0.104267694 -0.001658348 -0.08428253 -0.039023224
0001d0 40 6e 84 3c 53 ca 81 be 5a 85 f3 bd 49 6c a1 3c
       0.016165853 -0.25349674 -0.11890669 0.019704955
0001e0 7b 30 c1 bc a7 ee 31 3c 05 b1 af bd 48 f1 c0 3c
       -0.023582688 0.010860122 -0.08578686 0.023552552
0001f0 a2 4f 18 bd e0 97 8c bc d2 a2 e1 be 75 d8 93 3e
       -0.03718532 -0.017162263 -0.44069535 0.2887608
000200 e9 e3 c9 bd 70 de 21 bd ef e0 53 3e b1 11 be bc
       -0.098579235 -0.039518774 0.20691274 -0.023201795
000210 52 5f 17 bd 4c 98 bc 3a 1f 4e 26 bd f4 a6 0e 3e
       -0.03695614 0.001438865 -0.040601846 0.13930875
000220 b6 fb c8 3c 78 b0 85 3d da 8a 2e 3d c9 a8 52 3d
       0.024534088 0.06527799 0.042612888 0.051430497
000230 a6 ef 87 3c af 31 8f ba 64 10 06 bd 60 cf e0 bc
       0.016593765 -0.0010924841 -0.032730475 -0.027442634
000240 24 66 12 be a4 e0 11 bc ff df f5 3d ca da 94 3c
       -0.14296776 -0.008903656 0.120056145 0.018170733
000250 1b d4 91 bd d1 0e a6 bd 73 b7 d5 3d 48 10 8c bc
       -0.07120534 -0.08108295 0.10435381 -0.017097607
000260 55 6f d0 3c 50 dd ed bc 9f ac b7 bc 7b db ec be
       0.025443712 -0.029036194 -0.02242118 -0.462612
000270 8c ca a0 bd 60 9c 1d be f8 73 88 be b8 93 ed bd
       -0.07851133 -0.15391684 -0.26650977 -0.11600441
000280 c3 0d 9f bd 31 3b 5a 3c c0 f2 30 3d 66 eb 06 be
       -0.07766297 0.013319776 0.043200254 -0.13175735
000290 b6 be 6d 3d 51 3a f6 bd a2 60 b9 3a 33 f1 8f bc
       0.058043204 -0.12022842 0.0014143179 -0.017571067
0002a0 92 6f 9e 3c 21 b1 91 bc 12 09 2e be 92 f2 14 bc
       0.01934031 -0.017784657 -0.16995648 -0.009091036
0002b0 24 85 57 bd 85 c8 cd bd f6 15 a1 bc 37 57 d5 bd
       -0.052617207 -0.10048012 -0.019663792 -0.104170255
0002c0 c8 79 b9 bc 7e 21 08 bc 2a 2f 9b bd 61 10 eb bd
       -0.022641078 -0.008308766 -0.07577355 -0.114777334
0002d0 7b 86 27 be 6e 56 b3 bc 0c 68 83 ba 90 7f 17 bd
       -0.16359894 -0.021891799 -0.0010025515 -0.036986887
0002e0 e4 2a d9 3d 11 59 95 3b 1a 60 84 bc e6 af 31 bd
       0.10603884 0.0045577367 -0.016159106 -0.04338064
0002f0 80 6b f0 bc 2c 62 2c 3e 9f 10 8f 3e be af 21 bd
       -0.029348135 0.16834325 0.27942368 -0.03947424
000300 ee e7 4e be 35 10 63 bd c6 84 ab be 8d 4c 76 bd
       -0.20205662 -0.055435378 -0.33499736 -0.0601316
000310 f2 85 fa bd 32 52 04 bd b7 4a 0b bc 27 95 0e bc
       -0.12232579 -0.03230495 -0.0085017 -0.008702553
000320 7f 00 c1 3c 78 8d 83 ba 32 a2 b1 bd 97 89 67 be
       0.023559807 -0.0010036668 -0.086735144 -0.2261108
000330 f5 8e 8f 3d a5 e8 c0 3c 0b 87 93 bd e1 1b 23 bc
       0.07009689 0.023548434 -0.07203492 -0.009955377
000340 3c 64 27 bd 92 8c 24 bd f2 b8 22 bd 33 7f 01 3b
       -0.040867075 -0.04017312 -0.03972716 0.0019759655
000350 02 a1 d9 3d c4 56 2f 3c c6 e1 71 3d 20 26 59 3c
       0.10626413 0.010701839 0.059053205 0.013253719
000360 9d 0c fa 3d 92 4c 53 bd 5b 91 c2 bd 92 53 83 3b
       0.12209437 -0.051586695 -0.095003806 0.004007765
000370 3a 1e 17 3d fb aa c3 bd de 57 44 be 0d 1a 1a 3d
       0.03689406 -0.09554096 -0.19174144 0.0376225
000380 8a e4 ab bd 85 9b 1c 3d f5 fc bd 3d 4b b2 8d bc
       -0.083932 0.038234252 0.09276763 -0.01729693
000390 6f 9f 9c be f6 e0 a6 3d 28 d9 fc bc 48 f8 01 be
       -0.30590388 0.08148377 -0.030865267 -0.12692368
0003a0 3a 97 c5 bb aa 23 4d bd cd c7 2f be de a0 22 bd
       -0.0060299905 -0.05008284 -0.17166062 -0.039704196
0003b0 ec 1b d8 bb 86 bd 58 3c b3 0f 64 bd e8 fc 3f 3c
       -0.0065951254 0.01322878 -0.055679034 0.011718012
0003c0 e4 7e 49 bd 05 8e f5 bd 20 4b 1f bd f3 79 cb 3d
       -0.049193278 -0.11989979 -0.038890004 0.09935369
0003d0 1e bf 59 3d 08 7a eb bc d4 f2 89 be 46 2a 02 be
       0.05316078 -0.028744712 -0.26943076 -0.12711439
0003e0 5d 9d 2d 3d 4b c9 89 3d f6 0c 97 3b 08 cb 15 bc
       0.0423864 0.06727847 0.0046096994 -0.009142645
0003f0 32 59 8e 3d f6 73 92 bc 53 03 a6 3c 50 96 db bd
       0.069506064 -0.01787756 0.020265257 -0.10722029

layers.2.weight f4 [256, 256]
000000 6a d5 97 bd 10 4d 95 bd 7e 9b 02 be 98 20 aa bd
       -0.074137524 -0.07290089 -0.12754628 -0.08306998
000010 69 4f 16 3d 5b 22 27 be 11 6b b3 bd 7f a2 96 bc
       0.036696825 -0.163217 -0.08760656 -0.018388031
000020 e0 40 af 3d 86 e4 2c 3c 67 80 24 be 0c d0 c3 bc
       0.08557296 0.010552531 -0.16064607 -0.023902915
000030 6c 60 2c 3d bd ac 86 bc 2b a4 32 be ce dc af 3c
       0.042084143 -0.01643979 -0.17445438 0.021467593
000040 a3 df ad bd cf 9e 2e 3c bd 37 29 bd 75 0d 9d bc
       -0.08489921 0.01065798 -0.04131292 -0.019171456
000050 ce 04 d9 3d c8 9a 02 bf 87 e6 8a ba 54 52 78 3c
       0.105966195 -0.5101743 -0.0010597267 0.015156347
000060 82 fb 0b 3c 78 1f 5a 3e 5c ce 2a bd b5 24 6c bd
       0.008543851 0.21301067 -0.041700706 -0.057652194
000070 fd 6d 8b 3e fc d6 a5 bd 88 d0 40 be e1 9d b8 3d
       0.27232352 -0.08097646 -0.18829548 0.09014488
000080 f2 41 96 3c 9e 62 28 bd 0e d0 a3 bd 4b ef 07 3e
       0.018341992 -0.041109674 -0.07998668 0.13274877
000090 b6 5b ee 3c 34 28 70 bd 9a 35 b5 3d de b8 83 3d
       0.029096466 -0.05863209 0.08848114 0.06431745
0000a0 35 99 1f 3c 62 16 93 bc 8a 63 9a 3d 50 e8 85 3d
       0.009741117 -0.017955009 0.07538517 0.06538451
0000b0 0f 61 49 bc 93 7d 69 3d 80 e9 1c bd aa f4 a8 bd
       -0.012291207 0.057004523 -0.03830862 -0.08249791
0000c0 51 56 cc 3d 5c 37 d8 be f9 dd e4 3d 9d c1 e8 bd
       0.09977401 -0.42229736 0.111751504 -0.11365054
0000d0 19 c3 da 3d 16 cc a5 3d 5a 0f 11 3e b6 90 c0 bd
       0.10681743 0.08095567 0.14166012 -0.094026014
0000e0 67 3e 1e 3e de f5 cb bd 72 07 68 3e 27 5c 9f 3c
       0.15453492 -0.09959005 0.2265909 0.019453121
0000f0 19 18 fe bd a3 e9 a2 3d c5 55 dc bd 5f 32 ba be
       -0.1240694 0.07954719 -0.10758547 -0.36366555
000100 d9 ba d4 3c 06 b3 06 be 16 13 ca bd 48 2d 6a bd
       0.025968002 -0.1315423 -0.098669216 -0.05717209
000110 03 66 0b be 01 61 cb bd af 8f 39 3d 5f 71 c0 bd
       -0.13613133 -0.099306114 0.045303043 -0.09396624
000120 a6 dc 63 bd 09 f4 fc 3d 5e 93 2b 3e b2 b0 fa 3d
       -0.05563035 0.123512335 0.16755435 0.12240733
000130 27 70 cc bb d1 b0 13 3e ea 5f 91 bd 6f 94 0f bd
       -0.0062389555 0.14422919 -0.07098372 -0.035053667
000140 16 5e 5c bd 48 bf 49 3d bd 17 05 3e 45 58 b5 3d
       -0.053800665 0.049254686 0.12997337 0.08854727
000150 f4 54 ec bc da f1 5a bd 8d b2 c8 3d c4 df ad be
       -0.028849103 -0.053453304 0.09799681 -0.33959782
000160 62 0d fb 3d 46 7d 22 3e 1c 91 a6 bd be f6 52 bd
       0.12258412 0.158681 -0.08133146 -0.051504843
000170 57 59 45 3e b2 1f d3 3d e8 04 1d 3e 70 d3 9f 3d
       0.19272362 0.1030878 0.15333903 0.078040004
000180 63 50 1a 3e b8 e8 8c bd 38 26 2c be 1f f4 b3 3d
       0.15069728 -0.06880325 -0.16811454 0.08786797
000190 b3 a7 69 bd b8 84 7e bd 09 04 a9 bd 86 6d d5 3d
       -0.057044696 -0.06213829 -0.08252723 0.104212806
0001a0 47 5a 4a be a2 90 e4 be e2 a3 92 bd e6 d9 2d bd
       -0.19761 -0.44641596 -0.071601644 -0.042444132
0001b0 c6 d1 35 3c 9f bf 47 be c4 e0 1e 3e 0a cd 0d 3e
       0.011097377 -0.19506691 0.15515429 0.13847747
0001c0 0c cc 99 be 16 b8 15 bd c8 4f be 3c f6 58 ae bc
       -0.30038488 -0.03655251 0.023231402 -0.021282654
0001d0 f1 25 ac bd fa 73 43 bd 31 0c 6f 3c ea aa 4c 3d
       -0.08405674 -0.047718026 0.014590309 0.049967684
0001e0 ad 3d d5 3d 31 10 8a 3b 75 ba c9 bd cb b0 d7 bd
       0.10412154 0.004213356 -0.09850017 -0.105317675
0001f0 42 f3 99 3d d7 be 78 bd c0 99 95 3d cf de 36 be
       0.07517101 -0.060728874 0.07304716 -0.17858432
000200 35 8e a6 3d 97 38 04 3e 74 92 3a be 0e 3f e5 3d
       0.081325926 0.12912212 -0.1821993 0.11193667
000210 16 ee 05 3e 63 05 0c be 63 39 c4 bb fc f9 5c be
       0.13079104 -0.1367393 -0.0059882863 -0.21579736
000220 4e 02 b3 bc 30 e0 fb bd 86 ee bd bd 56 0f f6 bd
       -0.021851685 -0.1229862 -0.0927401 -0.12014644
000230 a8 08 4d bd 18 f4 45 3d 48 d5 bb 3d 16 91 dd bd
       -0.050057083 0.04832849 0.091715395 -0.108186886
000240 d4 fe e0 3d 82 bc 99 bd 7b 39 20 be d4 d2 dc bd
       0.109861046 -0.07506658 -0.15646927 -0.107824
000250 f9 e9 bb 3d dd e8 98 3d 18 2b bb bd 83 0c d0 3d
       0.09175486 0.0746629 -0.09139079 0.101586364
000260 e5 79 13 be bc 3e 2e bc 7b 3b 05 3d bc 09 2c 3d
       -0.14401968 -0.010635074 0.032527428 0.04200147
000270 ed ec b5 3d a7 b3 93 bd 3a 2e fa 3d 41 97 c4 3d
       0.08883081 -0.07212 0.12215848 0.09599162
000280 25 8d 6e 3e 17 44 5c 3d fd ed f3 bd 9c 9f d1 3d
       0.2329603 0.053775873 -0.11910627 0.10235521
000290 ee c3 35 be cf 49 2f 3d 9d 78 20 3d c8 f1 61 3d
       -0.17750522 0.042795 0.039177526 0.05516222
0002a0 51 ae 8a bd e7 08 0b be 83 23 31 bd 78 ee f5 3d
       -0.067715295 -0.13577615 -0.043246757 0.12008375
0002b0 25 91 76 3e 0a e7 d8 3b 98 f7 32 bd f6 f3 e7 bc
       0.24078806 0.006619339 -0.043693155 -0.028314572
0002c0 5e de a0 bc db 36 1c 3d 6b 40 f1 3d e6 0b 06 3e
       -0.019637283 0.03813825 0.11779865 0.13090476
0002d0 4f c2 25 3e 4a 34 25 3d a0 c5 8c bc 7b 52 66 3b
       0.16187404 0.04033307 -0.017184079 0.0035144377
0002e0 4b b2 59 be ce 89 e3 bd 45 5f bc 3c 99 d5 bb bb
       -0.2125942 -0.111102685 0.022994647 -0.00573225
0002f0 61 da a4 3d 52 73 31 be ce 90 50 be 29 39 5c bd
       0.08049465 -0.17329147 -0.20367739 -0.05376545
000300 b3 29 9e bd 44 e7 e4 bd 8c c1 82 bd d7 25 4a 3c
       -0.07722797 -0.11176923 -0.063845724 0.012338123
000310 97 78 a4 3c ba 51 64 3d 90 0b b7 3d f2 55 6c bd
       0.020077033 0.055742003 0.08937752 -0.05769915
000320 f3 67 4d 3c 6d e6 60 3d 30 6c 05 3e 74 3c 38 bd
       0.01253699 0.05490725 0.13029552 -0.044979528
000330 10 3b 77 3d 8d 48 2d be 76 9f 28 bd 41 f5 7a bd
       0.06035906 -0.16922207 -0.0411677 -0.06126905
000340 c7 35 a6 bd 28 84 a1 3d ac a8 55 bb d3 d6 ae 3c
       -0.08115726 0.07886535 -0.0032601757 0.02134267
000350 97 e7 8d 3d 5b 89 b0 bd a8 2e 58 bd 31 b5 00 bd
       0.06928938 -0.086199485 -0.05277887 -0.031422798
000360 5a 05 15 be 9e d3 97 39 cf 74 f8 3d 9c 99 85 bd
       -0.14552823 0.0002895863 0.121316545 -0.06523439
000370 58 73 16 bd 95 3e 0b bc 1f e3 8c 3d a5 14 ac bd
       -0.036731094 -0.008498807 0.068792574 -0.08402375
000380 06 ae 0b 3e 9a 29 17 bc 2b 96 1a be b0 de fa 3d
       0.13640603 -0.009226227 -0.15096347 0.122495055
000390 13 e5 08 3d 01 e1 8f bd df 28 12 be 69 3d 8a 3e
       0.033421587 -0.07025338 -0.14273404 0.26999977
0003a0 48 70 2e bc 06 fa 1d 3e e1 c0 3b bc 3b 17 a7 3c
       -0.010646887 0.15427408 -0.01145956 0.02039682
0003b0 b7 da 95 3d f2 e2 03 be f0 7b 71 bc 88 7c 2d 3d
       0.07317107 -0.12879542 -0.014739022 0.04235509
0003c0 96 df c0 bd 3f 92 d8 3e 53 06 d4 3d cf d6 cb be
       -0.09417646 0.42299077 0.10352769 -0.39812323
0003d0 bc 34 6c bd 33 91 83 3c 2b 60 86 3d 31 39 0d 3e
       -0.05766748 0.016060447 0.06561311 0.13791348
0003e0 2b 60 d6 bd a1 f0 52 bd 84 96 05 bc 49 67 99 bd
       -0.10467561 -0.051499013 -0.0081535615 -0.07490403
0003f0 9b 23 9a bd 6f ec 8e 3d a7 75 fb 3c 9b 03 bc 3d
       -0.075263225 0.0697869 0.03069575 0.09180375

layers.2.bias f4 [256]
000000 bf 7f 4a be 90 d1 c9 be 2f 49 4e bc 40 73 e2 bd
       -0.19775294 -0.39417696 -0.0125906905 -0.110571384
000010 eb 9d c9 3d 1c 3e 8f bd 8f ac 42 bd f2 cd 91 bd
       0.098445736 -0.06994268 -0.047527846 -0.07119359
000020 98 5b 02 bf 15 a4 a2 be c8 6d 70 be 2b 0e fc bd
       -0.5092101 -0.3176581 -0.23479378 -0.1230739
000030 2b e9 2e bf 65 7d e5 bc bd ea 04 be 0e 49 e9 bd
       -0.68324536 -0.028013894 -0.1298017 -0.11390887
000040 84 60 ff bd 78 48 42 be 95 31 cc bd b6 d5 15 bd
       -0.12469581 -0.18972957 -0.099703945 -0.036580764
000050 4e f7 12 bd 7c 6a 52 be e3 4c cf 3c 3a b5 85 be
       -0.03588038 -0.20548433 0.025305217 -0.26114827
000060 68 a6 90 bc dd 73 db bd 39 27 11 bd 44 5d 8e bd
       -0.017657474 -0.107154585 -0.035437796 -0.06951383
000070 a2 ef ad bd 7c 09 30 be 05 f4 49 bd 70 fa c0 bd
       -0.08492972 -0.17191118 -0.04930498 -0.09422767
000080 8a 2d 7a 3d f8 47 10 be 29 fb 27 bd 24 68 99 bd
       0.061078586 -0.14089954 -0.04101101 -0.074905664
000090 df 00 8f bd 80 5b 3d be d6 be 92 be c1 e7 05 be
       -0.06982588 -0.18491936 -0.2866122 -0.13076688
0000a0 dc 56 96 bd c9 d0 e0 bc 58 fa 9b bd be 6e 9f bc
       -0.07340786 -0.027443307 -0.07616109 -0.019461986
0000b0 b9 34 a1 bc 77 0a 10 bd 56 a7 79 bd 37 03 9e bc
       -0.01967846 -0.03516623 -0.0609506 -0.019288642
0000c0 9d b8 91 3b ac 01 c3 be 44 a3 d8 bd 02 84 12 bf
       0.0044470564 -0.38087213 -0.105780154 -0.5723268
0000d0 80 34 b8 bd 51 32 90 bd 16 49 12 bd 8d 8b 8a 3b
       -0.089943886 -0.07040847 -0.03571423 0.0042280615
0000e0 b9 21 9b bd 11 fe 74 3c e9 53 70 3d 44 53 9e bd
       -0.075747915 0.014953152 0.058673773 -0.077307254
0000f0 b1 d1 8b b9 0b d5 51 3d 46 ef 58 be f5 c0 10 3d
       -0.00026668378 0.051228564 -0.21185026 0.03534027
000100 28 4f 87 bd df 5c 4d bd be ba c6 bd eb 81 8a 3d
       -0.06606895 -0.050137397 -0.09703587 0.06763061
000110 f5 04 91 bd 84 a9 21 bd 04 3c 34 be c9 60 5e bd
       -0.070810236 -0.039468303 -0.17601019 -0.05429152
000120 d0 4c 10 bd ee e7 c0 bd 78 eb 1e bd d9 a9 17 bc
       -0.035229504 -0.09419237 -0.03879878 -0.009256803
000130 7a c1 16 be 99 86 02 be f1 e7 3c be 6f 33 aa 3c
       -0.14722243 -0.12746657 -0.18447854 0.020776479
000140 20 bd 84 bd 09 e2 bc bd 49 fd f0 bd 3b 22 10 bd
       -0.06481385 -0.092228 -0.1176706 -0.035188895
000150 3f 6f 46 bd 9c dc 20 be c9 b0 00 be e9 68 30 bd
       -0.048445936 -0.15709156 -0.12567438 -0.0430688
000160 89 96 f3 bd 36 76 23 bf 30 e2 66 bd 06 64 10 be
       -0.11893947 -0.6385225 -0.056368053 -0.14100656
000170 86 cf 6f be 66 de 8b bd 9b 9d 39 bd 88 56 29 be
       -0.23419008 -0.068295285 -0.04531632 -0.16536915
000180 27 4e f7 bd c9 92 b6 bd 5d ec c4 bd 15 b6 fb bd
       -0.12075453 -0.08914716 -0.09615395 -0.12290589
000190 aa 1c 00 3c f8 f8 49 bd 61 08 51 bd fe ab 72 bd
       0.007819334 -0.0493097 -0.05103338 -0.059246056
0001a0 b9 0a d7 3c 14 c5 28 be 4f d4 e5 bd 4f 16 9b 3b
       0.02625023 -0.1648143 -0.11222135 0.004732884
0001b0 88 1e 58 be 04 e5 52 be 54 e7 c8 bd 31 8d 4e be
       -0.21105397 -0.20595175 -0.09809747 -0.20171048
0001c0 fd f0 f8 bd 3e 15 b6 bd 2e 72 30 bd 63 fb ff be
       -0.1215534 -0.088907704 -0.04307764 -0.4999648
0001d0 71 d7 86 be 76 2a 31 bd b6 0e c4 3a 38 d5 82 3d
       -0.26336244 -0.043253385 0.0014957997 0.063883245
0001e0 3d de a0 bc 19 71 c1 bc f5 aa 8b 3d 60 a6 d1 bc
       -0.019637221 -0.0236135 0.06819717 -0.02559203
0001f0 3e d5 9a bd 9a 98 a8 bd b3 7b 4a bd 65 37 b0 3c
       -0.07560204 -0.082322314 -0.049434375 0.02151079
000200 6f 9b b2 bd e3 dd bc bd b2 b8 8f bd 21 31 0b be
       -0.08721053 -0.09222009 -0.0701765 -0.1359296
000210 97 08 ee bd ac 43 3c be e4 c7 43 be 3a 45 04 be
       -0.11622732 -0.1838519 -0.19119221 -0.12917033
000220 a5 11 c8 bd d3 eb 04 bd 7d af 4a bd 0a 39 54 bd
       -0.097689904 -0.032451462 -0.049483765 -0.05181221
000230 ee 73 f1 bc d6 0f 4d bd 74 36 ab bd 22 9d 0b 3d
       -0.029474225 -0.05006393 -0.083599955 0.0340854
000240 6a a4 7b 3d f3 4f 9f bd 3b 46 41 be 12 c9 a4 bd
       0.061436094 -0.07778921 -0.18874447 -0.080461636
000250 9b a5 ac 3a 15 e9 75 bd eb ca bb bd 9b 71 ab bd
       0.0013171913 -0.060036737 -0.09169563 -0.08371278
000260 bd 09 06 bf be 7d 26 bd 82 35 fa bd d1 33 15 bd
       -0.5235861 -0.04064726 -0.12217237 -0.03642637
000270 bb 4c fb be 75 19 21 be e3 fe 88 bd 01 10 47 bc
       -0.49081978 -0.15732367 -0.06689241 -0.012149812
000280 9d eb 7c bd f4 04 6a bd a3 9a 55 be cd 38 20 bd
       -0.061748136 -0.05713363 -0.2085977 -0.03911667
000290 ff 79 f5 bc 2d b8 f5 bb 3b db 7a bd ca a0 00 bd
       -0.029965399 -0.007498762 -0.06124423 -0.03140334
0002a0 3f e2 ff bc 76 7c 56 bd 45 cb 29 be 43 2c 0e be
       -0.031235812 -0.05236479 -0.16581447 -0.13884072
0002b0 71 df ad 3d 4f 70 8d 3d 97 cc d4 3c d8 c8 14 3c
       0.08489884 0.06906187 0.025976462 0.009081088
0002c0 19 a5 44 bd ce bc e6 3d 36 78 6e bd ee 8e 82 3e
       -0.048009012 0.112664804 -0.05822011 0.25499672
0002d0 8b 4d 41 bd 5e 6c dc be 18 91 45 3d cf 8e 14 bd
       -0.04719309 -0.43051428 0.048234075 -0.036269005
0002e0 44 92 21 bd ac f4 b1 bc e3 8b 8e bd 7f f1 a9 bb
       -0.03944613 -0.021723114 -0.06960275 -0.0051862593
0002f0 36 50 40 bd dd 84 ed bd e4 ce c4 bc 27 00 d3 bd
       -0.046951495 -0.11597607 -0.024024434 -0.103027634
000300 40 cd 13 ba 94 2f 14 be b1 d5 aa bd ed 2b d7 be
       -0.00056381896 -0.14471275 -0.0834154 -0.420257
000310 6f eb b8 bd f3 c1 e0 bd c3 a6 a2 bd b3 b1 39 bd
       -0.090292804 -0.10974493 -0.079419635 -0.045335483
000320 6e c0 77 be 77 15 41 bd dc b0 8b bd 4c e4 c6 bc
       -0.241945 -0.04713961 -0.068208426 -0.024278782
000330 3b cb 1b bd c5 b6 74 bd a0 f0 8a bd e4 48 93 bd
       -0.038035613 -0.059744615 -0.06784177 -0.07191637
000340 44 6d cb 3c 9b ec a4 bd d3 79 6d bd ea 5a f3 be
       0.024832375 -0.080529414 -0.05797751 -0.475303
000350 a1 a4 47 be 4d f0 19 be b3 ab b9 bd 5d c7 84 bf
       -0.19496395 -0.15033074 -0.09065952 -1.0373341
000360 75 76 68 bd b5 e2 53 be cb 8b 08 bd e6 1b 28 be
       -0.056753594 -0.2069195 -0.033336442 -0.16416892
000370 1b 54 b7 bd a6 55 27 be ac 34 01 be 88 23 c0 bd
       -0.08951589 -0.16341266 -0.12617749 -0.09381777
000380 4f 0f 0b be 3a 90 86 bd 4f b9 73 be 13 fd d0 bc
       -0.13580059 -0.06570478 -0.23801158 -0.0255113
000390 73 9c 1b be a7 45 5c bd e3 3e 82 bd 91 6f 0a bd
       -0.151964 -0.053777363 -0.06359651 -0.033797804
0003a0 a1 b2 40 bd ac 4f 9b be ff 62 3b bd ce 24 ac bd
       -0.047045354 -0.30334222 -0.045748707 -0.084054574
0003b0 9c b6 ca bc 58 89 cf bd b8 7d 18 be bf 06 3d bd
       -0.024745278 -0.10133618 -0.14891708 -0.04614901
0003c0 3e e3 07 bf 77 b0 49 bd f0 bf 48 bd b8 63 aa be
       -0.5308112 -0.049240556 -0.04901117 -0.33279204
0003d0 32 36 b6 3d 2c ef 0f 3d 66 be 68 3d c9 32 9c bb
       0.08897056 0.0351402 0.056822203 -0.0047667962
0003e0 e0 73 bd be 7b 6e 54 bd b7 23 37 bf 12 88 91 be
       -0.37002468 -0.051863175 -0.7153887 -0.28424126
0003f0 93 50 b6 bd fd 40 24 bd 99 38 88 3c 36 1b 54 be
       -0.08902087 -0.04010104 0.01662855 -0.20713505

layers.4.weight f4 [256, 256]
000000 56 be f1 3d 38 c2 e7 bd 65 46 14 be ee a9 a0 bc
       0.11803882 -0.11316341 -0.14479978 -0.019612279
000010 71 7f 29 3d 62 46 29 3d 3f 2a 7a bc dc b3 a6 bd
       0.041381303 0.041326888 -0.015268861 -0.08139774
000020 8d 4b ab 3d 51 73 f3 3c 79 79 3b 3e c7 48 20 3e
       0.083640195 0.029718073 0.18308057 0.15652762
000030 f1 4e 80 3e c2 97 5f 3c 66 30 b7 bd 9e a8 0b 3e
       0.25060228 0.013647022 -0.08944778 0.13638541
000040 7a a7 11 bd c6 24 5f bc 37 dc 3b bd c8 25 07 3e
       -0.03556011 -0.013619607 -0.04586431 0.13198006
000050 5b 66 2f be cb 05 e7 bb a8 1e a0 bd 4e 4a c1 3d
       -0.1712889 -0.007050251 -0.07818347 0.094380006
000060 19 2b 14 3d 98 7e 18 3e 0d 5d 05 3d 99 0e 5a 3d
       0.036173914 0.14892042 0.032559443 0.053236578
000070 80 62 f9 bd 17 6b d9 bd f7 c9 26 bd ee ed ae 3b
       -0.121769905 -0.10616129 -0.040719952 0.005338422
000080 ee 40 41 3d 95 9b 25 3d bc bd c6 3d 80 a6 6d 3d
       0.047181062 0.040431578 0.09704158 0.058020115
000090 e7 50 87 3d 3c f3 3e 3e ae 5a 53 be 40 d7 1c be
       0.06607228 0.18647474 -0.2064006 -0.15316486
0000a0 90 e5 37 bc d0 64 0c bd b1 3f a8 3d 1b 97 74 3d
       -0.011224166 -0.03427583 0.08215273 0.059714418
0000b0 89 06 70 3c 51 c7 69 3d dd 75 05 bd eb 68 e7 bd
       0.014649996 0.05707485 -0.032583106 -0.112993084
0000c0 af 73 17 3d 77 68 9e 3e 56 ee 30 bd 3a a8 0a bd
       0.03697556 0.30939075 -0.043196045 -0.03385184
0000d0 3a c0 ac 3d 05 f0 01 be 8b 55 e9 3d b5 e5 af 3b
       0.08435102 -0.12689216 0.11393269 0.0053679594
0000e0 2d 8b 1b 3e c3 84 15 be 3d 0e 31 be 45 60 f2 bd
       0.1518981 -0.14601426 -0.17290588 -0.11834768
0000f0 66 ce 5a 3d 71 40 fa ba 0f d1 32 3e c9 79 81 bd
       0.053419493 -0.0019092691 0.17462562 -0.06322057
000100 09 be 28 bd 5e 56 ef bd 3f 33 95 bd 4f 2a 78 be
       -0.041196857 -0.11686395 -0.07285165 -0.2423489
000110 e8 7b 05 be 22 f7 8e 3d 86 22 cf bd 28 40 d2 3b
       -0.13035548 0.069807306 -0.10114007 0.0064163394
000120 d0 51 89 3d fa d8 46 be 98 62 6f 3c 68 ac ba bd
       0.067050576 -0.19418707 0.014610909 -0.09114915
000130 65 c6 09 3d bd c9 b0 3c 63 6e c4 bd 67 5f c7 bb
       0.03363647 0.021580571 -0.09591367 -0.006084371
000140 29 0c c2 bd b3 99 19 be fd 48 29 3c 1e ce 0a 3e
       -0.094749756 -0.15000038 0.010332343 0.1355519
000150 3b 66 e0 3d 5a 27 9b 3d 8e 2c db 3d f3 84 d3 37
       0.10956999 0.07575865 0.107018575 2.521507e-05
000160 89 a9 38 3d 43 b6 40 3e ce 24 e3 3d 90 e3 95 3d
       0.045083556 0.18819527 0.11091004 0.07318795
000170 50 ae c7 3d d1 7c ab 3d 65 cc 85 3d 97 59 63 3d
       0.09750044 0.08373416 0.06533126 0.05550536
000180 95 97 5a bd c5 fe 13 bd 41 a5 02 bd bc b1 8f 3d
       -0.053367216 -0.03613164 -0.03189588 0.07016322
000190 f7 2c 15 be bd 9a 02 3e 15 24 74 3d da f4 64 3d
       -0.14567934 0.1275434 0.059604723 0.05589757
0001a0 c3 52 d0 bd ec 46 cb bc f4 b0 a7 3c 84 2b 79 3d
       -0.101720355 -0.024814092 0.02047012 0.060832515
0001b0 75 71 a1 bd 01 69 5a 3e 96 83 00 be fd e0 1d 3e
       -0.07882968 0.21329118 -0.12550196 0.15417857
0001c0 07 d3 4b be f1 01 ca bd 7d 06 bf 3d 64 da 3d 3e
       -0.1990472 -0.098636515 0.093274094 0.1854034
0001d0 36 35 10 3e b4 ff c0 bd ce 7d 1b be 71 3b 3d bd
       0.14082798 -0.094237715 -0.1518471 -0.046199266
0001e0 d3 6e eb 3d 88 eb 6a bd 3c 58 ab bd 11 13 10 be
       0.114957474 -0.057353526 -0.08366439 -0.14069773
0001f0 5e b3 3b 3d a6 45 1e 3d f8 28 f9 3b 54 cd b1 bb
       0.045825355 0.03864064 0.007603761 -0.0054260883
000200 f3 f7 2b bd ec f6 11 3e 41 5a 68 bd 6b fa c3 3c
       -0.04198451 0.1425435 -0.056726698 0.02392312
000210 bb 76 ab 3d f5 7a 1e 3c 2c 23 ea bd f9 d9 9e bd
       0.083722554 0.00967287 -0.1143249 -0.07756419
000220 d0 f2 ed 3d 70 93 b6 bd d7 a3 25 3b 0b 82 9e 3c
       0.116185784 -0.0891484 0.0025274658 0.019349119
000230 c1 cd e5 bd c6 4c 5d bd 1c 78 0a bd 4c 6a 81 bd
       -0.11220885 -0.054028295 -0.03380595 -0.06319103
000240 aa 9f fd bd 78 8f a2 bc af 0b 12 3a 51 98 db bd
       -0.12383969 -0.019843802 0.0005571199 -0.107224114
000250 13 34 02 3c de 80 b8 3d b5 7b 00 bc a0 1e 9b be
       0.007946986 0.090089545 -0.007841994 -0.30296803
000260 4f 2f 33 3d 26 12 99 bc 8e 10 cf bc f3 88 9d 3d
       0.04374629 -0.018685412 -0.025276449 0.076921366
000270 e5 6f 9a 3d 7f 68 02 3d 60 3d 1c 3d b9 60 94 3b
       0.075408734 0.031837936 0.03814447 0.004528132
000280 e9 54 5a 3c ca 1c 82 3d 3f f5 2b bd 09 7b 77 3d
       0.013325908 0.06353147 -0.04198193 0.06042007
000290 26 45 51 3c a2 37 d4 bc 89 6b 46 bd 01 0d 72 bd
       0.012772834 -0.025905434 -0.048442397 -0.059094433
0002a0 02 96 d2 3d 76 f7 82 3c cc 5c f7 bd 61 40 16 be
       0.10282518 0.01598714 -0.120782465 -0.14672996
0002b0 a2 cf 46 bd 5b 15 e8 3c 49 4f 1b 3c 39 89 06 3e
       -0.048537858 0.028330496 0.009479352 0.13138284
0002c0 a4 37 3c 3d 3a 0a b7 3d 14 b2 67 3d 9b 24 85 bd
       0.0459515 0.089374974 0.056566313 -0.065011226
0002d0 ad f5 6c bc dd 79 fa 3c de 57 37 3e d4 96 35 be
       -0.014462871 0.030575687 0.17904612 -0.17733318
0002e0 21 d3 50 bb 8c a1 5f bd ae 2a 64 bd 43 b4 97 bc
       -0.0031864124 -0.054597422 -0.055704765 -0.018518573
0002f0 b0 1e bc 3a 4f 2d dd 3b 17 63 9d 3d 7b 40 2d be
       0.0014352407 0.006749786 0.076849155 -0.16919129
000300 00 9c 04 be 18 97 1e 3d 1d 24 de 3c e6 24 4f 3d
       -0.12950134 0.038718313 0.02711683 0.0505723
000310 29 32 64 bd 01 80 d6 3d a4 4a e9 bc bf 67 06 be
       -0.0557119 0.104736336 -0.028477974 -0.13125513
000320 c6 87 a4 3b 9a d5 c5 bd d7 ed 2d 3d d7 a3 cf 3d
       0.0050210683 -0.09659882 0.04246315 0.10138672
000330 34 85 06 3e 55 52 b1 3d a6 91 f0 bd 9b d6 da 3c
       0.1313675 0.08658282 -0.1174653 0.02671366
000340 7a c4 dc bd 65 1f 93 bc e4 56 e4 3d 1a 78 f9 3d
       -0.107796624 -0.017959306 0.111493856 0.12181111
000350 2e c9 50 3e d9 9c 1e 3e f3 f7 5c 3d 43 ee ef 3d
       0.20389244 0.1548952 0.0539474 0.11715367
000360 b8 4c 79 bd b0 2e 7b 3d 71 73 93 be 39 91 77 3d
       -0.06086418 0.06132382 -0.28799012 0.06044123
000370 13 6d 58 3d 49 14 a0 3d f6 ac a5 bc d9 fd 15 3e
       0.052838396 0.07816369 -0.020224076 0.14647616
000380 b3 fe dc bd 92 e7 c6 3d 5e a2 30 3e eb 7b fb 3d
       -0.107907675 0.09712137 0.17249438 0.12279495
000390 14 6c 8e bc 59 f7 65 bc 0a c5 ec 3d 61 7d 73 bd
       -0.01738552 -0.014036023 0.1156102 -0.059445743
0003a0 9e 93 0d 3e 85 12 4a 3e 3d 18 eb bb a4 d7 c2 bd
       0.13825843 0.19733627 -0.0071745203 -0.095137864
0003b0 a7 ba d2 bd 7f 61 97 3d 40 0e a1 bc c0 6f 91 bb
       -0.10289507 0.07391643 -0.019660115 -0.0044383705
0003c0 04 5b ab bd bc 6e 29 bd e0 3a 34 3d 78 a3 ba bd
       -0.08366969 -0.04136537 0.04400146 -0.091132104
0003d0 eb ae d9 bd c3 ed 1f be 6c 81 0e bd 8a a2 8a 3d
       -0.10629066 -0.15618043 -0.034791395 0.06769283
0003e0 60 c6 c4 bb 20 26 ae be f1 14 26 be 23 87 ee bc
       -0.0060050935 -0.34013462 -0.16218926 -0.029117173
0003f0 61 15 21 3e 36 65 01 3d 31 12 1d be 8f 87 e6 bd
       0.15730812 0.031590663 -0.1533897 -0.112563245

layers.4.bias f4 [256]
000000 74 bf 1c be 0d 37 93 bd 88 db c4 bc 3a 7c 13 be
       -0.15307409 -0.071882345 -0.024030462 -0.14402857
000010 19 d7 30 bd 5a 1a f1 bd 72 46 17 bd f5 84 27 bd
       -0.043173883 -0.11772604 -0.036932416 -0.040898282
000020 cf a9 67 bd 86 bb a2 ba 11 4f a0 bd a2 3f 47 be
       -0.056558426 -0.0012415505 -0.07827581 -0.19457868
000030 17 dd 5b bc 13 a0 06 be 55 c2 6c bd e9 c4 77 bc
       -0.013419411 -0.13147001 -0.057802517 -0.015122631
000040 8a 9e ed ba 39 81 21 be ea 0e c5 bd 6a 4a f6 bd
       -0.0018128913 -0.15771951 -0.09621985 -0.12025912
000050 5c 4a e6 bd 35 a5 ba bc 9d 10 37 bd a5 7f 1d bd
       -0.11244652 -0.022783855 -0.044693578 -0.03845181
000060 11 0f d5 3c f9 4a ac bd f2 42 f5 bd fb 39 38 be
       0.02600816 -0.084127374 -0.119756594 -0.17990868
000070 22 4e 22 bd f5 08 09 bd 9a bc 93 bd 78 1e 1f bd
       -0.039625295 -0.033455808 -0.07213707 -0.038847417
000080 d6 a3 b0 be 55 e4 aa bd 71 55 1c bc ce ad 54 bd
       -0.34499997 -0.08344332 -0.009541855 -0.051923566
000090 ce fa 0c be d8 5d 59 be f3 ee c7 bd da 24 f4 bd
       -0.1376755 -0.21227205 -0.09762373 -0.119210914
0000a0 ef 20 9b be d0 f0 34 be 8c d2 80 bc bb 7f c0 bd
       -0.30298564 -0.17669988 -0.015725397 -0.09399363
0000b0 e3 6e dc bd ea 5b b8 bb 2b 23 da bc 3f 65 3f be
       -0.107633375 -0.0056261914 -0.026628098 -0.18690966
0000c0 bc 99 cb 3c f4 64 9b bd 2b ce 6a bd 51 36 54 bc
       0.02485358 -0.07587615 -0.057325523 -0.012952403
0000d0 21 54 5b bd a9 a8 81 bc de 33 aa be 52 13 90 bd
       -0.05354703 -0.015827494 -0.33242697 -0.07034935
0000e0 40 11 11 be 43 30 7e be 29 41 97 bd b2 09 42 3d
       -0.14166737 -0.24823098 -0.07385475 0.047372527
0000f0 a7 2d 71 bd ba e9 2e bc c4 8a 82 3a a4 20 16 be
       -0.058881428 -0.010675842 0.0009959568 -0.14660889
000100 a1 cc c7 bd cc 3a 5b bd df 62 a3 bd ba 10 44 bc
       -0.09755827 -0.05352287 -0.079778425 -0.011966879
000110 3c a7 f5 bd 7d 1a ee bc 8d 39 02 bc 1a c2 11 be
       -0.11994788 -0.029065365 -0.0079482915 -0.142342
000120 cf cf 72 bd 80 c2 02 be 8e a6 9c bd c8 a4 1f bd
       -0.059280213 -0.12769508 -0.07648955 -0.038975507
000130 41 f3 95 bd 1a 5d 7e bc 37 88 30 bd 93 6d f6 bd
       -0.073217876 -0.015525127 -0.043098655 -0.120326184
000140 ae c3 c7 bc 40 f4 98 be 98 34 9c bc 01 3d 95 bd
       -0.0243853 -0.29873848 -0.019068047 -0.07287026
000150 f3 9b 10 be d1 53 80 bd 63 5e 22 bd cc 30 85 be
       -0.1412199 -0.06265987 -0.039640795 -0.26013792
000160 9f d9 c4 bc 9d b3 d7 bd 59 70 7a bd f8 77 ed be
       -0.024029551 -0.105323054 -0.0611423 -0.4638059
000170 3b 3d 67 bd 5b d0 73 bd 70 28 3b be 38 77 9b bd
       -0.05645488 -0.059524875 -0.18277144 -0.075910985
000180 cd 58 d6 3d b0 e2 0b be 95 00 f5 bd 7d c2 0c bd
       0.10466156 -0.13660693 -0.11963002 -0.034365166
000190 04 44 97 3d c4 39 29 bf a4 59 eb bc 11 87 90 bd
       0.0738602 -0.6610377 -0.028729267 -0.07057012
0001a0 5b ee 9e be ae 7c 1b 3d d6 25 9d bd 2d b8 35 bd
       -0.31041226 0.0379607 -0.07673232 -0.044365097
0001b0 7a c0 39 be 88 65 bd bd 2f e5 89 bc 15 e6 46 be
       -0.1813983 -0.09247881 -0.016832916 -0.19423707
0001c0 09 91 d4 bc 28 7f 91 bd a0 f1 c7 bd d7 82 d2 bb
       -0.025948064 -0.07104331 -0.09762883 -0.0064242887
0001d0 91 06 1f be 98 aa 72 3c 8c b7 08 bd 63 9a 1d bd
       -0.15529849 0.0148111805 -0.03337817 -0.038477313
0001e0 2c 8f 45 bd 19 27 60 be e6 f4 1e 3a fa fb e5 bd
       -0.048232242 -0.21889915 0.00060637144 -0.11229701
0001f0 6d 4d c8 bd d6 cf ae bc 4b f2 81 bd 8c db fe bd
       -0.09780393 -0.021339338 -0.06345042 -0.12444219
000200 d8 02 cf bd d5 c7 33 be e4 53 a1 bd 64 86 6f bc
       -0.10107964 -0.17556699 -0.07877329 -0.014619444
000210 de a5 c1 bd 46 94 d5 bd ec f9 7f bc ea 69 03 be
       -0.09455465 -0.104286715 -0.015623551 -0.12833372
000220 94 35 0c be 3f 65 f3 bd 93 b8 59 be a7 ae 5c bc
       -0.13692313 -0.118845455 -0.21261816 -0.013469375
000230 d5 9e 04 bd c0 ad ed bc 0a 63 9b bd af e1 50 bd
       -0.032378037 -0.029013515 -0.075872496 -0.05099648
000240 04 a1 96 bb 74 3b 28 bd f1 1c b4 bd 3b 2a 0a be
       -0.0045968313 -0.041072324 -0.08794583 -0.13492672
000250 fa 2d a7 bc 6d b3 d4 bc a0 cd 51 bc ca 57 87 bd
       -0.020407666 -0.025964463 -0.0128053725 -0.06608541
000260 6e 82 75 bd d1 01 24 be 12 4a 04 be c5 3a eb bc
       -0.05993884 -0.16016318 -0.1291888 -0.028714547
000270 26 68 22 bd e9 1d 0b be cf c2 20 bc 52 3f 6f bd
       -0.039650105 -0.13585629 -0.009812071 -0.058409996
000280 43 15 42 be 1a a5 b8 bd 7d a6 9d bd 0a d6 0d bd
       -0.18953423 -0.090158656 -0.07697771 -0.03462795
000290 7d 09 f6 bd b7 91 04 be b0 b2 ba bd 69 da 8b bd
       -0.120135285 -0.12946211 -0.09116113 -0.06828768
0002a0 8f 7d 25 bd 9b f8 cf bd 8c 72 df bc 02 ce 51 bd
       -0.040402945 -0.101548396 -0.0272763 -0.051221855
0002b0 15 ea 28 bd ef bf 90 be 24 fc 80 bd 0b 5d 68 bc
       -0.041238863 -0.28271434 -0.06298092 -0.014182339
0002c0 bf 72 73 bd 8b 48 d8 bd 8c 46 1e be bf 47 37 be
       -0.059435602 -0.105607115 -0.15456599 -0.17898463
0002d0 36 67 b2 bd c9 c0 c3 bd ef 0d 9f bd 91 1c a8 bd
       -0.08711092 -0.09558255 -0.077663295 -0.082085736
0002e0 fb 1a 30 bd db 2c c2 bd 21 a6 63 be 1d 3a c5 bd
       -0.04299448 -0.09481212 -0.22231342 -0.09630225
0002f0 73 10 be bd 0d 52 ca bd 61 22 d9 bd 06 f9 ae 3a
       -0.09280481 -0.09878931 -0.106022604 0.0013349361
000300 23 42 1a be fd 48 ed bc d4 74 df bd a4 83 f0 bb
       -0.15064292 -0.028965468 -0.10910955 -0.0073399115
000310 74 39 9d bb 3f 30 08 3c 44 07 61 be 97 f1 ef bc
       -0.0047981087 0.008312284 -0.21975428 -0.029290004
000320 97 99 07 be cc 1c 03 be 8d 7d 0c be ac f4 40 bd
       -0.13242184 -0.12803954 -0.13719769 -0.047108337
000330 c4 45 51 bd 35 8c 5d be 26 e3 25 3b 19 9f 0d be
       -0.051091924 -0.21635516 0.0025312393 -0.13830222
000340 10 8f a0 bd d6 59 d1 bd f9 fa c8 be 51 5a 69 bd
       -0.07839787 -0.10222213 -0.39253977 -0.056970898
000350 77 7e 15 be bd 10 6a bd 12 96 8f bd b3 d5 f2 bc
       -0.14599024 -0.05714487 -0.070110455 -0.029642915
000360 19 5e 29 3c 80 ff 97 bb 90 17 f1 bd a1 c0 25 be
       0.010337376 -0.0046386123 -0.11772072 -0.16186763
000370 ba fa 15 3a 45 9b bb bd 9d ab b0 be 78 97 2f bc
       0.000572126 -0.09160475 -0.3450593 -0.010717265
000380 85 a3 8f bc 25 ef 25 bc b6 c6 ec bc 5a ca 39 be
       -0.017534027 -0.010127817 -0.028903347 -0.18143597
000390 c5 d8 30 be 4a 13 63 be 17 8a 08 be c6 cb 82 3b
       -0.17270191 -0.22175327 -0.13333927 0.003991577
0003a0 31 81 21 bd e8 ca 1e be 81 12 94 bd 3a fd 66 bd
       -0.039429847 -0.1550709 -0.07230092 -0.05639384
0003b0 10 93 1f be 7d a5 0d bd ca 19 b6 bd 7c c0 4a bd
       -0.15583444 -0.03458165 -0.088916376 -0.049499974
0003c0 63 58 fd bd 26 ae 06 be 57 b7 a3 bd de 11 ee bd
       -0.12370374 -0.1315237 -0.07993954 -0.11624502
0003d0 8f 1c a9 bd bc 90 dd bd 4c ca 2b be 06 9e 9b bd
       -0.082574 -0.108186215 -0.16776389 -0.075985
0003e0 2f 25 d8 bd 5a 86 2c 3d ed 22 53 be f2 d4 bb bd
       -0.10553967 0.042120315 -0.20618792 -0.091714755
0003f0 7c 20 9a 3d ed 5a dc bd 93 53 a0 bd b7 ea 87 be
       0.07525727 -0.1075953 -0.078284405 -0.2654626

layers.6.weight f4 [1, 256]
000000 8a 05 a8 bd f1 8f 3f ba 5e 04 cd bc 24 fc 16 3d
       -0.082041815 -0.0007307521 -0.025026496 0.036861554
000010 3b 99 a1 bd d0 cc 9b bd b6 63 34 3b 3a 63 70 3c
       -0.078905545 -0.07607424 0.0027525253 0.014672095
000020 56 e8 04 ba b1 6c 84 bd 0b c8 d9 bd 2a 63 0e be
       -0.0005070021 -0.06466044 -0.10633858 -0.13905016
000030 fd 0d ee bc c8 84 df bd 57 70 80 3c 7f 9a e8 bc
       -0.029059405 -0.10913998 0.015678568 -0.028393982
000040 37 f7 5f bd ff 62 9d bd af 72 e3 bd 21 19 30 3c
       -0.05467912 -0.07684898 -0.111058585 0.010748179
000050 cb 6d d2 bd 21 34 89 3b 0d 1e 1b bd 5b ad af bc
       -0.102748476 0.0041871225 -0.037870456 -0.021444967
000060 81 ca b9 3d 11 2b d1 bd 12 77 27 bd 05 da e7 bd
       0.09071828 -0.102132924 -0.04088504 -0.11320881
000070 f2 81 38 bd 89 f5 12 3c a2 05 a6 bd 4b 52 46 be
       -0.0450458 0.008969673 -0.08106543 -0.1936733
000080 73 65 e0 bd 3e 1a e0 bc 61 dd f7 bc 59 5c a3 bc
       -0.1095685 -0.027356263 -0.030256929 -0.019941496
000090 4c b9 19 be 06 89 85 bc 77 37 f5 bd d7 bc 04 be
       -0.15012091 -0.01630069 -0.1197347 -0.12962662
0000a0 9b ae ff bd 24 0c ce bd ba 75 10 bd 03 b1 09 ba
       -0.12484475 -0.100609094 -0.035268523 -0.0005252512
0000b0 32 bf 05 be a4 ef 17 bd 7e c7 85 bd d5 c4 08 be
       -0.13061216 -0.037093773 -0.06532191 -0.13356335
0000c0 95 98 9b 3d 35 e0 9e bc 21 bb b1 bd c2 8e be bc
       0.07597462 -0.01939402 -0.0867827 -0.023261432
0000d0 13 24 77 bd 03 91 8c bd 7e 89 92 bd 1f 87 0c 3d
       -0.060337137 -0.06863596 -0.07155131 0.03430855
0000e0 23 17 f9 3c 1f d0 d9 bc a2 bc b3 bd 83 1b 12 3e
       0.03040654 -0.026588498 -0.08776213 0.14268307
0000f0 be 69 b5 bc f8 a0 a5 bc 98 3d c1 bd bd 33 85 bd
       -0.022145148 -0.020218357 -0.09435576 -0.06504009
000100 fd 9d f9 bd c3 89 ad bd f6 c9 58 bc c2 29 cf bc
       -0.12188337 -0.084735416 -0.013231745 -0.025288466
000110 82 6f 72 bd a4 98 8c bd fe f7 bd bc 87 02 c5 bd
       -0.059188373 -0.068650514 -0.023189541 -0.09619623
000120 00 9c 61 bb 89 87 ee 3d 42 1e ff 3c 65 4d 27 bd
       -0.0034425259 0.11646945 0.031142358 -0.040845294
000130 2f 4f d1 bd db 79 0c bd 4a ea 11 bc 18 5f 97 bd
       -0.10220181 -0.034295898 -0.0089059565 -0.073911846
000140 d2 b3 bd 3b e1 bb c7 3e fa 78 29 bc 65 2e e0 bd
       0.0057892585 0.39010528 -0.0103437845 -0.10946349
000150 f4 97 cd bd 10 b6 e2 bd f7 37 c4 bd bb 1d b4 bc
       -0.100387484 -0.11069882 -0.09580987 -0.021986833
000160 17 6e d8 bd 3e 5e 03 be a8 e1 f4 bc 6e 2d 35 3f
       -0.10567873 -0.1282892 -0.029892758 0.70772445
000170 57 63 a8 bc bf 79 a3 bd 1c 5d ba bd bb ad be bd
       -0.020555181 -0.079822056 -0.090997905 -0.0931048
000180 7d cd 58 be db f2 91 bd 07 a0 99 bd 86 53 92 bd
       -0.21172138 -0.07126399 -0.07501226 -0.07144837
000190 fd 50 7d 3e 56 be 0a 3f bf 70 b5 bd 06 89 92 bd
       0.24737926 0.5419668 -0.08859395 -0.071550414
0001a0 5a 37 c0 3c 4f 29 0f 3e 7e 75 6d bd ea 57 95 bd
       0.023463894 0.13980602 -0.057973377 -0.07292159
0001b0 0e 7a 58 bd 1f 74 b2 bd 40 1b d7 bc 9c 33 2b be
       -0.052850775 -0.087135546 -0.026258111 -0.16718906
0001c0 9a 20 02 bf 92 f4 1e bc 6c ea fe 3d 20 ea 2b bd
       -0.50830996 -0.009701865 0.12447056 -0.041971326
0001d0 21 7f d0 bd 64 8b 96 3e cc 22 ca bd aa c1 aa bd
       -0.10180498 0.29403222 -0.09869918 -0.0833772
0001e0 79 bf 6b bd a3 1c a0 bd 0c c5 78 bd 16 b4 fc bd
       -0.05755565 -0.07817962 -0.060734794 -0.12339036
0001f0 c6 b1 a8 bd 4a 0c 4f bd 07 e4 f4 bc f7 a5 14 be
       -0.082370326 -0.05054883 -0.029893888 -0.14516436
000200 28 f0 4b b8 a2 bd 10 bc 12 f1 1d bd 14 91 1c bd
       -4.8622634e-05 -0.0088342745 -0.03855998 -0.038224295
000210 20 78 d1 bd b1 2e d1 bd 2c ee 39 bd 13 ed f5 bd
       -0.1022799 -0.10213984 -0.045393154 -0.12008109
000220 dc a8 ba bd 3d 8a 83 bd 64 6b 27 be 5e b8 e5 bc
       -0.091142386 -0.06422851 -0.1634956 -0.028042015
000230 9c 3f a8 bc ae 65 6a bd 3b ce b7 bd 2d 08 5b be
       -0.020538144 -0.057225876 -0.08974882 -0.21389838
000240 90 76 3a bd b3 ac b8 bd 51 d1 51 3c 70 22 eb bd
       -0.045523226 -0.09017315 0.012806253 -0.11481178
000250 91 73 46 bd 82 a2 a0 bc d9 6d fd bc 51 4f cf bd
       -0.048450056 -0.01960874 -0.030936169 -0.1012255
000260 18 70 59 bc c5 a6 7a bd a4 fb ba bd b2 42 6c bc
       -0.013271354 -0.0611942 -0.09130028 -0.014420198
000270 9a e1 fc be 55 3a cf bd fe c0 19 bd 09 26 63 bd
       -0.4939087 -0.10118548 -0.037537567 -0.055456195
000280 7c 5d 03 be b3 83 ea bd 15 c6 04 3d da 42 1b 3d
       -0.1282863 -0.11450901 0.03241547 0.03790555
000290 b0 c8 a6 bd 5e 86 fb bd ff 5a d8 bd da 94 f0 bd
       -0.08143747 -0.12281488 -0.10564231 -0.11747141
0002a0 79 da d2 bd a2 73 23 bd 78 38 1c bc 69 86 4d bd
       -0.102955766 -0.039905198 -0.009534948 -0.05017701
0002b0 5e 9f 9b bd 03 dd c9 3c 23 b6 86 bd c3 3f a9 bd
       -0.07598756 0.02464152 -0.065777086 -0.08264115
0002c0 0c 0f c6 bc 97 39 f8 ba d2 4c 41 bd 32 33 49 3c
       -0.024177097 -0.0018938062 -0.047192402 0.012280272
0002d0 f9 a3 d3 bd c4 84 8f bd 1d 81 09 be a1 25 8f bd
       -0.1033401 -0.07007745 -0.13428159 -0.06989599
0002e0 a6 c5 1a bd 42 3a e0 bd 56 fe 2c be b9 6b 18 3d
       -0.03778615 -0.10948612 -0.16893896 0.037212107
0002f0 ec 7f 5f 3b ff 35 76 3b 8c e8 df bd 54 b3 0b bd
       0.0034103347 0.0037568805 -0.10933027 -0.034106568
000300 a1 ae ef bd ba b3 a6 bd 46 8f e9 bd 41 1c 06 bd
       -0.1170323 -0.08139749 -0.1140428 -0.03274179
000310 32 8c dd bc 93 b8 1c bd 21 26 a0 bd 83 94 fd bd
       -0.02704439 -0.03826196 -0.078197725 -0.12381842
000320 43 b3 a4 bd 6e 90 96 bd 0f 9e 76 bd 5d 7d 9b bc
       -0.08042004 -0.073517665 -0.06020933 -0.018980676
000330 9a 8b d5 3b 18 e3 8e bd 10 8b a9 bd 82 a9 b6 bd
       0.006516886 -0.069769084 -0.08278477 -0.0891905
000340 03 9e bf bd 26 06 6a bd fa 55 4a be 06 a7 bb bd
       -0.0935631 -0.05713477 -0.1975936 -0.091627166
000350 19 ce aa bd 29 43 a6 bd e7 98 d3 bd bd 46 b1 3c
       -0.08340091 -0.081182785 -0.10331898 0.021640176
000360 a7 43 61 3d 1d 87 12 bd 64 6d cf bd e1 af 18 be
       0.05499616 -0.035773385 -0.101282865 -0.14910842
000370 e4 a1 5e bc 85 c7 d2 bd af 15 8f 3d 71 4b 1c bd
       -0.013588402 -0.102919616 0.06986558 -0.038157884
000380 3d 52 e8 bc e0 ce ac bd 0d 00 70 bc 12 03 ae bd
       -0.028359527 -0.08437896 -0.01464845 -0.08496679
000390 3d f9 7f bd ea 26 40 be ac 7b 97 bd 9c bd 13 bd
       -0.06249355 -0.18764845 -0.073966354 -0.036069497
0003a0 97 2c 91 bd 01 11 00 be 57 2d b5 bd ab 39 a0 bd
       -0.07088583 -0.12506486 -0.088465385 -0.07823499
0003b0 e8 2e 0f bd 84 21 39 bc 0a c5 ce bd b1 ca 06 bd
       -0.034956843 -0.011299495 -0.10096176 -0.032908145
0003c0 ed 05 b8 bc 06 c3 05 be 5e 15 8c bd 81 c8 df bd
       -0.022463763 -0.13062677 -0.06840013 -0.10926915
0003d0 13 44 c6 bd ca 87 87 3a a5 a5 e8 bd 7b 9c 8d bd
       -0.09680953 0.0010340151 -0.11359719 -0.06914612
0003e0 f8 70 9e bb 64 f8 c0 3d f9 ea 65 bd 29 d7 95 3c
       -0.0048352443 0.09422377 -0.05613229 0.018291073
0003f0 35 e5 2e 3e 8d bf 6e bd fb b5 d5 bc 0a 9c 8d bd
       0.17079623 -0.058288146 -0.026087752 -0.06914528
