Results_dir/2022-03-16-17-14-53/actor.pth (torch, 274391 bytes, 6 tensors)

layers.0.weight f4 [256, 6]
000000 fd e9 a3 3d 06 f0 9e bd 1e b0 af 3e d2 15 22 3b
       0.08003614 -0.077606246 0.34314054 0.0024732244
000010 2f 40 a2 3c b7 dc 5f 3d a7 d5 be be 51 13 7c bd
       0.019805996 0.05465385 -0.3727238 -0.06154186
000020 fa 05 88 bd 95 69 3b bd ce 10 31 3d 86 4f 97 bd
       -0.06641765 -0.045754988 0.043228917 -0.07388215
000030 85 a4 ef bd 49 6a 20 be c0 e1 a0 3b c4 3b ec bd
       -0.117013015 -0.15665545 0.004909724 -0.11534837
000040 da 98 16 3e 80 90 f7 bd c6 d2 a7 bc b8 97 43 bd
       0.14706746 -0.12088108 -0.020486247 -0.047752112
000050 12 e9 0b 3e 31 8e 89 bd ee 6c f4 3d c4 3a af 3c
       0.13663128 -0.06716574 0.11934839 0.021390326
000060 ea 3d f7 bc b9 99 b5 bd 46 43 69 3d 4b 72 8f bd
       -0.03018089 -0.08867211 0.056948923 -0.070042215
000070 04 d6 16 3e a8 ad d7 bd 2e d8 86 bd c4 c4 f0 3d
       0.14730078 -0.10531169 -0.06584202 0.1175628
000080 a5 42 24 be fb bf 6a bd 0f 40 0b 3d 25 b7 46 bd
       -0.16041048 -0.057311993 0.033996638 -0.048514504
000090 b5 86 28 3c 50 fd e9 3b 5b 7c 24 3d 85 4c 06 be
       0.010286023 0.007140793 0.040157657 -0.13115127
0000a0 da 25 2f 3c fa aa 4d 3d 57 54 8d 3e c8 be 81 be
       0.010690177 0.050211884 0.2760341 -0.25340867
0000b0 6e 5e 6c 3e cf b1 88 bd 1b 5e 62 3d db 2e 0e bd
       0.23082897 -0.06674539 0.055265527 -0.034712654
0000c0 f9 26 4c 3e 98 cf b7 bd 80 ba d6 3e 4a ab d5 bb
       0.19936742 -0.08975142 0.41939163 -0.0065206634
0000d0 78 cb 8c 3c d0 9b 2e 3e 97 d5 8b be d3 16 28 3c
       0.017186865 0.17051625 -0.27311394 0.010259348
0000e0 df ac 42 be 80 10 17 3e 15 b7 99 bd 6f d3 38 be
       -0.19011258 0.14752388 -0.07505623 -0.18049406
0000f0 35 71 40 3c 8d 1d d7 bd d4 d2 72 3e 0e fc 04 3d
       0.011745741 -0.10503683 0.23713237 0.03246694
000100 32 4b 70 3d fb 9e 14 3d 67 f6 e7 bd 05 34 3c 3e
       0.05866546 0.036284428 -0.113262944 0.18379219
000110 08 9c e7 3d fc 28 0a 3e c2 bc bd 3d 74 bb d8 bd
       0.113090575 0.13492197 0.09264518 -0.10582629
000120 29 8d 11 be 2b 50 11 be 89 06 6b 3e 4a 5e 04 3e
       -0.14214005 -0.14190738 0.22951712 0.12926593
000130 a5 f1 ea bd 70 ed 26 3d 37 18 c7 3d c4 a4 bd be
       -0.11471871 0.04075378 0.097214155 -0.3703977
000140 05 4e 24 3e ad 92 73 bd 42 91 18 3c 39 ea 65 3d
       0.16045387 -0.059466053 0.009311976 0.056131575
000150 92 4c 1e bc a1 23 2c 3e 1b 1d 0b be 17 5c d1 3c
       -0.0096618105 0.16810466 -0.13585322 0.025556607
000160 50 e1 b5 bd 1f 3d 9e 3d 09 b5 7e bd bb 17 30 3e
       -0.088808656 0.07726502 -0.062184367 0.17196552
000170 83 27 9b 3d 12 b0 11 be 75 8c 04 3e d2 9d 86 bd
       0.07575896 -0.14227322 0.12944205 -0.065730706
000180 4f cb bd bd 0e c6 3b be eb 99 4f 3d f4 32 cc 3d
       -0.09267294 -0.1833727 0.050683897 0.09970656
000190 c0 f7 89 3c 7f 3d 83 bd 8f 3b 23 3e d6 38 63 be
       0.01684177 -0.06408214 0.15940689 -0.2218965
0001a0 68 0b 44 be ae a0 30 be 30 59 a0 3d cf de bd 3d
       -0.19144976 -0.17248794 0.07829511 0.09271013
0001b0 ca be 15 be 74 dd 07 3d 0b 11 3d be 9e fd 06 be
       -0.14623562 0.03317018 -0.18463533 -0.13182685
0001c0 93 84 14 bd 10 95 cf bd 49 d8 d2 bc cc da 34 be
       -0.036259245 -0.10135853 -0.025737898 -0.1766159
0001d0 bf 45 3c bc 04 7d 18 3d 30 20 fe 3d 3b 24 29 3c
       -0.011491238 0.0372286 0.12408483 0.010323579
0001e0 7c 77 d7 3d f6 7d bb 3e 24 48 7b 3d 1f 07 de bd
       0.10520837 0.36619538 0.061348096 -0.10841202
0001f0 93 38 be bc 6f 9d e2 3d 6b 97 55 3e 48 a1 46 3e
       -0.023220336 0.11065184 0.20858543 0.19397461
000200 06 41 14 3e e3 be d3 bd b2 67 73 3d a7 7d 29 3e
       0.1447793 -0.10339143 0.059425063 0.16551839
000210 b8 9c d0 3d 80 5a b3 3d 1d 91 53 be a3 e5 9e bb
       0.10186142 0.08757496 -0.20660825 -0.004849152
000220 d5 ae 88 3b 28 f1 b3 bc 31 98 17 bc 2a 43 16 be
       0.004171232 -0.021965578 -0.009252594 -0.14674059
000230 67 a6 88 bc e7 50 22 be 93 f2 1d bd 63 81 41 be
       -0.01668091 -0.15851174 -0.038561415 -0.18897013
000240 6e 06 d2 bb 4f e5 34 3e d8 9e 85 be 22 c3 22 3e
       -0.006409458 0.176656 -0.2609775 0.1589475
000250 1c d4 bb bd d2 53 71 be b2 1e 20 bc 5c 39 d3 bd
       -0.09171316 -0.23567131 -0.009772943 -0.10313675
000260 ec 8e ac 3d 55 19 7c bd 79 5f af bd 7b e9 28 bd
       0.08425698 -0.061547596 -0.08563132 -0.04123829
000270 38 01 32 3e 88 fe 65 3e bf b7 8f be 4a b1 9e 3d
       0.17383277 0.22460377 -0.28069875 0.07748659
000280 f9 13 15 3c 61 a5 0c be da 11 83 be d1 f8 35 3e
       0.009099 -0.13734962 -0.25599557 0.17770697
000290 d1 eb 9b bd 56 d0 07 3e 78 79 84 bc 1f e2 a0 3d
       -0.07613338 0.13263068 -0.016171202 0.07855629
0002a0 be d0 89 bd fa 55 e7 3d eb ef b2 bc 10 9f da bd
       -0.067292675 0.112956956 -0.021842917 -0.1067487
0002b0 86 67 64 3d 64 be d5 3a 4d ea 9d bc b7 a7 b5 bd
       0.05576279 0.0016307351 -0.019276762 -0.0886988
0002c0 85 8c 11 3e 46 ae d0 3d 07 6f 06 bc e8 7b 86 3d
       0.1421376 0.1018949 -0.008205182 0.06566602
0002d0 78 8c 0b be 17 1f 98 3d cb 4a 23 be 9b 07 1a 3e
       -0.13627803 0.07427805 -0.159465 0.15041964
0002e0 b2 8f 94 bc 6b 77 bb bd 97 bd 3c be 47 be 4a be
       -0.018134926 -0.091536365 -0.18431698 -0.19799148
0002f0 78 e0 e6 bd b9 06 4c 3c 96 87 02 3e db 35 1d 3c
       -0.11273283 0.012452775 0.12747034 0.00959536
000300 87 04 b9 bd 44 fd 36 be c1 c6 97 bd 6f c5 17 3e
       -0.09034067 -0.1787005 -0.07410956 0.14821409
000310 88 1d 35 3d bc 78 43 bd 43 97 33 bd e5 e2 70 3d
       0.044217616 -0.047722563 -0.043845426 0.058810133
000320 51 83 19 be b2 61 92 3b 4b b1 7c bd 5c 0b d7 bc
       -0.149915 0.0044672126 -0.061692517 -0.026250534
000330 62 83 0a bd 74 be e1 3d 5a 14 9b 3d 39 9a 5e bd
       -0.033816703 0.11022654 0.07572241 -0.054346297
000340 d4 f2 7e 3d 97 ad fe bc 86 2c ff 3d a6 c3 f3 3d
       0.062243298 -0.031088633 0.12459664 0.11902551
000350 4b 3f 24 bd 66 fc ad 3d 23 d0 05 3d 46 4f 1b 3e
       -0.040099423 0.08495407 0.032669198 0.15166959
000360 bf 7e 2e 3e 43 21 fd 3c ce ef a0 3d 8a 99 f1 bd
       0.17040537 0.03089965 0.07858239 -0.117968634
000370 29 c0 00 be f6 e1 9e 3d fb 90 54 3d 52 a6 13 3e
       -0.12573303 0.077579424 0.051896077 0.14418915
000380 67 4d 66 be 83 cc c5 3c 2f e2 e2 3a 26 bc bb bd
       -0.22490464 0.02414537 0.001730984 -0.09166746
000390 1d d3 5f be ce 84 2a bd aa 59 e0 3d c7 d3 4d 3d
       -0.21857877 -0.04163056 0.10954602 0.050250795
0003a0 27 09 90 3d 1f ed 3b bd 2d b6 66 bc a6 3e 14 3d
       0.07032996 -0.045880433 -0.01408152 0.03619256
0003b0 3b 21 33 be d8 9e c9 3d 4f 3a bf bd 78 fb 01 3e
       -0.17493145 0.0984475 -0.09337293 0.12693584
0003c0 5c a4 80 3d 62 26 d9 3c 58 b3 b9 bd d8 dc 9a 3d
       0.06281349 0.02650756 -0.0906741 0.07561654
0003d0 14 e1 0b bd 01 c9 00 3e 0b 0a 53 3c 99 ea b7 3e
       -0.034150198 0.12576677 0.012880812 0.3592117
0003e0 84 4e 8d 3e 16 4c 27 be 65 32 31 bd 46 7e 51 bd
       0.27598965 -0.16337618 -0.04326095 -0.051145814
0003f0 87 65 15 3d 38 9a 8f 3d 8f 12 ae be b0 c7 87 3c
       0.036473777 0.07011837 -0.33998534 0.01657471

layers.0.bias f4 [256]
000000 1a 23 c0 bc 76 64 34 3d 19 32 f1 3c f5 a9 7e 3b
       -0.023454238 0.04404112 0.029442834 0.0038858627
000010 db 59 df bc ef ce 86 bc a5 76 41 3d a9 36 7e 3c
       -0.027264526 -0.016456096 0.04723229 0.015515962
000020 45 25 16 3c 13 c8 2a 38 ec 68 8d bb d9 86 89 bc
       0.009164159 4.0717492e-05 -0.004315486 -0.016787933
000030 8d 77 b8 bc ac ac 8e 3c 50 83 ab bc 5e 73 f8 3c
       -0.022517944 0.01741632 -0.020936638 0.030328449
000040 95 14 ab 3b 51 f9 8f 3d 0b 3f 67 bc 5d 4e 65 bc
       0.0052209594 0.07029975 -0.014114152 -0.013995734
000050 76 02 ab 3c 2e c7 de 3c ff 2a 7d 3b 7b 29 bc 3c
       0.020875197 0.027194586 0.0038630364 0.022968998
000060 a3 11 ef bc 6f 81 74 3b 7f af 21 bd c3 21 5d bd
       -0.029183215 0.0037308594 -0.039474007 -0.053987276
000070 6d 7f cd 3c aa 62 9d bc a9 49 46 bc cc c6 37 3c
       0.025085175 -0.019212086 -0.012102523 0.01121683
000080 9d 52 0e 3b 04 5b 01 3c 2a ef 09 3d 19 0c 33 3c
       0.0021716722 0.007895235 0.03367535 0.010928177
000090 2f 7c 93 3c 9e d7 12 bd 33 d9 d8 3b 86 b7 3c bc
       0.018003551 -0.03585016 0.006617689 -0.011518365
0000a0 fc ef c7 3b 0e ae 94 3c cb da 6e bd 00 c6 c5 3c
       0.0061016064 0.018149402 -0.058314126 0.024142265
0000b0 56 59 59 3c 00 9f 9f bc b1 3a 29 3d 84 54 74 3c
       0.013265928 -0.019484997 0.041315738 0.014912728
0000c0 0f 34 48 bd 94 0c 9a bc 41 fe 91 3c 27 3a 6f 3c
       -0.048877772 -0.018804826 0.017821433 0.014601267
0000d0 e7 1b 43 3c a0 f9 98 3d 87 db 74 3d eb cf 89 bc
       0.011908508 0.07469487 0.05977967 -0.016822776
0000e0 cb 92 c1 3c a9 87 60 bd bd 55 3b 3c f6 21 80 bb
       0.023629567 -0.054816876 0.011434016 -0.0039102985
0000f0 7b d5 d8 bc 61 40 09 3d 2b a8 d4 bb 32 86 65 bb
       -0.026468983 0.033508662 -0.0064897737 -0.0035022614
000100 5a 39 29 bb 5a 00 99 ba 9e 60 87 bc 77 d1 96 bb
       -0.0025821538 -0.0011673078 -0.016525563 -0.004602607
000110 d3 a8 31 3d 22 36 8f 3c f4 f3 de bc 97 81 91 3b
       0.043373894 0.017481867 -0.027215935 0.004440497
000120 7d d3 2e bd 43 07 3d 3b a8 de e0 bc d9 95 91 bc
       -0.04268216 0.002884344 -0.02744992 -0.017771648
000130 22 c8 bb bc 5a c7 ac bc ea b4 1d 3d 66 ec 3e bc
       -0.02292258 -0.021091152 0.03850261 -0.0116530415
000140 d7 64 10 3c 1c 14 9b bc 2f 26 6f 3d d7 16 84 bc
       0.008813105 -0.018930487 0.058386024 -0.016124172
000150 91 3d 84 bc 54 fe c2 3d 93 78 e5 3c 4b bb 62 bc
       -0.016142638 0.095211655 0.028011596 -0.013838599
000160 43 04 83 3c bd dd e9 bc c5 77 d4 3c b4 f9 35 bc
       0.015993243 -0.028548116 0.025936017 -0.011106897
000170 93 14 ea bb 44 b5 13 3c ff 64 51 bc de 7f 31 bb
       -0.007143566 0.009015385 -0.012780427 -0.0027084271
000180 cc e8 33 3c 2d fa e2 3d 66 03 b8 3c 2e f2 cc 3c
       0.010980796 0.110828735 0.022462558 0.025017824
000190 25 c5 15 bd 34 fd 74 3c 2b 2c d0 3b 6f 28 94 bc
       -0.036564965 0.014952946 0.0063529215 -0.018085686
0001a0 5d 3a c6 38 0c 29 a2 bc 2c 5c 69 3c 30 01 92 3c
       9.452247e-05 -0.019794963 0.014243167 0.017822832
0001b0 3e f6 7c bb a8 78 0c 3c 3e b6 1e 3d 3a 44 b2 3a
       -0.003859892 0.008573689 0.03874802 0.0013600655
0001c0 b3 96 9d 3c 19 9e 82 ba 71 96 9e 3c 68 32 c6 3b
       0.019236898 -0.000996533 0.019358845 0.0060484894
0001d0 b7 a2 94 bb c9 90 a1 bc ff d4 06 3c 84 ab 38 3b
       -0.0045359987 -0.01972236 0.008229493 0.0028178403
0001e0 a7 ec ed 3b 5d 9c 15 3d c0 5b 9f 3c 18 7a 5f 3c
       0.007260877 0.036526073 0.01945293 0.013639949
0001f0 d7 08 86 bd b5 de 56 3e a2 58 83 3d 6f 97 25 ba
       -0.06544655 0.20983393 0.0641339 -0.0006316816
000200 f0 a0 49 3c d0 0b 20 bc 03 76 a1 3c 8c eb 60 3a
       0.012306437 -0.009768441 0.019709593 0.0008580021
000210 4f 5e 0c 3d eb df 97 3b 89 fb 1f 3c 7c 8c 60 bc
       0.034269627 0.0046348474 0.0097645605 -0.013705369
000220 9f ee 93 3d b7 a1 d7 bb 62 ab d6 3c f9 46 a4 3c
       0.07223248 -0.006580557 0.026204769 0.020053374
000230 2d c8 98 bb 5b f5 1c bd 47 ed 12 3c 07 c8 c5 3b
       -0.0046625347 -0.038319927 0.008967704 0.006035808
000240 be 0a 46 bd b8 be 86 3a 07 3f 52 3c b9 13 14 bd
       -0.04835009 0.0010280227 0.01283241 -0.03615162
000250 0b ef fa 3c 0f 70 ae bc e0 53 c1 3c b4 ff 59 3b
       0.030631563 -0.021293668 0.023599565 0.0033263983
000260 37 39 63 b9 4b b9 d3 3c 36 29 ca bc 11 5a 92 3b
       -0.00021669721 0.02584519 -0.024677854 0.004466303
000270 ac ae 04 bc 34 c9 ab 3b 81 a4 c9 bc d4 3d ae 3c
       -0.008098286 0.005242491 -0.024614574 0.021269716
000280 70 9f 8f bc 19 06 aa bc 9c fd 2c 3c 1a 64 cf 3c
       -0.01753208 -0.02075486 0.010558512 0.025316287
000290 58 1b 26 bd 0f 20 fe bc 70 06 ef bc 9c 58 11 3c
       -0.04055342 -0.031021146 -0.029177874 0.008871224
0002a0 a8 81 5e bc fd c4 03 3c 98 9d f1 3c 34 46 71 3c
       -0.013580717 0.008042571 0.029494092 0.01472621
0002b0 cb b0 98 bc 36 b5 a1 3d 3d 75 f9 bb 92 7d 1d 3c
       -0.018638989 0.07895891 -0.007612853 0.009612458
0002c0 58 8c 4e 3c ef 6f 32 bb 85 f9 b5 3b e8 7f c1 bc
       0.012606703 -0.0027227362 0.0055534267 -0.02362056
0002d0 5c bf 05 bd 33 fa 4d 3c c4 80 25 3d 0b 61 dc 3c
       -0.032653198 0.012571859 0.040406004 0.026901742
0002e0 00 8e 78 bc 87 e4 3b 3d 8c f1 ea bb d5 22 f3 bc
       -0.015170574 0.045872238 -0.007169908 -0.029679695
0002f0 c4 8b a0 3d a5 2e e7 3c a7 0e 1a bc cd 8a 97 bc
       0.07839158 0.028220484 -0.009402907 -0.018498803
000300 57 f7 94 3c 1a 86 68 3d 09 88 dd 3c 35 bf ed ba
       0.018184347 0.056768514 0.027042406 -0.0018138649
000310 33 29 b1 3b 63 91 23 bb af be bb 3d 11 b9 98 3c
       0.0054065227 -0.0024958483 0.091672294 0.018642934
000320 ea 44 80 bd 08 aa ab bb 53 88 14 bd 21 82 03 3d
       -0.06263144 -0.005238775 -0.03626282 0.032106522
000330 50 bf 83 bc a1 35 1a bc 77 bd bd 3c 46 48 9f 3c
       -0.016082436 -0.0094122 0.023161633 0.019443642
000340 d4 fb 9b ba 63 9b 5a bd e0 1d 9f 3c 80 b6 8e 3c
       -0.0011900612 -0.053370845 0.019423425 0.017421007
000350 45 27 3f 3b 41 07 91 bc f1 c5 0b 3d 77 9b 65 3c
       0.0029167694 -0.017703654 0.03412432 0.0140141165
000360 f7 9f 3c 3a f0 43 53 3d 69 19 85 bc 36 0a 1b bd
       0.00071954675 0.051578462 -0.016247468 -0.037851535
000370 5a 5f 81 3c d8 52 2b bc 85 21 32 bc 14 5a d9 bc
       0.015792537 -0.010456763 -0.0108722495 -0.02653221
000380 d8 86 df ba b5 23 01 bd b7 25 60 3c 33 cc c8 3d
       -0.0017053736 -0.031528194 0.013680867 0.09804573
000390 bf 4a 10 3d 1a 43 54 3c ff 0b be 3c b4 2f 2c bb
       0.035227533 0.012955451 0.02319908 -0.002627355
0003a0 75 fd f6 3a 3c 5d 6f bb 1b e6 8a bc b6 34 15 3e
       0.0018843847 -0.0036524078 -0.016955426 0.14570889
0003b0 96 85 5b bc a3 f8 6d bd 28 a0 1d bd 81 4c 4c 3c
       -0.013398549 -0.058098447 -0.038482815 0.012469412
0003c0 d0 48 1b bc 47 58 eb 3c a7 e3 48 bc 27 48 03 3d
       -0.009477809 0.028728617 -0.012261308 0.03205123
0003d0 0e 00 a1 3b 82 37 18 bc 5a 8a 43 bd 1f 2a 8b 3c
       0.0049133366 -0.009290578 -0.047739364 0.016987858
0003e0 8c 70 3e bc 76 10 a2 3b b5 f2 13 bb 0f e0 5a bc
       -0.011623513 0.00494581 -0.0022575085 -0.013359084
0003f0 e1 8a 70 3c c1 00 8f 3c 46 7a f0 3b b4 28 00 bb
       0.014681549 0.017456414 0.007338795 -0.001955551

layers.2.weight f4 [256, 256]
000000 08 ca 3f 3d 70 a7 e3 bd f1 b1 20 bd 80 41 02 bd
       0.04682353 -0.111159205 -0.0392322 -0.031800747
000010 fa d3 01 3e e3 09 84 bd 7b eb 0f 3e e2 59 4d 3e
       0.12678519 -0.06447198 0.14054672 0.20053819
000020 94 09 c9 3d bf 82 37 be ae 0c be 3c 81 5e 7c be
       0.0981628 -0.1792097 0.023199406 -0.24645425
000030 45 ef 3b 3b db a8 2a 3e 53 b4 0f be 58 26 b9 bd
       0.0028676551 0.16665976 -0.14033632 -0.090405166
000040 f8 b3 17 bd 1d 16 87 3e af a7 13 3c 21 88 c4 3b
       -0.037036866 0.2638406 0.009012147 0.005997673
000050 a5 e4 4e 3d 34 98 59 3e 99 52 70 3d a3 d2 3a 3e
       0.05051102 0.21249467 0.05867252 0.18244414
000060 1a ee 72 bb ba fd 21 bc 93 75 46 3c a0 d8 51 be
       -0.003706819 -0.009887153 0.012112993 -0.20492792
000070 8c 61 04 3d 5a 0b 23 be 26 a0 ff bd f5 88 81 bd
       0.03231959 -0.15922299 -0.12481718 -0.063249506
000080 84 7f 07 3d 05 ee 2f be 1d 39 91 bc 71 8f b8 bc
       0.033080593 -0.17180641 -0.017727429 -0.022529336
000090 7a f1 25 3e 42 6a b1 3d 2a 8a 79 be 6f fe 3e bd
       0.16205397 0.08662845 -0.24369112 -0.046629366
0000a0 2f d5 a1 3d d9 f0 28 3d a2 2f 59 3d 4a 95 c9 3e
       0.0790199 0.041245315 0.05302394 0.3937171
0000b0 78 8e 34 3e 85 3c 25 be d2 8f 74 bd 28 9d 62 3e
       0.17632473 -0.16136368 -0.05970747 0.22130263
0000c0 65 69 ed 3d 7a 2c 84 3d 8e e5 9c 3e 2f 02 9f 3e
       0.11592368 0.06453796 0.30643886 0.31056353
0000d0 b6 1e a1 3d 2e 23 1c bd 77 ef 90 3e 13 e1 12 3c
       0.07867186 -0.038119487 0.28307697 0.008964795
0000e0 25 1b 45 3c ff ab 2d be 53 85 4c 3e 60 45 68 bd
       0.012030398 -0.16960143 0.19972734 -0.056706786
0000f0 84 3b c0 3c 45 89 ec 3e f4 ba d6 3d a4 60 6b bd
       0.02346588 0.46198478 0.10484877 -0.05746521
000100 df ab ff bd 57 81 5e be 57 2e 17 be c3 2a ee bd
       -0.12483954 -0.21729027 -0.14763771 -0.1162925
000110 9a 30 37 3e 3d a9 83 3d 5f 61 86 3e a6 6d 9f 3c
       0.17889634 0.06428764 0.26246163 0.019461464
000120 90 30 da bd 77 ce 61 be fb d3 41 3e d5 12 2e 3e
       -0.10653794 -0.22051416 0.1892852 0.16999371
000130 ac e0 cf bc c6 03 bd 3d 1f f8 a4 3e 96 4a 98 3d
       -0.025375687 0.09229235 0.3222055 0.07436101
000140 7b e1 76 3d 1c 5c f2 bd 26 dc 59 3e 73 fe 2e bd
       0.06027363 -0.11833975 0.21275386 -0.04272313
000150 82 a0 fa 3d a0 5d f7 3e 19 82 1d 3e 16 ad 65 bd
       0.12237646 0.48313618 0.1538166 -0.05607327
000160 5b 9f 43 3e 1f 24 91 bc 4e 57 1b 3e 1a 11 fd 3d
       0.19103758 -0.01771742 0.15170023 0.123567775
000170 c5 a6 30 3d 80 d8 b6 3e 69 0d be 3d c6 af f8 bd
       0.043127794 0.3571205 0.092799015 -0.12142901
000180 4f 60 34 3e 0c 1f 9b bd f8 47 83 bd 09 5f 40 3e
       0.17614864 -0.07574281 -0.06410211 0.18786253
000190 1e 00 f5 3d f9 15 81 bd 19 18 60 be a8 de 09 be
       0.11962913 -0.06303019 -0.21884193 -0.13463843
0001a0 59 f9 cc bd 12 53 3c be 71 d2 5a 3e 1d 6d 79 be
       -0.10008497 -0.18391064 0.2136934 -0.2435803
0001b0 14 40 90 bd c7 4b 91 bc 2e 29 0e bd 54 a7 a6 bc
       -0.07043472 -0.017736329 -0.03470724 -0.02034346
0001c0 40 03 e9 3e 21 a7 f5 3d 26 7c 81 3e ab cb ed 3c
       0.45510292 0.11994768 0.2529003 0.02902778
0001d0 b5 26 8f be ca 22 64 3d 07 0c f9 3d 5a 0d 32 3e
       -0.2795922 0.05569724 0.12160497 0.17387906
0001e0 80 14 98 3e e1 78 43 3e e7 a5 41 3e cb fe 30 bd
       0.2970314 0.1908908 0.18910943 -0.04321174
0001f0 49 79 31 3d 94 b8 b0 3e d3 32 94 3e f5 f5 91 bd
       0.043328557 0.34515822 0.28945026 -0.07126991
000200 33 db 5e 3e 69 65 86 be ef 04 9a 3e 7b 5e ca 3d
       0.21763305 -0.26249245 0.3008189 0.09881302
000210 84 95 6c 3e 67 32 34 3d 63 30 a6 bc a4 12 a4 be
       0.2310391 0.04399338 -0.020286744 -0.32045472
000220 ec 4e 88 bc 8b 7a 71 be 21 20 c1 3e b1 e8 23 3e
       -0.016639195 -0.23581903 0.37719825 0.16006733
000230 22 f7 31 3c d8 21 61 be 83 93 62 3d 83 0b 1b 3e
       0.010862144 -0.21985567 0.05531646 0.1514111
000240 12 63 86 be fa 26 1c be ef 7a a3 3e df 2e df 3d
       -0.2624746 -0.15249243 0.31929728 0.10897612
000250 fb 5e 51 3e e8 3f 8d 3e 35 9d 8a 3e 18 bf 2b 3d
       0.20446388 0.2758782 0.27073064 0.041930288
000260 33 0c c8 3d ca 32 94 bd 25 a0 fa bb 83 c7 c3 bd
       0.09767952 -0.0723625 -0.0076484852 -0.09559538
000270 91 69 4f bd d2 69 88 3c f3 9f 4c be ed 55 b5 3d
       -0.050637785 0.016652022 -0.19982891 0.0885428
000280 b5 c3 c3 3b 20 63 a6 3c 9d 94 b5 3c 83 2b 9e 3e
       0.005974258 0.020310938 0.02216559 0.30892572
000290 0b 14 aa bd 5b 3c b9 bd 04 31 45 bd c2 53 4a be
       -0.08304604 -0.09044715 -0.048142448 -0.19758514
0002a0 b0 6c af bd 9f 29 39 3e 33 25 61 bd aa c5 88 be
       -0.08565652 0.18082283 -0.054967117 -0.26713306
0002b0 94 5a 39 be 87 fa af 3e 7d 52 af 3d ba bb 1d bd
       -0.18100959 0.34370825 0.08560655 -0.038509108
0002c0 8c 7d 3c 3e 52 33 03 3e 39 b5 c7 bd 84 29 cc bd
       0.18407267 0.12812546 -0.09751362 -0.09968856
0002d0 61 12 74 be 37 c8 c5 bb cd 01 a6 3d e8 35 c6 3d
       -0.23835136 -0.0060358304 0.08105812 0.096782506
0002e0 f2 2a b1 bd 10 22 92 3e 3c 2e 6c 3d 34 34 76 be
       -0.08650769 0.28541613 0.05766128 -0.24043351
0002f0 27 71 83 3e 7c 69 95 3e 96 37 8a be 23 b7 ca 3d
       0.25672266 0.2918204 -0.26995534 0.09898212
000300 2e 71 8c 3b 83 f9 e1 3e 23 9e 9c 3e bb b4 81 be
       0.004285953 0.44135675 0.305894 -0.253332
000310 f4 d7 f4 3d b3 9f 31 be ce 9b d1 3e 39 c1 72 3e
       0.11955252 -0.17346077 0.40939182 0.23706521
000320 38 76 27 be 48 1c 11 be ad 5d 06 3e 91 22 fc bd
       -0.1635369 -0.14170945 0.13121672 -0.123112805
000330 88 43 70 be 45 6c 6d 3e 92 a2 e5 bd 29 6a 1e 3d
       -0.23463261 0.23185833 -0.112126485 0.03867546
000340 25 36 25 be 73 2b 53 3d 36 4d 2e be 2b 4e 31 3e
       -0.16133936 0.05155511 -0.17021641 0.17314975
000350 2c 3b 37 3d c0 7b 02 bc 92 4e 43 3e af e6 78 3e
       0.044734165 -0.007964075 0.19072941 0.24306749
000360 7c c0 1a 3e c5 2b 60 3e de 6f 7a be 89 f5 22 3d
       0.1511249 0.21891697 -0.24456736 0.03978494
000370 8c ce 41 3d ab 8c b0 3d ff 68 05 be 95 b3 a9 be
       0.04731612 0.0862058 -0.13028334 -0.33144823
000380 47 c5 98 bd 67 02 ff bd 1f 82 3b be 02 5a 01 3e
       -0.07459503 -0.1245163 -0.18311356 0.12631992
000390 24 6d 26 bd 9f 66 e9 3d 0f 1b 8e 3e b7 65 b2 3c
       -0.04063143 0.113965265 0.2775502 0.021777017
0003a0 b3 c1 2d 3d 6d 8d 31 be 40 98 66 3c ea 5d 9d 3d
       0.042421054 -0.17339106 0.014074385 0.07683928
0003b0 2f 14 82 3e 92 d4 79 3e b7 d5 2e 3d 81 57 ec 3b
       0.25406024 0.24397495 0.042684283 0.0072125797
0003c0 9f b9 be 3a 9f e5 25 3e 00 c5 dc bd 7b 4e 79 bd
       0.0014551169 0.16200875 -0.10779762 -0.06086586
0003d0 d1 73 60 3e 50 eb 0a bd f5 8f 70 be a1 58 52 be
       0.2191918 -0.033915818 -0.23492415 -0.20541622
0003e0 4a d2 a2 bb d6 b7 c1 3d bb 1a ae 3e 62 3d c9 bd
       -0.004968916 0.09458892 0.3400477 -0.09826161
0003f0 f2 c8 f6 3d 52 b5 19 bc 31 1a 43 bd d9 24 16 3e
       0.12050046 -0.009381609 -0.0476324 0.14662494

layers.2.bias f4 [256]
000000 ef 8a b6 3d 5f 5e d2 bc ec f2 bf bc 1c 26 bd bc
       0.08913218 -0.025679765 -0.023431264 -0.023089461
000010 0d 36 b2 bc c4 2b 88 bc 11 64 4d 3b 2e b5 20 bc
       -0.021754289 -0.016622432 0.0031340162 -0.009808822
000020 34 cb 39 3c b9 dd 86 bc 9f 4d 99 3c 76 4d aa bc
       0.011339951 -0.016463147 0.01871377 -0.02078889
000030 b4 95 97 3c 61 c6 65 3c 76 da 28 3c bf db 81 3c
       0.018504001 0.014024348 0.010305991 0.015851853
000040 c0 7f 84 3c cb 18 42 3d a5 b2 a5 bc 93 f5 80 bc
       0.016174197 0.047386926 -0.020226786 -0.015742099
000050 ce f4 29 b9 41 56 0c 3d af f0 57 bc a1 05 86 bc
       -0.00016208293 0.034261946 -0.013179942 -0.016360106
000060 b7 84 7e bc f1 ea c5 3c db 50 6b bc cb 27 87 bc
       -0.015534571 0.02415988 -0.014362539 -0.016498467
000070 44 cd 82 3c 6e 9b c3 bc 13 d4 85 bc 3c 97 64 3c
       0.015967019 -0.023877826 -0.016336476 0.013952073
000080 b7 d7 d2 bb ce 73 7a 3c 82 04 9e 3c e6 f9 fa bc
       -0.0064344066 0.015286399 0.019289259 -0.030636739
000090 12 67 83 3c e7 21 66 bc 19 83 b6 bc 2d 6f 80 bc
       0.016040359 -0.014046169 -0.02227931 -0.015678013
0000a0 2e 3c b1 3c 56 7c 69 bc 7e fe 81 bc c5 22 85 bc
       0.021635141 -0.014250835 -0.015868422 -0.016251931
0000b0 14 ed a6 bb 67 58 d5 bc a6 b9 52 3c f1 7a 1d 3c
       -0.00509418 -0.02604313 0.012861645 0.009611831
0000c0 38 44 9e bc de 59 87 3c ad 14 37 3c 01 43 d4 bc
       -0.019319639 0.016522344 0.011174363 -0.025910856
0000d0 ee 00 cc bc 95 b5 ff bb 37 a5 92 3a 96 33 7c 3b
       -0.024902787 -0.0078036287 0.0011188154 0.0038482896
0000e0 27 3a 01 bd 7c 2c b5 bc 1b e0 73 3c 28 93 aa bc
       -0.0315496 -0.022115938 0.014884974 -0.020822123
0000f0 b8 89 8d bc 6b c9 fa 3b 2c a4 ba 3c 9e 18 a2 bc
       -0.017277583 0.0076534054 0.022783361 -0.019787129
000100 12 2a 10 bd 4b 2d 46 3c ff ea 9c bc 1a d7 45 3c
       -0.03519637 0.01209576 -0.019155024 0.01207521
000110 0f e2 0f 3b 2e 1b 96 bc 1d 82 73 3c f8 54 44 3c
       0.002195481 -0.018323507 0.014862564 0.011983149
000120 29 3b c9 3c f3 e1 6c 3c 14 19 32 bb 0d 5d 80 3c
       0.024564343 0.014458167 -0.0027175592 0.01566937
000130 8f b4 86 3c 08 52 12 3c d1 4e 6f 3c 3c 1b 80 bc
       0.016443519 0.008930691 0.014606194 -0.015637986
000140 1e 0e 78 bc 5e 93 05 bd 7b 07 55 3c 9f 06 b4 bc
       -0.015140085 -0.032611243 0.013002272 -0.021975813
000150 bd 6c 5a 3c fa 9e da bc 7b 24 c3 bc 64 b2 93 bc
       0.013331589 -0.026687134 -0.023821106 -0.0180294
000160 48 d4 59 3c cb a1 4e 3c 4c d2 5e bc 58 48 b2 bc
       0.013295241 0.012611817 -0.013599943 -0.021763012
000170 77 e1 9b 3c 2b 03 3e 3c c2 ab 7d bc ef 04 00 bd
       0.019028408 0.011597435 -0.015482845 -0.031254705
000180 d6 eb 82 bc db d6 e3 bc 90 36 21 3c c0 1c d0 bc
       -0.015981596 -0.027812412 0.009839669 -0.025404334
000190 c9 82 77 bc 08 37 e3 bc dd 25 7c bc b6 4f 8d 3c
       -0.015106865 -0.027736202 -0.015389887 0.017249923
0001a0 a9 77 b5 bc 52 51 c1 3b fa c9 70 bc b7 51 8b 3c
       -0.022151785 0.0058995867 -0.014696592 0.017006738
0001b0 22 8a b3 3a c0 64 72 3c bf 4d 77 3c 91 d4 b4 bc
       0.0013697783 0.0147945285 0.01509422 -0.022074016
0001c0 bd bd 32 bc 95 44 7f 3c fd 30 c1 bc da e6 78 bc
       -0.010909495 0.015580316 -0.02358293 -0.015191758
0001d0 d7 0f 33 3c 12 e7 86 bc 91 3c a1 bc 9a f8 67 3c
       0.0109290695 -0.016467605 -0.0196822 0.014158392
0001e0 da 6e 7f 39 94 2d 0a bd c1 fe 3d 3c fe 4e 7b 3c
       0.0002435999 -0.033734873 0.011596383 0.015338657
0001f0 1a df db 3b 6a 17 91 3c fe 7b 76 3c 89 39 27 bc
       0.0067099454 0.01771136 0.0150442105 -0.010206589
000200 f0 b4 03 3c fc 57 11 3c f5 76 4b 3c 73 79 6b bc
       0.008038744 0.008871075 0.012418498 -0.0143722175
000210 11 b0 ae bb a3 e0 1a bb 6d 8c 78 3c 10 72 53 3c
       -0.0053310473 -0.002363243 0.015170199 0.012905613
000220 36 b6 cb bc ed 53 ba 3c 10 71 cf 3b 9c 84 12 bd
       -0.024867158 0.022745097 0.006330617 -0.035770997
000230 f9 94 4c 3c 0c 50 04 bb d9 0b 68 3c e4 ab 9a bc
       0.01248669 -0.0020189313 0.014162981 -0.018880792
000240 98 a0 4c 3c 3f 73 83 bc dd b8 6c bc 29 0e 27 bc
       0.01248946 -0.016046165 -0.014448372 -0.010196247
000250 73 9f 00 3c 62 68 b5 bb d8 da 90 3b 30 c3 3d 3c
       0.007850516 -0.005536125 0.0044206195 0.011582181
000260 f5 a1 a7 3c f8 37 a8 bc 82 a9 11 bc 6a e6 81 3c
       0.02046297 -0.0205345 -0.0088905115 0.01585694
000270 3f 6f a1 bc 05 4e aa 3c 77 ce 84 bc 6f a5 4d 3c
       -0.019706367 0.020789156 -0.016211731 0.0125516495
000280 c5 91 84 bc c3 c7 60 bc 73 f3 4d 39 8c a4 d0 3c
       -0.01618279 -0.013719502 0.00019641015 0.025469087
000290 4d 5f 70 bc 63 5d 15 bc 95 39 b7 bc 5a b3 e8 bc
       -0.014671159 -0.009116503 -0.022366324 -0.028405834
0002a0 ff 9d 46 3c 97 2b 8e bc 28 de 91 bc 81 83 73 bc
       0.01212263 -0.01735477 -0.017806128 -0.014862896
0002b0 56 91 55 bc 51 86 25 bd 10 4a 06 bd f5 7f 25 3c
       -0.013035139 -0.040411297 -0.032785475 0.010101308
0002c0 54 62 86 bc b3 17 29 bb 6a 85 4b bc e0 d0 eb bb
       -0.016404308 -0.002580148 -0.012421945 -0.0071965307
0002d0 db 1a 30 3c 6b 55 08 bc b5 b5 7a 3c 09 e3 3e 3c
       0.01074859 -0.0083211465 0.015302111 0.011650809
0002e0 e8 f5 dc bc 7a 05 30 3c 0d 09 58 b9 b0 5e 17 bd
       -0.026972726 0.010743493 -0.00020602737 -0.036955535
0002f0 2f 16 fc 39 40 de 60 3c 98 6a 9b 3c 74 c3 99 bc
       0.00048081714 0.0137248635 0.018971726 -0.018769957
000300 51 3d 92 bc 04 ec 57 bc 49 27 6a 3c 9b d5 b7 bc
       -0.017851504 -0.013178829 0.014291593 -0.022440722
000310 cb 1b 42 3c 36 c0 3a 3c 19 54 08 bd d3 2b 00 bc
       0.011847447 0.011398366 -0.033283327 -0.0078229485
000320 d1 8a 8e bc 9a 86 ae bc 5e a1 99 bc d2 2a a4 bd
       -0.017400177 -0.021304417 -0.018753704 -0.0801598
000330 73 47 4f 3c b6 4a 47 bc fc 36 fc bb 78 2d fd 3b
       0.012651312 -0.012163809 -0.0076969843 0.0077263676
000340 76 9a 02 bd c4 44 81 bc 24 b6 9d 3c 05 36 96 3c
       -0.031885587 -0.01577986 0.01925189 0.018336305
000350 90 d6 6c 3c eb a0 f6 bc e3 3d 02 3c 48 41 b0 bc
       0.014455453 -0.030106029 0.007949325 -0.021515504
000360 46 41 8b 3c ac 6b c4 bc 23 e3 0b 3c 8a 26 22 3d
       0.016998898 -0.023977123 0.00853804 0.039587535
000370 14 45 6f bc 08 6e a0 3c 19 cf d4 bc 2a fb 84 3c
       -0.014603872 0.019583717 -0.025977658 0.016233046
000380 49 a8 80 bc 91 1e 64 bc 4d 8f 69 3c b3 ac d0 bc
       -0.015705245 -0.013923303 0.014255357 -0.025472974
000390 bb c8 ba 3c 30 72 94 bc b3 14 99 3c a9 c4 d7 3c
       0.022800794 -0.018120855 0.018686628 0.026338892
0003a0 1a 95 4f 3c 44 ef 77 3c c4 8c 4b 3d 42 10 07 bc
       0.012669826 0.015132729 0.04969479 -0.008243622
0003b0 44 6a 82 bc c2 0c 8f 3c aa ca 11 bc da 7c 8a bc
       -0.015919812 0.017462138 -0.0088984165 -0.016905237
0003c0 42 2a 12 3c 6f dd 8b 3c 0d 95 a0 bc 4c 5b e3 bd
       0.008921208 0.017073361 -0.019602323 -0.11101398
0003d0 2b 71 b2 3c 36 dd 5c 3c ad dd 05 bd 7a 42 9b bb
       0.021782478 0.013480475 -0.03268211 -0.0047381492
0003e0 6f cd 8a 3c 02 2f 65 3c 76 7c 45 bd 4b b3 c9 bc
       0.016943661 0.013988258 -0.0482144 -0.024621626
0003f0 e1 6b 7a bc b2 30 57 3c 93 2f 3f 3c d2 b9 58 bc
       -0.015284509 0.013134168 0.011669057 -0.013227897

layers.4.weight f4 [2, 256]
000000 75 48 86 3d 62 24 a4 bb 39 44 7b bc b3 71 8e bc
       0.06556789 -0.00500922 -0.01533609 -0.0173882
000010 63 36 07 be c2 3d 0e bd a9 da 6a 3d a4 0d ac bc
       -0.1320434 -0.034726866 0.057337437 -0.021002598
000020 76 fd ef 3c c2 d3 00 be ea f2 9a 3d 6c 21 00 bd
       0.029295664 -0.12580779 0.075658634 -0.031281874
000030 af 36 04 3d ad 6c 21 be e7 4a e1 3d 7b 52 ef 3d
       0.032278713 -0.15764113 0.110006146 0.11685654
000040 08 b9 a7 3d b2 cf 4b 3e 4b a5 eb bd 96 db 07 be
       0.08189589 0.19903448 -0.115061365 -0.13267359
000050 33 8e 5a 3c 4d 7b 96 3d 8c 85 0a bd 83 d0 8c bd
       0.013339567 0.073477365 -0.033818766 -0.06875708
000060 a0 b4 d2 bc a1 5c 8e 3d de 3b 3b bd 3b b9 c8 bd
       -0.025720894 0.06951261 -0.04571139 -0.09800955
000070 0a 90 49 3d 01 28 c1 bd 39 19 a6 bd ff 2e 0a 3e
       0.049209632 -0.09431458 -0.081102796 0.1349449
000080 23 6c c4 bd 66 23 d9 3d 0f 23 36 3d 5c e3 a4 bd
       -0.09590938 0.10602455 0.04446703 -0.08051178
000090 d1 e2 fb 39 a6 85 81 bd b7 53 d4 bd d9 9b ab bc
       0.00048043442 -0.063243195 -0.1036753 -0.020948337
0000a0 1d ac f1 bd b4 62 3b bd 2e 4f 11 be 9b eb 0d be
       -0.11800406 -0.045748428 -0.14190361 -0.13859408
0000b0 7f 3f 3e 3c e8 37 07 be 17 bf 65 3d 61 26 9b 3d
       0.011611818 -0.1320492 0.05609044 0.075756796
0000c0 ab 3c a2 bd ed d3 10 3d 8c 36 27 3c e0 b5 09 be
       -0.07921728 0.03535836 0.010205876 -0.13448286
0000d0 44 06 cb bd a1 be 05 bd 81 0e 55 3c 40 41 cd 3b
       -0.099133044 -0.0326525 0.013003946 0.006263882
0000e0 18 8d 62 bd ce 5d 78 bd 68 c9 d6 3d ab f9 3a bd
       -0.05531034 -0.060636334 0.10487634 -0.04564826
0000f0 8f 36 5d bd bf df 13 3d ee e4 35 3c 59 8e 0c bd
       -0.05400711 0.036102053 0.011101944 -0.03431544
000100 f1 13 5e 3b 6b 9f 0a 3e 78 d1 9d bd fa b7 04 3e
       0.0033886398 0.13537376 -0.077059686 0.12960806
000110 d0 5a c1 3b af bb cb bd 54 e9 c3 3d d6 35 87 3d
       0.0059007183 -0.09947907 0.09565988 0.06602065
000120 9b 4c 9d 3c ca 8a ad 3d b7 45 86 bb 92 5a cc 3d
       0.019201567 0.084737375 -0.004097666 0.099782124
000130 10 71 ae 3d d3 a6 86 3d 3d 06 94 3d 90 26 b6 bc
       0.08517659 0.06574788 0.07227752 -0.022235185
000140 0d 6b c0 bd 63 e1 95 bc 5c a6 d7 3d 0c b6 4f bd
       -0.09395418 -0.01829595 0.105297774 -0.050710723
000150 a8 e5 0a 3e a0 f9 c9 3d 4a d0 e9 bd 21 34 87 bc
       0.1356417 0.09862065 -0.11416681 -0.01650435
000160 be 36 6a 3d c8 1c 81 3d 05 7c 4c bd 7c 22 94 bd
       0.057181112 0.06304318 -0.04992296 -0.0723314
000170 fb 95 de 3c 72 30 1b 3d c3 86 14 be 7e b1 e5 bd
       0.027171126 0.037887998 -0.14504533 -0.112154946
000180 b7 c8 df bd 9e a6 a1 bc 40 7a 7a 3d ef c3 87 3b
       -0.10926955 -0.01973277 0.061151743 0.00414323
000190 53 13 bd bd 2a a4 c8 bd 78 82 08 be d1 61 ba 3d
       -0.092322014 -0.09796937 -0.1333102 0.09100688
0001a0 2d 20 c0 bc 2b 04 81 bd e8 bb e9 bd 61 ce 38 3d
       -0.023452843 -0.06299623 -0.114127934 0.045118693
0001b0 af 85 02 3e ce c3 85 3c 4b 4c 41 3c da d0 83 bd
       0.12746309 0.016328719 0.011797975 -0.0643632
0001c0 5e a6 f5 bd 6a 79 51 3d e1 dc c7 bc b8 db 2c bd
       -0.11994623 0.05114118 -0.024397315 -0.042201728
0001d0 1d 8c 0f 3e 86 34 ff bc b6 54 05 be 59 df cf 3d
       0.14018293 -0.031152975 -0.13020596 0.10150022
0001e0 0a b3 e2 3c c2 8b d3 bd bb f8 3b 3b bd 2b 01 3e
       0.027673263 -0.10329391 0.002868219 0.12614341
0001f0 e7 63 c0 3d c3 62 31 3d 4c 80 40 3d 0c c3 c9 bc
       0.09394055 0.043307077 0.046997353 -0.024629138
000200 c1 64 0e 3e 39 6b 8a 3d 43 01 18 3c 6e 6f 03 be
       0.13905622 0.06758732 0.009277645 -0.12835476
000210 9f ea c8 bc 9d 51 cf ba 9d 59 8d bd bf 7a 76 3d
       -0.024525939 -0.0015817169 -0.06901858 0.060175654
000220 b4 e8 e9 bd 8f 63 53 3d d9 9f 5f 3d 67 3d e1 3b
       -0.11421338 0.05160862 0.054595802 0.006873775
000230 8e e4 1c 3d 45 7b b2 3d 18 46 53 3d 54 49 ca bd
       0.038303904 0.08714918 0.05158052 -0.098772675
000240 66 04 14 3e af 35 85 bd 07 4a e1 bc cb b5 35 bd
       0.14454803 -0.0650438 -0.02750112 -0.044362824
000250 73 d5 55 3b bc 7f 30 bc 1d b4 0b 3e 46 85 cd 3d
       0.0032628446 -0.010772642 0.13642927 0.100351855
000260 6a 1c 82 3d 9b 55 b0 bc cd 2b fe bd 6d 24 0d 3e
       0.06353076 -0.021525195 -0.12410698 0.13783427
000270 ce 92 ee bd 7a 4e e5 3d 72 eb 06 be 7d 94 22 3d
       -0.116490945 0.11196609 -0.13175753 0.03969239
000280 00 d0 9d 3d 5b 71 f9 bd a1 eb 12 be aa 03 aa 3c
       0.077056885 -0.12179824 -0.14347698 0.0207537
000290 c6 5e cb bd fb ab cc bd 45 20 c2 bd 3e 7d 9e bc
       -0.09930186 -0.0999374 -0.09478811 -0.01934683
0002a0 fa 0e 96 3d ae d2 f8 bd ed c5 e9 bd 8d d3 1f 3c
       0.07327075 -0.12149559 -0.114147045 0.0097550275
0002b0 ab ad 41 bd 7e 7a 04 bc 02 ca 2a 3c c0 9f 7e 3d
       -0.047284763 -0.008085845 0.010424139 0.06216407
0002c0 e2 a7 b7 bd cd 79 02 3c 76 48 d9 bd c8 5a ee bd
       -0.08967568 0.00796361 -0.10609524 -0.11638409
0002d0 1a 8b 06 3e d1 2a 64 bc e1 1d 63 3d ca 40 b7 3d
       0.13139 -0.013926224 0.055448417 0.089479044
0002e0 58 1f 03 be c5 7c 40 3d 68 b7 0f 3e 85 b9 d0 bb
       -0.12804925 0.04699399 0.14034808 -0.006369772
0002f0 86 71 ef 3d 8c 51 09 3e c3 05 fb 3d 0a 9f ab bd
       0.11691575 0.13410014 0.12256958 -0.08379944
000300 52 df ac bc 6d ef 84 bd f7 04 fe 3c f2 33 35 3c
       -0.021102581 -0.06490979 0.031008227 0.011059748
000310 01 00 5c 3c 21 7c 6c 3d 61 82 9c bc 9c f4 10 be
       0.013427735 0.057735566 -0.019105138 -0.14155811
000320 81 33 1f bd 71 2a 5e bc 7e 7e b9 bd dd 35 2e 3b
       -0.038867477 -0.0135599235 -0.090573296 0.0026582398
000330 51 aa 67 3d 0f f6 47 bd 26 bd ab bc 0e 1b 4e 3d
       0.05655891 -0.048818644 -0.020964216 0.05031877
000340 03 e2 45 bd 3c 35 e2 bd 59 70 26 3d 95 f7 71 3c
       -0.048311245 -0.1104531 0.040634487 0.014768501
000350 ef 61 17 3e b7 07 06 be e1 65 a0 3d 78 40 52 bd
       0.14783452 -0.1308888 0.07831932 -0.051331013
000360 4c d3 fc 3d d2 44 d7 bd b7 e4 45 3d a4 b3 ac 3c
       0.12344989 -0.10511173 0.048313823 0.021081753
000370 25 a0 48 3c 8b a1 69 3c d0 d4 dd bd ac 63 76 3d
       0.012245213 0.014259706 -0.108316064 0.06015365
000380 8e 7d d6 bd 23 1b cd bd fe d5 88 3d 08 b0 99 bd
       -0.104731664 -0.100149415 0.06681441 -0.075042784
000390 c7 93 a2 3c 3c bf df bd eb 05 a0 3d 74 e7 18 be
       0.019845856 -0.10925147 0.07813629 -0.14932042
0003a0 f0 63 cf 3d 11 5c df 3c 3e 07 89 bd c2 d2 e2 3b
       0.101264834 0.02726558 -0.066908345 0.006922097
0003b0 e7 6f 47 bd 76 65 0c 3d d7 46 07 ba 5a d6 d7 bd
       -0.048690703 0.03427645 -0.0005160397 -0.10538931
0003c0 0a 85 24 3d e5 ed 99 3d e0 85 c3 bd 06 6b 34 3b
       0.04016594 0.07516078 -0.09547019 0.0027529611
0003d0 88 28 f6 3d ff 7e 8f 3d f9 de 18 3c a6 9a 5c bd
       0.120194495 0.070066445 0.009330505 -0.05385842
0003e0 51 6f 7b 3d 5f 0f a0 3d f8 ba dc 3b 6c f5 cd bd
       0.061385456 0.07815432 0.0067361556 -0.10056576
0003f0 f5 12 ea bc c1 a1 72 3d 31 81 ac 3c b9 86 ae bd
       -0.028573493 0.05923629 0.021057697 -0.0852179

layers.4.bias f4 [2]
000000 d1 3b a5 3c 2b 9b 0a bd
       0.020170124 -0.033839386
