Results_dir/2022-03-16-17-14-53/critic.pth (torch, 536911 bytes, 7 tensors)

layers.0.weight f4 [256, 6]
0.14039722 0.28080416 0.31951973 -0.0071027605 0.04630229 0.06174187 0.041082807 0.020956729
0.0030658948 0.00045311506 0.016740857 -0.037568666 -0.33522227 0.2093348 0.017121237 0.23108138
-0.11764145 0.036035225 0.5339012 -0.15611288 0.5719632 -0.010363517 0.102759324 0.17427103
0.12513106 0.49351534 0.432661 -0.0022528996 -0.007844992 0.014096505 0.22268799 -0.3248779
0.53052753 0.019907251 0.04005389 -0.06804851 0.14941864 -0.3824344 0.5924432 0.026791627
0.029662851 0.25872785 -0.05184397 0.13160785 0.14111876 0.19897224 -0.13770823 -0.11697635
0.3996831 0.14401649 -0.2803639 -0.04168921 -0.09741545 -0.5458625 0.01792018 -0.24529842
-0.075411096 0.019938258 0.02270061 -0.15967192 0.37456912 -0.12051519 -0.03265842 -0.023453105
-0.012788732 0.301781 -0.23488036 -0.1900467 -0.27902016 0.006963844 0.015181206 -0.3577098
0.35968202 0.030808387 0.8604976 0.0072370097 0.09381669 0.045916907 -0.3671264 0.3880666
0.29126796 0.012022301 -0.07106555 -0.056190606 0.3236353 -0.6252837 -0.27057618 -0.09399066
0.13958216 0.52095705 -0.014876273 -0.07139337 -0.24548712 0.18491507 0.047255196 -0.14131299
0.009309123 -0.39645576 0.488327 0.049209833 0.012833367 0.12887497 0.045749106 -0.04971615
-0.030490883 -6.608981e-05 -0.0029059623 0.015549147 -0.01554556 0.0061750575 0.008053127 0.009264387
0.0030498675 0.008208148 0.3478283 0.58510536 0.4459311 -0.03758411 -0.115798146 -0.031389657
-0.15334854 0.34064838 0.30086505 0.0031295393 -0.009987265 -0.04921832 0.6278594 -0.06924438
-0.22240576 -0.055264033 -0.07017009 -0.13446543 -0.8286079 -0.33295974 0.23965627 -0.8634475
0.2573757 0.28606242 -0.28847975 0.32132292 0.34326908 0.012673048 -0.04550764 0.2913164
-0.35675043 -0.09926756 -0.066313304 0.009866117 0.0029298065 -0.022061082 -0.32034993 -0.35559234
0.27611673 0.06450477 -0.04938397 0.0125611415 0.11500247 0.18302236 0.20890817 0.0026373966
0.0122139985 0.11582956 0.043956157 -0.05402549 -0.048893787 0.009991191 -0.017533148 -0.1800773
-0.7581397 -0.16655006 -0.07716796 0.046935875 -0.013031185 -0.12237886 -0.0404938 -0.122515075
0.5709612 0.027643371 0.027898831 0.08017131 0.48075992 0.37651947 -0.107885055 -0.10955051
-0.15758267 -0.14816101 -0.37675738 -0.10351291 -0.06612056 0.017637914 0.0073344447 -0.001940839
-0.3629313 0.19712926 0.11301175 0.1902325 0.0018838978 -0.027484482 0.41616684 0.081424855
0.0780216 -0.024700336 0.0005436656 0.08142497 0.277754 0.4281593 -0.7083596 0.02956618
-0.048191078 -0.13978195 0.24297476 0.23238456 0.18749173 -0.015826406 0.034857765 -0.1450628
0.007748011 0.461624 -0.91887045 0.08066437 -0.020257462 -0.098109126 -0.0055355714 0.01930484
0.018995091 -0.007800954 0.0027206223 6.0145154e-05 -0.3214046 -0.32454565 -0.08661898 0.14686319
-0.046090625 -0.16994476 -0.28872266 0.5620648 0.5974811 0.015966196 -0.091610946 0.3387255
-0.03086794 -0.013999204 -0.01636626 0.015076113 0.02220909 0.005182838 0.2995937 -0.45347735
1.2355933 0.05704006 0.06059245 -0.2687482 0.39203075 -0.372709 -0.3111266 -0.02975713
00000000: 4ac4 0f3e 90c5 8f3e 1798 a33e 46be e8bb
00000010: 78a7 3d3d 0be5 7c3d 7246 283d 72ad ab3c
00000020: 2eed 483b 1390 ed39 1f24 893c 9ae1 19bd
00000030: 41a2 abbe dd5b 563e d641 8c3c 99a0 6c3e
00000040: 00ee f0bd ac99 133d c0ad 083f 0edc 1fbe
00000050: 2e6c 123f becb 29bc 7b73 d23d 1b74 323e
00000060: 5b22 003e 0bae fc3e be85 dd3e 62a5 13bb
00000070: 4888 00bc 07f5 663c 5208 643e 6556 a6be
00000080: a7d0 073f 8814 a33c 8c0f 243d 045d 8bbd
00000090: 3301 193e 71ce c3be 5caa 173f 1d7a db3c
000000a0: 82ff f23c fa77 843e 585a 54bd 35c4 063e
000000b0: 7081 103e 61bf 4b3e 6303 0dbe 4c91 efbd
000000c0: 43a3 cc3e 0f79 133e db8b 8fbe 4ec2 2abd
000000d0: c081 c7bd a5bd 0bbf 57cd 923c 822f 7bbe
000000e0: 2271 9abd 8f55 a33c a1f6 b93c 0981 23be
000000f0: 86c7 bf3e abd0 f6bd d6c4 05bd ba20 c0bc
00000100: d487 51bc 0a83 9a3e 7a84 70be 9a9b 42be
00000110: bbdb 8ebe f530 e43b 98ba 783c bd25 b7be
00000120: 3e28 b83e df61 fc3c 9249 5c3f 7024 ed3b
00000130: f722 c03d 5e13 3c3d fef7 bbbe aab0 c63e
00000140: 1321 953e 2ff9 443c d18a 91bd 1f28 66bd
00000150: 87b3 a53e 9812 20bf f688 8abe 2d7e c0bd
00000160: a0ee 0e3e 715d 053f 9dbb 73bc b036 92bd
00000170: fa60 7bbe 605a 3d3e aa8e 413d 5ab4 10be
00000180: 4b85 183c 40fc cabe ff05 fa3e 4090 493d
00000190: 0b43 523c cdf7 033e 6a63 3b3d 29a3 4bbd
000001a0: 04c8 f9bc b299 8ab8 f571 3ebb d9c1 7e3c
000001b0: ceb2 7ebc 2358 ca3b 43f1 033c a8c9 173c
000001c0: 49e0 473b 787b 063c 8d16 b23e 77c9 153f
000001d0: 1551 e43e ccf1 19bd 9427 edbd 7192 00bd
000001e0: 6607 1dbe 7769 ae3e fc0a 9a3e f518 4d3b
000001f0: a0a1 23bc 2699 49bd 65bb 203f ffcf 8dbd
00000200: 56be 63be 8a5c 62bd 56b5 8fbd 4eb1 09be
00000210: a61f 54bf b379 aabe 7468 753e e50a 5dbf
00000220: bfc6 833e c676 923e 9eb3 93be 7084 a43e
00000230: f7c0 af3e 9ea2 4f3c 3866 3abd 6c27 953e
00000240: fea7 b6be ca4c cbbd 45cf 87bd 7ea5 213c
00000250: ff01 403b 71b9 b4bc e804 a4be 3310 b6be
00000260: 2c5f 8d3e 141b 843d d946 4abd 3fcd 4d3c
00000270: 6a86 eb3d 376a 3b3e 06ec 553e 2cd8 2c3b
00000280: 391d 483c 0c38 ed3d 5f0b 343d d549 5dbd
00000290: da44 48bd 18b2 233c ada1 8fbc 2f66 38be
000002a0: 7215 42bf 198c 2abe 3c0a 9ebd d53f 403d
000002b0: c080 55bc c5a1 fabd d4dc 25bd 2fe9 fabd
000002c0: 832a 123f 5a74 e23c 178c e43c db30 a43d
000002d0: 2a26 f63e 29c7 c03e d7f2 dcbd 055c e0bd
000002e0: 5a5d 21be 85b7 17be 58e6 c0be 94fe d3bd
000002f0: 376a 87bd 637d 903c c855 f03b c063 feba
00000300: 22d2 b9be 41dc 493e b472 e73d 4fcc 423e
00000310: 1fed f63a 2327 e1bc d213 d53e 13c2 a63d
00000320: cac9 9f3d 5c58 cabc c884 0e3a 22c2 a63d
00000330: c635 8e3e b237 db3e 0e57 35bf c634 f23c
00000340: 0264 45bd 0023 0fbe 60ce 783e 38f6 6d3e
00000350: d5fd 3f3e 61a6 81bc 04c7 0e3d 588b 14be
00000360: 07e3 fd3b fb59 ec3e 183b 6bbf 5c33 a53d
00000370: faf2 a5bc 70ed c8bd bd63 b5bb 2f25 9e3c
00000380: 989b 9b3c 259f ffbb 784c 323b 5e44 7c38
00000390: 258f a4be d92a a6be 4b65 b1bd 4e63 163e
000003a0: 86c9 3cbd 0006 2ebe 75d3 93be 7be3 0f3f
000003b0: 85f4 183f 8acb 823c 859e bbbd 6e6d ad3e
000003c0: c3de fcbc eb5c 65bc 8912 86bc cd01 773c
000003d0: d6ef b53c ccd4 a93b 5864 993e 2f2e e8be
000003e0: ec27 9e3f d7a2 693d ca2f 783d 5d99 89be
000003f0: 41b8 c83e b7d3 bebe fc4b 9fbe 3ac5 f3bc

layers.0.bias f4 [256]
-0.01316079 -0.0137037365 0.02529863 -0.02250958 -0.0059250314 0.021472111 0.06250739 0.0608515
-0.011389716 0.048813958 -0.06337776 0.009837131 0.010299553 0.07887415 0.023388658 0.04895742
0.01483593 -0.0016448777 -0.011950234 0.027936604 -0.021108204 -0.034687728 -0.04196686 -0.009947864
0.07929037 -0.00709282 -0.04405816 -0.024259359 0.08652361 0.048718005 -0.016120777 0.012621571
0.018261565 -0.020106554 -0.034146633 -0.020069534 -0.09220011 -0.0007555619 0.017797876 0.015213231
-0.0043347715 -0.03934574 -0.01846924 0.007480151 0.036503404 0.0018341523 0.046144847 0.03442444
-0.033082258 0.022555297 -0.0007419398 -0.0100161815 -0.04604874 0.0662272 0.009243055 0.08704443
0.051439542 0.012152759 -0.06649838 0.019858174 -0.042490333 0.026675574 -0.013124487 0.018738758
0.076343894 -0.016633864 -0.0138817355 0.023451246 -0.0139209265 0.06788385 -0.08689479 0.01945804
0.034391243 0.0039043245 0.10551522 0.00012015344 0.045183796 0.021571653 -0.04825172 0.06819338
0.030095084 0.10368662 -0.037156347 0.07869845 0.074757084 0.013597648 0.06975831 -0.005425309
-0.11908625 -0.15228319 0.019697657 -0.031100895 -0.038708173 -0.00010886217 0.10445023 0.09510534
0.085683875 -0.056856092 -0.04407497 -0.006393658 0.011736229 -0.015991129 -0.010802143 0.00021448248
0.010026903 0.050414808 -0.02828858 -0.06896419 -0.017622754 0.002669094 0.06981367 0.095506
-0.023488639 0.05959477 -0.06400282 0.032057334 -0.03019107 -0.013555239 0.04210732 -0.0138308145
-0.02306769 0.035520047 0.018814385 -0.040259026 0.008741176 0.02276498 -0.032457493 -0.003715174
-0.025269067 -0.01977573 0.025556136 -0.009171545 0.08123122 0.01748842 0.047544837 0.041431926
0.028053064 0.024614584 0.011517075 -0.0012098792 -0.04738189 -0.022394821 0.046762317 0.047702044
0.006205947 -0.008527749 -0.15005566 0.009681781 -0.022126 0.015879933 -0.06545257 0.0012715558
0.06047383 0.05176312 -0.021079503 0.069421016 0.0013888219 0.01608485 0.058451727 -0.03486005
-0.055127796 -0.0025726943 -0.020337844 0.020794306 0.01855227 0.037897974 -0.08287759 -0.056445785
0.035491906 0.0129062915 0.06949675 -0.11103767 0.06540437 -0.06433196 -0.1951562 -0.0017712532
0.0060244044 0.02117182 -0.0021344377 -0.06606187 -0.0040369965 0.04733926 0.057338987 -0.018860789
0.018993655 0.025797198 -0.037713353 -0.01069229 -0.0076281438 0.029390577 0.051189285 0.10476139
-0.0064417836 0.042674497 -0.027783327 0.047666762 0.022519885 -0.015946088 -0.0033918272 0.01169652
0.03493089 -0.037471477 -0.0132652605 0.016761709 -0.00369554 -0.034608733 -0.013267462 0.05245015
-0.03975464 0.04883892 0.04656316 0.08329263 -0.051863406 -0.0500665 0.032943826 -0.039219342
-0.04600226 -0.027330227 0.04386835 -0.056505486 0.04287473 0.025189571 -0.014248276 -0.042045936
0.025443414 -0.020698003 -0.011772351 -0.007869373 -0.011221785 -0.028608525 0.030489432 0.0029069812
0.011635186 0.00021169022 0.021978445 0.039054215 0.008551415 0.017421804 -0.043117553 -0.10814649
0.07508051 0.07008995 0.0025267822 -0.0046278094 0.02304444 0.015228966 0.045225296 0.010045663
-0.010776508 0.0067465524 0.036496524 0.007108657 -0.0037491366 0.023344202 0.017316384 -0.24411982
00000000: 5ba0 57bc a385 60bc 133f cf3c 0366 b8bc
00000010: c426 c2bb 48e6 af3c e003 803d 6c3f 793d
00000020: ee9b 3abc 25f1 473d 33cc 81bd eb2b 213c
00000030: 75bf 283c c588 a13d 9299 bf3c 9387 483d
00000040: 6712 733c f098 d7ba eaca 43bc 4edb e43c
00000050: 1deb acbc b814 0ebd 71e5 2bbd 5efc 22bc
00000060: fd62 a23d e36a e8bb 5476 34bd 90bb c6bc
00000070: 4a33 b13d 888c 473d b80f 84bc b5ca 4e3c
00000080: 4799 953c 80b6 a4bc 57dd 0bbd dd68 a4bc
00000090: 69d3 bcbd e710 46ba dacc 913c ea40 793c
000000a0: b30a 8ebb 0029 21bd ce4c 97bc 0e1c f53b
000000b0: 9884 153d f067 f03a 6102 3d3d a400 0d3d
000000c0: 4381 07bd e3c5 b83c bd7e 42ba e91a 24bc
000000d0: 9b9d 3cbd 20a2 873d 2f70 173c 5a44 b23d
000000e0: 45b2 523d 5e1c 473c 4d30 88bd 9cad a23c
000000f0: 580a 2ebd bc86 da3c 1708 57bc 0682 993c
00000100: 305a 9c3d be43 88bc 3870 63bc d41c c03c
00000110: 9914 64bc b006 8b3d e5f5 b1bd 7866 9f3c
00000120: d5dd 0c3d b2df 7f3b 5d18 d83d e3fa fb38
00000130: a512 393d 09b7 b03c 98a3 45bd f9a8 8b3d
00000140: f789 f63c a759 d43d 4131 18bd a72c a13d
00000150: 3e1a 993d abc8 5e3c 72dd 8e3d cac6 b1bb
00000160: 7ee3 f3bd 20f0 1bbe fb5c a13c 4ec7 febc
00000170: 768c 1ebd ef4c e4b8 01ea d53d 97c6 c23d
00000180: 077b af3d efe1 68bd f587 34bd e481 d1bb
00000190: 5049 403c d4ff 82bc 79fb 30bc b4e6 6039
000001a0: e147 243c c27f 4e3d 74bd e7bc 193d 8dbd
000001b0: 985d 90bc f7eb 2e3b 78fa 8e3d a698 c33d
000001c0: 3f6b c0bc a519 743d e913 83bd 8d4e 033d
000001d0: 4353 f7bc cb16 5ebc ba78 2c3d a49a 62bc
000001e0: 74f8 bcbc 787d 113d a020 9a3c a6e6 24bd
000001f0: 2637 0f3c a07d ba3c 26f2 04bd 477a 73bb
00000200: 1301 cfbc b600 a2bc 1a5b d13c 3f44 16bc
00000210: 8e5c a63d e043 8f3c 60be 423d 86b4 293d
00000220: 8acf e53c 86a4 c93c 1db2 3c3c cf94 9eba
00000230: 8313 42bd 5875 b7bc d889 3f3d 3863 433d
00000240: 425b cb3b f9b7 0bbc 31a8 19be 55a0 1e3c
00000250: 9641 b5bc a216 823c ff0b 86bd 55aa a63a
00000260: 68b3 773d 9105 543d ecae acbc 9b2c 8e3d
00000270: 2109 b63a 60c4 833c 146b 6f3d 69c9 0ebd
00000280: afcd 61bd a69a 28bb 8d9b a6bc d258 aa3c
00000290: eefa 973c e83a 1b3d babb a9bd b233 67bd
000002a0: f65f 113d e974 533c 5054 8e3d b867 e3bd
000002b0: baf2 853d 7ac0 83bd 07d7 47be 6529 e8ba
000002c0: 5e68 c53b 8670 ad3c ece1 0bbb 724b 87bd
000002d0: c848 84bb d0e6 413d 49dc 6a3d f181 9abc
000002e0: 9598 9b3c a554 d33c 5179 1abd b72e 2fbc
000002f0: 82f5 f9bb 82c4 f03c dbab 513d 248d d63d
00000300: 9915 d3bb 74cb 2e3d dc99 e3bc 393e 433d
00000310: 9f7b b83c 5fa1 82bc 6b49 5ebb c3a2 3f3c
00000320: b113 0f3d b17b 19bd 8956 59bc da4f 893c
00000330: df30 72bb e3c1 0dbd c55f 59bc f8d5 563d
00000340: c3d5 22bd 520b 483d 03b9 3e3d 5495 aa3d
00000350: b96e 54bd 8812 4dbd 1bf0 063d 76a4 20bd
00000360: de6c 3cbd a4e3 dfbc 4daf 333d 4c72 67bd
00000370: 6a9d 2f3d 5c5a ce3c 9a71 69bc 5c38 2cbd
00000380: b56e d03c dc8e a9bc d2e0 40bc 8bee 00bc
00000390: 94db 37bc 6d5c eabc f9c4 f93c 0d83 3e3b
000003a0: 82a1 3e3c 29f9 5d39 240c b43c 50f7 1f3d
000003b0: 3c1b 0c3c 2cb8 8e3c 089c 30bd e87b ddbd
000003c0: cfc3 993d 528b 8f3d 5f98 253b e1a4 97bb
000003d0: b2c7 bc3c ea82 793c 293e 393d 9196 243c
000003e0: f38f 30bc 2f12 dd3b 617d 153d bdef e83b
000003f0: 13b4 75bb 573c bf3c 17db 8d3c 8cfa 79be

layers.2.weight f4 [256, 256]
0.055511806 -0.01851235 -0.06765084 -0.013973945 0.06403234 -0.096426904 -0.023464661 0.027933009
0.08250283 0.044392843 -0.13552074 -0.09329876 -0.02563313 -0.00076381536 0.003553212 0.11401688
-0.042669673 -0.004261128 0.05419528 0.14665717 0.09109038 0.04432072 0.08027516 0.057824157
-0.0076575736 0.024827547 0.10693844 0.012821317 0.07483903 -0.074032456 -0.0053625586 -0.05699271
0.046264596 -0.0004261187 -0.1256836 -0.09509669 -0.026369339 -0.06003622 0.09284549 0.07023817
0.022141034 0.020721216 0.07334684 -0.009655568 0.027572716 -0.04347681 0.0056312415 -0.015897887
0.10274795 -0.090115614 0.055414192 -0.06342159 0.10875005 0.003664759 0.14173326 -0.0046397797
-0.014439253 0.025526918 0.12530777 0.04446372 0.11178734 0.08045493 0.07829304 -0.06635676
-0.045356296 0.0028908988 -0.08708714 -0.03701459 -0.02946579 -0.054715894 0.24293774 -0.011890478
0.04556929 0.06616619 0.05364023 0.05738395 -0.09596925 0.13279295 -0.100001544 -0.024247963
0.036813315 -0.075304024 0.08538146 0.062458772 -0.06574545 -0.10449824 0.023419747 -0.068356164
0.05666004 0.26429218 -0.04602684 -0.041392095 0.02127218 0.1554067 0.104111604 0.03442897
0.13911904 -0.03958162 -0.024757285 -0.0010003493 -0.016838305 -0.06270814 -0.07215087 0.024821626
0.07255893 0.024629226 0.026113039 0.21177445 0.068903185 -0.12317534 0.0918759 0.059359025
-0.062247265 -0.020573523 -0.042850386 -0.09156504 0.010737586 0.054709416 -0.16746286 0.12503651
0.05581038 -0.019378167 -0.068410836 -0.04497584 0.13900037 -0.0531489 0.077292785 0.08606986
0.022785014 0.080212966 -0.11075995 -0.0056488034 -0.17507613 -0.030535044 0.08610009 0.046925932
-0.05994189 -0.025714748 -0.13660873 0.005340028 -0.045632675 0.0890144 0.055967484 -0.06954803
0.015365848 -0.038257852 -0.06626364 -0.035898495 0.006609505 0.15447895 0.007981009 0.11754048
-0.07188146 0.034010883 0.16643159 -0.06447837 0.08431703 -0.06969329 0.057722397 0.09423473
0.06273437 0.09363479 -0.14952996 0.11092836 -0.008884606 -0.04982922 0.015267845 0.02308707
-0.02617428 -0.049222574 -0.08220027 0.11560993 -0.014610243 -0.014834637 -0.09006732 0.012881477
-0.054059297 -0.066517584 0.11582698 0.024454296 0.06942524 0.0959031 0.039942715 -0.07823881
0.022777317 -0.10495284 0.0019578815 -0.06465269 0.077266134 0.015130173 0.018427514 -0.03923758
-0.051327366 -0.055227045 -0.061964028 0.0020245814 0.0077823885 0.03292522 0.033806205 0.031421877
0.14660671 0.081132986 -0.025196549 -0.05174633 0.11027103 -0.060097516 -0.07119706 -0.046324395
-0.0007211238 -0.022503385 0.057303555 0.030220155 0.06176557 0.11104269 0.04590579 0.00565616
-0.02925015 -0.08718146 0.071599014 0.030707566 0.050083548 -0.022731073 -0.040885717 -0.044905443
0.017666053 0.06625346 -0.029191801 0.13809423 -0.05264235 -0.0089822775 -0.059088975 0.03283453
-0.06344143 0.13894734 -0.0681905 0.10254021 0.0011353673 -0.070550844 -0.06248479 0.08688355
-0.11382901 -0.03309024 -0.0065890974 -0.06430614 0.056890804 0.046255253 -0.07394444 -0.031747486
-0.0735052 0.059334237 0.053750265 -0.036792405 -0.034051985 0.08632827 -0.012051058 0.021927852
00000000: 5960 633d 36a7 97bc 868c 8abd f9f2 64bc
00000010: 6323 833d 787b c5bd f638 c0bc c4d3 e43c
00000020: 3ef7 a83d 45d5 353d f3c5 0abe 6c13 bfbd
00000030: 92fc d1bc c83a 48ba 01dd 683b af81 e93d
00000040: 65c6 2ebd efa0 8bbb dffb 5d3d 4c2d 163e
00000050: 988d ba3d a589 353d 4e67 a43d 06d9 6c3d
00000060: 62ec fabb 2463 cb3c 8a02 db3d 8010 523c
00000070: 3545 993d 549e 97bd 67b8 afbb 3071 69bd
00000080: f27f 3d3d af68 dfb9 34b3 00be 0ec2 c2bd
00000090: 8304 d8bc 8ae8 75bd c725 be3d 08d9 8f3d
000000a0: 1d61 b53c 8abf a93c de36 963d 6332 1ebc
000000b0: 2de0 e13c bd14 32bd 4786 b83b 493c 82bc
000000c0: 846d d23d 898e b8bd fef9 623d 2ee3 81bd
000000d0: 59b8 de3d 742c 703b 8622 113e 4b09 98bb
000000e0: 9e92 6cbc d41d d13c ae50 003e 971f 363d
000000f0: c3f0 e43d 8ec5 a43d 1a58 a03d 0ee6 87bd
00000100: 86c7 39bd 3c75 3d3b be5a b2bd 9c9c 17bd
00000110: 3e62 f1bc c61d 60bd acc4 783e 48d0 42bc
00000120: dda6 3a3d 2482 873d dcb5 5b3d 6f0b 6b3d
00000130: 878b c4bd e0fa 073e 9ccd ccbd aaa3 c6bc
00000140: 8fc9 163d ff38 9abd 7adc ae3d c5d4 7f3d
00000150: 8da5 86bd 2c03 d6bd c5da bf3c 51fe 8bbd
00000160: 5c14 683d 4e51 873e a486 3cbd c28a 29bd
00000170: ff42 ae3c ef22 1f3e 7738 d53d 6405 0d3d
00000180: 3975 0e3e 5620 22bd cacf cabc 271e 83ba
00000190: 7cf0 89bc 206d 80bd d6c3 93bd b956 cb3c
000001a0: c799 943d 3bc3 c93c 03eb d53c 67db 583e
000001b0: 1d1d 8d3d 5a43 fcbd 6f29 bc3d 7322 733d
000001c0: fdf6 7ebd ce89 a8bc e383 2fbd 7486 bbbd
000001d0: b3ec 2f3c fb16 603d 627b 2bbe 9209 003e
000001e0: 6d99 643d f6be 9ebc fb1a 8cbd 9638 38bd
000001f0: 1d56 0e3e a9b2 59bd ae4b 9e3d 6545 b03d
00000200: a3a7 ba3c b246 a43d 1dd6 e2bd 9919 b9bb
00000210: 2847 33be a124 fabc 3e55 b03d 6835 403d
00000220: a185 75bd bca7 d2bc 29e3 0bbe 67fb ae3b
00000230: 54e9 3abd 2f4d b63d 293e 653d 336f 8ebd
00000240: 0ac1 7b3c 44b4 1cbd 3bb5 87bd 4d0a 13bd
00000250: 8c94 d83b bb2f 1e3e c7c2 023c 10b9 f03d
00000260: 9636 93bd ff4e 0b3d 0b6d 2a3e 3c0d 84bd
00000270: 68ae ac3d 5bbb 8ebd 526e 6c3d 23fe c03d
00000280: e17a 803d 99c3 bf3d 621e 19be 682e e33d
00000290: bd90 11bc b919 4cbd fc25 7a3c 1821 bd3c
000002a0: 726b d6bc 9c9d 49bd 9d58 a8bd e6c4 ec3d
000002b0: cd5f 6fbc fa0c 73bc 3775 b8bd d50c 533c
000002c0: 486d 5dbd 5f3a 88bd b236 ed3d 6054 c83c
000002d0: d22e 8e3d d868 c43d f99a 233d ab3b a0bd
000002e0: 7f97 ba3c 84f1 d6bd cd4f 003b a168 84bd
000002f0: b53d 9e3d 8ce4 773c 4cf5 963c 96b7 20bd
00000300: a53c 52bd c135 62bd fecd 7dbd d7ae 043b
00000310: 6803 ff3b 98dc 063d 6078 0a3d 3ab4 003d
00000320: 1220 163e 0d29 a63d fe68 cebc f6f3 53bd
00000330: c7d5 e13d d028 76bd c4cf 91bd a6be 3dbd
00000340: cd09 3dba 0559 b8bc 22b7 6a3d 4290 f73c
00000350: e5fd 7c3d 5a6a e33d b607 3c3d 4f57 b93b
00000360: 039e efbc 318c b2bd 81a2 923d 6f8e fb3c
00000370: 6824 4d3d 8436 babc c877 27bd c5ee 37bd
00000380: 66b8 903c e5af 873d a523 efbc 9368 0d3e
00000390: 819f 57bd 672a 13bc 4807 72bd 807d 063d
000003a0: 95ed 81bd 3648 0e3e 76a7 8bbd 9a00 d23d
000003b0: 9bd0 943a f67c 90bd 0df0 7fbd 01f0 b13d
000003c0: 2f1f e9bd a289 07bd 5be9 d7bb f0b2 83bd
000003d0: 5506 693d 2676 3d3d 2f70 97bd a709 02bd
000003e0: e589 96bd 7508 733d 3d29 5c3d a2b3 16bd
000003f0: 187a 0bbd e0cc b03d cd71 45bc 0aa2 b33c

layers.2.bias f4 [256]
0.06292842 -0.08073993 -0.0147505235 -0.28957343 -0.015137033 -0.23193651 -0.12424124 -0.22310947
-0.306632 -0.023601 -0.06779612 -0.14202912 -0.08356008 0.014750981 0.038109288 -0.16324435
-0.14493713 -0.096304335 0.006001349 -0.035274107 -0.019407695 0.033389527 -0.15272745 -0.120044
-0.12534012 0.006332566 -0.15791589 -0.1340653 -0.17089479 -0.10338252 -0.080370545 -0.037322357
-0.089094885 0.053762186 0.0034822938 -0.18889108 -0.17041004 -0.22131243 -0.065561235 -0.114863954
0.053487424 0.00790343 -0.4266937 0.009537942 -0.08346535 0.08517598 -0.26911378 -0.17092839
-0.068505205 0.05342172 -0.11064158 -0.08894426 3.588717e-05 -0.040395647 0.020509763 -0.1866906
-0.11963607 -0.11444823 -0.03398257 -0.087678574 0.020531481 0.02941162 -0.17192926 -0.08121271
-0.15192196 -0.068143345 -0.118146576 0.03433344 -0.036210313 -0.20013003 0.06593191 -0.14364722
0.07863218 -0.113848805 -0.020544175 -0.27030948 -0.036203206 -0.1448774 -0.05720257 -0.03855855
-0.0053056697 -0.07077266 0.090098254 -0.13973539 -0.05710767 -0.13917696 -0.10219829 -0.20162839
-0.082018174 0.07303019 0.11321838 -0.18459275 -0.06812669 0.0018494624 0.07452067 0.011725162
-0.08306811 -0.30571043 0.04214524 0.055702794 -0.011022501 -0.1949988 -0.16863671 0.04418654
-0.026582975 -0.01745856 0.007543403 -0.18444835 -0.10477421 -0.16603601 0.05592742 -0.1108907
-0.06666027 -0.10017365 -0.17938834 -0.14696412 -0.28031614 -0.071381256 -0.18542568 -0.21632037
0.06975287 -0.013606375 -0.11811852 -0.11982059 -0.21685664 -0.07209407 0.0141922645 -0.06700482
-0.045877576 0.07955741 -0.044488914 0.027308252 0.0194753 -0.15880354 -0.07621123 -0.21165378
-0.08676695 -0.21234052 -0.045780197 -0.015873954 -0.27779758 0.046311833 -0.012074449 -0.099220045
0.006575815 0.05438968 -0.15913132 -0.04498928 0.06627693 -0.19515945 0.01207738 -0.06467723
-0.006458099 -0.015920594 -0.052840397 -0.055269975 -0.16383456 -0.02955464 0.021742698 -0.08924008
0.050972614 -0.1335188 -0.012575498 0.034309532 0.0546587 -0.13219255 -0.03036629 -0.009474969
-0.006588879 -0.020921003 0.029276462 -0.03419196 -0.08307409 -0.0075523956 -0.0052986173 -0.10585721
-0.024582619 -0.10456377 -0.017207613 -0.12650289 -0.33426315 -0.12010922 -0.15587077 -0.2228947
-0.20965478 -0.17029409 -0.2080637 0.096717745 0.028832376 -0.21183373 0.0011645128 -0.041616414
-0.27472395 0.10783851 0.049911585 0.017068103 -0.08834367 -0.13473983 -0.08308918 -0.08105336
-0.30351368 0.055534206 -0.18134663 -0.1925374 0.06714837 -0.25571305 -0.05353957 -0.14308512
-0.19126485 -0.1481952 -0.10493614 0.05198694 -0.14670216 0.05220197 0.028208774 -0.06561792
0.07847738 -0.17395298 0.052203007 -0.15049718 0.07727012 0.056125596 -0.110868864 -0.08840525
0.011014955 -0.18375215 -0.1723816 -0.19312876 -0.1961346 0.032001756 -0.074355625 -0.1275649
0.023626499 -0.030605163 0.028425464 -0.015751183 -0.055074494 -0.062967524 -0.037641756 0.0066223494
-0.10204947 0.01793826 -0.07639915 -0.16709393 -0.14040631 -0.18886694 -0.11302102 -0.1601558
-0.21827579 -0.0010265822 -0.2622263 -0.12820439 -0.17777759 -0.09146508 0.0058105527 0.04104617
00000000: 9ee0 803d fa5a a5bd 2eac 71bc f842 94be
00000010: 5101 78bc c480 6dbe 3172 febd cf76 64be
00000020: dffe 9cbe e256 c1bc b1d8 8abd 1570 11be
00000030: 8c21 abbd 19ae 713c 7c18 1c3d 8729 27be
00000040: 666a 14be 353b c5bd f7a6 c43b 957b 10bd
00000050: e3fc 9ebc 75c3 083d 9664 1cbe a1d9 f5bd
00000060: 2959 00be 6a81 cf3b b4b4 21be 6a48 09be
00000070: 0bff 2ebe 37ba d3bd 5099 a4bd 54df 18bd
00000080: 6177 b6bd bd35 5c3d 3237 643b aa6c 41be
00000090: f87f 2ebe ba9f 62be f844 86bd cb3d ebbd
000000a0: a115 5b3d 637d 013c 9977 dabe 0745 1c3c
000000b0: e2ef aabd bf70 ae3d 48c9 89be da07 2fbe
000000c0: 754c 8cbd bcd0 5a3d 0d98 e2bd 6828 b6bd
000000d0: 8e85 1638 e875 25bd 1704 a83c d22b 3fbe
000000e0: c203 f5bd d563 eabd 4f31 0bbd d390 b3bd
000000f0: a331 a83c a3f0 f03c 390e 30be d952 a6bd
00000100: 6e91 1bbe bd8e 8bbd d5f6 f1bd 39a1 0c3d
00000110: 4451 14bd e3ee 4cbe 4f07 873d 4218 13be
00000120: e909 a13d 9029 e9bd 424c a8bc 0166 8abe
00000130: d049 14bd be5a 14be 3e4d 6abd 92ef 1dbd
00000140: 2fdb adbb 42f1 90bd 6f85 b83d cb16 0fbe
00000150: bbe9 69bd 6884 0ebe 564d d1bd ac77 4ebe
00000160: 25f9 a7bd da90 953d 0adf e73d e205 3dbe
00000170: 0286 8bbd a969 f23a 4b9e 983d e51a 403c
00000180: 9d1f aabd 1486 9cbe 7da0 2c3d 9d28 643d
00000190: b897 34bc c4ad 47be 1aaf 2cbe f2fc 343d
000001a0: 8ac4 d9bc 4105 8fbc a72e f73b 07e0 3cbe
000001b0: dc93 d6bd 5805 2abe 2614 653d aa1a e3bd
000001c0: 2e85 88bd d827 cdbd 94b1 37be c37d 16be
000001d0: 9985 8fbe 5630 92bd 3be0 3dbe 1683 5dbe
000001e0: 98da 8e3d 46ed 5ebc 1fe8 f1bd 7f64 f5bd
000001f0: ab0f 5ebe 0ea6 93bd ac86 683c d339 89bd
00000200: 20ea 3bbd ffee a23d 023a 36bd 8eb5 df3c
00000210: aa8a 9f3c 659d 22be a214 9cbd c5bb 58be
00000220: dfb2 b1bd cb6f 59be 0484 3bbd 180a 82bc
00000230: 7c3b 8ebe 7ab1 3d3d e9d3 45bc e133 cbbd
00000240: ef79 d73b b7c7 5e3d 52f3 22be ae46 38bd
00000250: 33bc 873d e1d7 47be 34e0 453c 7f75 84bd
00000260: 769e d3bb e86b 82bc 2c6f 58bd c562 62bd
00000270: 3fc4 27be 931c f2bc be1d b23c 81c3 b6bd
00000280: a9c8 503d 27b9 08be 7609 4ebc 2788 0c3d
00000290: cde1 5f3d 7c5d 07be bac2 f8bc e63c 1bbc
000002a0: 86e7 d7bb 8662 abbc 31d5 ef3c de0c 0cbd
000002b0: c022 aabd 167a f7bb 06a0 adbb aacb d8bd
000002c0: 7d61 c9bc 8825 d6bd fbf6 8cbc f989 01be
000002d0: 8a24 abbe d3fb f5bd 969c 1fbe 823e 64be
000002e0: beaf 56be 9361 2ebe a70e 55be f413 c63d
000002f0: e031 ec3c f1ea 58be 91a2 983a f975 2abd
00000300: 9ea8 8cbe 70da dc3d 1770 4c3d 68d2 8b3c
00000310: 87ed b4bd 3df9 09be a92a aabd 4eff a5bd
00000320: 2566 9bbe d677 633d eeb2 39be 8628 45be
00000330: 1685 893d d2ec 82be 4f4c 5bbd e884 12be
00000340: efda 43be 7cc0 17be c2e8 d6bd 42f0 543d
00000350: 1739 16be bcd1 553d 1616 e73c b062 86bd
00000360: c0b8 a03d bb20 32be d2d2 553d ef1b 1abe
00000370: cc3f 9e3d f4e3 653d 370f e3bd d00d b5bd
00000380: 1278 343c 8629 3cbe cd84 30be 8cc3 45be
00000390: 82d7 48be 4614 033d c347 98bd 60a0 02be
000003a0: 5c8c c13c aeb7 fabc 85dc e83c a008 81bc
000003b0: cb95 61bd 1ef5 80bd 3e2e 1abd 4b00 d93b
000003c0: 50ff d0bd 42f3 923c 2877 9cbd ac1a 2bbe
000003d0: acc6 0fbe 5666 41be 9177 e7bd e2ff 23be
000003e0: b083 5fbe 628e 86ba 8742 86be 0348 03be
000003f0: 540b 36be 0b52 bbbd 7366 be3b 0720 283d

layers.4.weight f4 [256, 256]
0.008197337 -0.11671642 -0.14814077 -0.11806724 0.01359188 0.14894392 -0.1168521 -0.034845952
0.100154504 -0.0014893542 -0.1765219 0.0014269458 0.17526461 -0.02469091 -0.16074198 0.10630636
-0.03911632 -0.02966273 -0.1587797 0.24538781 0.24775776 0.08117041 0.057840947 -0.08845594
0.20672825 0.07466371 0.1700721 0.026122952 -0.11270528 -0.18052283 0.12204115 -0.12064749
0.058255058 -0.1274895 0.10684883 0.06438754 0.022239707 0.14889085 -0.049304012 -0.09589754
-0.091160126 -0.10821518 0.061098553 0.07533114 0.20117077 0.14050677 0.02675512 0.056092232
0.25351453 0.12905167 0.053566016 -0.03805954 0.03148537 -0.10411295 0.25787985 0.06114754
0.29999486 -0.12474043 -0.017034005 0.026822569 0.14242208 0.078457505 -0.009290344 -0.21449995
0.07558126 -0.17530985 -0.11935445 -0.14449084 -0.083416834 0.19627534 -0.10567374 0.14953116
0.147621 -0.116196126 -0.093911804 0.09399005 -0.06650204 -0.033975102 -0.14374395 0.13385643
0.016950665 -0.27316833 0.0071539273 0.052290328 0.24038546 0.1352741 0.034899 0.13358769
0.10183883 0.23929892 0.07229804 -0.05633782 -0.006052431 0.17599878 0.084962904 0.15416676
-0.2082852 0.03301415 0.02745947 0.03663242 -0.14592385 0.1905801 0.06986654 0.086571194
-0.26934123 -0.12436149 -0.16632673 0.1251577 -0.055395026 0.09789778 -0.13003157 0.09530743
-0.055949386 -0.025166355 0.19420956 0.18366244 0.012031751 -0.10610944 -0.0028307177 0.05882919
0.24736124 0.21181099 -0.017195044 0.032022756 -0.14707722 0.059577823 -0.099202156 0.06862055
-0.044767722 0.0946145 -0.21593261 0.0112321 -0.051016923 -0.055672485 -0.18730462 0.09873175
0.0069847633 0.027836027 -0.05645213 -0.085578345 -0.08637103 0.03005466 -0.04893405 0.029421763
-0.07550837 -0.07585272 -0.12939136 -0.22602291 0.16816068 0.29094857 -0.01225229 -0.09797514
0.007197101 -0.09965914 -0.08047081 0.2424342 1.018004e-05 0.02858444 0.044038557 0.020833192
0.02759537 0.2393031 -0.06532739 0.22743566 -0.09256639 0.12483019 -0.16952893 0.0020420891
0.13308853 0.062215433 -0.14710572 -0.23875877 -0.06524097 0.011346499 0.062929876 0.043908622
0.041016642 -0.09930184 0.0054017375 -0.118770085 0.08841469 0.004027058 0.0980833 -0.17056334
0.15121765 0.14129305 0.11493386 -0.1398004 -0.046067595 -0.14455643 0.0803998 -0.1565121
0.07382681 0.059547324 -0.054867074 -0.07827645 -0.011172218 0.034990314 -0.13812305 -0.0037534765
-0.07520832 0.08637939 0.060397886 -0.061709188 0.21558861 -0.007271342 -0.22775638 0.069833055
-0.047435988 -0.07328319 0.059408315 0.06579052 0.12037179 0.07320704 -0.019690156 -0.083463505
0.14925382 -0.0415145 0.22069232 0.008926034 -0.028809424 0.2028947 0.025249343 -0.045928102
-0.091258965 0.15229322 0.09765749 0.23105119 -0.15594696 -0.10653366 0.08030592 0.103447855
0.17847624 -0.0022576856 0.0878725 -0.18040241 0.011584164 0.0961791 0.080036186 0.14386874
-0.19010228 -0.047413327 0.23527908 -0.10535018 -0.099388435 0.099339046 -0.057464547 0.13431339
-0.08077403 0.1384768 0.04425128 0.111844756 0.111572705 0.19494556 -0.16197956 -0.1185823
00000000: 204e 063c 0509 efbd 37b2 17be 3dcd f1bd
00000010: 7ab0 5e3c c184 183e 2750 efbd a1ba 0ebd
00000020: ce1d cd3d 6f36 c3ba 28c2 34be 5b08 bb3a
00000030: 9178 333e 9744 cabc 8c99 24be 26b7 d93d
00000040: 6f38 20bd 41ff f2bc 2597 22be f146 7b3e
00000050: 36b4 7d3e ac3c a63d a1ea 6c3d 6328 b5bd
00000060: 92b0 533e 4ae9 983d 6127 2e3e cdff d53c
00000070: 07d2 e6bd fada 38be b6f0 f93d 0816 f7bd
00000080: db9c 6e3d 9c8c 02be 8fd3 da3d 9ddd 833d
00000090: 0c30 b63c d876 183e 01f3 49bd ee65 c4bd
000000a0: 29b2 babd ec9f ddbd 7a42 7a3d 3647 9a3d
000000b0: b6ff 4d3e 02e1 0f3e 8e2d db3c f8c0 653d
000000c0: a8cc 813e 1f26 043e 0a68 5b3d 52e4 1bbd
000000d0: cef6 003d 2c39 d5bd d408 843e d875 7a3d
000000e0: ed98 993e e977 ffbd e68a 8bbc 01bb db3c
000000f0: 18d7 113e 54ae a03d 8736 18bc e0a5 5bbe
00000100: 59ca 9a3d 6d84 33be 1b70 f4bd 68f5 13be
00000110: 72d6 aabd 67fc 483e 796b d8bd b21e 193e
00000120: f629 173e 3cf8 edbd d554 c0bd db7d c03d
00000130: 3932 88bd 7a29 0bbd 9d31 13be a911 093e
00000140: 1fdc 8a3c b8dc 8bbe 7e6b ea3b 622e 563d
00000150: 9b27 763e 4b85 0a3e 41f2 0e3d 36cb 083e
00000160: e090 d03d c70a 753e ff10 943d 7cc2 66bd
00000170: 7953 c6bb 0639 343e 0801 ae3d e4dd 1d3e
00000180: b748 55be d839 073d aff2 e03c e00b 163d
00000190: 106d 15be 6e27 433e 3016 8f3d 3d4c b13d
000001a0: 18e7 89be 3db1 febd 8e51 2abe 5729 003e
000001b0: e5e5 62bd a27e c83d ff26 05be 8b30 c33d
000001c0: 2f2b 65bd ac29 cebc dfde 463e 0212 3c3e
000001d0: d220 453c e84f d9bd 9083 39bb e0f6 703d
000001e0: 444c 7d3e fbe4 583e 9fdc 8cbc 4b2a 033d
000001f0: 699b 16be e007 743d 802a cbbd ee88 8c3d
00000200: 5c5e 37bd 3fc5 c13d 701d 5dbe d806 383c
00000210: 1ff7 50bd d508 64bd c8cc 3fbe df33 ca3d
00000220: 71e0 e43b 6108 e43c 593a 67bd b343 afbd
00000230: 4be3 b0bd 3135 f63c 126f 48bd e905 f13c
00000240: 22a4 9abd ac58 9bbd 2b7f 04be 8d72 67be
00000250: 5032 2c3e 36f7 943e d4bd 48bc 31a7 c8bd
00000260: a9d5 eb3b 171a ccbd e1cd a4bd ac40 783e
00000270: f0ca 2a37 ea29 ea3c c661 343d 5faa aa3c
00000280: af0f e23c df0b 753e 5eca 85bd e5e4 683e
00000290: 7393 bdbd f8a6 ff3d fe98 2dbe 92d4 053b
000002a0: 5c48 083e 9cd5 7e3d e2a2 16be 2e7d 74be
000002b0: 0f9d 85bd abe6 393c 61e1 803d 87d9 333d
000002c0: 1101 283d c35e cbbd 0f01 b13b bb3d f3bd
000002d0: c312 b53d 69f5 833b e6df c83d 28a8 2ebe
000002e0: cdd8 1a3e 20af 103e 7262 eb3d d627 0fbe
000002f0: 60b1 3cbd 9a06 14be a6a8 a43d b544 20be
00000300: 8332 973d e5e7 733d 4cbc 60bd 674f a0bd
00000310: ae0b 37bc 0152 0f3d 2170 0dbe e3fc 75bb
00000320: d206 9abd ade7 b03d c663 773d c6c2 7cbd
00000330: 43c3 5c3e 7044 eebb f838 69be a204 8f3d
00000340: 3d4c 42bd 7f15 96bd 2256 733d 2ebd 863d
00000350: 7c85 f63d 93ed 953d 404d a1bc eaee aabd
00000360: fed5 183e 1c0b 2abd 2bfd 613e 803e 123c
00000370: be01 ecbc a1c3 4f3e b6d7 ce3c 1b1f 3cbd
00000380: fbe5 babd c1f2 1b3e a600 c83d af98 6c3e
00000390: 8fb0 1fbe 522e dabd 6e77 a43d 78dc d33d
000003a0: 7ac2 363e aef5 13bb 7ff6 b33d 69bb 38be
000003b0: 81cb 3d3c 8cf9 c43d 03ea a33d 5452 133e
000003c0: 2caa 42be 7a34 42bd 00ed 703e d6c1 d7bd
000003d0: 2a8c cbbd 4572 cb3d f25f 6bbd 7389 093e
000003e0: db6c a5bd ddcc 0d3e d540 353d dd0e e53d
000003f0: 3b80 e43d cf9f 473e f8dd 25be 47db f2bd

layers.4.bias f4 [256]
0.012895595 -0.02022319 0.013939942 0.08925464 -0.023176247 0.018177325 0.002587924 0.012777566
0.0030610475 0.11832467 0.044039067 -0.18477762 0.04383663 -0.17371263 -0.10280751 -0.019423729
0.05627503 -0.18225269 -0.05246419 -0.049216405 -0.15952073 0.0060159094 -0.09757134 -0.023114888
0.03797959 0.041637033 0.06468766 -0.08814468 -0.2909818 -0.0057831015 -0.0865154 -0.21559629
-0.2665809 0.037063304 0.0057135005 -0.0035393164 -0.11293922 -0.08703827 -0.08565618 -0.023014352
-0.047784243 -0.007858984 -0.044117518 -0.034392104 -0.0118507985 0.0143600125 -0.041026294 -0.20363419
0.050403453 -0.0017008429 -0.04661927 0.013927348 -0.016281884 -0.20159538 0.03519138 0.0030509087
0.012437206 -0.04516116 0.027736634 0.027622666 0.04228736 -0.036399167 0.0096187685 0.027832527
0.054076016 -0.15124287 -0.0052874503 0.07454708 -0.033207916 0.039145444 0.06862937 -0.017668111
-0.0090384185 0.021195821 0.029840935 0.046291664 0.015770433 -0.24222648 0.009893348 -0.005506416
-0.013443311 -0.018666755 0.03641092 -0.07276467 -0.026827965 -0.011510476 -0.29667202 0.04320295
-0.0050990684 -0.020160586 0.018152114 -0.2488458 0.01761933 -0.050034866 0.0050109234 0.01973797
0.032538384 0.014197988 0.047891565 0.005941619 0.09416329 0.045240853 0.03594873 -0.04010776
-0.034117382 0.073911265 0.00013848957 -0.018422123 0.019835481 0.010349885 0.045224737 -0.03531672
-0.05040537 0.11512793 -0.23412296 -0.0693347 0.011849579 -0.08366352 -0.40170428 0.015229522
-0.016918855 -0.028092105 0.0650354 -0.113977425 -0.1440085 0.08545688 -0.05990338 -0.05837652
0.029101398 -0.088057406 -0.039400987 0.049788654 -0.21284945 -0.044944905 0.06437144 -0.030655464
-0.16933234 0.008887929 -0.00991949 0.16539364 0.12623884 0.07391897 0.017539445 -0.03575449
0.027965963 0.13120541 -0.3295719 -0.13481538 0.044973418 -0.21359439 -0.44793764 0.020826472
0.037851244 0.13395615 -0.2242635 0.014629203 0.016185561 -0.034582682 0.0030731088 -0.018891118
0.005718301 -0.048245393 -0.005896009 -0.012577908 -0.0771072 0.03440712 0.029478261 0.0027259565
0.00032298936 -0.23259698 -0.053431243 -0.025373923 0.036660302 -0.019354329 0.049978685 0.070412904
-0.27966577 -0.0140299825 -0.3078481 -0.19640306 0.07936911 0.047431115 -0.06414653 -0.015769323
-0.009142592 0.040423233 -0.12965326 -0.14783807 -0.009449996 -0.10899362 -0.17568548 -0.014431398
0.0014234519 0.046098303 -0.020393403 -0.16086926 -0.58703905 -0.0122150695 -0.05160568 -0.010843278
0.011722211 -0.005392254 -0.24413262 0.0008922356 0.020694045 -0.18436259 0.0515154 -0.16062845
-0.36651233 -0.07903507 0.06952819 -0.1813911 -0.02765888 0.02583904 -0.034534924 0.07800558
-0.15622298 -0.030222382 0.017556814 -0.19448113 -0.009585845 -0.07205756 -0.0046506505 0.038442142
0.023321394 -0.28019822 -0.016972333 0.033126 0.04554542 -0.20254722 0.0126493275 0.10166972
-0.059705094 -0.21945763 0.04262711 0.054032724 -0.19341245 0.03177823 0.00805494 -0.020516984
-0.22734517 -0.012609525 0.047211874 0.02309392 0.022129018 -0.28402627 0.12893084 -0.009438923
0.08857425 0.09178192 -0.21341187 -0.024343576 0.08988155 0.04247549 0.030443037 0.03745283
00000000: 0c48 533c 1aab a5bc 5b64 643c 23cb b63d
00000010: 1ddc bdbc 9de8 943c 299a 293b ff58 513c
00000020: db9b 483b 3454 f23d 4f62 343d 5836 3dbe
00000030: 0a8e 333d b9e1 31be be8c d2bd 831e 9fbc
00000040: a580 663d 73a0 3abe b1e4 56bd 2497 49bd
00000050: 6759 23be 1b21 c53b 7cd3 c7bd 6f5b bdbc
00000060: 7d90 1b3d 988b 2a3d f77a 843d 3385 b4bd
00000070: 91fb 94be 2c80 bdbb fc2e b1bd 46c5 5cbe
00000080: 4b7d 88be b1cf 173d 5138 bb3b e0f3 67bb
00000090: ae4c e7bd 1f41 b2bd 826c afbd 9888 bcbc
000000a0: 69b9 43bd f8c2 00bc 92b4 34bd bcde 0cbd
000000b0: da29 42bc 4246 6b3c 300b 28bd 7b85 50be
000000c0: da73 4e3d d1ee deba d9f3 3ebd 882f 643c
000000d0: 9661 85bc 056f 4ebe d624 103d c1f1 473b
000000e0: 6cc5 4b3c e9fa 38bd f037 e33c ee48 e23c
000000f0: 8335 2d3d 4b17 15bd 0a98 1d3c 0a01 e43c
00000100: d07e 5d3d 69df 1abe 5942 adbb 24ac 983d
00000110: 0605 08bd f956 203d 8e8d 8c3d b7bc 90bc
00000120: e015 14bc dca2 ad3c fa74 f43c 549c 3d3d
00000130: ff30 813c 380a 78be b617 223c 2a6f b4bb
00000140: 5541 5cbc 06eb 98bc 9e23 153d a505 95bd
00000150: 52c6 dbbc 6f96 3cbc 65e5 97be 94f5 303d
00000160: 1616 a7bb d027 a5bc beb3 943c 6fd1 7ebe
00000170: 6a56 903c 5cf1 4cbd ac32 a43b 86b1 a13c
00000180: f846 053d ae9e 683c f229 443d eab1 c23b
00000190: afd8 c03d 794e 393d fa3e 133d 0948 24bd
000001a0: abbe 0bbd ca5e 973d 8337 1139 fee9 96bc
000001b0: 057e a23c 9092 293c 933d 393d 44a8 10bd
000001c0: dc75 4ebd 31c8 eb3d eebd 6fbe 5aff 8dbd
000001d0: bd24 423c c857 abbd 2fac cdbe 3f85 793c
000001e0: 6999 8abc 6a21 e6bc 4831 853d ff6c e9bd
000001f0: f776 13be 0404 af3d 3f5d 75bd 381c 6fbd
00000200: 0e66 ee3c 7157 b4bd ee62 21bd 30ef 4b3d
00000210: 35f5 59be 2618 38bd 2cd5 833d 2b21 fbbc
00000220: 7565 2dbe ad9e 113c 5b85 22bc f35c 293e
00000230: c144 013e d462 973d e2ae 8f3c 4d73 12bd
00000240: e018 e53c b65a 063e a6bd a8be 0b0d 0abe
00000250: 0c36 383d 7db8 5abe 1558 e5be 479c aa3c
00000260: e809 1b3d cd2b 093e 55a5 65be 53af 6f3c
00000270: 9597 843c 92a6 0dbd 3666 493b 8cc1 9abc
00000280: 9660 bb3b f69c 45bd 4f33 c1bb 9213 4ebc
00000290: 61ea 9dbd 7bee 0c3d 657c f13c f6a5 323b
000002a0: e656 a939 e72d 6ebe b8da 5abd f9dc cfbc
000002b0: 1d29 163d f88c 9ebc 73b6 4c3d a434 903d
000002c0: 5a30 8fbe 03de 65bc 449e 9dbe e21d 49be
000002d0: 468c a23d 2147 423d 425f 83bd ab2e 81bc
000002e0: cfca 15bc d592 253d d3c3 04be dd62 17be
000002f0: 28d4 1abc 0c38 dfbd e5e6 33be ac71 6cbc
00000300: 1f93 ba3a 93d1 3c3d 1110 a7bc e9ba 24be
00000310: 3148 16bf b721 48bc 7a60 53bd 01a8 31bc
00000320: 840e 403c 81b1 b0bb e7fd 79be ebe4 693a
00000330: 8f86 a93c 8cc9 3cbe d001 533d c97b 24be
00000340: 81a7 bbbe 24dd a1bd cc64 8e3d 97be 39be
00000350: e094 e2bc 65ac d33c 7e74 0dbd 64c1 9f3d
00000360: ebf8 1fbe ee94 f7bc 4fd3 8f3c 1026 47be
00000370: f30d 1dbc ea92 93bd 7c64 98bb 8275 1d3d
00000380: 820c bf3c 2476 8fbe 9009 8bbc 21af 073d
00000390: d68d 3a3d 8a68 4fbe 203f 4f3c 3738 d03d
000003a0: 548d 74bd 80b9 60be c499 2e3d 6b51 5d3d
000003b0: ea0d 46be e429 023d def8 033c 3c13 a8bc
000003c0: 2ccd 68be 2e98 4ebc 3d61 413d 762f bd3c
000003d0: ea47 b53c e46b 91be 7206 043e b6a5 1abc
000003e0: 6b66 b53d 29f8 bb3d a488 5abe 2e6c c7bc
000003f0: d113 b83d c8fa 2d3d ad63 f93c 2368 193d

layers.6.weight f4 [1, 256]
0.0003910019 0.082788 0.038577896 -0.00091922504 -0.022100303 -8.6318905e-05 -0.0011503109 0.06578882
0.038390085 -0.007891523 -0.0016178048 -0.17220992 -0.003072848 -0.09175635 0.138126 -0.08159476
0.0056299767 -0.10869251 -0.028061014 -0.00091451907 -0.05830652 0.00048598 0.060095526 0.043277927
0.055384275 0.009588146 0.054053176 0.07750838 0.43572956 0.086677894 -0.053973556 0.118046805
-0.20822635 0.03093773 0.00017388575 0.0013502847 0.024936978 0.08311591 -0.009873191 0.016221909
0.001359092 0.00020477403 0.060472023 -0.0010575952 -0.0043720477 0.0076127346 -0.00060017407 -0.12363623
0.08313159 0.040353715 -0.0029061383 -0.000116149626 -0.00027967 -0.108216465 -0.015778203 0.00050472625
-0.0011001481 -0.06578776 -0.0021336991 0.094441965 0.00012780708 0.08302207 0.009699672 -0.0016058079
-0.0020097806 -0.16314036 0.058424387 -0.0024657587 -0.01244662 0.16052838 0.0039702356 -0.0039295936
0.11700659 0.00041974272 0.071391605 -0.019013409 0.040810317 0.20948918 -0.0020417764 -0.013501093
-0.0033389234 0.015009075 0.031549834 -0.14516973 0.0014239114 0.0035283973 -0.12798716 0.047042612
-0.071591176 0.07883975 0.0637068 -0.14364146 0.004669093 -0.0530961 -1.8767074e-05 0.0027423825
-0.0007983382 0.004241614 -0.003325461 4.0223265e-05 0.11717452 0.0004890791 -0.0107839415 0.022324575
-0.20299251 0.07202714 0.0025846094 -0.02630168 0.001745887 -0.00448933 0.00020581993 0.0016457344
0.01370517 0.0028936763 -0.10343774 -2.4436307e-05 0.034544446 0.014384552 0.22036451 0.001081906
-0.000785432 0.0012769306 -0.0016508013 0.035494532 -0.05681775 0.02400805 0.12770687 0.0008360567
-0.00025292957 -0.013978408 0.009672615 0.0035207882 -0.12887551 0.0036070973 0.0007002737 7.2955496e-05
-0.09738052 -0.00019218761 0.0018026136 -0.00069571094 0.01703074 0.00704561 0.0060070613 -0.04234933
-0.0036279603 0.05697872 0.34246892 -0.115704484 -0.004453486 0.16303642 0.45633644 -0.18730402
0.0024825677 0.069184355 -0.19601424 -0.0004959302 0.056315467 -0.02195828 0.012660999 0.0059255003
-0.005767881 0.004587134 0.074166976 0.08025185 0.0037105787 -0.012111372 0.046585858 -0.009571298
-0.00011927095 -0.2971279 0.08132307 0.0013888564 0.07995784 0.022668386 0.012933566 -0.0003572726
0.38372427 0.03181602 -0.28769183 -0.12560308 -0.0065745204 -0.0008833054 -0.0009613929 -0.007120362
-0.0039423243 0.00033928693 -0.063668266 0.14288646 -0.001335392 -0.1461955 -0.05311203 -0.001301652
0.00031576632 0.023760956 0.018968703 0.077522255 0.64767396 -0.0058974056 0.017899502 -0.014425004
0.0010217895 0.025131013 -0.24076624 -0.0016052307 0.06064789 -0.11254261 -0.00085953134 -0.09229957
-0.24603029 -0.057618804 -0.022722533 -0.090794094 0.0066829002 -0.0022843918 -0.00036835432 0.054811873
0.1131391 0.0072960933 0.0008195725 -0.138079 -0.0022689675 -0.028392358 -0.00022707843 0.0013780494
0.052553758 -0.32450247 -0.0056745587 -0.0004261328 -0.03744443 -0.16112159 -0.00042308518 6.840811e-05
-0.019033415 -0.15781155 -0.011303856 -0.00057302567 -0.105257116 0.031120714 0.024024734 0.15086056
-0.12384536 0.05319784 0.001441394 -0.006598058 -0.002123222 0.24412635 0.05360686 -0.00084556907
-0.00064613577 0.07446749 -0.15014488 0.08754718 0.11864555 -0.004774211 0.022173107 -0.0024799288
00000000: 63ff cc39 c18c a93d db03 1e3d 26f8 70ba
00000010: b20b b5bc 1c06 b5b8 07c6 96ba 4abc 863d
00000020: ec3e 1d3d 724b 01bc 850c d4ba cc57 30be
00000030: d661 49bb c1ea bbbd e770 0d3e 271b a7bd
00000040: ab7b b83b 2e9a debd 36e0 e5bc 56bc 6fba
00000050: d1d2 6ebd 22cb fe39 ba26 763d 3244 313d
00000060: 9fda 623d 9917 1d3c dd66 5d3d b7bc 9e3d
00000070: f217 df3e 2e84 b13d 6013 5dbd 86c2 f13d
00000080: 4a39 55be 1f71 fd3c 1a55 3639 09fc b03a
00000090: a248 cc3c ad38 aa3d 2ac3 21bc cfe3 843c
000000a0: 8f23 b23a 9cb8 5639 83b1 773d 029f 8aba
000000b0: 6543 8fbb 3f74 f93b 0055 1dba fe34 fdbd
000000c0: e540 aa3d f049 253d e974 3ebb 5b95 f3b8
000000d0: aca0 92b9 98a0 ddbd 4a41 81bc 9b4f 043a
000000e0: d832 90ba bcbb 86bd 88d5 0bbb ca6a c13d
000000f0: f403 0639 7a07 aa3d 60eb 1e3c f979 d2ba
00000100: 86b6 03bb 440e 27be 694e 6f3d 9198 21bb
00000110: e8ec 4bbc 8d61 243e c018 823b d2c3 80bb
00000120: 27a1 ef3d ea10 dc39 c335 923d 02c2 9bbc
00000130: b828 273d 5584 563e 53cf 05bb b033 5dbc
00000140: d7d1 5abb a0e8 753c 663a 013d 60a7 14be
00000150: 8aa2 ba3a af3c 673b 110f 03be c1af 403d
00000160: 659e 92bd bc76 a13d b678 823d bf16 13be
00000170: 31ff 983b 4c7b 59bd fc6d 9db7 8bb9 333b
00000180: 9247 51ba 3dfd 8a3b faef 59bb 67b5 2838
00000190: 32f9 ef3d 8b35 003a 21af 30bc 07e2 b63c
000001a0: 45dd 4fbe f782 933d 8d62 293b 9f76 d7bc
000001b0: 3fd6 e43a 3b1b 93bb 5ed1 5739 afb5 d73a
000001c0: a68b 603c d5a3 3d3b 2ad7 d3bd 92fc ccb7
000001d0: 7a7e 0d3d 2fad 6b3c 3ca7 613e bece 8d3a
000001e0: 73e5 4dba ae5e a73a b35f d8ba b762 113d
000001f0: bbb9 68bd 88ac c43c 97c5 023e d12a 5b3a
00000200: a29b 84b9 b105 65bc e379 1e3c 06bd 663b
00000210: f1f7 03be 0d65 6c3b 9392 373a afff 9838
00000220: 706f c7bd f885 49b9 ad45 ec3a 5f60 36ba
00000230: 0d84 8b3c dcde e63b e2d6 c43b 7e76 2dbd
00000240: 13c3 6dbb 8562 693d 1658 af3e 79f6 ecbd
00000250: 8cee 91bb 05f3 263e eea4 e93e a0cc 3fbe
00000260: 93b2 223b 87b0 8d3d f5b7 48be 5001 02ba
00000270: 0cab 663d dae1 b3bc 1470 4f3c b32a c23b
00000280: 7e00 bdbb ab4f 963b dbe4 973d 155b a43d
00000290: 2e2d 733b c76e 46bc d0d0 3e3d efd0 1cbc
000002a0: 1b21 fab8 2621 98be b68c a63d 4a0a b63a
000002b0: f0c0 a33d 0db3 b93c 4fe7 533c 5150 bbb9
000002c0: 8277 c43e 8451 023d 584c 93be 189e 00be
000002d0: 136f d7bb 9f8d 67ba fc05 7cba ed51 e9bb
000002e0: 9d2e 81bb 52e2 b139 8264 82bd d450 123e
000002f0: 5208 afba 46b4 15be 008c 59bd 329c aaba
00000300: 708d a539 56a6 c23c 4164 9b3c fdc3 9e3d
00000310: f6cd 253f 063f c1bb faa1 923c da56 6cbc
00000320: 91ed 853a 8edf cd3c 6d8b 76be 9b66 d2ba
00000330: ec69 783d bd7c e6bd 2c52 61ba 8f07 bdbd
00000340: 5def 7bbe b201 6cbd 9b24 babc 41f2 b9bd
00000350: 3bfc da3b bcb5 15bb ae1f c1b9 6a82 603d
00000360: 79b5 e73d 1114 ef3b 94d8 563a 9564 0dbe
00000370: f5b2 14bb 1797 e8bc e71b 6eb9 aa9f b43a
00000380: 9c42 573d 3025 a6be a6f1 b9bb 946a dfb9
00000390: 555f 19bd 0ffd 24be 88d1 ddb9 5376 8f38
000003a0: f7eb 9bbc 5a99 21be cf33 39bc 1a37 16ba
000003b0: 0b91 d7bd def0 fe3c 85cf c43c 317b 1a3e
000003c0: a3a2 fdbd fae5 593d 28ed bc3a 8634 d8bb
000003d0: c125 0bbb 42fc 793e de92 5b3d 2ea9 5dba
000003e0: 7061 29ba 6982 983d 94bf 19be f04b b33d
000003f0: 70fc f23d fc70 9cbb 60a4 b53c 4d86 22bb
