Results_dir/2022-03-20-22-30-21/actor.pth (torch, 274391 bytes, 6 tensors)

layers.0.weight f4 [256, 6]
0.07422457 -0.16543227 0.2624975 -7.991158e-05 0.043944996 0.025094207 -0.11598216 0.013053132
0.04270928 -0.09070259 0.05583795 -0.107683755 -0.15484291 -0.15448922 0.04451911 -0.11079025
0.13542676 -0.13134693 -0.06529615 -0.014970704 0.16650267 -0.0630137 0.14043143 0.034223165
-0.050199293 -0.11160301 0.057144426 -0.058426544 0.15206592 -0.1281392 -0.049849287 0.17261271
-0.187519 -0.057271916 0.0287432 -0.03062719 -0.07011474 0.06072483 0.0015455805 -0.119059354
0.026055386 0.0404829 0.15562002 -0.18009667 0.18753509 -0.027938057 0.11043582 -0.0047244276
0.111144915 -0.2213768 0.24567224 0.00094536203 0.056303263 0.115979835 -0.07625665 0.044527214
-0.13902417 0.119842105 -0.072468415 -0.13544987 0.031215657 -0.16954245 0.23192357 0.033312537
0.089086585 0.070704244 -0.11847011 0.21053523 0.047044117 0.13335867 0.1203906 -0.12794684
0.12917823 -0.07401418 0.05228759 0.0859321 -0.13881022 0.12891364 0.0008997738 -0.34597218
0.1325962 -0.0030049372 -0.02047982 0.062365413 0.011231149 0.2320822 -0.07340534 0.027379937
-0.0973356 0.10991626 -0.14972782 0.10555781 0.04003436 -0.115568236 0.12042454 -0.043299757
0.021664955 -0.26856184 0.11025161 0.070010066 0.0014412288 -0.10282789 -0.02524971 -0.0827168
-0.084089 -0.1375746 0.094274044 0.15242277 -0.13629034 0.04791031 -0.13774833 -0.13253129
-0.021645525 -0.07176804 -0.0037794695 -0.21882097 0.016181322 0.02898719 0.14458507 0.04585369
-0.031349517 0.2223758 -0.045531873 -0.017610023 -0.069889806 0.0997867 0.05693565 0.19693972
-0.01943277 -0.01653602 0.12295616 0.06562508 0.07217553 0.21728222 -0.22061811 -0.00110556
-0.0221094 -0.04333878 -0.041147247 -0.10183403 0.038339853 -0.14718366 -0.027817028 -0.14496438
0.035152595 0.16169356 -0.20314401 0.13961086 -0.12215929 -0.16820459 -0.10886269 -0.151855
0.0700521 -0.05216506 -0.14030293 -0.05696185 0.11403999 0.26345983 -0.18563549 0.063583985
0.07113345 -0.11431866 -0.1145784 0.20544301 -0.104035914 0.09671175 -0.06871161 0.1176059
-0.110974476 0.10157905 -0.03569759 -0.10225359 0.07194941 -0.0138743855 0.042949583 -0.1456676
0.16605404 0.08859037 -0.017091505 0.07251435 0.042400945 0.17380582 -0.18169731 0.10977497
-0.027387317 -0.031610005 -0.08973404 -0.24541773 -0.05992823 0.01347232 0.13895284 0.048646
-0.025924234 -0.16334042 -0.046909023 0.14175934 0.04521077 -0.028096152 -0.06795564 0.18640605
-0.11788362 -0.00047357366 -0.08441959 0.0860582 -0.061026994 0.10383541 0.013330936 -0.059258457
0.09377752 -0.04038445 0.121343136 0.14227696 -0.05086767 0.08879535 0.035116397 0.14727026
0.107794434 -0.009277217 0.09956781 -0.09978917 -0.12014922 0.09236009 0.04589674 0.24650823
-0.19301324 0.014850624 -0.02309231 -0.06098744 -0.1296802 -0.02877253 0.11854867 0.034497213
0.10483402 -0.06759447 -0.011292065 0.06247141 -0.17071801 0.09598685 -0.0821229 0.13557543
0.09818386 0.029139977 -0.08091095 0.07559576 -0.033089533 0.1111619 -0.015197647 0.14247335
0.054469306 -0.057206962 -0.04694533 -0.13805433 -0.05915719 -0.1077912 -0.009336972 0.00020109187
00000000: 0d03 983d 1467 29be 1366 863e 3496 a7b8
00000010: abff 333d 5e92 cd3c 0e88 edbd cedc 553c
00000020: edef 2e3d 48c2 b9bd 56b6 643d 4d89 dcbd
00000030: 248f 1ebe 6c32 1ebe ac59 363d 00e6 e2bd
00000040: 50ad 0a3e cf7f 06be fdb9 85bd af47 75bc
00000050: ad7f 2a3e 540d 81bd 42cd 0f3e 972d 0c3d
00000060: c69d 4dbd 1e90 e4bd 4610 6a3d ac50 6fbd
00000070: 2bb7 1b3e ec36 03be c42e 4cbd 63c1 303e
00000080: fb04 40be f595 6abd dc76 eb3c dfe5 fabc
00000090: 5198 8fbd 99ba 783d 1395 ca3a 64d5 f3bd
000000a0: 1b72 d53c 66d1 253d db5a 1f3e 436b 38be
000000b0: 3309 403e 5ade e4bc 2d2c e23d 5fcf 9abb
000000c0: f29f e33d 9ab0 62be 8191 7b3e 2cd2 773a
000000d0: 409e 663d d686 ed3d 722c 9cbd 2b62 363d
000000e0: 5a5c 0ebe c76f f53d 526a 94bd 5fb3 0abe
000000f0: fab7 ff3c 899c 2dbe 5f7d 6d3e ba72 083d
00000100: 0773 b63d 63cd 903d 75a0 f2bd 8c96 573e
00000110: 55b1 403d 2d8f 083e 598f f63d 7f04 03be
00000120: 4c47 043e bf94 97bd 832b 563d 2bfd af3d
00000130: 4424 0ebe f001 043e ccde 6b3a 4423 b1be
00000140: 4cc7 073e 7bee 44bb 4cc5 a7bc e072 7f3d
00000150: da02 383c f5a6 6d3e 8a55 96bd e44b e03c
00000160: e357 c7bd c71b e13d 4052 19be b12e d83d
00000170: 12fb 233d 0aaf ecbd 24a1 f63d 165b 31bd
00000180: b47a b13c f080 89be 99cb e13d 7061 8f3d
00000190: 9de7 bc3a 6e97 d2bd 7bd8 cebc 6d67 a9bd
000001a0: db36 acbd 5be0 0cbe c012 c13d b714 1c3e
000001b0: b28f 0bbe 9a3d 443d e60d 0dbe 48b6 07be
000001c0: f551 b1bc 1ffb 92bd fab0 77bb 9b12 60be
000001d0: b18e 843c 8b76 ed3c 1c0e 143e 14d1 3b3d
000001e0: 5a68 00bd 7bb6 633e a17f 3abd e542 90bc
000001f0: 6322 8fbd f85c cc3d 5b35 693d 91aa 493e
00000200: 7931 9fbc 8c76 87bc 70d0 fb3d 7166 863d
00000210: c4d0 933d 3b7f 5e3e b7e9 61be 70e8 90ba
00000220: c61e b5bc 0184 31bd 048a 28bd 5c8e d0bd
00000230: 400a 1d3d 50b7 16be 89e0 e3bc 8b71 14be
00000240: 2bfc 0f3d ff92 253e fc04 50be 26f6 0e3e
00000250: a62e fabd d33d 2cbe 67f3 debd e17f 1bbe
00000260: 7a77 8f3d 08ab 55bd 92ab 0fbe d450 69bd
00000270: cc8d e93d 35e4 863e 3b17 3ebe 5238 823d
00000280: 6aae 913d e71f eabd 15a8 eabd a75f 523e
00000290: c810 d5bd cf10 c63d acb8 8cbd 5ddb f03d
000002a0: 9646 e3bd ad08 d03d a337 12bd 556a d1bd
000002b0: 365a 933d 6451 63bc e7eb 2f3d e329 15be
000002c0: 120a 2a3e de6e b53d 7c03 8cbc 6782 943d
000002d0: 9dac 2d3d 27fa 313e dc0e 3abe b3d1 e03d
000002e0: 5e5b e0bc 7e79 01bd 7bc6 b7bd c94e 7bbe
000002f0: 4e77 75bd 01bb 5c3c a749 0e3e 0741 473d
00000300: 0f5f d4bc b642 27be ad23 40bd 5c29 113e
00000310: ee2e 393d e729 e6bc 542c 8bbd 3ae1 3e3e
00000320: f86c f1bd fb49 f8b9 2ee4 acbd 483f b03d
00000330: 71f7 79bd a9a7 d43d 006a 5a3c ffb8 72bd
00000340: 6e0e c03d 2a6a 25bd c082 f83d 0db1 113e
00000350: 9e5a 50bd 56da b53d 36d6 0f3d 04ce 163e
00000360: 54c3 dc3d 78ff 17bc 35ea cb3d 445e ccbd
00000370: cb10 f6bd 4927 bd3d 38fe 3b3d a76c 7c3e
00000380: 43a5 45be 0850 733c 162c bdbc f7cd 79bd
00000390: e3ca 04be 5eb4 ebbc a5c9 f23d f34c 0d3d
000003a0: 38b3 d63d f86e 8abd 5a02 39bc 05e2 7f3d
000003b0: b4d0 2ebe c194 c43d 0d30 a8bd 49d4 0a3e
000003c0: 9f14 c93d f6b6 ee3c a4b4 a5bd f3d1 9a3d
000003d0: e488 07bd daa8 e33d 8dff 78bc 89e4 113e
000003e0: 351b 5f3d d951 6abd bf49 40bd 1d5e 0dbe
000003f0: cf4e 72bd a2c1 dcbd 19fa 18bc 30dc 5239

layers.0.bias f4 [256]
-2.3372628e-05 0.020146769 0.006007877 0.004942645 0.0035589077 0.0032976754 0.005807403 0.014819708
-0.004979295 -0.0019435592 -0.0024537263 -0.006598369 -0.002407429 0.01816499 -0.0021817042 0.0048866714
-0.01022981 0.012641545 -0.00088499946 -0.0024054581 0.026766798 0.009894664 0.0036792206 0.0058142818
-0.012964342 0.009624706 -0.010064781 -0.013603083 0.002795745 -0.0039189397 -0.0149483485 0.0022967588
-7.315402e-05 0.0039490764 0.0037212775 0.0004647084 0.003945453 -0.002583214 -0.00245526 -0.0032047075
-0.0006787365 0.012558279 -0.021015517 0.006560709 0.0039163763 -0.005121015 -0.024730578 0.009907673
-0.007586136 -0.0024997303 0.009950085 0.010453115 -0.0007830849 0.027720267 0.014812773 0.006896861
0.0086921295 -0.013094474 0.0027177026 -0.008135642 -0.003765114 0.0032617594 0.005362471 -0.0015039903
-0.001660023 -0.0012369388 -0.011457116 -0.004122055 0.008284909 -0.020476615 -0.0019265679 -0.0029387185
-0.007185837 -6.1989085e-06 0.0025950293 0.0050683706 -0.0041851974 -0.00543093 0.010096885 -0.0049961996
-0.0011629317 -0.0046864906 0.014405563 -0.0020241125 -0.0012512053 0.026391674 0.0063640526 -0.006937067
0.0031197981 -0.007392324 0.0061573978 0.005826056 0.019685227 0.008705288 -0.0034839914 -0.007864657
0.011375999 0.016751997 0.0038956716 -0.0010893546 -0.004630122 0.0033804174 -0.0009914123 -0.0028120633
-0.001744632 -0.0065895426 0.0091679115 -0.008106864 -0.0034864484 0.015074893 -0.008174854 -0.0030299108
0.021010539 0.004453597 0.0025422545 0.0066898703 -0.009691394 -0.008854003 -0.0024430458 0.0028860155
0.0037588014 0.026743457 0.017734936 -0.0035418537 -0.031779807 0.015624303 0.012071568 -0.004715125
0.013650488 -0.003998849 0.010032246 -0.0014410177 0.0047787954 0.018302854 -0.0035533058 -0.0076207733
0.022324704 -0.0030036846 0.0053681517 0.00023392685 -0.004633475 -0.0058739986 0.005892321 0.0043914057
-0.015503746 -0.011369382 0.006672327 -0.0050421623 0.005884496 0.00497716 0.008022388 0.0070616184
0.0005863533 -0.00789282 0.0044472674 0.011253706 -0.008025477 0.002764914 -0.0068281125 0.025458276
-0.0031868613 -0.0025722403 -0.02171167 0.011957804 -0.009378663 -0.023370847 -0.004706176 -0.0012865372
-0.0035580778 0.007375922 0.0041508083 -0.0010634684 -0.0061881104 0.003313919 0.0012362866 -0.0018094587
-0.018074697 0.008487939 -0.0011879678 -0.0032981168 -0.007986617 -0.0060825925 0.019145006 0.0076601016
0.0069132997 0.0061706114 0.004729355 -0.007709614 0.02280196 0.012957843 -0.010128396 0.00032905646
0.0054415707 0.019111495 0.0035068423 -0.002966888 0.0036205242 -0.0076929806 0.052088805 0.040017452
-0.006673249 0.00019453539 0.008393929 0.010627413 -0.0043228804 0.016665548 -0.0005086897 0.0024646698
-0.0046616234 0.003439955 0.00925118 0.0050877184 0.007142049 -0.00425297 0.031409297 0.011892164
0.0083516175 0.019637514 0.029999707 0.00136452 0.005661729 0.0043039685 0.0073413732 -0.020260489
0.006302058 -0.0031824952 0.009219189 0.009646943 0.012648241 0.011607756 0.014966934 0.013675901
0.00063344266 0.0031105664 -0.0017687691 0.036774572 0.0014798561 0.0011248925 -0.005974479 0.011404934
0.002141245 0.008134833 -0.005671808 0.019248836 0.010727475 0.0045494647 -0.018155975 -0.0015232573
-0.00094238686 0.008131811 0.02983028 -0.0027655184 -0.0020505963 0.028517533 -0.005576764 0.003980271
00000000: 5610 c4b7 d60a a53c badd c43b e9f5 a13b
00000010: 903c 693b d01d 583b 074c be3b 5cce 723c
00000020: 5b29 a3bb 06bf feba b2ce 20bb 2237 d8bb
00000030: f5c5 1dbb bfce 943c ecfa 0ebb 5f20 a03b
00000040: ef9a 27bc 7c1e 4f3c 4fff 67ba e4a4 1dbb
00000050: 0b46 db3c 3b1d 223c 141f 713b bb85 be3b
00000060: 6468 54bc f1b0 1d3c c0e6 24bc 77df 5ebc
00000070: d138 373b 736a 80bb ebe9 74bc 3885 163b
00000080: 446a 99b8 4167 813b ade0 733b 1ba4 f339
00000090: dc48 813b 244b 29bb 6de8 20bb 1206 52bb
000000a0: 3ced 31ba 3dc1 4d3c bc28 acbc 37fb d63b
000000b0: f254 803b 30ce a7bb c897 cabc cb53 223c
000000c0: 1f95 f8bb 84d2 23bb ae05 233c 8b43 2b3c
000000d0: f047 4dba 9d15 e33c 46b1 723c 10ff e13b
000000e0: 6f69 0e3c 348a 56bc 7c1b 323b 5b4b 05bc
000000f0: 21c0 76bb 3ec3 553b abb7 af3b 8a21 c5ba
00000100: 2195 d9ba c720 a2ba a1b6 3bbc 4e12 87bb
00000110: 6dbd 073c 93be a7bc e484 fcba 8497 40bb
00000120: 2b77 ebbb 3800 d0b6 5e11 2a3b 9314 a63b
00000130: fb23 89bb f1f5 b1bb 686d 253c 29b7 a3bb
00000140: 836d 98ba 2291 99bb 4f05 6c3c f9a6 04bb
00000150: 7cff a3ba 5a33 d83c 8b89 d03b 5650 e3bb
00000160: 8775 4c3b 4f3b f2bb ffc3 c93b 80e8 be3b
00000170: ea42 a13c a0a0 0e3c ad53 64bb c3da 00bc
00000180: 6662 3a3c 7c3b 893c 864e 7f3b adc8 8eba
00000190: 47b8 97bb fe89 5d3b 47f2 81ba 984a 38bb
000001a0: 23ac e4ba 17ed d7bb 0235 163c a7d2 04bc
000001b0: e67c 64bb affc 763c d3ef 05bc 7891 46bb
000001c0: 4b1e ac3c 7bef 913b f49b 263b b336 db3b
000001d0: a7c8 1ebc 6110 11bc 821b 20bb 4e23 3d3b
000001e0: 3956 763b 1815 db3c db48 913c 721e 68bb
000001f0: 8b2b 02bd 14fd 7f3c d3c7 453c 5681 9abb
00000200: 4ca6 5f3c c708 83bb 4a5e 243c 88e0 bcba
00000210: 7197 9c3b deef 953c 94de 68bb aeb7 f9bb
00000220: 4ce2 b63c 77d9 44bb 52e7 af3b 434a 7539
00000230: 68d4 97bb ac7a c0bb 5f14 c13b c8e5 8f3b
00000240: 6d03 7ebc a546 3abc 89a3 da3b b938 a5bb
00000250: bbd2 c03b 7217 a33b 5670 033c 2665 e73b
00000260: 81b5 193a e350 01bc 62ba 913b 7761 383c
00000270: 4a7d 03bc 8f33 353b 5cbe dfbb e08d d03c
00000280: a9da 50bb 0893 28bb acdc b1bc aaea 433c
00000290: f7a8 19bc 3874 bfbc 4436 9abb 06a1 a8ba
000002a0: a42e 69bb b8b1 f13b 8103 883b 1464 8bba
000002b0: a2c5 cabb 562e 593b e50a a23a 5c2b edba
000002c0: 6311 94bc ff10 0b3c 96b5 9bba 3825 58bb
000002d0: 4dda 02bc 7c50 c7bb fdd5 9c3c 9701 fb3b
000002e0: f688 e23b d732 ca3b b5f8 9a3b eea0 fcbb
000002f0: 2dcb ba3c 224d 543c 92f1 25bc 3685 ac39
00000300: 344f b23b b68f 9c3c 0dd3 653b 1f70 42bb
00000310: 5146 6d3b 6615 fcbb 125b 553d 57e9 233d
00000320: 45ab dabb 32fc 4b39 b186 093c 9a1e 2e3c
00000330: f3a6 8dbb 3086 883c 9759 05ba 4c86 213b
00000340: 88c0 98bb de70 613b 4392 173c e0b6 a63b
00000350: d907 ea3b 805c 8bbb 09a7 003d 5ad7 423c
00000360: 39d5 083c dade a03c f2c1 f53c b2d9 b23a
00000370: 0686 b93b 4e08 8d3b e78f f03b 53f9 a5bc
00000380: 7f81 ce3b 6991 50bb 150c 173c 360e 1e3c
00000390: 913a 4f3c 752e 3e3c df37 753c e310 603c
000003a0: 9e0d 263a a5da 4b3b 0bd6 e7ba efa0 163d
000003b0: bbf7 c13a 2171 933a 90c5 c3bb c3db 3a3c
000003c0: 2154 0c3b f647 053c 93da b9bb bcaf 9d3c
000003d0: 4bc2 2f3c ad13 953b d7bb 94bc 09a8 c7ba
000003e0: 830a 77ba 4a3b 053c a25e f43c b33d 35bb
000003f0: 4c63 06bb 9a9d e93c 49bd b6bb ef6c 823b

layers.2.weight f4 [256, 256]
0.077008665 -0.03787455 -0.082503654 -0.05571005 0.06838297 -0.10834939 0.07235504 0.0019504039
0.011235688 -0.03923322 0.0634845 -0.08894821 0.086558364 -0.01973219 -0.083352104 -0.11081459
0.052714325 -0.006310643 -0.015913397 -0.00012678756 0.009177322 -0.00036265817 -0.13392389 0.05562898
0.043469027 -0.024594085 -0.0157117 -0.03681988 0.008511052 -0.070033155 -0.048788045 0.018465824
0.103188865 -0.15265441 -0.021429982 -0.0482404 -0.034723967 0.048545025 -0.030816041 0.005779023
0.039512265 0.009703013 0.0706317 0.042229716 -0.0768211 -0.062772036 -0.017400824 0.14592953
0.056089178 0.09856398 0.038618132 0.09941978 0.0857652 -0.09070775 0.030833049 0.028617466
-0.0062281364 -0.036248993 0.0209615 -0.032740645 0.01590497 0.11012672 -0.06835201 -0.072831005
0.038151484 -0.075146645 0.08564736 0.11345725 0.042099975 0.005360909 0.0069653247 0.034446016
0.08755692 -0.08205823 0.10168276 -0.022364594 -0.0024406267 -0.02632037 0.051695317 0.06214716
0.07159807 0.05855637 0.0052946317 0.006617757 0.06976597 0.047404602 0.08856716 -0.03425195
-0.017297834 0.037511554 -0.1305105 -0.06879724 -0.046421956 0.08610089 0.08884763 -0.06537008
-0.010780258 -0.12090945 -0.044685394 0.03080082 0.09093984 0.1472661 -0.0700346 -0.037761327
-0.037629038 0.095355235 -0.055819698 0.04782431 -0.05070187 0.03750506 0.08979634 0.089763746
-0.009412971 -0.08883402 0.04721523 0.017937139 -0.033887558 0.085119486 0.084775954 -0.18067978
0.048209008 -0.0021182676 0.07083588 0.014660508 0.07966044 0.038693804 0.06565132 0.07368474
0.04923759 -0.07899606 -0.034651205 -0.016535826 0.05095735 -0.09992359 -0.04553715 -0.08178636
-0.08403333 -0.094334625 0.07192711 -0.031564243 -0.04799682 -0.10919616 -0.019202866 -0.028268859
0.015429604 -0.0361158 0.06297331 0.093498066 0.06044744 0.09386959 0.0023797394 0.048442923
-0.08273167 0.13057245 -0.03168941 -0.028739616 0.036816493 -0.07506558 -0.09456038 0.07517146
0.0693762 -0.037375808 0.0698331 0.0036890963 -0.0012737095 0.033313368 0.010853073 -0.09849366
0.11048756 -0.025414826 0.035829823 -0.111529686 -0.022538275 0.047397304 0.061345786 -0.05053721
-0.019012112 -0.13849032 -0.07655395 0.023610663 -0.059615083 0.042715795 -0.09581031 -0.04977494
-0.08357493 0.087605216 0.049843434 -0.026178572 -0.036990024 0.039188065 -0.08618908 0.09243585
-0.0027510766 0.038043763 0.13323854 -0.091695234 -0.02907977 -0.059468254 0.08567148 0.12597628
-0.01894213 -0.033587776 -0.0718593 -0.11785868 -0.061291125 -0.04765343 -0.059963584 0.0195004
-0.020008923 -0.016253365 -0.060783584 0.034133557 -0.120443456 0.05829975 -0.09644698 0.09321017
0.042015273 0.075221166 -0.12294219 -0.039967336 0.08048851 0.026319291 -0.118480995 -0.1074665
-0.054091293 -0.021918999 -0.14262286 0.03308827 -0.03812772 0.0931412 -0.053432122 -0.10388711
0.052853014 0.036106523 -0.038510386 -0.10959268 0.07179535 -0.00696222 0.016481787 -0.019804856
-0.09997825 -0.08487815 0.059692033 -0.010501491 -0.08157219 0.042711876 -0.046653446 -0.04839159
-0.00024143753 -0.07363186 0.036816437 -0.034883976 0.10230109 0.074353054 0.06684438 0.0037052636
00000000: b8b6 9d3d 5822 1bbd adf7 a8bd 3930 64bd
00000010: 5f0c 8c3d 49e6 ddbd e12e 943d b2a4 ff3a
00000020: e415 383c 03b3 20bd 2904 823d 7b2a b6bd
00000030: 8345 b13d 67a5 a1bc 82b4 aabd c2f2 e2bd
00000040: faea 573d 83c9 cebb d05c 82bc 47f2 04b9
00000050: 7a5c 163c 2823 beb9 5823 09be 37db 633d
00000060: 940c 323d 8979 c9bc d3b5 80bc 71d0 16bd
00000070: f071 0b3c 8b6d 8fbd f9d5 47bd a445 973c
00000080: af54 d33d 7051 1cbe ee8d afbc ba97 45bd
00000090: b83a 0ebd 26d7 463d ec71 fcbc f55d bd3b
000000a0: 9dd7 213d 63f9 1e3c 5aa7 903d 11f9 2c3d
000000b0: 6254 9dbd a08e 80bd 2c8c 8ebc 8d6e 153e
000000c0: c4bd 653d e9db c93d 0c2e 1e3d 999c cb3d
000000d0: aaa5 af3d fcc4 b9bd 9795 fc3c 2d6f ea3c
000000e0: 6515 ccbb d379 14bd 74b7 ab3c 0e1b 06bd
000000f0: 244b 823c 1e8a e13d 23fc 8bbd 6c28 95bd
00000100: bb44 1c3d 7ce6 99bd e267 af3d 465c e83d
00000110: 0671 2c3d 90aa af3b 613d e43b 4417 0d3d
00000120: 0b51 b33d 250e a8bd 0d3f d03d f435 b7bc
00000130: ecf2 1fbb d19d d7bc 78be 533d 058e 7e3d
00000140: 02a2 923d ced8 6f3d 977e ad3b c5d9 d83b
00000150: 76e1 8e3d 542b 423d b362 b53d c64b 0cbd
00000160: 30b4 8dbc b7a5 193d 8ba4 05be 91e5 8cbd
00000170: f324 3ebd aa55 b03d bff5 b53d c0e0 85bd
00000180: ae9f 30bc 609f f7bd 0808 37bd 0052 fc3c
00000190: ab3e ba3d edcc 163e 4d6e 8fbd 9fab 1abd
000001a0: e820 1abd 9b49 c33d 32a3 64bd 6ce3 433d
000001b0: c4ac 4fbd e89e 193d 25e7 b73d 0ed6 b73d
000001c0: dd38 1abc 9cee b5bd c264 413d e8f0 923c
000001d0: aecd 0abd 2053 ae3d 049f ad3d 1f04 39be
000001e0: cf76 453d a2d2 0abb 6712 913d a132 703c
000001f0: 0325 a33d 657d 1e3d 3374 863d 06e8 963d
00000200: 5bad 493d b0c8 a1bd 6cee 0dbd 2476 87bc
00000210: a7b8 503d bda4 ccbd 2a85 3abd 9b7f a7bd
00000220: ab19 acbd 8332 c1bd 854e 933d 8249 01bd
00000230: 5098 44bd 3da2 dfbd 544f 9dbc 1894 e7bc
00000240: 73cc 7c3c 29ee 13bd 27f8 803d ea7b bf3d
00000250: bc97 773d b33e c03d 67f5 1b3b 166c 463d
00000260: 396f a9bd c9b4 053e c1cc 01bd 586f ebbc
00000270: e4cc 163d fcbb 99bd dfa8 c1bd 7ff3 993d
00000280: 1c15 8e3d 6017 19bd a804 8f3d c4c4 713b
00000290: 99f2 a6ba 9973 083d 16d1 313c 0bb7 c9bd
000002a0: 4d47 e23d c132 d0bc 4bc2 123d ad69 e4bd
000002b0: 30a2 b8bc ad23 423d b845 7b3d 1b00 4fbd
000002c0: 4abf 9bbc 68d0 0dbe 51c8 9cbd 266b c13c
000002d0: f22e 74bd c2f6 2e3d 3238 c4bd cfe0 4bbd
000002e0: 5529 abbd 5d6a b33d a128 4c3d 7274 d6bc
000002f0: da82 17bd aa83 203d e683 b0bd 024f bd3d
00000300: 684b 34bb c7d3 1b3d af6f 083e b6ca bbbd
00000310: b338 eebc fc94 73bd 8774 af3d edff 003e
00000320: 872c 9bbc 5693 09bd f82a 93bd e45f f1bd
00000330: 670c 7bbd 3e30 43bd 609c 75bd 4ebf 9f3c
00000340: c1e9 a3bc c725 85bc 35f8 78bd a1cf 0b3d
00000350: 0fab f6bd b8cb 6e3d ff85 c5bd f9e4 be3d
00000360: 3518 2c3d 8e0d 9a3d 1dc9 fbbd cab4 23bd
00000370: 29d7 a43d 8e9b d73c 2aa6 f2bd 6517 dcbd
00000380: d58e 5dbd 798f b3bc ba0b 12be 9187 073d
00000390: d02b 1cbd d0c0 be3d a4db 5abd c4c2 d4bd
000003a0: 677c 583d 6fe4 133d 11bd 1dbd 2172 e0bd
000003b0: 7109 933d 5623 e4bb d004 873c cb3d a2bc
000003c0: 66c1 ccbd 98d4 adbd a27f 743d 720e 2cbc
000003d0: 520f a7bd a6f2 2e3d af17 3fbd 4336 46bd
000003e0: 652a 7db9 4dcc 96bd d5cc 163d 80e2 0ebd
000003f0: 3c83 d13d 6a46 983d b5e5 883d 02d4 723b

layers.2.bias f4 [256]
0.0057184086 0.0019174693 0.00255796 -0.0010579848 -0.0028754405 -4.6629477e-05 0.0010709403 -0.0010459115
0.0011086118 -0.0009840236 0.0019484626 -0.001896316 0.0012544548 0.0013176147 0.0002289033 -0.0001032493
0.00045875288 0.0020969773 -0.0011761507 -0.00074863934 -0.00092471426 0.0009735454 -0.0015711872 -0.00058507407
-0.00081221067 0.0045670597 -0.0013756395 -0.001402883 0.0005856314 -0.0016056356 0.00034305616 0.0020102507
0.0011808928 0.004551756 0.0025944365 -0.0016521589 0.0010547166 0.0026463168 -0.0025700838 0.0005696778
-0.00085141015 -0.0017852663 -0.00073380966 0.0010025953 0.006493586 -0.0025319292 0.0010814162 0.0034410723
-0.0010064042 0.0037939106 0.00517943 -0.0010086254 0.0005613178 0.002188109 0.004672166 0.0033433083
-0.001922748 -0.0005473763 0.0008272351 -0.0010204775 6.4522676e-05 -0.00081776583 0.0048965355 0.0031078688
-0.0018776706 0.0004430251 -0.0005874148 0.0015064534 -0.0018146604 0.0010080894 0.00077811844 0.0012174965
0.011841637 0.0020833004 -0.00061590876 0.0007410011 0.0024642216 0.00017689816 0.0013385597 0.0002164683
-0.0007273062 0.006258511 0.0012829532 0.0016163809 -0.000103311206 0.011914355 0.00019666339 -0.0005852158
0.0013868785 0.0008479473 -0.001367365 0.0018590144 0.0026013749 0.0012297893 -0.0010934322 -0.0038557756
-0.0016268519 0.0006877926 0.00053048076 0.010138924 -0.0013294631 -0.0034437499 -0.0011604688 0.0021351501
-0.00017012465 -0.0019622399 -0.001089929 -0.0005940706 0.000584619 0.0019363314 0.003540167 0.0039260606
-0.0019935693 3.2481577e-05 -0.0020310162 -0.0012579687 0.00023895573 -0.0016538006 -0.0011689751 0.00043473137
0.008805391 -0.0025729188 -0.00017898668 0.00086255185 0.0007243381 -0.00088879763 0.00081689673 0.00053896283
0.00068861636 0.00026172842 0.013239204 -0.0008398104 0.0076937745 0.0018492797 0.0026042298 0.0050491504
-0.0016221885 0.0014500954 0.005680791 0.008597337 0.002307941 0.0014912119 0.00058489345 -0.0013831179
0.00086684735 -0.001665106 0.0022500115 -0.0015127092 -0.00040553458 -0.00080561545 0.0050969953 0.0021124359
0.0033188094 -0.0010877502 -0.0009973611 0.0014693901 -0.0013896198 -0.00038399416 0.0005557784 0.001957274
0.0016792302 -0.003139456 -0.0021655362 0.004320207 -0.0008889072 -0.001167356 -0.0004692662 0.0011801621
0.0045327805 0.00357438 -0.0010126971 0.0076331613 -0.0013355576 0.0011637448 0.007722352 -0.0002667558
-0.0010520798 0.005536504 -0.001007695 -0.0007819768 0.0026288817 0.0066360976 0.0029277697 0.0010259225
-0.0030060757 0.00299274 0.0006234037 -0.00016912143 0.002027281 0.00017092968 0.00095769955 0.00017825044
-0.0016534696 0.0022481326 0.0019070801 -0.0002131215 0.0020171655 0.0006486213 0.004221508 -0.0013055785
-0.001743119 0.00018579392 -0.0009715078 0.0047234697 0.0023428018 -0.0011987091 0.0041279485 0.0011808502
0.0007053499 -0.0013499815 0.002069378 0.002274694 0.0021241764 -0.0014795879 -0.00042510283 -0.0012653916
0.0012899283 -0.0006482058 0.00050422235 0.0068445425 0.00034772573 0.0067880633 -0.0012560716 0.0003775229
-0.0012975421 -0.0009976256 0.00019879884 -0.00069382315 0.006187277 -0.00066321803 0.00046063945 -0.00034074087
0.0001685599 0.0043972563 0.008291956 0.002127158 -0.0027748698 0.0017585856 0.0046604294 -0.0018139818
1.2784996e-05 0.00015367611 -0.0014982307 -0.002281619 0.001023441 0.0020496105 0.0072722337 0.0047409507
0.0009567174 7.045766e-05 0.00318959 -0.0015481937 -0.0024222787 0.00017753118 0.00013360828 -0.0021092885
00000000: 7d61 bb3b 9853 fb3a 73a3 273b 14ac 8aba
00000010: e371 3cbb 0594 43b8 cb5e 8c3a f716 89ba
00000020: d74e 913a 5afa 80ba 8e63 ff3a ce8d f8ba
00000030: 856c a43a d0b3 ac3a c305 7039 8c87 d8b8
00000040: c584 f039 716d 093b 1229 9aba 5640 44ba
00000050: 8668 72ba 8735 7f3a 4bf0 cdba a85f 19ba
00000060: 89ea 54ba 46a7 953b cd4e b4ba f1e0 b7ba
00000070: 0f85 193a 3174 d2ba 38dc b339 69be 033b
00000080: 30c8 9a3a e626 953b 6c07 2a3b 418d d8ba
00000090: 6b3e 8a3a d46d 2d3b da6e 28bb 6e56 153a
000000a0: 2b31 5fba 99ff e9ba 225d 40ba 8469 833a
000000b0: 26c8 d43b b9ee 25bb 4ebe 8d3a 9d83 613b
000000c0: 52e9 83ba 42a3 783b 35b8 a93b da33 84ba
000000d0: 6625 133a 6166 0f3b f818 993b 681b 5b3b
000000e0: b804 fcba cd7d 0fba cfda 583a 8bc1 85ba
000000f0: 5950 8738 565f 56ba 1e73 a03b 63ad 4b3b
00000100: 2c1c f6ba d345 e839 bdfc 19ba 3074 c53a
00000110: e6d9 edba de21 843a a5fa 4b3a 6794 9f3a
00000120: 6d03 423c fb87 083b f074 21ba be3f 423a
00000130: c77e 213b bd7d 3939 9c72 af3a c4fb 6239
00000140: b1a8 3eba 3214 cd3b c428 a83a bedc d33a
00000150: c8a8 d8b8 6d34 433c 6d37 4e39 2b69 19ba
00000160: ecc7 b53a c848 5e3a 2839 b3ba 2caa f33a
00000170: d47b 2a3b e230 a13a 7f51 8fba 2eb1 7cbb
00000180: 173c d5ba fb4c 343a f60f 0b3a bb1d 263c
00000190: 6141 aeba 89b0 61bb df1a 98ba e0ed 0b3b
000001a0: 7d63 32b9 ec98 00bb f3db 8eba 67bb 1bba
000001b0: 1e41 193a 80cc fd3a 2502 683b 2fa6 803b
000001c0: 8ba6 02bb d43c 0838 cc1a 05bb 6de2 a4ba
000001d0: 3190 7a39 57c4 d8ba 4c38 99ba a8ec e339
000001e0: 7d44 103c 6a9e 28bb 5fae 3bb9 e01c 623a
000001f0: 82e1 3d3a 33fe 68ba 0325 563a 2f49 0d3a
00000200: 4384 343a 9838 8939 3fe9 583c b926 5cba
00000210: 0f1c fc3b 8863 f23a baab 2a3b 5873 a53b
00000220: 9d9f d4ba 2111 be3a ee25 ba3b d8db 0c3c
00000230: d340 173b c574 c33a 8953 193a bc49 b5ba
00000240: 243d 633a b03f daba ee74 133b 1946 c6ba
00000250: ee9d d4b9 f02f 53ba b204 a73b cb70 0a3b
00000260: 6280 593b d792 8eba e3b9 82ba 8d98 c03a
00000270: e723 b6ba d352 c9b9 a8b1 113a 9c45 003b
00000280: 9e19 dc3a 55bf 4dbb abeb 0dbb 8690 8d3b
00000290: 8d05 69ba f801 99ba d807 f6b9 abaf 9a3a
000002a0: b887 943b 2540 6a3b 7abc 84ba 991f fa3b
000002b0: e00d afba cc88 983a c90b fd3b 5bdb 8bb9
000002c0: f1e5 89ba 906b b53b a214 84ba 93fd 4cba
000002d0: 5149 2c3b 9f73 d93b d3df 3f3b 3f78 863a
000002e0: 9501 45bb d821 443b ea6b 233a 3056 31b9
000002f0: 22dc 043b 963b 3339 210e 7b3a bde8 3a39
00000300: 3cb9 d8ba 6855 133b fdf6 f93a 5e79 5fb9
00000310: 6c32 043b 3d08 2a3a 9354 8a3b f21f abba
00000320: 5e79 e4ba add1 4239 c9ac 7eba 56c7 9a3b
00000330: b189 193b 011e 9dba be43 873b c2c6 9a3a
00000340: 3be7 383a ddf1 b0ba 679e 073b 0813 153b
00000350: c435 0b3b bbee c1ba 56e0 deb9 7fdb a5ba
00000360: d012 a93a 5bec 29ba ca2d 043a 2f48 e03b
00000370: f54e b639 676e de3b c5a2 a4ba 44ee c539
00000380: 4a12 aaba c3c2 82ba a874 5039 afe1 35ba
00000390: a4be ca3b cfdb 2dba fb81 f139 77a5 b2b9
000003a0: 74bf 3039 dc16 903b fcda 073c ca67 0b3b
000003b0: 97da 35bb 5780 e63a 84b6 983b 21c3 edba
000003c0: 247f 5637 1e24 2139 4860 c4ba 3787 15bb
000003d0: fb24 863a c252 063b eb4b ee3b fa59 9b3b
000003e0: 38cc 7a3a abc2 9338 7108 513b c3ec caba
000003f0: 18bf 1ebb aa27 3a39 3319 0c39 fd3b 0abb

layers.4.weight f4 [2, 256]
0.012053216 -0.018969864 -0.017780006 -0.021885008 -0.14074762 -0.07079212 0.056725156 -0.030785255
0.035964698 -0.12987411 0.09055941 -0.044320617 0.052591965 -0.11865942 0.12967527 0.12541738
0.09145635 0.1460652 -0.12194789 -0.13847716 0.01626806 0.0544785 -0.040378198 -0.077973045
-0.037017494 0.08046322 -0.062997214 -0.1029467 0.055988673 -0.092851415 -0.078107275 0.13526247
-0.09063491 0.10514742 0.040110175 -0.08336286 -0.0025919492 -0.07043404 -0.124048375 -0.030261802
-0.08676643 -0.049757484 -0.14591372 -0.13374737 0.008500247 -0.13594496 0.056262802 0.07103226
-0.09620708 0.03588724 0.008304565 -0.13385129 -0.09298151 -0.038929436 0.011503525 -0.005435348
-0.06112884 -0.06391695 0.107184954 -0.0675634 -0.06788885 0.03958697 -0.00021793028 -0.044074677
-0.0021168666 0.13570738 -0.07909571 0.13213377 0.008133762 -0.09405479 0.108074486 0.07194562
0.0044126622 0.086740725 -0.013198563 0.106774285 0.091317795 0.072188124 0.07835304 -0.03454011
-0.11639657 -0.017696124 0.10543402 -0.05695065 0.13996124 0.060119756 -0.11406346 -0.02871035
0.065887555 0.06883333 -0.068315044 -0.08836044 0.03840444 0.03179556 -0.14985253 -0.11400856
-0.11350857 -0.02441708 0.06231454 0.0026216998 -0.106002726 -0.10435006 -0.14231305 0.118483655
-0.035730466 -0.052505746 -0.122088596 0.04704672 0.12245269 0.040552203 0.028816536 -0.06600246
-0.11889437 0.07408812 -0.030911185 -0.050743997 0.14391042 -0.036409594 -0.1426896 0.10947365
0.020896334 -0.10133959 0.014346926 0.13350835 0.09659315 0.04875104 0.057764944 -0.045102842
0.14081022 0.06889636 0.0010704778 -0.13430159 -0.025896708 0.009747297 -0.036034923 0.061959155
-0.11429873 0.06506683 0.046237487 -0.0001880607 0.03543723 0.07996053 0.06574517 -0.11526442
0.15002562 -0.07619436 -0.031811707 -0.051962588 0.018141808 -0.018421082 0.08904724 0.09501961
0.075756066 -0.022592697 -0.12883328 0.13323379 -0.12447889 0.11635778 -0.13396902 0.045515776
0.04169216 -0.12862498 -0.13486765 0.024536492 -0.10962687 -0.10630336 -0.084326476 -0.02124206
0.062866725 -0.12550677 -0.12105633 0.011048198 -0.056816183 -0.0128746545 0.0036006947 0.067956306
-0.10496544 -0.00039670314 -0.090011984 -0.110594526 0.12983531 -0.01799514 0.07749159 0.08933347
-0.14023028 0.04531372 0.13585745 -0.012427996 0.10519597 0.13893943 0.14094757 -0.08938857
-0.029929824 -0.06720294 0.028820034 1.3851236e-05 0.009392619 0.064126484 -0.018426485 -0.13861166
-0.05039093 -0.02602552 -0.09741625 0.00089357345 0.05835457 -0.051105298 -0.03570403 0.054091446
-0.04997866 -0.12697846 0.07090869 0.014317487 0.14850274 -0.135689 0.08356901 -0.07241312
0.123839244 -0.10165641 0.04799058 0.0056399996 0.011657162 -0.00228828 -0.11570778 0.063980035
-0.11994531 -0.107396394 0.06978303 -0.079910755 0.0065885847 -0.117127836 0.09003973 -0.104474165
0.118158646 0.044945166 -0.02252844 -0.0053815097 -0.056215826 0.036269452 -0.017038366 -0.10493596
0.039008133 0.08382514 -0.103502706 0.00085072115 0.1404113 0.07245015 0.0025160755 -0.049418837
0.07621865 0.07931784 0.0019185464 -0.1065185 -0.032757703 0.06428261 0.03092066 -0.082457565
00000000: da7a 453c b066 9bbc 60a7 91bc 3048 b3bc
00000010: 2520 10be 76fb 90bd a358 683d 5c31 fcbc
00000020: b84f 133d b8fd 04be 3677 b93d 8989 35bd
00000030: ac6a 573d b603 f3bd 98c9 043e 6a6d 003e
00000040: 784d bb3d 1e92 153e d1bf f9bd f5cc 0dbe
00000050: 9844 853c d924 5f3d 9c63 25bd 55b0 9fbd
00000060: a89f 17bd e7c9 a43d af04 81bd b8d5 d2bd
00000070: 6154 653d e228 bebd b5f6 9fbd 3f82 0a3e
00000080: cc9e b9bd 8857 d73d 914a 243d 26ba aabd
00000090: b1dd 29bb b93f 90bd 130d febd 99e7 f7bc
000000a0: 99b2 b1bd 81ce 4bbd 686a 15be 12f5 08be
000000b0: 9f44 0b3c 2835 0bbe d373 663d 5d79 913d
000000c0: 3808 c5bd 80fe 123d df0f 083c 5010 09be
000000d0: 176d bebd 7974 1fbd 4879 3c3c 011b b2bb
000000e0: 3c62 7abd e4e6 82bd c983 db3d ae5e 8abd
000000f0: 4f09 8bbd f225 223d 3784 64b9 a687 34bd
00000100: 21bb 0abb e0f6 0a3e eefc a1bd 134e 073e
00000110: 7843 053c cc9f c0bd 2856 dd3d 3a58 933d
00000120: 1898 903b 1fa5 b13d c93e 58bc 7aac da3d
00000130: d304 bb3d 5ed7 933d 8f77 a03d ee79 0dbd
00000140: 5361 eebd 76f7 90bc cbed d73d 1645 69bd
00000150: 0052 0f3e 2240 763d 1a9a e9bd f831 ebbc
00000160: 0ef0 863d 7df8 8c3d c2e8 8bbd 52f6 b4bd
00000170: f94d 1d3d 103c 023d f172 19be 527d e9bd
00000180: 2e77 e8bd 5406 c8bc 883d 7f3d d3d0 2b3b
00000190: f517 d9bd 7cb5 d5bd 83ba 11be 8fa7 f23d
000001a0: 1c5a 12bd 4410 57bd 9609 fabd 10b4 403d
000001b0: 7ac8 fa3d 111a 263d a810 ec3c 4c2c 87bd
000001c0: e47e f3bd 83bb 973d 7439 fdbc f0d8 4fbd
000001d0: 415d 133e 3a22 15bd 391d 12be b933 e03d
000001e0: ca2e ab3c 228b cfbd 5e0f 6b3c 6ab6 083e
000001f0: a1d2 c53d 2caf 473d ef9a 6c3d c2bd 38bd
00000200: 8e30 103e 8919 8d3d 464f 8c3a 5b86 09be
00000210: 5525 d4bc 20b3 1f3c 5b99 13bd e2c8 7d3d
00000220: 7415 eabd c241 853d 8563 3d3d 2932 45b9
00000230: a126 113d 59c2 a33d 67a5 863d c10f ecbd
00000240: 51a0 193e ca0b 9cbd fe4c 02bd b9d6 54bd
00000250: 219e 943c cfe7 96bc 665e b63d a499 c23d
00000260: ff25 9b3d 5214 b9bc dfec 03be 706e 083e
00000270: caee febd fd4c ee3d 2d2f 09be c06e 3a3d
00000280: 66c5 2a3d 44b6 03be bf1a 0abe c100 c93c
00000290: 0d84 e0bd 93b5 d9bd 5cb3 acbd d403 aebc
000002a0: 45c0 803d d984 00be 62ec f7bd 8003 353c
000002b0: 16b8 68bd 37f0 52bc a2f9 6b3b ad2c 8b3d
000002c0: 1ff8 d6bd 98fc cfb9 3458 b8bd 627f e2bd
000002d0: 8cf3 043e 8b6a 93bc e9b3 9e3d 77f4 b63d
000002e0: 8798 0fbe e19a 393d 371e 0b3e cb9e 4bbc
000002f0: fc70 d73d 2346 0e3e 8f54 103e 5b11 b7bd
00000300: 642f f5bc b2a1 89bd fe17 ec3c 9b62 6837
00000310: 80e3 193c bf54 833d 24f3 96bc 37f0 0dbe
00000320: b866 4ebd 7933 d5bc 2c82 c7bd b33e 6a3a
00000330: 3405 6f3d ca53 51bd 643e 12bd fe8e 5d3d
00000340: 6cb6 4cbd a406 02be 9338 913d e593 6a3c
00000350: 1a11 183e 0ff2 0abe 3b26 ab3d 544d 94bd
00000360: 6e9f fd3d 3c31 d0bd c591 443d bfcf b83b
00000370: aefd 3e3c f8f6 15bb 33f8 ecbd f707 833d
00000380: e3a5 f5bd a4f2 dbbd 68ea 8e3d 40a8 a3bd
00000390: 0ee5 d73b b8e0 efbd c066 b83d 8df6 d5bd
000003a0: 29fd f13d 6c18 383d 908d b8bc 6057 b0bb
000003b0: 9142 66bd 478f 143d 0b94 8bbc aae8 d6bd
000003c0: fec6 1f3d 84ac ab3d 3af9 d3bd ee02 5f3a
000003d0: fbc7 0f3e bf60 943d bee4 243b 686b 4abd
000003e0: 8618 9c3d 6471 a23d bc77 fb3a 5f26 dabd
000003f0: f12c 06bd 9aa6 833d 534d fd3c 83df a8bd

layers.4.bias f4 [2]
0.00096364133 -0.0017984197
00000000: e09c 7c3a f4b8 ebba
