Results_dir/2022-03-20-22-30-21/critic.pth (torch, 536911 bytes, 7 tensors)

layers.0.weight f4 [256, 6]
-0.6441173 -0.06588939 -0.08435285 -0.038520362 -0.032894228 0.081453405 -0.19941413 0.033221938
-0.10956768 -0.013451503 0.06611691 -0.3969187 -0.54887396 -0.027036414 -0.1476758 -0.300693
-0.04137737 -0.104263686 0.11750676 0.3096746 0.64155614 0.114591 0.15543686 0.17147186
-0.8868969 0.028689457 0.10638079 -0.27648976 -0.06841817 -0.33767575 -0.36365646 -0.024123332
-0.2951716 -0.12965423 0.030219221 0.037195336 -0.15408295 0.02329371 -0.11591663 -0.14081384
0.016241686 0.28588185 -0.43009996 0.13490008 -0.20658278 -0.47526646 -0.018462585 -0.058194708
-0.42035806 0.028353393 -0.047096733 -0.24043411 0.009793065 -0.06773604 0.12020322 0.12956263
-0.15175141 -0.10488074 0.029347124 0.23054893 0.09068399 -0.043974955 0.97515756 -0.09297579
0.2387764 0.4127351 -0.3217972 -0.003904594 -0.0059030657 0.28679684 -0.009416774 -0.019364005
-0.20052518 -0.35481167 0.90277684 0.14424898 -0.041196756 0.3497971 -1.2250422 0.59113824
-1.349622 0.298167 0.006232132 -0.38801974 -0.18245779 -0.16804044 0.12243349 -0.07843308
0.06265555 0.11844459 0.7538594 0.006356666 -1.2939563 -0.20442119 0.040623453 0.28706038
0.6391186 0.36632982 0.08637804 0.19314614 0.13505565 0.36405784 0.7916933 -0.011801519
0.9231069 -0.3307543 0.10073386 0.4285223 0.85532147 0.37202257 -1.049195 0.119879834
-0.0026443116 -0.49868298 0.6170118 0.3277731 -0.2394217 -0.08780809 -1.5805417e-05 0.05727769
-1.2913224 -0.3256393 0.19125137 -0.0054242085 -0.09051991 -0.42385584 -0.2104846 -0.11245327
0.3827771 -0.06355932 0.01669513 0.27718264 -1.5717682 -0.30788422 0.11089024 0.06356411
-0.034137562 -0.38473222 -0.4588378 -0.13751939 0.7805947 0.05510579 0.097438835 0.842471
-0.43798918 0.112433724 -0.781093 0.067916565 -0.032243464 -0.22540079 -0.04462916 -0.105265126
0.25293958 0.28317356 0.059351515 0.2667477 1.793037 0.033780996 -1.0245782 -0.105911106
-0.31119356 -0.55957884 -0.22222196 0.20566434 0.5338123 -0.00084808236 0.045599025 0.14204542
-1.4840032 -0.3445735 0.4685826 0.20222959 -0.06647022 -0.20819525 -0.15033066 0.050575305
-0.09492356 -0.15574075 -0.008377187 0.1535127 -0.2463993 0.13549 0.23287429 0.034851786
-0.21992144 0.043446124 0.3399648 0.2844897 -0.31437388 0.11909288 0.04156227 0.11932677
0.16948758 0.43499732 -0.25812018 0.348588 -0.045474637 -0.09290582 -0.36194056 -0.14935534
0.26724797 -0.05853637 -0.007192422 0.046906214 -0.7370189 -0.23393664 0.15752895 -0.107776806
-0.007992656 0.01727739 -0.9935212 0.20251594 -0.16950053 0.290622 -0.00074684905 -0.093320385
-1.4771464 -0.45995554 0.63596404 0.11066498 -0.0450169 -0.21370822 0.391917 0.19438072
-1.1050116 -0.110795856 -0.062572174 -0.07063379 -0.3664334 -0.09037179 -0.21257971 -0.36364803
-0.012116567 0.08064481 -1.4748298 0.07554038 -0.1402314 0.16010836 -0.06028742 -0.22084302
-0.6005126 0.12414525 -0.5780252 0.01817033 -0.056342732 -0.840572 -0.3937052 -0.15821014
0.2731526 -0.037527703 0.04291175 0.3681888 -0.024250478 -0.088225596 0.9007075 -0.08123624
00000000: dfe4 24bf 04f1 86bd 30c1 acbd 87c7 1dbd
00000010: 19bc 06bd 0bd1 a63d 3833 4cbe ba13 083d
00000020: 0565 e0bd b163 5cbc 4d68 873d ee38 cbbe
00000030: 0183 0cbf 787b ddbc 5338 17be 6ff4 99be
00000040: 517b 29bd 3388 d5bd 62a7 f03d ab8d 9e3e
00000050: 063d 243f b0ae ea3d d72a 1f3e 5296 2f3e
00000060: ad0b 63bf 2706 eb3c 2cde d93d 1190 8dbe
00000070: d31e 8cbd d6e3 acbe 2e31 babe 4b9e c5bc
00000080: bb20 97be 14c4 04be 4d8e f73c 235a 183d
00000090: ecc7 1dbe 73d2 be3c b365 edbd 8131 10be
000000a0: 490d 853c 1b5f 923e 1036 dcbe 3f23 0a3e
000000b0: 708a 53be 2056 f3be d93e 97bc 935d 6ebd
000000c0: 2c39 d7be 6045 e83c 81e8 40bd 5c34 76be
000000d0: 1773 203c 31b9 8abd 1b2d f63d 11ac 043e
000000e0: b964 1bbe b7cb d6bd 6169 f03c 0515 6c3e
000000f0: 87b8 b93d 151f 34bd eda3 793f 176a bebd
00000100: cd81 743e 0452 d33e 9ac2 a4be 38e4 7fbb
00000110: 816e c1bb 09d7 923e d048 1abc 43a1 9ebc
00000120: 7956 4dbe e0a9 b5be 621c 673f 01b6 133e
00000130: eebd 28bd 9b18 b33e 2fce 9cbf d654 173f
00000140: 6ac0 acbf 58a9 983e ea36 cc3b 86aa c6be
00000150: 37d6 3abe cb12 2cbe 69be fa3d 86a1 a0bd
00000160: 8e51 803d 1493 f23d eefc 403f 944b d03b
00000170: 5ca0 a5bf ca53 51be c764 263d 94f9 923e
00000180: 479d 233f 958f bb3e f8e6 b03d 1ac8 453e
00000190: 074c 0a3e ca65 ba3e 69ac 4a3f 295b 41bc
000001a0: bc50 6c3f a158 a9be 8e4d ce3d 4667 db3e
000001b0: 59f6 5a3f be79 be3e 064c 86bf 8f83 f53d
000001c0: 304c 2dbb 6053 ffbe 7cf4 1d3f e0d1 a73e
000001d0: f62a 75be bad4 b3bd e095 84b7 039c 6a3d
000001e0: 0d4a a5bf 32ba a6be 66d7 433e 8fbd b1bb
000001f0: 8162 b9bd a203 d9be 4689 57be e64d e6bd
00000200: 5cfb c33e 642b 82bd 3ac4 883c e2ea 8d3e
00000210: b32f c9bf 00a3 9dbe 6c1a e33d e62d 823d
00000220: d4d3 0bbd 9ffb c4be caec eabe e2d1 0cbe
00000230: 0ed5 473f 9cb6 613d 038e c73d 2eac 573f
00000240: 1e40 e0be a743 e63d b6f5 47bf d717 8b3d
00000250: b911 04bd 77cf 66be 11cd 36bd 3e95 d7bd
00000260: 4c81 813e 20fc 903e 931a 733d 2893 883e
00000270: 3d82 e53f f15d 0a3d 6125 83bf ece7 d8bd
00000280: c354 9fbe 8f40 0fbf 278e 63be ac99 523e
00000290: eca7 083f d851 5eba 0bc6 3a3d 5b74 113e
000002a0: d1f3 bdbf f06b b0be 0fea ef3e 4615 4f3e
000002b0: 8a21 88bd 2331 55be 48f0 19be 0d28 4f3d
000002c0: 4967 c2bd 817a 1fbe 7840 09bc 6f32 1d3e
000002d0: 1950 7cbe e4bd 0a3e 9976 6e3e bfc0 0e3d
000002e0: 1633 61be 90f4 313d de0f ae3e a2a8 913e
000002f0: 9df5 a0be f8e6 f33d 333d 2a3d 9861 f43d
00000300: 278e 2d3e f8b7 de3e 5428 84be 207a b23e
00000310: 9d43 3abd 6845 bebd 4650 b9be 9bf0 18be
00000320: bad4 883e d5c3 6fbd 69ae ebbb bb20 403d
00000330: 45ad 3cbf 168d 6fbe 454f 213e 16ba dcbd
00000340: a1f3 02bc 5089 8d3c 6857 7ebf 5760 4f3e
00000350: 8c91 2dbe 68cc 943e 31c8 43ba c21e bfbd
00000360: 2213 bdbf 4b7f ebbe 8ace 223f 52a4 e23d
00000370: a463 38bd 54d6 5abe 58a9 c83e bd0b 473e
00000380: 0571 8dbf f0e8 e2bd d725 80bd 73a8 90bd
00000390: 299d bbbe d814 b9bd 7fae 59be 1330 babe
000003a0: 9184 46bc 1b29 a53d 39c7 bcbf eab4 9a3d
000003b0: d298 0fbe 72f3 233e f1ef 76bd ac24 62be
000003c0: 32bb 19bf dd3f fe3d 76f9 13bf f2d9 943c
000003d0: a3c7 66bd ba2f 57bf ba93 c9be d701 22be
000003e0: a8da 8b3e a6b6 19bd 3bc4 2f3d 3e83 bc3e
000003f0: f0a8 c6bc 9faf b4bd c494 663f 305f a6bd

layers.0.bias f4 [256]
0.004517328 0.23967333 -0.22228903 0.15377977 -0.2446586 -0.12516107 -0.08417693 -0.22341084
-0.1609878 -0.090772025 0.06131001 -0.71374255 -0.609502 -0.58975273 0.4879101 -0.046112545
0.1316003 -0.04997946 0.50814945 0.18925145 -0.31300086 0.32980406 -0.38873535 -0.022622684
0.35032555 -1.0796722 0.55599946 0.3255041 -0.8715152 -0.13236867 0.33306947 0.27825606
-0.04983789 0.0002037556 -0.35530454 -0.9346011 -0.4410896 0.024345525 -0.20152465 -0.6499377
0.40049526 0.20479988 0.093780756 -0.6753913 -0.0857386 -0.7312101 -0.09081784 -0.15493242
0.13626435 0.50291955 0.70225227 0.3584773 -0.41740355 0.013067203 -0.7275687 0.06478836
0.27358487 0.4578005 -0.5456136 0.02570748 0.1959415 -0.46393195 0.6999849 0.9665049
-0.79646057 0.026877733 0.53762835 0.4379463 0.6375793 -0.1556156 0.57928866 0.037492752
-0.062455505 0.6074842 0.2734663 -0.23034011 0.67539984 -0.4380702 0.6083432 -0.10640588
-0.02278295 -0.30790722 0.31777602 -0.8809136 -0.5923829 -0.37547484 -0.62106967 0.77415365
-0.7481136 -0.49125054 0.48365045 0.11492553 -0.54959595 0.2754725 0.41089636 -0.23847595
-0.73264706 0.17069216 0.5557985 -0.37253684 0.107567996 0.44016445 -0.5082202 -0.36351973
0.39836082 0.515894 0.3361259 0.48565876 0.6652163 0.2499882 -0.8361727 0.2951036
0.63824505 -0.14282335 -0.5252073 -0.9757734 0.112678066 0.650334 -0.9675399 0.29095507
-0.02879104 0.59422976 -0.081454426 0.6894834 0.53443396 -0.51156634 -0.8852697 0.28251067
-0.63703525 -0.19712901 0.23968652 -0.64238036 -0.9989434 0.063904054 -0.099986054 0.5315595
0.359613 0.16367534 0.099413686 0.3924481 0.5938157 -0.22085004 0.28609177 0.13726155
-1.1449457 -0.22532201 0.32011798 -0.0477583 -1.0554101 -0.20237075 0.20779881 -0.2263913
0.089085065 -0.06902791 0.5618879 -0.86765957 -0.42207712 0.54707074 -1.0093867 -0.697954
-0.9461448 0.5302007 0.30692592 -0.60305804 0.5131511 -0.5436301 -0.39081845 0.53088075
0.39951453 0.054343775 -0.4955249 -0.21144584 -1.0980849 -0.56577826 0.58651274 0.038040128
-0.47460523 0.28262937 -0.5937709 -0.75744164 -0.7167947 0.099748425 0.2702298 -0.31093368
0.5827642 0.15470302 -0.23894942 -0.727794 0.10906542 0.07252401 0.0646299 0.45403588
-0.08277332 -0.23291458 -0.7585859 -0.0032953764 0.5636744 -0.4399245 0.35619208 0.019036816
0.73066974 -0.42567113 -0.72898656 0.20696229 0.21120907 0.46715447 0.27916127 -0.13266145
-0.31018147 -0.56133056 -0.01055761 0.105180286 -0.11345761 0.49635303 0.03036151 0.6065204
0.25906444 -0.96347654 -0.711564 0.9928413 0.028631393 -0.42088646 -1.1549882 -0.14618434
-0.29238868 0.56312954 0.524283 -0.2470619 -1.0679425 0.028758613 0.07557553 -0.4857754
-0.15878168 -0.7383772 -0.28707692 -0.001971658 -0.053189225 -0.03216891 0.32117584 0.12384778
0.11427204 -0.90584636 -0.4023509 1.0280718 0.22054514 0.03383512 -1.0971048 -0.5947672
0.56222546 0.238604 0.0068422016 -0.10385271 0.14116637 0.14999658 0.0436126 -0.60832375
00000000: 1806 943b ed6c 753e bc9f 63be 7278 1d3e
00000010: c987 7abe 392a 00be f464 acbd d0c5 64be
00000020: fcd9 24be afe6 b9bd 3420 7b3d d5b7 36bf
00000030: 5308 1cbf 09fa 16bf 5acf f93e 82e0 3cbd
00000040: 3bc2 063e 43b7 4cbd 1516 023f 22cb 413e
00000050: a641 a0be 14dc a83e 5208 c7be 3553 b9bc
00000060: df5d b33e b332 8abf fb55 0e3f 79a8 a63e
00000070: 9f1b 5fbf a78b 07be 1588 aa3e 9477 8e3e
00000080: d122 4cbd 3aa7 5539 7aea b5be 0542 6fbf
00000090: 7fd6 e1be 4470 c73c 7a5c 4ebe 5162 26bf
000000a0: b70d cd3e 0fb7 513e 2010 c03d 72e6 2cbf
000000b0: b897 afbd 9630 3bbf b4fe b9bd 9ba6 1ebe
000000c0: e288 0b3e 56bf 003f cec6 333f 568a b73e
000000d0: ebb5 d5be d217 563c f141 3abf c2af 843d
000000e0: 5113 8c3e d464 ea3e 55ad 0bbf 7e98 d23c
000000f0: e3a4 483e 7d88 edbe 3632 333f dd6c 773f
00000100: d7e4 4bbf b12e dc3c 03a2 093f 7f3a e03e
00000110: 6638 233f b259 1fbe 434c 143f 0092 193d
00000120: 58d1 7fbd 1684 1b3f c603 8c3e 47de 6bbe
00000130: 01e7 2c3f bd4a e0be 61bc 1b3f 53eb d9bd
00000140: 4fa3 babc 04a6 9dbe 8ab3 a23e 8e83 61bf
00000150: 68a6 17bf 3d3e c0be 6cfe 1ebf ef2e 463f
00000160: 5f84 3fbf 3185 fbbe 08a1 f73e 145e eb3d
00000170: 52b2 0cbf bb0a 8d3e 0261 d23e 0a33 74be
00000180: c28e 3bbf edc9 2e3e cf48 0e3f 26bd bebe
00000190: 9c4c dc3d 3c5d e13e b81a 02bf 421f babe
000001a0: f3f5 cb3e a111 043f b218 ac3e 44a8 f83e
000001b0: 9e4b 2a3f e8fc 7f3e 6a0f 56bf d217 973e
000001c0: 0764 233f 4940 12be fc73 06bf 49cc 79bf
000001d0: c2c3 e63d 4a7c 263f b2b0 77bf 10f8 943e
000001e0: 30db ebbc 711f 183f 94d1 a6bd fc81 303f
000001f0: aad0 083f 03f6 02bf 09a1 62bf 3da5 903e
00000200: be14 23bf 30dc 49be 6270 753e 0a73 24bf
00000210: c1ba 7fbf 21e0 823d 7dc5 ccbd 4914 083f
00000220: 321f b83e 829a 273e 6799 cb3d f5ee c83e
00000230: 4e04 183f 8326 62be 9f7a 923e 4b8e 0c3e
00000240: 958d 92bf d0ba 66be 81e6 a33e 359e 43bd
00000250: ae17 87bf 473a 4fbe 36c9 543e 1fd3 67be
00000260: 3b72 b63d 815e 8dbd e3d7 0f3f f01e 5ebf
00000270: 7e1a d8be d40c 0c3f 9533 81bf 1dad 32bf
00000280: 8c36 72bf 3cbb 073f 6525 9d3e 0362 1abf
00000290: df5d 033f 582b 0bbf 5b19 c8be cde7 073f
000002a0: 2b8d cc3e 9497 5e3d 71b5 fdbe 4285 58be
000002b0: 0c8e 8cbf d8d6 10bf b325 163f f7cf 1b3d
000002c0: 75ff f2be ccb4 903e 5f01 18bf b2e7 41bf
000002d0: dc7f 37bf e748 cc3d 8f5b 8a3e b332 9fbe
000002e0: 0930 153f 786a 1e3e 28af 74be b550 3abf
000002f0: b15d df3d 7887 943d ae5c 843d 6477 e83e
00000300: 0f85 a9bd 2981 6ebe af32 42bf 3ef7 57bb
00000310: f74c 103f c93d e1be cf5e b63e 19f3 9b3c
00000320: 2c0d 3b3f 91f1 d9be dd9e 3abf eced 533e
00000330: 3147 583e df2e ef3e 3aee 8e3e 67d8 07be
00000340: 1bd0 9ebe 5cb3 0fbf d3f9 2cbc c368 d73d
00000350: 775c e8bd fc21 fe3e b4b8 f83c ec44 1b3f
00000360: 18a4 843e 66a6 76bf 0f29 36bf d92a 7e3f
00000370: 628c ea3c 6e7e d7be a7d6 93bf 59b1 15be
00000380: f8b3 95be 4229 103f 6937 063f cbfd 7cbe
00000390: 57b2 88bf 2f97 eb3c 58c7 9a3d 8eb7 f8be
000003a0: aa97 22be 4a06 3dbf bffb 92be ef36 01bb
000003b0: f2dc 59bd 8cc3 03bd 2971 a43e e8a3 fd3d
000003c0: 7607 ea3d 8ce5 67bf f000 cebe db97 833f
000003d0: 96d6 613e b296 0a3d ee6d 8cbf aa42 18bf
000003e0: 02ee 0f3f 9b54 743e 8c34 e03b bbb0 d4bd
000003f0: eb8d 103e b498 193e 20a3 323d 1bbb 1bbf

layers.2.weight f4 [256, 256]
-0.15268421 -0.013878283 -0.08760877 -0.11276328 -0.06352484 -0.16035353 -0.15580864 0.037958
-0.051528063 -0.055107538 -0.15108407 -0.25804952 0.04451526 0.036465485 -0.36804968 0.0050583244
-0.32596663 -0.15960848 -0.3343103 -0.17197837 -0.23223695 -0.13762744 -0.4127446 -0.11974318
-0.23696578 -0.18305132 -0.3216861 -0.10262818 -0.31831163 -0.19190674 -0.17399228 -0.35194162
-0.020723205 -0.015920741 -0.062289357 -0.23482649 -0.3495681 -0.26088265 0.013475365 -0.28299457
-0.20645325 -0.22856355 0.044966083 -0.17712367 -0.02314965 -0.114433624 -0.015103111 0.018489763
-0.12438105 -0.2509803 -0.21379042 -0.18164928 -0.08046649 0.06348486 -0.03766666 -0.00515988
-0.26592192 -0.28713834 0.0066397125 0.00077323924 -0.25502402 0.062649556 -0.3246095 -0.48923656
-0.24733622 -0.1722399 -0.37883967 -0.3283646 -0.37081006 -0.10662276 -0.255893 -0.28376216
0.006438387 -0.22430588 0.13328287 0.029201329 -0.223733 -0.0088649765 -0.38527793 -0.11274933
-0.115053564 0.03727085 -0.19141449 -0.03288986 0.13407733 -0.22421898 0.22697508 -0.38306305
-0.10248339 0.19931632 -0.16972719 -0.10922746 -0.23757133 -0.12030041 0.12009709 0.16080712
0.32506087 -0.30187786 -0.41162914 -0.22241706 -0.08174914 -0.36829504 -0.25371897 -0.26523644
-0.023754368 -0.27811578 -0.23898035 -0.26107386 -0.3161326 -0.25340873 -0.070552245 0.15348007
-0.36899137 -0.119195335 -0.25735134 -0.4131051 -0.22486229 -0.23646377 -0.26098415 -0.11460028
-0.07028071 -0.3171578 -0.15571116 -0.27984065 -0.13140257 -0.18020736 -0.16232516 0.050873745
-0.28124565 -0.012170078 -0.35564205 -0.33543015 -0.32729894 -0.1261828 0.020875705 -0.23848765
-0.35341805 -0.27610272 -0.28600597 -0.3159117 -0.41804197 0.3071756 -0.073525354 -0.22782655
-0.28217623 -0.20543833 -0.29311937 -0.1986844 -0.09063676 0.13836098 -0.22510001 0.03249667
-0.3039579 -0.072986804 -0.26834166 -0.17095713 -0.2923513 -0.23006058 -0.13745193 -0.13028856
0.076874204 -0.1116569 -0.32633686 0.20584004 -0.3985827 -0.21501133 -0.34531158 -0.25416005
-0.2971097 -0.09323977 0.07732433 -0.07979416 -0.18593207 -0.10654208 -0.30877277 -0.055005934
-0.38864604 -0.29486275 -0.11680951 -0.18281676 -0.3844431 -0.05038131 -0.16584839 -0.2809771
-0.38415653 -0.32296854 0.025127858 -0.055727206 0.08367953 -0.2840117 -0.29265258 -0.23069079
-0.1390166 -0.075906076 0.010877856 -0.010707934 -0.26150286 -0.11366589 0.013962832 0.049043823
-0.13962099 -0.194667 -0.04236206 -0.21668552 -0.1092813 -0.39608026 -0.014123201 -0.18887767
-0.3607014 -0.25826216 0.023842327 -0.16950683 0.05331096 0.0039275447 -0.16846715 -0.30709854
-0.24315126 -0.24553321 -0.154353 -0.4445616 -0.13284485 0.008077778 -0.09397624 0.082556844
-0.01444351 -0.18828744 -0.4052109 -0.060302436 -0.20360525 -0.257108 -0.14981942 0.20444201
-0.14641756 0.055217247 -0.20326523 0.006828766 -0.028132895 -0.21320014 -0.12136292 -0.23445073
-0.3097002 -0.21234392 -0.08580757 -0.45455638 -0.1595934 -0.20456935 -0.16501918 -0.07536576
-0.046828967 -0.26109767 -0.14707294 -0.09573118 -0.23090419 0.07488568 -0.13667767 -0.26856294
00000000: 4059 1cbe bd61 63bc 3a6c b3bd 6ff0 e6bd
00000010: 5019 82bd b733 24be 4d8c 1fbe d979 1b3d
00000020: 170f 53bd 71b8 61bd c8b5 1abe 111f 84be
00000030: a255 363d d55c 153d 0271 bcbe 4dc0 a53b
00000040: 19e5 a6be 6870 23be b82a abbe 191b 30be
00000050: 86cf 6dbe 35ee 0cbe 4353 d3be ea3b f5bd
00000060: 28a7 72be ce71 3bbe 0ab4 a4be b92e d2bd
00000070: bef9 a2be 3383 44be 082b 32be b131 b4be
00000080: b6c3 a9bc 376c 82bc 2023 7fbd 5b76 70be
00000090: 97fa b2be 6992 85be c7c7 5c3c aae4 90be
000000a0: 7b68 53be 900c 6abe 5b2e 383d e85f 35be
000000b0: 56a4 bdbc 2d5c eabd 0a73 77bc d877 973c
000000c0: 7ebb febd 7d80 80be e0eb 5abe 4502 3abe
000000d0: 9dcb a4bd 5a04 823d 5b48 1abd 3614 a9bb
000000e0: eb26 88be cc03 93be f291 d93b 35b3 4a3a
000000f0: 8292 82be 694e 803d 3733 a6be 377d fabe
00000100: b545 7dbe a85f 30be 46f7 c1be 681f a8be
00000110: d1da bdbe 095d dabd 6804 83be 4649 91be
00000120: 1bf9 d23b 71b0 65be 4e7b 083e a037 ef3c
00000130: 431a 65be 683e 11bc 2643 c5be 1fe9 e6bd
00000140: 34a1 ebbd 52a9 183d 2902 44be 85b7 06bd
00000150: 914b 093e a999 65be 286c 683e d720 c4be
00000160: d0e2 d1bd 9419 4c3e f7cc 2dbe a6b2 dfbd
00000170: e645 73be 1060 f6bd 77f5 f53d 9faa 243e
00000180: 616e a63e bc8f 9abe 0ec1 d2be 4cc1 63be
00000190: 186c a7bd 2b91 bcbe 74e7 81be 12cd 87be
000001a0: 8598 c2bc 3165 8ebe 44b7 74be 79ab 85be
000001b0: 22dc a1be cabe 81be b27d 90bd e129 1d3e
000001c0: 70ec bcbe af1c f4bd 8ec3 83be 8382 d3be
000001d0: 4d42 66be 8f23 72be b79f 85be 8db3 eabd
000001e0: 55ef 8fbd 8262 a2be bf72 1fbe 4647 8fbe
000001f0: 658e 06be 4788 38be 9138 26be fd60 503d
00000200: 6eff 8fbe 0265 47bc b716 b6be 80bd abbe
00000210: ba93 a7be 1036 01be 8703 ab3c 1b36 74be
00000220: 36f3 b4be 565d 8dbe 606f 92be 2ebf a1be
00000230: 9909 d6be 1f46 9d3e 7694 96bd 5d4b 69be
00000240: 6779 90be 6d5e 52be be13 96be ec73 4bbe
00000250: c49f b9bd 80ae 0d3e 9e80 66be 3a1b 053d
00000260: 5fa0 9bbe 1b7a 95bd 1464 89be 630f 2fbe
00000270: 12af 95be 0095 6bbe 33c0 0cbe 5d6a 05be
00000280: 3970 9d3d 5fac e4bd a015 a7be bbc7 523e
00000290: 0813 ccbe ee2b 5cbe aecc b0be 4421 82be
000002a0: c31e 98be 7ef4 bebd 385c 9e3d 1f6b a3bd
000002b0: fa64 3ebe bc32 dabd 7717 9ebe e74d 61bd
000002c0: 9dfc c6be 40f8 96be d339 efbd 5134 3bbe
000002d0: bad5 c4be a25c 4ebd 29d4 29be 3bdc 8fbe
000002e0: 2ab0 c4be 225c a5be f0d8 cd3c 3642 64bd
000002f0: 2c60 ab3d fb69 91be 8fd6 95be 353a 6cbe
00000300: 5e5a 0ebe a574 9bbd 0939 323c 5570 2fbc
00000310: b4e3 85be aac9 e8bd 5dc4 643c 2de2 483d
00000320: cef8 0ebe c956 47be d783 2dbd cfe2 5dbe
00000330: e0ce dfbd 08cb cabe 0065 67bc 2669 41be
00000340: dbad b8be f03a 84be fc50 c33c 3393 2dbe
00000350: 985c 5a3d a2b2 803b a782 2cbe 053c 9dbe
00000360: a5fc 78be 0f6d 7bbe b60e 1ebe 949d e3be
00000370: 7b08 08be a858 043c 9d76 c0bd 9013 a93d
00000380: 79a4 6cbc 6cce 40be ce77 cfbe b0ff 76bd
00000390: e57d 50be a9a3 83be 436a 19be 3f59 513e
000003a0: 7cee 15be 7b2b 623d c324 50be d7c3 df3b
000003b0: f576 e6bc 2351 5abe 1f8d f8bd da13 70be
000003c0: 0691 9ebe af70 59be e1bb afbd 9dbb e8be
000003d0: 746c 23be a17a 51be cafa 28be 5d59 9abd
000003e0: bbcf 3fbd 98ae 85be 4a9a 16be b50e c4bd
000003f0: 2672 6cbe aa5d 993d 3bf5 0bbe 1581 89be

layers.2.bias f4 [256]
-0.17769505 0.42137736 0.13701 -0.185409 0.13538115 -0.0020067939 0.1465177 0.02558809
-0.033133533 -0.3496139 0.08659578 -0.23021688 -0.031929158 0.12226936 0.07533152 -0.008239108
-0.035938725 0.053353164 0.16477138 -0.04308524 0.13487087 0.1903412 0.07643929 -0.03668264
0.016772846 -0.123218365 0.003612413 -0.21838021 0.25203308 0.09490938 -0.03591122 0.029884836
0.09830337 0.102148056 -0.02042796 -0.046293486 -0.09092406 -0.02752258 -0.035995495 0.15396684
-0.0325327 0.11732885 -0.04338918 0.20145744 0.103493296 0.0047159884 -0.18974094 -0.010735618
-0.022660559 -0.12655078 -0.06389314 -0.28332698 -0.05406669 0.10850427 -0.097149014 -9.1269474e-05
0.010134562 -0.30832723 0.11378927 0.51512086 -0.102052554 0.08519268 -0.22173099 0.59861505
0.0165831 0.11457938 0.09472778 -0.1530739 0.07274019 -0.020805156 0.13449119 0.012132485
-0.013040612 0.2441707 0.10925232 -0.018700037 0.035736125 -0.123288915 0.10635879 -0.17157412
-0.065504335 0.12157317 0.051308878 -0.0023506666 0.30258527 0.24146976 0.40125185 0.00988319
-0.043798838 0.08559168 0.18470724 -0.025763113 -0.08643926 -0.0074088983 -0.0005377179 -0.20241416
0.10593261 -0.04084607 0.15731254 0.09617041 0.5483441 -0.004594528 -0.24319035 0.008434057
0.13691428 0.03797905 0.014785858 0.35157362 0.064228654 -0.095934205 0.14312631 -0.12546933
0.16316052 -0.20174634 -0.022903927 0.029372664 -0.10441574 0.23738794 0.0020500142 -0.070842355
-0.073684804 -0.012601935 0.0097722225 -0.028085975 0.1762208 -0.014543132 0.09089456 0.11000857
-0.06745226 -0.036303796 0.08074157 -0.15875085 0.03310705 0.08604576 0.11169681 -0.07290482
-0.030902758 -0.017027147 0.06808606 0.09339051 0.027691616 -0.029480658 -0.013893934 0.09006577
0.08133665 -0.004725701 0.08088782 0.116410784 0.14081028 0.05372451 0.14135966 0.43106702
0.38616058 0.072195984 0.05655264 -0.022915708 -0.13191395 -0.23782441 -0.10949867 0.20076764
0.10854727 0.0085265795 0.12964298 -0.052108724 -0.22290586 0.035921387 0.107371025 -0.025057837
-0.00059511524 -0.08674771 0.16901764 0.10527904 -0.2844165 0.15049045 0.11907986 -0.16042781
0.15681186 -0.12017702 0.1149319 -0.28762728 0.007291841 0.15789387 0.2878497 0.05625169
-0.028687261 -0.013058722 0.1756101 0.14961673 -0.038163275 -0.13999398 -0.0538552 0.059072584
0.023871003 0.1296555 0.304998 0.41407746 0.18225414 -0.0016397025 0.2596786 -0.2614183
-0.2434037 -0.031030994 0.1455971 0.15763122 -0.012249532 0.035322167 0.07629677 -0.17628132
0.05499584 0.31608558 0.034317095 0.103428595 1.124872 -0.14282212 0.18496335 -0.15263006
-0.29863018 0.7707338 -0.1571322 0.0031525693 0.03204326 0.020323627 -0.21007174 -0.3319141
0.09179824 -0.047563314 0.0054812036 0.37844297 -0.037013136 0.053847976 -0.013621443 -0.026696213
-0.006509679 0.16873088 0.00083597074 0.10754917 0.07248436 -0.080190934 -0.0540096 -0.04907513
-0.030035937 0.10802953 -0.11377079 -0.086737625 -0.151964 -0.52434766 0.10595381 0.24255162
-0.14857675 0.42473975 -0.22787571 -0.18864298 -0.23591465 -0.011133928 0.7293989 0.15600866
00000000: b1f5 35be c6be d73e 594c 0c3e dbdb 3dbe
00000010: 5ba1 0a3e 6a84 03bb bc08 163e 1d9e d13c
00000020: 07b7 07bd 9800 b3be 2159 b13d f9bd 6bbe
00000030: 26c8 02bd 5c68 fa3d 6947 9a3d 53fd 06bc
00000040: 7c34 13bd d988 5a3d d4b9 283e 267a 30bd
00000050: 971b 0a3e cee8 423e 348c 9c3d 8940 16bd
00000060: 3567 893c e959 fcbd 3cbe 6c3b 109f 5fbe
00000070: 7b0a 813e d95f c23d a517 13bd 0bd1 f43c
00000080: 4753 c93d 0033 d13d 8a58 a7bc 3d9e 3dbd
00000090: 6536 babd 0977 e1bc 0370 13bd 7ca9 1d3e
000000a0: 0241 05bd 1c4a f03d dab8 31bd dc4a 4e3e
000000b0: 4bf4 d33d 9488 9a3b 734b 42be 72e4 2fbc
000000c0: a3a2 b9bc 8796 01be 68da 82bd 3c10 91be
000000d0: 0975 5dbd 7d37 de3d 10f6 c6bd ed67 bfb8
000000e0: 6f0b 263c 11dd 9dbe 590a e93d f6de 033f
000000f0: ee00 d1bd 8079 ae3d 730d 63be d63e 193f
00000100: 48d9 873c 98a8 ea3d a300 c23d 68bf 1cbe
00000110: cff8 943d 936f aabc 0fb8 093e 55c7 463c
00000120: 4ba8 55bc e207 7a3e aebf df3d d230 99bc
00000130: 0b60 123d e67e fcbd a3d2 d93d 20b1 2fbe
00000140: 2327 86bd 5bfb f83d 4229 523d a40d 1abb
00000150: 75ec 9a3e d943 773e e270 cd3e 1aed 213c
00000160: 6966 33bd b14a af3d e523 3d3e 2a0d d3bc
00000170: 1107 b1bd 58c6 f2bb a3f5 0cba a845 4fbe
00000180: 32f3 d83d 354e 27bd 8a16 213e fef4 c43d
00000190: 4760 0c3f b28d 96bb e406 79be 002f 0a3c
000001a0: 4233 0c3e ec8f 1b3d 6240 723c 7501 b43e
000001b0: 508a 833d 2779 c4bd b48f 123e 087b 00be
000001c0: 8d13 273e 9896 4ebe 04a1 bbbc f19e f03c
000001d0: ebd7 d5bd d315 733e 8859 063b cc15 91bd
000001e0: 0fe8 96bd 5978 4ebc ac1b 203c 8f14 e6bc
000001f0: 3a73 343e 5146 6ebc ed26 ba3d 2c4c e13d
00000200: 6924 8abd 4ab3 14bd d65b a53d 958f 22be
00000210: 429b 073d c238 b03d 4cc1 e43d 1f4f 95bd
00000220: c827 fdbc 847c 8bbc b470 8b3d 8643 bf3d
00000230: 87d9 e23c 6c81 f1bc 62a3 63bc 6774 b83d
00000240: d493 a63d 0eda 9abb 83a8 a53d c768 ee3d
00000250: 9230 103e 3b0e 5c3d 96c0 103e d1b4 dc3e
00000260: d7b6 c53e 7ddb 933d bea3 673d b9b9 bbbc
00000270: 7314 07be 3e88 73be d740 e0bd 0896 4d3e
00000280: 084e de3d 11b3 0b3c 21c1 043e f56f 55bd
00000290: 6f41 64be 4e22 133d 57e5 db3d 1846 cdbc
000002a0: 8201 1cba c9a8 b1bd f612 2d3e 8a9c d73d
000002b0: 0a9f 91be 2b1a 1a3e 24e0 f33d 3047 24be
000002c0: 4a93 203e 5f1f f6bd 6a61 eb3d e243 93be
000002d0: 65f0 ee3b eeae 213e 0961 933e 2c68 663d
000002e0: 8c01 ebbc 40f4 55bc 22d3 333e 2135 193e
000002f0: 1851 1cbd 955a 0fbe 4597 5cbd 18f6 713d
00000300: 1f8d c33c 69c4 043e b328 9c3e f601 d43e
00000310: d4a0 3a3e 49eb d6ba 98f4 843e 9fd8 85be
00000320: d23e 79be b634 febc 6817 153e 146a 213e
00000330: 43b2 48bc faad 103d 7b41 9c3d 1783 34be
00000340: 5143 613d f8d5 a13e 1590 0c3d 5fd2 d33d
00000350: cefb 8f3f f63f 12be 0867 3d3e 0e4b 1cbe
00000360: 0ee6 98be cf4e 453f 43e7 20be 569b 4e3b
00000370: cb3f 033d bc7d a63c 0c1d 57be a5f0 a9be
00000380: b700 bc3d c0d1 42bd ab9b b33b 47c3 c13e
00000390: 169b 17bd b28f 5c3d 792c 5fbc 04b2 dabc
000003a0: 254f d5bb cac7 2c3e 0c25 5b3a bd42 dc3d
000003b0: ae72 943d 253b a4bd 2c39 5dbd 0103 49bd
000003c0: ed0d f6bc 963e dd3d a900 e9bd 7fa3 b1bd
000003d0: 739c 1bbe a63b 06bf 50fe d83d 745f 783e
000003e0: 8124 18be 7d77 d93e 4058 69be a02b 41be
000003f0: 9c93 71be 146b 36bc e3b9 3a3f bcc0 1f3e

layers.4.weight f4 [256, 256]
0.1354015 -0.3218703 -0.39601707 -0.12716766 -0.23984349 0.043045055 -0.18421209 -0.4172433
-0.13113835 0.011829968 -0.13939631 0.14464006 0.1141159 -0.21534331 -0.3644357 0.11608373
-0.06503205 -0.26583135 -0.26390427 0.08434833 -0.26441035 -0.025770247 -0.24738371 -0.16818765
0.05716409 -0.14754751 0.07018926 -0.30219567 -0.4169111 -0.3539006 -0.03622972 -0.2944605
-0.046590075 0.053147275 -0.0019181726 0.06841662 0.03998469 -0.25150025 -0.03462525 -0.3269392
-0.11653549 -0.29359388 -0.076383404 -0.0665059 -0.20914854 -0.022564549 0.2218129 -0.073473275
0.057811998 0.16630076 -0.042094804 -0.32470044 -0.13725731 -0.07706742 -0.005889033 0.19779745
0.06009053 -0.025883485 -0.22598602 -0.3668872 -0.12963045 -0.1176317 0.18194807 -0.20017423
-0.13862783 -0.2896826 -0.31462798 0.05745798 -0.032930993 0.14728539 -0.36852038 -0.023038365
0.005223899 -0.4506315 -0.36445144 -0.039986964 -0.21879409 0.049676947 -0.41230914 0.091869704
-0.12686813 -0.314288 -0.18556231 0.27412838 -0.32311898 -0.23047502 -0.4123606 -0.018284805
-0.05888316 -0.08443687 -0.1258111 0.044277176 0.022117566 -0.0110876905 -0.26126558 -0.19228986
-0.2719036 -0.14496727 -0.25212425 0.12238378 -0.06071044 -0.017964907 -0.028051602 0.1206556
-0.36798006 -0.27138445 -0.37483367 -0.32262722 -0.17985204 -0.2419597 -0.41163695 0.027357303
-0.31069952 0.13241918 0.007969042 -0.113479726 0.061637286 -0.19945619 -0.1569586 -0.2078911
-0.031245593 -0.029139161 -0.31065032 -0.09135983 -0.16848353 -0.058441047 -0.20719181 -0.19334324
-0.24999897 -0.0625684 -0.25162864 0.16250223 -0.15737323 -0.1459757 -0.3374658 0.08475052
0.13888219 -0.14833465 -0.2851691 -0.15021463 -0.16858105 -0.04935819 0.025978604 -0.1889181
-0.41221488 -0.13466415 -0.19463603 -0.31284708 -0.27810732 -0.14899528 -0.26838937 -0.6427101
-0.16793987 -0.22501166 -0.26917505 0.0099421535 -0.020843951 0.10210857 -0.017813424 -0.26721394
-0.2087156 0.045600735 -0.26091722 0.015899366 0.08950102 0.1285124 -0.27486822 -0.093936004
0.09400631 -0.032521848 -0.13672733 -0.34354496 -0.13900413 -0.24399754 -0.18460843 -0.0637655
-0.1336703 0.12895001 -0.13604316 0.15933919 0.14194107 0.13171002 -0.2287335 -0.082015514
-0.05353245 -0.032128297 -0.22541866 -0.11597796 -0.032789342 -0.0021233626 -0.03439148 0.020413797
-0.0847809 -0.1839368 -0.21803172 -0.5577896 0.01050784 -0.3092641 -0.16612633 0.09556251
-0.37976992 -0.14643456 -0.42544174 -0.294911 0.041997988 -0.13653727 -0.33230734 0.16750485
-0.3855651 -0.42920718 0.023236297 0.04593731 -0.630225 0.13736297 -0.09660239 0.12605365
-0.15317385 -0.3739005 -0.58670205 -0.31344402 -0.031833272 0.006194111 -0.05477129 0.6046322
-0.335429 0.06419488 0.1698483 -0.47786313 0.33366993 -0.19289182 -0.22132233 -0.04575953
0.05183501 -0.016203415 -0.090394124 -0.26175758 -0.19449526 0.080228224 -0.052581813 -0.110135
-0.6149768 -0.2783753 0.048852384 0.06623403 -0.040031794 0.23325527 -0.0940237 -0.21703139
-0.039279923 -0.7947505 0.20100354 0.119146734 -0.035985067 -0.069325395 -0.44020712 -0.18780883
00000000: b1a6 0a3e 2fcc a4be c0c2 cabe 3d38 02be
00000010: 8899 75be 0350 303d 18a2 3cbe eaa0 d5be
00000020: 2249 06be 7bd2 413c e8bd 0ebe 861c 143e
00000030: 99b5 e93d f582 5cbe 5197 babe 4ebd ed3d
00000040: 862f 85bd 0c1b 88be 761e 87be d1be ac3d
00000050: cb60 87be 201c d3bc 2852 7dbe 6239 2cbe
00000060: e524 6a3d b216 17be 63bf 8f3d 64b9 9abe
00000070: 5f75 d5be 7632 b5be 9d65 14bd 87c3 96be
00000080: 3cd5 3ebd f5b0 593d 316b fbba 031e 8c3d
00000090: fcc6 233d a4c4 80be 35d3 0dbd 9364 a7be
000000a0: 29aa eebd f051 96be e76e 9cbd 3f34 88bd
000000b0: 092b 56be 4ad9 b8bc ec22 633e 2879 96bd
000000c0: 46cc 6c3d bf4a 2a3e 9a6b 2cbd 233f a6be
000000d0: 2e8d 0cbe 86d5 9dbd caf8 c0bb 6a8b 4a3e
000000e0: 7d21 763d 9a09 d4bc e168 67be a4d8 bbbe
000000f0: d8bd 04be e4e8 f0bd 9850 3a3e 79fa 4cbe
00000100: 74f4 0dbe 4751 94be eb16 a1be 0f59 6b3d
00000110: a6e2 06bd fbd1 163e b4ae bcbe f4ba bcbc
00000120: 3e2d ab3b 2cb9 e6be 6199 babe 5fc9 23bd
00000130: 8f0b 60be 0e7a 4b3d 2f1a d3be 2f26 bc3d
00000140: b8e9 01be 5bea a0be 0c04 3ebe 8e5a 8c3e
00000150: da6f a5be a501 6cbe ee20 d3be 04ca 95bc
00000160: 782f 71bd 3ded acbd a0d4 00be fc5b 353d
00000170: e62f b53c 25a9 35bc 9ac4 85be a2e7 44be
00000180: f336 8bbe 4d72 14be 6e16 81be 59a4 fa3d
00000190: 83ab 78bd 242b 93bc 79cc e5bc 491a f73d
000001a0: e267 bcbe e7f2 8abe 33ea bfbe 652f a5be
000001b0: 222b 38be 49c4 77be 14c2 d2be 6c1c e03c
000001c0: 0214 9fbe e598 073e 9690 023c 0f68 e8bd
000001d0: 6177 7c3d 3e3e 4cbe c1b9 20be 68e1 54be
000001e0: c2f6 ffbc 40b5 eebc 8f0d 9fbe dd1a bbbd
000001f0: f286 2cbe e15f 6fbd 172a 54be c5fb 45be
00000200: bbff 7fbe dc23 80bd 78d5 80be fc66 263e
00000210: 7326 21be a77a 15be 51c8 acbe ae91 ad3d
00000220: 2237 0e3e 0ae5 17be af01 92be ddd1 19be
00000230: 83a0 2cbe d02b 4abd 15d1 d43c bf73 41be
00000240: d40d d3be 66e5 09be ab4e 47be 7e2d a0be
00000250: 1564 8ebe 3892 18be 556a 89be a688 24bf
00000260: 6ef8 2bbe 7569 66be 50d1 89be 6ae4 223c
00000270: efc0 aabc 4c1e d13d 75ed 91bc 44d0 88be
00000280: 8bb9 55be d6c7 3a3d f196 85be 633f 823c
00000290: 504c b73d c198 033e 87bb 8cbe 8561 c0bd
000002a0: 6186 c03d a135 05bd 4002 0cbe 20e5 afbe
000002b0: 1957 0ebe 7eda 79be fe09 3dbe 7d97 82bd
000002c0: dee0 08be 790b 043e e64e 0bbe d029 233e
000002d0: 0059 113e fede 063e 1d39 6abe c0f7 a7bd
000002e0: d844 5bbd f698 03bd 26d4 66be da85 edbd
000002f0: 1e4e 06bd 1d28 0bbb 15de 0cbd d63a a73c
00000300: 9ca1 adbd ee59 3cbe b543 5fbe 4dcb 0ebf
00000310: 1329 2c3c dd57 9ebe 051d 2abe 47b6 c33d
00000320: 3471 c2be f1f2 15be 80d3 d9be 93fe 96be
00000330: 1506 2c3d 6dd0 0bbe 3024 aabe 6486 2b3e
00000340: ca68 c5be 0bc1 dbbe 0c5a be3c c328 3c3d
00000350: 6d56 21bf e1a8 0c3e 79d7 c5bd 3514 013e
00000360: 9bd9 1cbe e36f bfbe 1b32 16bf bc7b a0be
00000370: 9b63 02bd f8f7 ca3b dc57 60bd 2dc9 1a3f
00000380: 5abd abbe 9b78 833d b6ec 2d3e 7aaa f4be
00000390: c9d6 aa3e 6f85 45be 52a2 62be 586e 3bbd
000003a0: f350 543d 06bd 84bc 8e20 b9bd 1705 86be
000003b0: c429 47be b24e a43d 0760 57bd 758e e1bd
000003c0: 1f6f 1dbf 3587 8ebe 7019 483d b5a5 873d
000003d0: 61f8 23bd 78da 6e3e 7f8f c0bd 7a3d 5ebe
000003e0: fce3 20bd c574 4bbf dfd3 4d3e 3403 f43d
000003f0: 1465 13bd 79fa 8dbd d462 e1be f550 40be

layers.4.bias f4 [256]
-0.14388572 -0.001971999 -0.024867084 0.04554165 -0.009225014 -0.26684627 0.029079638 0.30055296
0.038216766 -0.069127865 -0.10664764 -0.12487383 -0.0063521033 -0.09695328 0.00051919016 0.0051752804
-0.015633684 -0.26968327 -0.1668255 -0.09853736 -0.059974927 0.020642722 -0.15425833 0.032618165
0.02162326 -0.2461238 -0.14838643 -0.20453128 0.028785527 -0.01936413 -0.15903427 -0.053464815
-0.21829629 0.02185683 0.024502024 -0.0021146813 -0.005793864 -0.26420268 -0.1024183 -0.13535649
-0.43014848 -0.10660307 -0.008988498 -0.10583292 -0.12408293 -0.0096427575 -0.033034235 -0.11988508
-0.009828061 0.06841832 -0.055682342 0.029169044 -0.047216967 0.6053878 -0.26472738 -0.03588123
-0.14315556 -0.30353457 -0.056414593 -0.10675742 -0.0022284484 0.17211308 -0.04329706 -0.19790934
-0.06800871 -0.15462476 0.16558608 0.024608774 -0.21605611 -0.28185436 -0.0016496537 -0.12456695
0.016485209 -0.1550777 0.048816852 -0.048627347 -0.09520891 0.26178062 0.010970652 -0.35102183
-0.15533476 -0.8102907 0.019173037 -0.15965949 -0.14071596 -0.016261693 -0.47268832 0.22844535
-0.17088777 0.15588678 -0.04618891 -0.10167859 0.07412673 -0.08854345 -0.17353766 -0.24425599
-0.21573168 -0.110503264 -0.016804771 -0.17989029 -0.08635739 -0.16337058 -0.11447398 -0.13415748
-0.121949494 0.03737182 -0.051462296 -0.5130006 -0.07000864 -0.0999858 0.16204137 -0.1412935
-0.1630615 -0.014150056 -0.059120126 0.090559356 -0.19499357 -0.13366239 -0.18023777 -0.5157477
-0.04215535 -0.21618712 -0.4225521 -0.13149439 -0.06948531 -0.026640357 0.17112683 -0.12561876
-0.008169425 -0.4985353 -0.16353689 0.010877253 -0.16602424 -0.21208398 -0.02410206 -0.08361539
-0.15881762 -0.62842506 -0.040677864 -0.06069572 0.046005525 -0.066863544 -0.16355895 -0.10166286
0.023781376 -0.2103834 0.027147146 -0.09832966 0.021781152 -0.033301014 0.063095115 -0.31954542
0.015141904 -0.19896278 -0.07896262 0.22689493 -0.29927567 -0.23636359 -0.011447003 -0.12357395
-0.16542947 -0.13104425 0.023237728 -0.16846608 -0.09607401 -0.15044919 -0.12616757 -0.20057233
0.015377822 -0.118933484 0.30164796 -0.0016648375 -0.10812098 -0.89153683 -0.17946589 -0.39207244
0.092916384 -0.17864421 -0.2861173 -0.100212075 -0.38176882 -0.124323234 -0.23984782 -0.11081606
0.020755323 -0.06578131 -0.092015274 0.022476856 -0.04554681 -0.1332203 -0.09956956 -0.015093046
-0.08231941 -0.13845561 -0.09729691 -0.014639761 0.018117534 0.05139873 0.069781706 -0.16437633
-0.17448455 -0.8011989 -0.20353024 0.066671796 0.012902116 -0.045425598 -0.8425747 -0.16299205
-0.746121 -0.17469837 -0.20413505 -0.30859938 -0.1487102 -0.4542538 -0.2872293 0.050920468
0.02880393 -0.52515984 -0.19404678 -0.19777954 0.44059703 -0.096864 -0.16433845 0.32410517
0.055785224 -0.2515144 0.04344301 -0.19722182 -0.10958956 -0.07390936 0.009067251 0.0031053212
0.17524347 -0.11968649 0.05161405 -0.03029522 -0.12906139 0.030356703 -0.29037648 0.01471653
-0.073944725 -0.16803588 -0.17216736 -0.07361068 -0.12124116 -0.009605698 -0.11940319 -0.3363868
-0.08673417 -0.007962811 -0.16789415 -0.05503274 -0.1510701 -0.23702227 -0.17129116 -0.072282024
00000000: c756 13be a73c 01bb 0eb6 cbbc e289 3a3d
00000010: 8324 17bc 13a0 88be 6c38 ee3c 14e2 993e
00000020: 2f89 1c3d e992 8dbd 146a dabd dabd ffbd
00000030: 4e25 d0bb 718f c6bd 431a 083a 6695 a93b
00000040: 3612 80bc ed13 8abe 4ed4 2abe f5cd c9bd
00000050: 45a8 75bd ed1a a93c e5f5 1dbe a09a 053d
00000060: 4323 b13c e107 7cbe 9df2 17be a670 51be
00000070: a0cf eb3c 86a1 9ebc e1d9 22be ecfd 5abd
00000080: 1089 5fbe 180d b33c 78b8 c83c 7796 0abb
00000090: 74da bdbb 9345 87be b0c0 d1bd e49a 0abe
000000a0: 6c3c dcbe b652 dabd 7e44 13bc eebe d8bd
000000b0: 311f febd a8fc 1dbc e84e 07bd 4f86 f5bd
000000c0: e005 21bc e71e 8c3d 2b13 64bd ebf3 ee3c
000000d0: 9466 41bd b2fa 1a3f 598a 87be 32f8 12bd
000000e0: 5f97 12be e268 9bbe fd12 67bd a2a3 dabd
000000f0: 290b 12bb 693e 303e 4258 31bd bfa8 4abe
00000100: 2748 8bbd f455 1ebe 668f 293e 5798 c93c
00000110: d03d 5dbe 374f 90be 3139 d8ba f51c ffbd
00000120: fd0b 873c b0cc 1ebe 2ef4 473d 782d 47bd
00000130: e4fc c2bd 1c08 863e 40be 333c 22b9 b3be
00000140: 1310 1fbe 366f 4fbf c610 9d3c c77d 23be
00000150: d817 10be 3e37 85bc 3404 f2be 94ed 693e
00000160: 34fd 2ebe c9a0 1f3e 9530 3dbd dd3c d0bd
00000170: c1cf 973d 4556 b5bd dbb3 31be 3e1e 7abe
00000180: c4e8 5cbe 894f e2bd 29aa 89bc 2935 38be
00000190: 25dc b0bd 9e4a 27be 5671 eabd 9460 09be
000001a0: a8c0 f9bd 3213 193d 21ca 52bd 0254 03bf
000001b0: b160 8fbd 5bc5 ccbd 2cee 253e 3eaf 10be
000001c0: 98f9 26be a3d5 67bc f227 72bd 2f77 b93d
000001d0: 65ac 47be cbde 08be 4090 38be 0b08 04bf
000001e0: 17ab 2cbd 2860 5dbe c058 d8be 77a6 06be
000001f0: 504e 8ebd e13c dabc df3b 2f3e 34a2 00be
00000200: 0dd9 05bc 0540 ffbe 3776 27be 8136 323c
00000210: 4202 2abe 8b2c 59be af71 c5bc 8c3e abbd
00000220: 16a1 22be 77e0 20bf d59d 26bd 139c 78bd
00000230: 4a70 3c3d c1ef 88bd ff7b 27be 9e34 d0bd
00000240: 29d1 c23c bf6e 57be b163 de3c 1061 c9bd
00000250: 636e b23c a566 08bd 0338 813d 759b a3be
00000260: c015 783c e6bc 4bbe 27b7 a1bd 2557 683e
00000270: a93a 99be 4c09 72be 368c 3bbc 5714 fdbd
00000280: 5866 29be 7730 06be 0c5d be3c 5f82 2cbe
00000290: 73c2 c4bd 5a0f 1abe 1232 01be d562 4dbe
000002a0: 43f3 7b3c 6693 f3bd 9a71 9a3e ad36 daba
000002b0: 886e ddbd c23b 64bf e8c5 37be b8bd c8be
000002c0: f24a be3d 82ee 36be f77d 92be fd3b cdbd
000002d0: 3477 c3be 2e9d febd ab9a 75be 88f3 e2bd
000002e0: 1107 aa3c 5ab8 86bd 8172 bcbd 6221 b83c
000002f0: 4b8f 3abd e76a 08be 20eb cbbd d348 77bc
00000300: 1497 a8bd 4fc7 0dbe 9a43 c7bd 9cdb 6fbc
00000310: 396b 943c 7a87 523d b6e9 8e3d 4552 28be
00000320: 14ac 32be 5f1b 4dbf 3b6a 50be 398b 883d
00000330: 6663 533c 3110 3abd fab2 57bf 63e7 26be
00000340: c901 3fbf 21e4 32be c708 51be bd00 9ebe
00000350: 7d47 18be f493 e8be b80f 93be fb91 503d
00000360: 38f6 eb3c e070 06bf 33b4 46be b886 4abe
00000370: ef95 e13e a260 c6bd 5748 28be 1df1 a53e
00000380: 0c7f 643d 7fc6 80be 4cf1 313d 84f4 49be
00000390: 7e70 e0bd ca5d 97bd cf8e 143c a582 4b3b
000003a0: 0673 333e 311e f5bd 4169 533d ae2d f8bc
000003b0: ab28 04be 9fae f83c 3aac 94be 9a1d 713c
000003c0: 5570 97bd 9911 2cbe a44c 30be 32c1 96bd
000003d0: 494d f8bd 3861 1dbc a989 f4bd e43a acbe
000003e0: afa1 b1bd 7376 02bc 72ec 2bbe 036a 61bd
000003f0: 1fb2 1abe f7b5 72be f366 2fbe 9908 94bd

layers.6.weight f4 [1, 256]
-0.3087751 -0.35988173 -0.5035756 -0.34874222 -0.51485807 -0.2833558 -0.4028164 0.20211247
-0.3729704 -0.42627236 -0.11457944 -0.27471194 -0.29574978 -0.32889146 -0.44510078 -0.36644015
-0.48723516 -0.43413186 -0.10569741 -0.6893888 -0.35201535 -0.2429879 0.032395247 -0.3850396
-0.24339564 -0.09465342 -0.30007768 -0.39550275 -0.23810953 0.31312227 -0.015268268 -0.49663255
-0.66199726 -0.2994609 -0.3416705 -0.39942783 0.017637782 0.051537003 -0.3374496 -0.6535695
0.18376839 -0.32023257 -0.4353196 -0.8021434 -0.8813476 -0.40739986 -0.5499773 -0.8207531
-0.33130723 0.31485128 -0.1927043 -0.63358533 -0.50323737 0.6029469 -0.008168199 -0.1694544
-0.36914787 -0.5352502 -0.94424 -0.15894221 -0.44158587 -0.01901922 -0.08054024 -0.21041073
-0.214789 -0.24717398 0.17409739 -0.42496532 -0.2605295 -0.08423167 -0.5037228 -0.3239237
-0.40507853 -0.41864836 -0.44563463 -0.44785878 -0.7327083 0.072365806 -0.31440783 -0.04101804
-0.0012266579 0.13399129 -0.41617996 0.0033398 -0.1538765 -0.4515575 -0.5596185 0.67988026
-0.5338955 0.4527228 -0.2687076 -0.27170345 -0.5903984 -0.04266938 -0.07049006 -0.54641825
-0.0124643855 -0.78447074 -0.46842116 0.31893405 -0.22111006 -0.20990372 -0.58126855 -0.49965197
-0.09052716 -0.23895873 -0.7705269 -0.7124848 -0.6640319 -0.2688476 0.15611652 -0.26445943
0.13029544 -0.3489541 -0.09902191 0.31570894 -0.82865185 -0.80716944 -0.76663494 0.0070894114
-0.87553555 0.05196297 0.24778807 -0.56621003 0.015478421 -0.4706618 -0.021109642 -0.5713968
-0.40887406 -0.24843976 -0.36293653 -0.54978764 -0.61047053 -0.028441533 -0.28952286 -0.7326173
-0.4563522 0.09187717 0.0037311937 -0.4820525 -0.4445147 -0.3480478 -0.34317434 -0.5795741
-0.4994449 -0.6820692 -0.4300597 -0.8337966 -0.471389 -0.41009018 -0.24590628 -0.39366207
-0.531969 -0.6095313 -0.4967073 -0.2438734 0.19743605 0.23107694 -0.4024684 -0.41843897
-0.49155828 -1.0361427 -0.2788363 -0.040265784 -0.43816528 -0.74722236 -0.2170774 -0.3076845
-0.16308476 -0.8640882 -0.30669072 -0.12373239 -0.7657316 0.1655648 -0.43934932 -0.60184216
0.09621191 -0.2506677 -0.6597276 -1.0885067 0.48974803 -0.66016793 -0.048637934 -0.39527375
-0.4586386 -0.18147728 -0.35773385 -0.43197992 -0.26692405 -0.9896972 -0.2995008 -0.51433855
-0.78985333 -0.66797376 -0.271998 -0.43522894 -0.46916947 0.09558919 -0.3618235 -0.79463196
-0.14165859 0.23770791 -0.5723072 -0.17432655 -0.23275943 -0.38018 0.26456386 -0.5198878
0.17003646 -0.26237488 -0.7689774 -0.35784653 -0.8716352 0.41775972 -0.34411427 -0.44114178
-0.4066203 -0.575662 -0.08743183 0.07862381 -0.37754905 -0.6565716 -0.53234524 0.38284776
0.21731925 -0.5980837 -0.23048633 -0.1710502 0.24447423 -0.35597607 -0.14183868 -0.46115136
-0.19572595 -0.08332163 -0.50288504 -0.57820386 0.00364652 -0.3196918 -0.07781631 -0.34722263
-0.77486104 -0.8600492 -0.6600991 0.014930901 -0.24777895 -0.29788685 -0.78208005 0.17981036
-0.1926721 -0.42189217 -0.024862133 0.18446778 0.19231127 -0.30862918 -0.1917102 -0.29078245
00000000: c517 9ebe 6b42 b8be 55ea 00bf 578e b2be
00000010: bdcd 03bf 0314 91be f43d cebe 92f6 4e3e
00000020: faf5 bebe 5f40 dabe a0a8 eabd 0ba7 8cbe
00000030: 846c 97be 7664 a8be 40e4 e3be 0b9e bbbe
00000040: e376 f9be 8846 debe e277 d8bd c97b 30bf
00000050: 5b3b b4be d2d1 78be e1b0 043d e923 c5be
00000060: b53c 79be a7d9 c1bd c8a3 99be 567f cabe
00000070: fcd2 73be 9051 a03e c227 7abc 9f46 febe
00000080: a778 29bf f052 99be 70ef aebe ce81 ccbe
00000090: 1c7d 903c 7718 533d 32c6 acbe 5550 27bf
000000a0: c82d 3c3e 86f5 a3be 36e2 debe 4559 4dbf
000000b0: ff9f 61bf b796 d0be 50cb 0cbf e01c 52bf
000000c0: 1aa1 a9be 3034 a13e 4754 45be a632 22bf
000000d0: 2ad4 00bf ba5a 1a3f e9d3 05bc 7485 2dbe
000000e0: f300 bdbe 2806 09bf b6b9 71bf bfc1 22be
000000f0: 8b17 e2be 32ce 9bbc 48f2 a4bd e975 57be
00000100: a6f1 5bbe 2d1b 7dbe 9646 323e 0e95 d9be
00000110: 1f64 85be a781 acbd faf3 00bf 54d9 a5be
00000120: 7466 cfbe 1459 d6be 392a e4be bf4d e5be
00000130: c592 3bbf 8634 943d 10fa a0be 8802 28bd
00000140: cfc7 a0ba 0335 093e 8a15 d5be 8ce0 5a3b
00000150: cd91 1dbe 8b32 e7be 2843 0fbf a20c 2e3f
00000160: 60ad 08bf 48cb e73e 0b94 89be b71c 8bbe
00000170: 5924 17bf 16c6 2ebd 185d 90bd 11e2 0bbf
00000180: 6c37 4cbc 13d3 48bf e6d4 efbe 534b a33e
00000190: ad6a 62be 00f1 56be 04ce 14bf 62d2 ffbe
000001a0: 4e66 b9bd 99b1 74be 4041 45bf 6765 36bf
000001b0: fffd 29bf 65a6 89be 02dd 1f3e 3a67 87be
000001c0: 2b6c 053e 1daa b2be 00cc cabd 9aa4 a13e
000001d0: 8722 54bf a8a2 4ebf 3042 44bf 4b4e e83b
000001e0: 1923 60bf 20d7 543d 28bc 7d3e 24f3 10bf
000001f0: 3499 7d3c 95fa f0be 21ee acbc 1047 12bf
00000200: f157 d1be fe66 7ebe d1d2 b9be e2be 0cbf
00000210: cc47 1cbf 38fe e8bc 573c 94be cf8c 3bbf
00000220: ffa6 e9be 192a bc3d 0b87 743b 96cf f6be
00000230: 6e97 e3be 5233 b2be 8cb4 afbe f85e 14bf
00000240: 3eb7 ffbe 169c 2ebf c930 dcbe b273 55bf
00000250: e659 f1be 57f7 d1be dbce 7bbe 138e c9be
00000260: 1f2f 08bf 3e0a 1cbf 6b50 febe f3b9 79be
00000270: ad2c 4a3e 6f9f 6c3e 5710 cebe a23d d6be
00000280: 87ad fbbe 53a0 84bf a2c3 8ebe bced 24bd
00000290: 3357 e0be f749 3fbf 8a49 5ebe d388 9dbe
000002a0: b1ff 26be e234 5dbf 9106 9dbe 6867 fdbd
000002b0: fc06 44bf d289 293e 65f2 e0be 5412 1abf
000002c0: c00a c53d 8457 80be e8e3 28bf 3054 8bbf
000002d0: 41c0 fa3e c400 29bf 9238 47bd 5261 cabe
000002e0: aed2 eabe 2ed5 39be e428 b7be 792c ddbe
000002f0: 45aa 88be cc5c 7dbf 2b58 99be b1ab 03bf
00000300: d433 4abf 5400 2bbf 5243 8bbe 54d6 debe
00000310: fb36 f0be 44c4 c33d ee40 b9be 006d 4bbf
00000320: f30e 11be b469 733e ba82 12bf a982 32be
00000330: 7d58 6ebe f4a6 c2be ea74 873e 5e17 05bf
00000340: 0a1e 2e3e 0056 86be b4db 44bf a937 b7be
00000350: 7c23 5fbf 9ae4 d53e bf2f b0be 56dd e1be
00000360: 8930 d0be 965e 13bf 760f b3bd 8505 a13d
00000370: 1c4e c1be 1415 28bf c747 08bf 9f04 c43e
00000380: f088 5e3e 031c 19bf 9c04 6cbe c927 2fbe
00000390: 7457 7a3e 7f42 b6be 293e 11be 081c ecbe
000003a0: 626c 48be 88a4 aabd 13bd 00bf 2b05 14bf
000003b0: 74fa 6e3b a5ae a3be 285e 9fbd 2ac7 b1be
000003c0: 4b5d 46bf 2f2c 5cbf 41fc 28bf bda0 743c
000003d0: c4b9 7dbe a084 98be 6636 48bf 3520 383e
000003e0: d64b 45be 4002 d8be acab cbbc 1fe5 3c3e
000003f0: 3fed 443e a504 9ebe ae4f 44be 70e1 94be
